pure_LSTM_prediction/checkpoints/PureLSTM_ECL_ts24_hs64_ln4_in320_out1_lr0.001_bs64_ep4000_pa50_rand21/checkpoint.pth (torch, 798057 bytes, 17 tensors)

lstm.weight_ih_l0 f4 [256, 320]
-0.04848312 -0.011658731 0.100399874 -0.005007908 -0.04846161 0.040077373 0.014467213 -0.04674931
0.02701896 0.024798641 -0.079878025 0.009618686 0.02571581 0.038164053 -0.045158923 -0.018073188
-0.009009 -0.080489755 -0.10016149 0.044573463 0.06162483 -0.102856554 -0.09011992 -0.053333186
-0.0056305113 0.088330686 -0.059019275 -0.11974746 0.115876906 0.048898537 -0.031327292 0.043651003
-0.085794 0.07691223 0.09305083 -0.09274884 0.037412114 -0.081283405 -0.102889426 -0.07775067
0.100902334 0.11132848 -0.031416725 0.073072925 0.020781845 0.116500415 0.09814375 -0.089494035
0.039988503 0.05741553 -0.05633181 0.12997474 -0.08013472 0.029973153 -0.12951541 -0.10317637
-0.04163487 0.010204928 0.013333559 -0.034704685 0.086124316 0.06582594 0.0690495 0.017701441
-0.107554816 -0.088003345 -0.12038861 -0.11060006 -0.11192357 -0.10197356 -0.06642806 0.110393696
0.065542266 0.056291107 -0.04986638 0.101976484 0.0010268671 -0.053441636 -0.11388849 0.06397536
-0.08932331 0.04733965 -0.043251883 -0.099063374 -0.0035089073 0.026694437 0.024359563 0.051517244
-0.04125846 0.02045691 -0.11626774 0.09363451 0.07319117 0.07356893 -0.097523324 0.09039832
0.0902758 -0.062079363 -0.035089515 0.050939426 0.0021454112 0.0038552852 0.028125435 -0.086154826
0.08619921 -0.022854842 0.055123124 0.008938787 0.10781553 0.051241454 -0.084276125 -0.12658276
-0.06605466 -0.090350285 0.03208981 -0.083776206 0.0015765564 0.12366098 0.051141586 0.09690043
0.043699957 -0.016379286 0.07060796 -0.049655233 0.046604227 0.07459228 -0.017901316 -0.08624137
-0.022102583 -0.021824142 -0.032458123 -0.053328246 -0.085797854 0.03260848 -0.08791461 -0.035699528
-0.093169905 0.036798496 0.11873777 0.0631701 0.040736932 -0.0771691 0.0275675 0.12756369
-0.014854035 0.11256261 0.020393645 0.056158654 0.07676883 -0.10263476 -0.08118164 0.0615284
0.1215683 -0.10051129 0.117883414 -0.08710433 -0.0870384 0.048976876 -0.037111722 0.007507343
-0.05699674 0.05138301 0.04212316 -0.049197868 0.13181326 0.02082511 0.11221601 0.045943398
0.060754277 0.030313103 -0.075424895 0.11646 0.11986117 0.05008893 -0.03950381 0.10798002
-0.020047367 0.1430157 -0.013949902 0.087380365 0.026305715 -0.09448082 -0.07045505 -0.046106577
-0.057275217 -0.09581721 0.077685826 0.0028926195 0.045565676 -0.1182286 -0.042725295 -0.08484459
0.042639334 0.048281044 0.09924088 -0.06731407 0.09756638 0.114394754 -0.017004305 -0.101868525
0.093483 -0.021419501 0.06454723 0.06742317 0.09331009 0.049136695 0.08618495 -0.010257035
0.08902829 0.10308174 0.04877665 0.07772617 0.112552024 0.0024199018 0.11408358 0.11552262
0.047893357 0.12993959 -0.09893236 -0.065242775 -0.107066505 0.051897235 -0.011969223 0.031650703
-0.06018322 0.060119193 -0.10582977 -0.07296353 -0.091467574 -0.0773883 -0.10266449 0.036595415
0.12838298 0.013088435 0.016238796 -0.009425723 0.12696946 -0.074011035 0.037201837 -0.09505575
0.06604198 0.087007485 0.1285671 0.053533453 -0.05210836 -0.00045095573 -0.03140669 -0.06723265
0.0044724066 -0.027054645 -0.01926857 0.12203749 0.10627661 0.042720526 0.019355724 -0.1050597
00000000: 3c96 46bd 4304 3fbc 739e cd3d 6119 a4bb
00000010: ae7f 46bd 2c28 243d e407 6d3c 347c 3fbd
00000020: de56 dd3c 8526 cb3c 1797 a3bd b197 1d3c
00000030: f6a9 d23c e951 1c3d 90f8 38bd 390e 94bc
00000040: 7c9a 13bc d0d7 a4bd 7821 cdbd aa92 363d
00000050: 516a 7c3d 75a6 d2bd cb90 b8bd e673 5abd
00000060: 2780 b8bb b8e6 b43d 32be 71bd 283e f5bd
00000070: df50 ed3d d549 483d 0c51 00bd 65cb 323d
00000080: c4b4 afbd 2984 9d3d 6f91 be3d 1bf3 bdbd
00000090: 723d 193d ea77 a6bd b1b7 d2bd be3b 9fbd
000000a0: e2a5 ce3d 3000 e43d d3ae 00bd 42a7 953d
000000b0: b03e aa3c c597 ee3d 97ff c83d a648 b7bd
000000c0: fcca 233d 8c2c 6b3d 2fbc 66bd 1918 053e
000000d0: ac1d a4bd 428a f53c b09f 04be 224e d3bd
000000e0: 5389 2abd 9232 273c 0075 5a3c 8026 0ebd
000000f0: f261 b03d c0cf 863d d369 8d3d 9d02 913c
00000100: b345 dcbd 193b b4bd 4e8e f6bd 4982 e2bd
00000110: 2f38 e5bd 84d7 d0bd 6f0b 88bd 1716 e23d
00000120: 063b 863d 8191 663d b040 4cbd 0cd9 d03d
00000130: f197 863a 9ee5 5abd 5e3e e9bd 8305 833d
00000140: 24ef b6bd 39e7 413d e328 31bd bde1 cabd
00000150: b2f5 65bb 4bae da3c b58d c73c bf03 533d
00000160: a2fe 28bd 4095 a73c c81d eebd 73c3 bf3d
00000170: 41e5 953d 4fab 963d 4fba c7bd c122 b93d
00000180: 85e2 b83d ee46 7ebd 06ba 0fbd dca5 503d
00000190: 079a 0c3b f4a8 7c3b 5067 e63c f171 b0bd
000001a0: 3689 b03d 143a bbbc c9c8 613d fd73 123c
000001b0: 63ce dc3d 8fe2 513d f698 acbd e99e 01be
000001c0: aa47 87bd 9209 b9bd 9b70 033d dc92 abbd
000001d0: 74a4 ce3a f841 fd3d d779 513d bc73 c63d
000001e0: bafe 323d da2d 86bc e89a 903d 4963 4bbd
000001f0: 13e4 3e3d d6c3 983d c8a5 92bc 519f b0bd
00000200: 7a10 b5bc 8bc8 b2bc cff2 04bd b86e 5abd
00000210: c9b6 afbd 7890 053d 930c b4bd ab39 12bd
00000220: ddcf bebd 05ba 163d ca2c f33d 535f 813d
00000230: c5db 263d d50a 9ebd 3dd5 e13c 0ea0 023e
00000240: 575e 73bc 3a87 e63d 9310 a73c 9e06 663d
00000250: fa38 9d3d 2c32 d2bd 8f42 a6bd 3405 7c3d
00000260: cdf8 f83d ddd8 cdbd dc6c f13d c163 b2bd
00000270: 3041 b2bd fa9b 483d 7602 18bd 2800 f63b
00000280: 6a75 69bd fe76 523d 5689 2c3d b483 49bd
00000290: 0efa 063e 6c99 aa3c 82d1 e53d 252f 3c3d
000002a0: 7ad9 783d 2f53 f83c 5e78 9abd 9582 ee3d
000002b0: c679 f53d 0d2a 4d3d bfce 21bd a124 dd3d
000002c0: 603a a4bc b572 123e 218e 64bc 7af4 b23d
000002d0: 157f d73c 297f c1bd bd4a 90bd 40da 3cbd
000002e0: 6b99 6abd d03b c4bd bf19 9f3d 1a92 3d3b
000002f0: 13a3 3a3d d621 f2bd b800 2fbd 00c3 adbd
00000300: 95a6 2e3d 58c2 453d cd3e cb3d f6db 89bd
00000310: e2d0 c73d cc47 ea3d 9d4c 8bbc 72a0 d0bd
00000320: 0474 bf3d f377 afbc 5731 843d 2915 8a3d
00000330: 5c19 bf3d 8f43 493d bc81 b03d 1f0d 28bc
00000340: 7754 b63d 851c d33d 06ca 473d e62e 9f3d
00000350: ad81 e63d 3797 1e3b a7a4 e93d 2097 ec3d
00000360: d32b 443d e20e 053e 0d9d cabd 019e 85bd
00000370: af45 dbbd 3292 543d 8f1a 44bc 2ba4 013d
00000380: ae82 76bd 8b3f 763d 47bd d8bd e76d 95bd
00000390: 5a53 bbbd c27d 9ebd c341 d2bd 13e5 153d
000003a0: d476 033e e070 563c 3907 853c 596e 1abc
000003b0: 4804 023e 1993 97bd f460 183d 97ac c2bd
000003c0: 0541 873d fb30 b23d 18a7 033e e545 5b3d
000003d0: 936f 55bd 416e ecb9 4da4 00bd 46b1 89bd
000003e0: 448d 923b b4a1 ddbc 1fd9 9dbc cbee f93d
000003f0: 8da7 d93d b8fb 2e3d e58f 9e3c 8a29 d7bd

lstm.weight_hh_l0 f4 [256, 64]
-0.11239618 0.08649958 0.0747998 -0.055671517 0.03658115 -0.0076748985 -0.09642897 0.10272599
-0.012361552 -0.027590238 0.024509214 0.02567843 0.00081817457 -0.10626934 0.052883703 0.13018781
-0.13576728 0.0068388283 -0.08243867 0.09194722 0.054133564 0.1291886 0.024287112 -0.0716118
0.11825727 0.018864641 -0.035631 0.054401115 0.09836498 -0.10779931 0.095998436 -0.10941969
0.11398962 -0.13539681 0.14215459 -0.048471697 0.0779938 0.107579716 -0.055759057 0.023001969
-0.029625988 -0.034099538 0.111663826 -0.079534404 0.119992174 -0.1345109 -0.03340053 0.035341483
-0.05127596 -0.12336523 0.026635367 0.027690798 -0.07400914 0.07020745 -0.11432307 0.11589689
-0.040957645 0.0733811 -0.06197357 0.09579022 0.03431027 -0.07211917 -0.0062032295 0.09128542
-0.12386595 0.08961963 0.01601178 0.033260763 0.08125567 0.026236987 0.12062124 0.038281977
0.07654457 0.08298019 0.06831863 -0.1476847 -0.09448991 0.05229228 -0.0857297 -0.06850602
-0.055067018 0.09027876 -0.05239131 -0.071890675 -0.011748923 -0.09741796 -0.0072121015 -0.06196048
0.0717025 -0.094604075 -0.087603204 0.017306158 0.01284033 0.06991239 0.037349865 0.044613816
0.09275081 -0.014393878 -0.071626514 0.04982328 -0.049486022 0.121508695 -0.04021178 -0.056839135
0.03874991 -0.02706155 -0.008884508 -0.059466604 0.1230121 0.07820502 -0.060568377 0.002821371
-0.08110371 0.049487986 0.012420993 0.038446736 -0.08617118 0.05460197 -0.02784666 -4.8515612e-05
-0.014837826 0.023737483 -0.025745181 0.067262255 -0.05334983 0.056183167 0.023332626 0.023560226
-0.017795473 -0.07483442 -0.029344838 0.00888384 -0.07706528 -0.03423207 -0.01824355 0.07234808
-0.08135778 0.015350162 0.06340068 -0.06976624 0.0006837095 0.120980315 -0.07520571 0.037992034
0.07781087 -0.14662749 0.11299575 0.07658965 0.04387675 -0.08293931 -0.07114383 0.034121767
0.031719893 0.11822778 -0.045920726 0.07821147 0.01482675 0.07937509 0.14169091 0.081269585
-0.030133126 0.0034780616 -0.014117941 0.03897238 -0.061070584 -0.08663851 0.1289962 0.09804578
-0.020351326 0.07014004 -0.03593159 0.086830236 0.013083944 -0.05567215 -0.011001022 -0.040277045
0.06654583 -0.091924034 -0.01546671 -0.04269274 -0.024449905 0.031921737 0.067599975 0.040250644
0.095317945 -0.059375007 -0.06343297 -0.08020019 0.055265326 -0.085167 0.0668516 -0.04681621
0.013692157 0.04417259 0.0013006728 -0.06600427 -0.11460351 -0.023362165 0.054300528 -0.04069356
-0.07500084 -0.036399327 -0.0077513 0.033927783 -0.13195634 0.014086982 0.14071676 0.045464247
-0.06913742 0.09715506 -0.004403778 0.06578216 0.0974766 -0.009189543 -0.038428724 0.1392495
-0.07701934 0.071118355 0.08226936 -0.002493461 -0.10826535 -0.12786825 -0.084921695 0.01115398
-0.057360124 -0.084902056 -0.06429982 -0.04796122 -0.0012569566 0.09911104 0.053442657 0.008086268
0.062279034 -0.012311397 -0.081172764 0.0403783 0.12977111 0.104866475 -0.03296761 0.06380855
-0.096351705 -0.035134304 0.08318636 0.07472988 0.036603317 0.1396648 0.06827665 0.053921014
-0.034620587 -0.061450463 -0.07188565 -0.07695481 0.055612177 -0.0108563015 0.01856144 0.07028175
00000000: f82f e6bd b126 b13d a330 993d d107 64bd
00000010: 1ed6 153d b77d fbbb 8d7c c5bd 0162 d23d
00000020: 1b88 4abc ec04 e2bc 8cc7 c83c 925b d23c
00000030: c47a 563a bda3 d9bd 959c 583d f44f 053e
00000040: 9406 0bbe 4018 e03b 9bd5 a8bd d34e bc3d
00000050: 28bb 5d3d 044a 043e c4f5 c63c 35a9 92bd
00000060: de30 f23d 058a 9a3c d0f1 11bd b4d3 5e3d
00000070: 9473 c93d e2c5 dcbd d49a c43d 6e17 e0bd
00000080: 6473 e93d 76a5 0abe f990 113e 428a 46bd
00000090: 37bb 9f3d c152 dc3d 9c63 64bd a06e bc3c
000000a0: 33b2 f2bc f5ab 0bbd 01b0 e43d efe2 a2bd
000000b0: 75be f53d 3abd 09be ffce 08bd 3bc2 103d
000000c0: be06 52bd e9a6 fcbd 6a32 da3c d0d7 e23c
000000d0: 1b92 97bd ecc8 8f3d 3722 eabd 595b ed3d
000000e0: 34c3 27bd d548 963d 00d8 7dbd aa2d c43d
000000f0: ed88 0c3d 37b3 93bd 7644 cbbb daf3 ba3d
00000100: 6ead fdbd 7f8a b73d 232b 833c 703c 083d
00000110: 5f69 a63d f3ee d63c 4508 f73d 90cd 1c3d
00000120: 66c3 9c3d 85f1 a93d a3ea 8b3d a83a 17be
00000130: ed83 c1bd 6e30 563d 0e93 afbd e24c 8cbd
00000140: f48d 61bd 12e4 b83d 4598 56bd 6b3b 93bd
00000150: 8e7e 40bc 1183 c7bd 7e53 ecbb 46ca 7dbd
00000160: c3d8 923d c8bf c1bd 4f69 b3bd a5c5 8d3c
00000170: 3f60 523c 3a2e 8f3d 2cfc 183d fabc 363d
00000180: 23f4 bd3d 4dd4 6bbc ecb0 92bd 7f13 4c3d
00000190: dbb1 4abd 8dd9 f83d 1cb5 24bd 27d0 68bd
000001a0: 3ab8 1e3d 2fb0 ddbc 5490 11bc 4193 73bd
000001b0: c5ed fb3d f429 a03d 8c16 78bd c0e6 383b
000001c0: b419 a6bd eab3 4a3d 6c81 4b3c 537a 1d3d
000001d0: 847a b0bd 51a6 5f3d ae1e e4bc 3e7d 4bb8
000001e0: 5a1a 73bc 1c75 c23c 8fe7 d2bc cbc0 893d
000001f0: 5a85 5abd 5220 663d 1024 bf3c 6001 c13c
00000200: d0c7 91bc ca42 99bd 9664 f0bc 878d 113c
00000210: 67d4 9dbd ed36 0cbd 7f73 95bc 3b2b 943d
00000220: e89e a6bd 3f7f 7b3c 37d8 813d 9ae1 8ebd
00000230: f83a 333a 87c4 f73d 7405 9abd 899d 1b3d
00000240: 4e5b 9f3d 8425 16be 516a e73d 09db 9c3d
00000250: 1bb8 333d 16dc a9bd dbb3 91bd 44c3 0b3d
00000260: b8ec 013d 6821 f23d 5f17 3cbd 562d a03d
00000270: e6eb 723c 688f a23d 6c17 113e ab70 a63d
00000280: bfd9 f6bc 31f0 633b f04e 67bc 81a1 1f3d
00000290: 2625 7abd 886f b1bd 9417 043e 3acc c83d
000002a0: d3b7 a6bc 95a5 8f3d 012d 13bd 0dd4 b13d
000002b0: 0a5e 563c 7b08 64bd a13d 34bc 8bf9 24bd
000002c0: 2e49 883d ab42 bcbd 1568 7dbc 95de 2ebd
000002d0: 2b4b c8bc 5ec0 023d db71 8a3d dcdd 243d
000002e0: 0e36 c33d 3533 73bd 25e9 81bd ff3f a4bd
000002f0: e55d 623d 096c aebd 7ee9 883d 5bc2 3fbd
00000300: 1255 603c 51ee 343d 567b aa3a 3f2d 87bd
00000310: 3fb5 eabd 0362 bfbc 3b6a 5e3d 4aae 26bd
00000320: 0a9a 99bd 7617 15bd 9efe fdbb dcf7 0a3d
00000330: 901f 07be 16cd 663c 0e18 103e b838 3a3d
00000340: eb97 8dbd 3bf9 c63d 914d 90bb ccb8 863d
00000350: d0a1 c73d bd8f 16bc 7067 1dbd 6c97 0e3e
00000360: 51bc 9dbd 80a6 913d d77c a83d 5569 23bb
00000370: 39ba ddbd e5ef 02be 6deb adbd 2fbf 363c
00000380: 73f2 6abd 21e1 adbd a0af 83bd fc72 44bd
00000390: 77c0 a4ba bbfa ca3d b0e6 5a3d 447c 043c
000003a0: 4d18 7f3d beb5 49bc e83d a6bd b763 253d
000003b0: b8e2 043e 3cc4 d63d 0b09 07bd 0fae 823d
000003c0: 0b54 c5bd fde8 0fbd 9c5d aa3d fb0b 993d
000003d0: 5ced 153d 4a04 0f3e a1d4 8b3d 48dc 5c3d
000003e0: 51ce 0dbd 7bb3 7bbd c938 93bd 7c9a 9dbd
000003f0: 98c9 633d a1de 31bc 290e 983c e1ef 8f3d

lstm.bias_ih_l0 f4 [256]
0.109353006 -0.10731831 0.12532769 0.10702869 -0.01614257 -0.06660671 -0.010649807 0.046059545
-0.056500368 0.13644807 0.12922366 0.12109939 0.05262392 0.051982395 -0.02418354 0.01449072
0.04740524 0.09392911 0.11106408 -0.07173557 -0.03424668 0.14613676 0.08267704 -0.04654906
-0.09173698 -0.042047027 -0.021258185 -0.06766289 0.13263674 0.10463633 -0.07494008 0.06279082
-0.07042677 -0.009228211 -0.0670501 -0.0011940543 0.041562352 0.12669176 0.047837455 -0.009996258
0.13911664 0.07513528 0.038499013 0.13127004 0.10540919 0.12531307 -0.0663494 -0.03705776
0.03601046 -0.07958692 0.07762368 -0.03564775 0.14116447 0.0671445 0.0856957 0.05656805
0.06943371 0.11454847 0.057219584 -0.06605778 0.12628202 -0.010223649 0.13685082 -0.0031094088
-0.023196792 0.012982351 0.11623877 -0.019681409 -0.056179076 0.08935181 -0.01587407 -0.0636331
-0.06832653 -0.003255167 0.08217136 0.14590943 0.073377885 0.086871676 0.0303489 -0.055683292
-0.04694373 0.05697981 -0.08574896 0.05499927 -0.070208 0.114804834 -0.083294235 -0.091439515
-0.06621562 -0.08733382 0.010533341 0.08304847 0.062265556 -0.072787456 -0.0008974635 -0.07227222
0.006997314 -0.040307682 -0.074182056 -0.0699307 0.108803086 0.004035725 0.13119599 0.039110277
-0.04809426 0.043640953 0.018705677 0.078612246 -0.07480078 -0.015350481 -0.05012721 0.13547787
-0.09369095 -0.035786137 -0.046649374 0.042731434 -0.08136226 -0.040773522 0.11029707 -0.07109045
0.05905262 -0.0091469325 0.00034078836 -0.10338071 0.14613481 0.10494056 -0.028000103 -0.0900404
0.027840037 0.023597687 -0.07358859 -0.13143769 -0.09127908 0.07446911 -0.07777537 -0.06480439
0.0005568675 0.08034623 -0.09726598 -0.073426045 -0.061999947 0.107418016 0.07281881 -0.035840213
0.06984171 -0.0193523 0.021671738 -0.038040493 -0.017809805 0.08589857 -0.020489413 0.11351098
-0.014052884 0.0724313 -0.018145759 -0.1314162 -0.09797905 -0.08739521 -0.07331774 -0.02823439
0.12832616 -0.13532911 -0.04042646 0.06875636 0.09135334 0.027434655 0.14308901 0.09311538
-0.023898829 -0.07274096 0.08511301 -0.078620754 0.09774798 0.05779014 -0.11581073 -0.02024842
-0.106195286 0.11769589 0.02383117 0.09371803 0.039275482 0.11907738 0.06918888 -0.083319165
-0.10180323 0.027114866 -0.060382247 -0.051802535 -0.073798165 -0.08003161 0.0069980095 0.074939765
0.048581608 -0.05846577 0.0214706 0.09492825 -0.014116275 -0.100444704 -0.005731419 -0.043701325
0.039222058 0.0937742 0.0932356 0.0026980543 -0.020873424 -0.0419403 0.14206544 -0.07118459
0.054735854 0.055466216 0.13193423 -0.016957197 0.05159985 0.039999124 0.08485511 0.10014132
0.093537 -0.03529589 0.046631575 -0.0033488362 0.10638722 -0.09713213 -0.06164211 0.08120593
-0.05886562 0.017209522 0.032118596 -0.06979418 0.032489236 -0.010509986 0.08486116 0.10221546
0.11285121 0.113528244 -0.07271397 0.003939809 -0.008319265 -0.021472502 0.12063203 -0.0106118815
0.11617769 0.12899949 0.07558909 -0.0904073 -0.06447017 -0.086294726 -0.03950574 0.039140984
-0.061388586 0.06713081 -0.088930294 -0.10271052 -0.07346704 0.07597029 0.11197493 0.07023355
00000000: 78f4 df3d b4c9 dbbd e755 003e dc31 db3d
00000010: 6c3d 84bc 1969 88bd 877c 2ebc efa8 3c3d
00000020: ee6c 67bd 0bb9 0b3e 3553 043e f502 f83d
00000030: 2e8c 573d 7eeb 543d 8f1c c6bc 7c6a 6d3c
00000040: ff2b 423d e85d c03d 9075 e33d 19ea 92bd
00000050: 3f46 0cbd e0a4 153e 9452 a93d 3aaa 3ebd
00000060: 99e0 bbbd 8139 2cbd a525 aebc d792 8abd
00000070: edd1 073e 924b d63d 2f7a 99bd 7998 803d
00000080: e93b 90bd ec31 17bc 9051 89bd d081 9cba
00000090: 493d 2a3d 7cbb 013e 35f1 433d 58c7 23bc
000000a0: 9874 0e3e 87e0 993d 24b1 1d3d a76b 063e
000000b0: c6e0 d73d 1252 003e 32e2 87bd e1c9 17bd
000000c0: b47f 133d 78fe a2bd 2af9 9e3d 6003 12bd
000000d0: 6b8d 103e 0e83 893d 3a81 af3d e6b3 673d
000000e0: 4333 8e3d 6398 ea3d 155f 6a3d 4d49 87bd
000000f0: 1350 013e 1881 27bc 9f22 0c3e 39c7 4bbb
00000100: 3307 bebc edb3 543c 980e ee3d e83a a1bc
00000110: 081c 66bd 15fe b63d 560a 82bc 1252 82bd
00000120: c8ee 8bbd a454 55bb 7549 a83d 4869 153e
00000130: 2547 963d c7e9 b13d 429e f83c 2a14 64bd
00000140: 1248 40bd a963 693d 279d afbd ea46 613d
00000150: 36c9 8fbd cc1e eb3d 2b96 aabd a444 bbbd
00000160: 0e9c 87bd 13dc b2bd 0994 2c3c 5115 aa3d
00000170: 2b0a 7f3d 9711 95bd c243 6bba 7503 94bd
00000180: b949 e53b ab19 25bd c3ec 97bd d437 8fbd
00000190: 27d4 de3d 1d3e 843b 3e58 063e 1932 203d
000001a0: 7dfe 44bd dbc0 323d a63c 993c 75ff a03d
000001b0: 2731 99bd 9580 7bbc 3052 4dbd b6ba 0a3e
000001c0: 0ae1 bfbd 7c94 12bd 6a13 3fbd 2807 2f3d
000001d0: 42a1 a6bd 2302 27bd 6ee3 e13d df97 91bd
000001e0: 29e1 713d 04dd 15bc d7ab b239 44b9 d3bd
000001f0: 5da4 153e 14eb d63d 7960 e5bc 1a67 b8bd
00000200: ca10 e43c f04f c13c 9db5 96bd 9a97 06be
00000210: 87f0 babd 4383 983d b148 9fbd 2ab8 84bd
00000220: bffa 113a 908c a43d 6333 c7bd 6560 96bd
00000230: a8f3 7dbd fafd db3d 0722 953d 30cd 12bd
00000240: 2c09 8f3d b788 9ebc ee88 b13c 59d0 1bbd
00000250: dee5 91bc 97eb af3d 6ad9 a7bc 7278 e83d
00000260: 113e 66bc dd56 943d 6aa6 94bc f891 06be
00000270: 3da9 c8bd 43fc b2bd 9c27 96bd cf4b e7bc
00000280: ef67 033e b793 0abe 3796 25bd 22d0 8c3d
00000290: 7617 bb3d a4be e03c ed85 123e 47b3 be3d
000002a0: 7ac7 c3bc 36f9 94bd bb4f ae3d eb03 a1bd
000002b0: 1830 c83d 5bb5 6c3d 2d2e edbd 04e0 a5bc
000002c0: ea7c d9bd 8b0a f13d 9639 c33c 3def bf3d
000002d0: 54df 203d d7de f33d e6b2 8d3d 3da3 aabd
000002e0: 367e d0bd ff1f de3c 6053 77bd e52e 54bd
000002f0: 7e23 97bd 9de7 a3bd 8f4f e53b 057a 993d
00000300: 82fd 463d ce79 6fbd 1de3 af3c be69 c23d
00000310: f347 67bc f4b5 cdbd a1ce bbbb 2900 33bd
00000320: 4fa7 203d b00c c03d 4ef2 be3d d7d1 303b
00000330: befe aabc 98c9 2bbd 9a79 113e 3ac9 91bd
00000340: b432 603d 8b30 633d c419 073e d2e9 8abc
00000350: 5d5a 533d 1fd6 233d 84c8 ad3d e416 cd3d
00000360: 5490 bf3d 6c92 10bd c000 3f3d 2678 5bbb
00000370: 8be1 d93d 36ed c6bd 707c 7cbd 4b4f a63d
00000380: 141d 71bd fcfa 8c3c ca8e 033d 40f0 8ebd
00000390: 6f13 053d 1432 2cbc b0cb ad3d 5756 d13d
000003a0: 891e e73d 7f81 e83d 10eb 94bd 8319 813b
000003b0: 874d 08bc 1ae7 afbc ed0d f73d 75dd 2dbc
000003c0: 92ee ed3d 7118 043e 74ce 9a3d 7627 b9bd
000003d0: f008 84bd 4abb b0bd c5d0 21bd 4c52 203d
000003e0: 9972 7bbd e17b 893d 1621 b6bd e559 d2bd
000003f0: e375 96bd 5096 9b3d 1d53 e53d 9cd6 8f3d

lstm.bias_hh_l0 f4 [256]
-0.0858417 -0.08217082 -0.020892033 -0.020985333 -0.004397176 0.02898073 0.105109185 -0.08334345
0.08576693 -0.014437686 -0.042291038 -0.07725235 0.105839424 0.0037943164 0.09295046 0.11629431
-0.09030321 0.05907826 -0.097666696 -0.08019728 -0.04817315 0.00080158195 0.0074824295 -0.028532507
0.044572115 -0.04625793 -0.078628235 0.09200298 0.00055051316 0.052646335 0.029680882 0.12160198
-0.03682598 0.11618232 -0.019192897 0.113662645 -0.092702664 0.06622473 0.03707835 -0.10481078
-0.095499136 0.08120387 0.07029007 -0.027551804 -0.05416677 -0.0599654 -0.021915097 -0.047821056
-0.024932567 0.050988372 0.1409606 0.016962284 0.00046928108 0.026045084 -0.09799509 0.123697914
0.08437665 -0.011145808 0.043678258 0.14363673 0.06906888 0.14153655 0.13108148 -0.09153869
-0.036740858 0.086913705 0.0071048792 -0.066038415 -0.07948225 -0.043687623 -0.05916913 -0.10317324
0.016015217 -0.09485799 -0.09305365 0.03851581 0.036523294 0.011795406 0.13969545 0.081914574
-0.081585474 -0.081831194 0.048429802 0.11124473 0.019273635 -0.0033743691 0.02859465 -0.07217294
-0.07596743 0.016535902 -0.045100354 0.047943085 -0.09681081 0.032747988 0.0938146 -0.07078535
-0.044641044 0.09841285 -0.0923719 0.06411721 -0.09341129 0.073528655 0.08193831 0.021568578
0.09121252 0.027786879 0.078219265 -0.022726756 0.08030969 0.050709773 -0.09671902 -0.047035698
0.14403005 -0.05183281 -0.016725525 0.10238019 0.018006591 -0.08952209 0.052721106 0.089806445
0.12700273 0.10129648 -0.097891256 -0.005145799 0.04939631 -0.056342132 -0.0401127 0.052243385
-0.06710753 -0.08065087 -0.08875304 -0.13051239 0.09867 0.046273544 -0.051085573 -0.0941781
0.00015164347 0.086168595 -0.07120892 -0.11121801 0.10726684 0.036905177 0.04132645 0.028680902
-0.045731656 -0.008186099 0.06877047 0.005373715 -0.077243194 -0.097350486 0.1324528 0.04640707
-0.029854592 0.090092234 0.06659298 0.01848416 0.096463375 -0.09353938 0.075269446 -0.048265617
0.12492131 -0.10526317 0.02984393 0.11692123 -0.12618709 0.09715716 0.11935662 -0.010134288
-0.08111642 -0.010997364 -0.081849 -0.08454822 0.027578335 -0.0030355207 -0.0733783 -0.081404835
-0.09996545 0.09947794 -0.048546407 -0.04417761 0.079021044 -0.07292537 0.070765 0.10969255
-0.037227836 0.022998853 -0.040496547 0.058391962 -0.091110036 -0.11922051 0.030350124 0.004134986
-0.05324567 0.009739043 -0.0318199 -0.027646573 0.09036823 0.051228277 0.047331046 0.022167679
-0.07071399 -0.055732816 0.031154118 -0.008408065 -0.0021961185 -0.026512327 0.10776228 -0.013307332
0.020605406 -0.09836982 -0.079172745 0.08955256 -0.07910937 -0.07381415 0.0030649086 0.039108016
0.14036629 0.0933577 0.020146158 0.041663546 -0.076535426 0.06952829 0.05102066 0.022320777
0.095901094 0.011073432 -0.029608373 -0.0005232165 -0.030539906 0.0927082 0.026267104 -0.059492588
0.12571624 -0.0037618605 -0.02706236 0.08563737 -0.027351435 -0.09660903 0.080027305 0.0006333011
-0.05579132 -0.07617285 0.12328107 -0.04266504 -0.037413836 -0.005517994 -0.07459521 0.0496098
0.013730341 -0.08305678 0.07435883 0.07513445 0.07350393 -0.07999366 0.11237433 0.07222476
00000000: c6cd afbd 2d49 a8bd c525 abbc 6fe9 abbc
00000010: 3016 90bb ff68 ed3c 7c43 d73d f9af aabd
00000020: 92a6 af3d 0b8c 6cbc 5e39 2dbd 7b36 9ebd
00000030: 57c2 d83d 11aa 783b d05c be3d b62b ee3d
00000040: e4f0 b8bd 0cfc 713d 7a05 c8bd 793e a4bd
00000050: 3551 45bd 4121 523a 2b2f f53b 01bd e9bc
00000060: 4091 363d f578 3dbd d707 a1bd 0f6c bc3d
00000070: 5050 103a afa3 573d 5225 f33c 750a f93d
00000080: d7d6 16bd fff0 ed3d 6c3a 9dbc f6c7 e83d
00000090: e5da bdbd d5a0 873d 78df 173d 09a7 d6bd
000000a0: 0d95 c3bd 374e a63d 3df4 8f3d 52b4 e1bc
000000b0: fadd 5dbd 479e 75bd 4a87 b3bc 03e0 43bd
000000c0: 623f ccbc 2fd9 503d fa57 103e 7df4 8a3c
000000d0: d709 f639 805c d53c a6b1 c8bd 5555 fd3d
000000e0: aacd ac3d e89c 36bc f9e7 323d 8215 133e
000000f0: fc73 8d3d f5ee 103e 393a 063e a378 bbbd
00000100: 957d 16bd d0ff b13d 0cd0 e83b 263f 87bd
00000110: 97c7 a2bd cbf1 32bd 545b 72bd 7e4c d3bd
00000120: 5832 833c e844 c2bd e992 bebd c1c2 1d3d
00000130: 7399 153d 8541 413c 530c 0f3e d4c2 a73d
00000140: 4916 a7bd 1d97 a7bd 545e 463d 47d4 e33d
00000150: bee3 9d3c 8524 5dbb 543f ea3c 68cf 93bd
00000160: d094 9bbd 4d76 873c 26bb 38bd f85f 443d
00000170: bf44 c6bd c122 063d de21 c03d e9f7 90bd
00000180: 87d9 36bd ad8c c93d 7b2d bdbd e24f 833d
00000190: 6b4e bfbd 3196 963d 46cf a73d 96b0 b03c
000001a0: a1cd ba3d 4fa1 e33c 6c31 a03d 762d babc
000001b0: 6879 a43d 0db5 4f3d 9f14 c6bd 81a8 40bd
000001c0: 9d7c 133e a44e 54bd f803 89bc b4ac d13d
000001d0: 8f82 933c 5c57 b7bd 16f2 573d 71ec b73d
000001e0: 010d 023e 8774 cf3d 367b c8bd 179e a8bb
000001f0: c953 4a3d 02c7 66bd 374d 24bd 29fd 553d
00000200: ac6f 89bd 492c a5bd 27c4 b5bd 0aa5 05be
00000210: 7f13 ca3d 5489 3d3d 1b3f 51bd 73e0 c0bd
00000220: 7c02 1f39 2979 b03d fbd5 91bd 45c6 e3bd
00000230: b8ae db3d e229 173d ec45 293d 36f4 ea3c
00000240: 1e51 3bbd fd1e 06bc 88d7 8c3d fd15 b03b
00000250: ae31 9ebd b15f c7bd b5a1 073e 5715 3e3d
00000260: 9e91 f4bc 4782 b83d e661 883d 186c 973c
00000270: 978e c53d 9391 bfbd de26 9a3d 2bb2 45bd
00000280: bed6 ff3d 3894 d7bd 427b f43c 6674 ef3d
00000290: 3037 01be 55fa c63d 3e71 f43d 490a 26bc
000002a0: 5e20 a6bd 4a2e 34bc 73a0 a7bd 9e27 adbd
000002b0: f6eb e13c 96ef 46bb 5d47 96bd 94b7 a6bd
000002c0: b0ba ccbd 17bb cb3d 99d8 46bd 95f3 34bd
000002d0: c9d5 a13d e559 95bd 3eed 903d 7da6 e03d
000002e0: 377c 18bd 1768 bc3c b5df 25bd 692c 6f3d
000002f0: e697 babd e229 f4bd d3a0 f83c c77e 873b
00000300: 2218 5abd 8290 1f3c 9555 02bd 117b e2bc
00000310: fb12 b93d bed4 513d 33de 413d fe98 b53c
00000320: 7fd2 90bd 1848 64bd ec36 ff3c fbc1 09bc
00000330: c1ec 0fbb 6130 d9bc 78b2 dc3d ff06 5abc
00000340: abcc a83c 1e76 c9bd 5225 a2bd 5567 b73d
00000350: 1804 a2bd e02b 97bd a2dc 483b ba2f 203d
00000360: 2ebc 0f3e 5232 bf3d 8e09 a53c 65a7 2a3d
00000370: 9bbe 9cbd d964 8e3d 0afb 503d 10da b63c
00000380: cb67 c43d 576d 353c 428d f2bc 7728 09ba
00000390: d32e fabc ccdd bd3d 1c2e d73c 80ae 73bd
000003a0: c2bb 003e 8c89 76bb e2b1 ddbc a562 af3d
000003b0: 1e10 e0bc f5da c5bd 5be5 a33d 1e04 263a
000003c0: 7085 64bd 8300 9cbd c97a fc3d 89c1 2ebd
000003d0: 403f 19bd 4ad0 b4bb 60c5 98bd a533 4b3d
000003e0: 39f5 603c ac19 aabd 7149 983d 17e0 993d
000003f0: 3a89 963d b7d3 a3bd 8324 e63d 93ea 933d

lstm.weight_ih_l1 f4 [256, 64]
-0.11049638 0.03030998 -0.08721992 0.074358575 0.007551931 0.07585745 0.045295253 0.060247444
0.06343889 -0.0305557 0.03428975 0.0868382 0.06319096 -0.055545583 -0.09483142 0.019116888
-0.096389905 -0.0304909 -0.052278403 -0.13699184 -0.06961943 0.0049791317 -0.08933287 0.052595753
-0.024949457 -0.046389263 -0.022520471 -0.015430446 0.09497473 0.10559159 -0.0429867 0.07083777
0.09575676 0.03935502 0.09298777 -0.009341273 0.0660354 -0.015282112 -0.007607411 0.032961115
-0.023556722 0.0889846 0.049822517 0.037055787 -0.007422304 -0.10201439 0.07004611 0.0056488514
-0.13023873 -0.038001355 0.09113788 0.08496462 0.08423325 0.09986912 0.120266445 0.050494622
0.099599175 0.10279114 -0.02213707 0.12804002 0.059522778 0.053426422 -0.07439204 0.10739844
0.06712993 0.045579486 -0.09440779 0.036212567 -0.12058352 0.07365624 0.052687895 -0.14042313
0.037656013 0.14929932 0.06082645 -0.057490457 -0.0051670894 -0.058159642 -0.097109064 0.08996887
0.002174923 -0.068650514 0.10799149 -0.05916833 0.109076805 0.11676261 0.092137285 0.019399602
0.00262697 0.10609782 0.062155973 -0.042566113 -0.004909715 0.012778388 -0.0559587 -0.082623474
-0.04596264 0.09813374 -0.07615303 0.096170865 0.05657447 0.029062124 0.031201094 -0.0867492
-0.008228627 -0.08254656 -0.049300376 0.027597085 0.1368817 -0.10462228 -0.047905482 0.059109904
0.07934635 0.05141824 -0.016754275 -0.082447365 -0.09719481 0.024544774 0.045741636 0.12478426
-0.012487133 0.07949259 0.11993945 -0.09264287 0.14543526 -0.10473188 0.009583703 0.0070389085
-0.10277307 0.036286686 -0.11120405 0.104859896 0.084287725 0.078599684 0.073176876 -0.017576253
-0.02267243 0.11373451 0.058723997 -0.09363347 -0.07766997 0.031068798 -0.072668076 0.036685888
-0.100764185 0.035784736 0.12363041 -0.1004069 -0.0011766442 0.11893865 0.10009662 0.1056464
-0.052941233 0.10974006 -0.0006779723 -0.081129715 -0.08465532 -0.11725093 0.029717932 -0.05139162
-0.0074894647 -0.08910676 -0.030520823 0.025916945 -0.033962768 0.029659843 -0.012674319 -0.00018612815
0.097883955 -0.15310022 -0.114128344 -0.027822847 0.0036059718 -0.06998546 0.02808237 -0.021767693
-0.0029663602 0.11032757 -0.13209942 -0.10016903 0.083157875 -0.10278788 0.096757 -0.041095003
-0.03053734 -0.04708386 0.097487465 0.05149634 0.083303384 -0.03383086 0.03732916 -0.012748948
-0.106066845 0.06907878 -0.0583694 -0.0007915272 0.046593126 -0.04963977 0.06479343 -0.09867116
0.0047072363 0.025574038 -0.06718688 -0.10895682 0.09087036 -0.008048831 0.08326684 -0.086969614
0.07186854 -0.12547158 -0.009533111 0.066502884 -0.105057895 -0.09152575 -0.031424087 0.0048854346
-0.034072075 0.017728845 -0.032692906 -0.08675263 0.112974234 0.09619237 0.06273512 0.015837284
0.0521209 -0.046353493 0.14537922 -0.06775341 0.005397834 -0.011912764 -0.047526967 0.04721592
0.14239056 0.040768832 0.04041385 -0.14230384 0.13165662 0.0718407 -0.029377228 0.11463382
-0.014000493 0.067619346 -0.044962317 -0.09605044 -0.07138846 -0.072108254 0.13831979 -0.027597394
0.02277964 -0.043004517 0.035672918 0.047115747 0.100038655 -0.13746068 0.025919704 -0.008431093
00000000: ed4b e2bd a34c f83c 5ba0 b2bd 4f49 983d
00000010: 3076 f73b 275b 9b3d 8487 393d 06c6 763d
00000020: 40ec 813d f34f fabc 6973 0c3d 3ad8 b13d
00000030: 436a 813d c483 63bd fa36 c2bd 059b 9c3c
00000040: 1268 c5bd 0dc8 f9bc e121 56bd 9747 0cbe
00000050: a294 8ebd fc27 a33b 27f4 b6bd a56e 573d
00000060: ce62 ccbc ab02 3ebd da7c b8bc fbcf 7cbc
00000070: 1c82 c23d 6740 d83d d212 30bd 6513 913d
00000080: 1f1c c43d bb32 213d 5f70 be3d 240c 19bc
00000090: 913d 873d d361 7abc 9747 f9bb 3c02 073d
000000a0: 07fa c0bc 8f3d b63d b212 4c3d cfc7 173d
000000b0: cc36 f3bb ecec d0bd 5674 8f3d 001a b93b
000000c0: 4d5d 05be 4fa7 1bbd 7fa6 ba3d ee01 ae3d
000000d0: 7b82 ac3d 2e88 cc3d 414e f63d 73d3 4e3d
000000e0: a7fa cb3d 2984 d23d cd58 b5bc ec1c 033e
000000f0: 28ce 733d aad5 5a3d db5a 98bd b7f3 db3d
00000100: 6b7b 893d 8eb1 3a3d df58 c1bd a153 143d
00000110: 7ef4 f6bd 15d9 963d 43cf 573d 15cb 0fbe
00000120: 313d 1a3d ece1 183e 2825 793d 1d7b 6bbd
00000130: b050 a9bb ce38 6ebd 1ee1 c6bd 9941 b83d
00000140: 2789 0e3b a498 8cbd a42a dd3d 7e5a 72bd
00000150: a963 df3d 3c21 ef3d 79b2 bc3d eaeb 9e3c
00000160: 3e29 2c3b d049 d93d 4397 7e3d ce59 2ebd
00000170: ade1 a0bb 725c 513c f334 65bd 7f36 a9bd
00000180: 5243 3cbd 58fa c83d 1ff6 9bbd 3bf5 c43d
00000190: a2ba 673d b113 ee3c 7099 ff3c 91a9 b1bd
000001a0: 5dd1 06bc 2c0e a9bd 31ef 49bd 4813 e23c
000001b0: b72a 0c3e 3544 d6bd 8a38 44bd 3a1d 723d
000001c0: 5780 a23d ef9b 523d 4340 89bc 2ada a8bd
000001d0: 130e c7bd 1f12 c93c 955b 3b3d e48e ff3d
000001e0: d596 4cbc 03cd a23d d0a2 f53d 8cbb bdbd
000001f0: fbec 143e ab7d d6bd f704 1d3c a5a6 e63b
00000200: b07a d2bd 59a1 143d f3be e3bd c9c0 d63d
00000210: 0b9f ac3d dff8 a03d c2dd 953d 13fc 8fbc
00000220: 88bb b9bc a4ed e83d 9388 703d e8c2 bfbd
00000230: 6f11 9fbd fe83 fe3c 00d3 94bd f143 163d
00000240: 745d cebd 0493 123d f131 fd3d 22a2 cdbd
00000250: a139 9aba 1b96 f33d 75ff cc3d 245d d83d
00000260: e8d8 58bd 66bf e03d f3b9 31ba 5627 a6bd
00000270: c55f adbd 4121 f0bd 0573 f33c 0580 52bd
00000280: 2f6a f5bb 9b7d b6bd ce06 fabc c64f d43c
00000290: 8b1c 0bbd 33f9 f23c f2a7 4fbc 652b 43b9
000002a0: 6277 c83d 4ec6 1cbe 1fbc e9bd bdec e3bc
000002b0: 2b52 6c3b 8954 8fbd 000d e63c 2952 b2bc
000002c0: 4467 42bb 6cf3 e13d 1245 07be 6c25 cdbd
000002d0: ad4e aa3d 7482 d2bd 8928 c63d 3c53 28bd
000002e0: 7229 fabc 01db 40bd 82a7 c73d d4ed 523d
000002f0: f79a aa3d 3a92 0abd 76e6 183d f7e0 50bc
00000300: 9339 d9bd 2d79 8d3d c114 6fbd 7e7e 4fba
00000310: 6fd8 3e3d 1253 4bbd 6bb2 843d 1b14 cabd
00000320: 293f 9a3b a580 d13c 4699 89bd c124 dfbd
00000330: 3d1a ba3d 3edf 03bc ce87 aa3d 201d b2bd
00000340: d02f 933d 9f7b 00be c430 1cbc aa32 883d
00000350: 9828 d7bd da71 bbbd 8bb6 00bd ff15 a03b
00000360: 298f 0bbd 153c 913c ffe8 05bd 5dab b1bd
00000370: 095f e73d 8100 c53d 457b 803d 31bd 813c
00000380: ba7c 553d 29dd 3dbd 4ade 143e 4dc2 8abd
00000390: 50e0 b03b c12d 43bc a3ab 42bd 7b65 413d
000003a0: d5ce 113e 38fd 263d fe88 253d 19b8 11be
000003b0: fed0 063e 3821 933d 83a8 f0bc 23c5 ea3d
000003c0: 5362 65bc 037c 8a3d 682a 38bd 18b6 c4bd
000003d0: 1d34 92bd 7ead 93bd b4a3 0d3e ee13 e2bc
000003e0: 5e9c ba3c 8125 30bd c41d 123d 71fc 403d
000003f0: 11e1 cc3d 7ec2 0cbe 8f55 d43c 9122 0abc

lstm.weight_hh_l1 f4 [256, 64]
0.01991484 -0.03693417 0.040533267 0.03737113 0.04133668 -0.040347524 -0.10788451 0.072865665
0.018154113 0.02760563 -0.07770919 0.13351104 0.09038191 -0.13772039 0.10715629 -0.037411585
-0.019437047 -0.07928296 -0.062969975 -0.123448916 0.007561842 -0.021165142 0.0340516 -0.015649254
-0.020535948 -0.10532189 -0.044210948 -0.13557242 0.03180369 0.08927063 -0.100137375 0.07307229
0.041475166 -0.06371703 -0.10023581 0.03650428 -0.04166754 0.028530298 -0.06921281 0.096000634
0.041650638 0.034129158 0.122202665 0.09144241 -0.059931386 -0.06724807 -0.06957365 0.089972354
-0.07743665 -0.02494918 0.01230402 -0.07776073 0.06341579 -0.06140987 0.10773509 0.054891683
0.06792233 0.106462754 0.09352496 -0.02470456 0.025640968 0.027271854 -0.00080023747 0.017513458
-0.12961358 0.06278867 0.096094936 -0.009076383 -0.08214258 0.10459057 -0.08555862 0.069775425
0.009958181 0.021872886 -0.0249617 0.043237038 -0.0057401545 0.094563566 -0.08124097 0.12641518
0.021068709 0.004698027 -0.121904016 -0.0076904595 -0.06467169 -0.052094176 -0.06539381 -0.023495598
0.0838281 0.026461244 -0.009566437 -0.13205011 0.00788662 0.03316073 -0.07570264 -0.097773574
0.019822216 -0.08047605 0.063523784 -0.0534903 -0.09744179 -0.13051896 -0.0029778145 0.09538413
-0.049340058 0.053548984 0.06944016 -0.09291685 -0.012054069 0.015309605 0.020177608 -0.06658474
-0.043350883 0.14736962 0.056199845 -0.09420231 -0.011991031 0.128486 -0.02968833 0.0956795
0.009599257 0.05146236 -0.009020665 -0.10165239 -0.08145322 -0.045004856 -0.034849294 -0.06505522
0.009050479 0.031531524 -0.05709131 0.061601464 -0.12506725 0.029806785 -0.017116627 -0.03361256
-0.031213276 0.1410606 0.0730709 0.018423814 0.0838525 -0.08193759 0.059863824 0.05221608
0.13310382 -0.13323264 -0.00677139 -0.12633161 0.06310599 0.031959053 -0.0806244 -0.031629045
0.107757375 0.05389834 0.10224754 0.07635935 0.021485293 -0.07460248 -0.0842974 -0.09198116
-0.037445433 -0.008546431 -0.06212146 -0.038613368 0.07596655 0.09994933 -0.036539115 0.033890415
-0.056101 -0.07463527 0.110784374 -0.03303464 0.05676451 0.017186055 0.11870927 0.08511412
-0.019359333 0.09489675 -0.08634274 -0.05315861 -0.046214595 -0.07919036 0.03133573 0.11308097
0.02593238 -0.107650794 -0.044442963 -0.08212593 -0.059654497 0.093169406 -0.06434297 0.089617684
0.10284191 -0.022746176 -0.07228099 -0.025488766 -0.051016025 -0.05225961 0.11823738 0.04199972
0.0053276536 0.030352172 -0.121173106 0.12210041 -0.078128405 0.0020587307 -0.028468698 -0.014451053
-0.057758786 -0.11513598 0.09383078 -0.07170291 0.0057120803 0.09276664 -0.13747922 -0.035061046
0.06284498 -0.08975837 0.09151869 0.0047176345 0.06376279 0.07195009 0.0019766113 -0.03913182
-0.06351988 0.09017568 -0.00037577417 0.05988478 -0.005527771 -0.11077654 0.089501485 0.019170448
-0.11020884 0.060130354 -0.05743241 0.06145336 -0.07570286 -0.094234854 0.0012714869 -0.07873654
-0.12909922 -0.03179871 -0.027064493 0.07578605 -0.015490279 -0.034391697 0.027900903 -0.0062498394
-0.08649041 0.026198974 -0.07245043 -0.044808585 -0.043532945 0.044382498 0.076248124 -0.13082851
00000000: 7224 a33c 4948 17bd 3606 263d 7812 193d
00000010: a750 293d 7243 25bd 8ef2 dcbd 983a 953d
00000020: efb7 943c 3425 e23c ff25 9fbd 1eb7 083e
00000030: 271a b93d 9306 0dbe c274 db3d e43c 19bd
00000040: 713a 9fbc 1b5f a2bd 67f6 80bd c9d2 fcbd
00000050: 54c9 f73b 8562 adbc b179 0b3d dd32 80bc
00000060: 013b a8bc 01b3 d7bd 8a16 35bd 7fd3 0abe
00000070: 9644 023d 85d3 b63d d314 cdbd eda6 953d
00000080: dde1 293d 137e 82bd 6f48 cdbd 8385 153d
00000090: 95ab 2abd 5fb8 e93c 72bf 8dbd fb9b c43d
000000a0: dc99 2a3d 04cb 0b3d 6445 fa3d 2946 bb3d
000000b0: 9d7a 75bd 5bb9 89bd a17c 8ebd 6d43 b83d
000000c0: 1b97 9ebd 3962 ccbc cd96 493c 0541 9fbd
000000d0: 23e0 813d ea88 7bbd 37a4 dc3d 1ad6 603d
000000e0: dd1a 8b3d 2509 da3d 048a bf3d 3861 cabc
000000f0: 020d d23c 3969 df3c 07c7 51ba 6278 8f3c
00000100: 6cb9 04be 5997 803d 6ccd c43d 1cb5 14bc
00000110: 5e3a a8bd 9533 d63d 5c39 afbd 6be6 8e3d
00000120: a327 233c c42e b33c 7b7c ccbc 5219 313d
00000130: e817 bcbb 8baa c13d aa61 a6bd fb72 013e
00000140: 4998 ac3c e8f1 993b d0a8 f9bd 4000 fcbb
00000150: 9772 84bd b460 55bd 31ed 85bd d779 c0bc
00000160: 11ae ab3d 40c5 d83c 8cbc 1cbc 2538 07be
00000170: e236 013c 8cd3 073d fc09 9bbd 833d c8bd
00000180: 3362 a23c a1d0 a4bd c218 823d a518 5bbd
00000190: 908f c7bd c3a6 05be 7027 43bb c158 c33d
000001a0: cd18 4abd 2e56 5b3d a536 8e3d 304b bebd
000001b0: 6e7e 45bc 23d5 7a3c 834b a53c 955d 88bd
000001c0: b290 31bd 10e8 163e cf31 663d 24ed c0bd
000001d0: 0776 44bc d591 033e f134 f3bc 9df3 c33d
000001e0: 3446 1d3c 32ca 523d 69cb 13bc 212f d0bd
000001f0: f2d0 a6bd 0357 38bd 22be 0ebd ac3b 85bd
00000200: 7648 143c 3327 013d 94d8 69bd d151 7c3d
00000210: a111 00be 5c2d f43c 2b38 8cbc 53ad 09bd
00000220: fcb2 ffbc 3172 103e 32a6 953d 8aed 963c
00000230: dcba ab3d e5ce a7bd c533 753d 87e0 553d
00000240: 5e4c 083e 236e 08be 89e2 ddbb 135d 01be
00000250: b73d 813d 7fe7 023d 681e a5bd 758d 01bd
00000260: e6af dc3d 81c4 5c3d 2967 d13d 4a62 9c3d
00000270: ed01 b03c 2fc9 98bd 1ea4 acbd 9e60 bcbd
00000280: 6260 19bd 5406 0cbc 1273 7ebd 0d29 1ebd
00000290: 5a94 9b3d 3cb2 cc3d 0aaa 15bd add0 0a3d
000002a0: 2aca 65bd 60da 98bd ebe2 e23d 554f 07bd
000002b0: e781 683d c5c9 8c3c d91d f33d 5050 ae3d
000002c0: 7797 9ebc 3a59 c23d 76d4 b0bd d8bc 59bd
000002d0: 844b 3dbd 8e2e a2bd e559 003d ff96 e73d
000002e0: 2570 d43c 0578 dcbd d309 36bd a431 a8bd
000002f0: 4658 74bd 9acf be3d 3fc6 83bd 7a89 b73d
00000300: c89e d23d 3056 babc 0e08 94bd d1cd d0bc
00000310: 2ef6 50bd 2c0e 56bd 7126 f23d e607 2c3d
00000320: 9993 ae3b 1ea5 f83c 9b29 f8bd c80f fa3d
00000330: c901 a0bd c5eb 063b 3037 e9bc 1cc4 6cbc
00000340: 7a94 6cbd 6acc ebbd 5a2a c03d fad8 92bd
00000350: 672c bb3b 70fc bd3d 5ac7 0cbe 2c9c 0fbd
00000360: deb4 803d 3cd3 b7bd 276e bb3d 6396 9a3b
00000370: 1196 823d 925a 933d 098a 013b b048 20bd
00000380: b616 82bd 07ae b83d 8e03 c5b9 be49 753d
00000390: 4e22 b5bb d0de e2bd 8e4c b73d 580b 9d3c
000003a0: 2cb5 e1bd 3f4b 763d 3f3e 6bbd 85b6 7b3d
000003b0: 1a0a 9bbd 34fe c0bd 05a8 a63a a040 a1bd
000003c0: 9632 04be 5d3f 02bd 5bb6 ddbc b735 9b3d
000003d0: f0ca 7dbc 4fde 0cbd 6f90 e43c 74cb ccbb
000003e0: e221 b1bd 3b9f d63c e460 94bd 3589 37bd
000003f0: 9a4f 32bd 6cca 353d fa27 9c3d e9f7 05be

lstm.bias_ih_l1 f4 [256]
0.14508086 -0.07188689 0.00025002126 0.033302132 0.07877765 -0.03410851 -0.044926763 0.026906652
-0.07350956 -0.03316582 -0.0074066673 -0.01502317 0.06437933 -0.033772033 -0.0735459 0.040432673
0.04792897 0.05329807 -0.081875026 0.02571138 -0.04371764 -0.059864067 0.06711743 0.07564895
-0.05268902 0.113559134 0.12928513 -0.07795347 0.0791276 -0.072754316 -0.028465383 -0.07357089
0.14262055 0.026491717 0.065729626 -0.104137786 0.10587802 0.048255965 0.121959314 -0.022308985
0.011111051 0.0146997105 -0.06127556 0.06508222 -0.014780067 0.14713417 0.02164031 -0.084386766
-0.09873388 0.057940934 -0.10101112 0.00067442603 -0.015154669 0.06776698 -0.10245268 0.118365765
-0.051625744 -0.07156139 0.063602686 0.007907436 -0.075053036 0.08757752 0.11621437 -0.020726081
0.1141495 0.081982695 0.008391294 -0.043861236 -0.033428945 -0.0068110917 0.06546089 0.05005761
-0.13597888 -0.013644578 -0.07338512 -0.06048811 0.09896894 0.017824939 -0.04569004 0.1444517
-0.01844999 0.14406215 0.07235204 -0.07738739 0.13242885 0.023528092 -0.10338142 0.10464067
-0.07221138 0.060432263 -0.07028463 0.09767542 -0.10257467 0.046692625 0.13818836 -0.0039034497
-0.055400457 0.090564035 0.029320145 -0.058421474 -0.052402858 0.0029953718 0.037355 -0.0027843902
0.030628169 0.11085424 -0.0034630203 -0.06576323 0.012857557 -0.05096521 -0.04880191 0.10611327
0.107119605 0.11207586 -0.081571415 -0.07208448 0.099336095 0.060050756 0.08305956 -0.059669066
0.099635035 0.06634528 -0.08045613 0.033247624 0.008300756 0.00026244155 0.10483626 0.117216416
-0.08021914 -0.11927591 0.016550837 0.015026325 0.06194654 0.09963758 -0.05310175 -0.12020322
-0.055384047 -0.035940975 -0.13084176 -0.03564586 -0.05102066 -0.026840009 0.019275188 -0.04481126
0.102507144 0.022100009 -0.10441867 0.027811296 0.072046265 -0.088841714 -0.09145396 0.10710341
-0.09216644 -0.05210031 0.10322762 -0.123003304 -0.0749777 0.0736626 0.05481696 -0.12313091
0.085132815 0.07050187 0.04894804 -0.08071509 -0.075300924 -0.10809333 0.10635403 -0.0032662593
-0.095585644 0.08573964 0.1264318 -0.12871738 -0.05969043 -0.047381412 0.08533061 0.10097853
-0.08647846 0.014740349 -0.036055278 -0.0695331 0.09014471 -0.0021199386 0.06683495 -0.079515375
-0.1253222 0.11128797 0.05163702 0.12729174 0.11905993 0.12916751 0.07924612 -0.1227974
-0.09892829 0.086863525 -0.007977773 -0.044419575 0.0077194585 -0.08100984 0.046417568 0.07406427
0.014788998 0.1255007 -0.052430026 0.114967234 0.14901762 0.04244424 0.005175769 0.14864703
0.11908956 0.013964795 0.12898545 0.046125896 0.03246387 -0.008873505 0.12356196 -0.07898313
0.07557763 -0.027422916 0.07880624 -0.08653187 0.11005319 0.009788419 0.033918075 0.074905306
0.12088141 -0.06980388 0.15015703 -0.042624142 -0.005509538 -0.08970037 0.07974614 -0.05418621
-0.07380819 0.0038069668 -0.049471717 -0.009535143 0.07900211 -0.06073487 0.059247226 0.100309245
-0.010622059 0.031527463 0.12623256 0.091516495 0.010757742 0.07547227 0.09532783 0.11401424
0.01737967 0.050481852 0.07805889 -0.10027982 -0.041535035 -0.019373536 0.04020302 -0.073127314
00000000: 1490 143e 6f39 93bd 4915 8339 d167 083d
00000010: 2d56 a13d 5db5 0bbd 2005 38bd 576b dc3c
00000020: 2e8c 96bd e2d8 07bd a1b3 f2bb be23 76bc
00000030: 4fd9 833d 8b54 0abd 3c9f 96bd bb9c 253d
00000040: 2b51 443d 144f 5a3d 18ae a7bd aca0 d23c
00000050: 4511 33bd 0634 75bd dd74 893d d6ed 9a3d
00000060: 71d0 57bd b191 e83d 5263 043e 12a6 9fbd
00000070: a70d a23d 3700 95bd 3c30 e9bc 56ac 96bd
00000080: 1f0b 123e 2805 d93c 419d 863d 3146 d5bd
00000090: 93d6 d83d 0ca8 453d cec5 f93d 55c1 b6bc
000000a0: 200b 363c 0ed7 703c 15fc 7abd d449 853d
000000b0: 1828 72bc 57aa 163e 0547 b13c f8d2 acbd
000000c0: fd34 cabd 7953 6d3d ebde cebd f7cb 303a
000000d0: 4a4b 78bc 6ac9 8a3d b6d2 d1bd c069 f23d
000000e0: 8475 53bd c78e 92bd 2042 823d 318e 013c
000000f0: 68b5 99bd d85b b33d cd01 ee3d bec9 a9bc
00000100: 37c7 e93d 8be6 a73d a37b 093c d7a7 33bd
00000110: caec 08bd 942f dfbb 5c10 863d 3509 4d3d
00000120: 0c3e 0bbe 828d 5fbc f04a 96bd 61c2 77bd
00000130: 3ab0 ca3d 9b05 923c 7b25 3bbd 25eb 133e
00000140: 6f24 97bc 0785 133e 4e2d 943d 487d 9ebd
00000150: 6e9b 073e fcbd c03c a3b9 d3bd d94d d63d
00000160: 8fe3 93bd d287 773d 63f1 8fbd 0d0a c83d
00000170: ab12 d2bd c440 3f3d 4081 0d3e 05d1 7fbb
00000180: 97eb 62bd a379 b93d cd30 f03c 5b4b 6fbd
00000190: 61a4 56bd 004e 443b 8e01 193d 517a 36bb
000001a0: ede7 fa3c 8c07 e33d d7f3 62bb dfae 86bd
000001b0: 81a8 523c e5c0 50bd 83e4 47bd ea51 d93d
000001c0: 8661 db3d 0788 e53d ea0e a7bd 07a1 93bd
000001d0: b970 cb3d c8f7 753d 211b aa3d 8d67 74bd
000001e0: 740d cc3d 09e0 873d 2fc6 a4bd a92e 083d
000001f0: e5ff 073c 4f98 8939 65b4 d63d 290f f03d
00000200: ef49 a4bd ee46 f4bd 9f95 873c fa30 763c
00000210: a8bb 7d3d ca0e cc3d 3881 59bd 1b2d f6bd
00000220: 62da 62bd d836 13bd 62fb 05be 6501 12bd
00000230: 0afb 50bd 94df dbbc 00e7 9d3c 038c 37bd
00000240: 44ef d13d 140b b53c 75d9 d5bd 84d4 e33c
00000250: fe8c 933d a5f2 b5bd 374c bbbd 0859 db3d
00000260: c2c1 bcbd 2267 55bd 0169 d33d 28e9 fbbd
00000270: e98d 99bd 6bdc 963d c087 603d 0f2c fcbd
00000280: 1d5a ae3d 4963 903d bd7d 483d f44d a5bd
00000290: 5f37 9abd 0960 ddbd 24d0 d93d bd0e 56bb
000002a0: 68c2 c3bd 4498 af3d 5677 013e 7dce 03be
000002b0: f47d 74bd 0313 42bd d1c1 ae3d d5cd ce3d
000002c0: 9e1b b1bd 8181 713c b3ae 13bd 5f67 8ebd
000002d0: ca9d b83d abee 0abb c3e0 883d f5d8 a2bd
000002e0: 7654 00be f2ea e33d 5781 533d c458 023e
000002f0: b1d5 f33d 7d44 043e ca4b a23d 347d fbbd
00000300: ea9a cabd 81e5 b13d 35b5 02bc 4df1 35bd
00000310: 83f3 fc3b 7de8 a5bd 5920 3e3d 02af 973d
00000320: 8e4d 723c 4183 003e dec0 56bd f173 eb3d
00000330: 1398 183e 03da 2d3d 7f99 a93b ed36 183e
00000340: 3ae5 f33d 98cc 643c c314 043e 82ee 3c3d
00000350: d6f8 043d 2d62 11bc 0e0e fd3d e8c1 a1bd
00000360: 72c8 9a3d 06a6 e0bc 2a65 a13d 9f37 b1bd
00000370: 9163 e13d 9b5f 203c aeed 0a3d f467 993d
00000380: ac90 f73d 56f5 8ebd c4c2 193e a796 2ebd
00000390: 5b89 b4bb d4b4 b7bd f251 a33d 5cf2 5dbd
000003a0: c028 97bd 4e7e 793b dba2 4abd 4a39 1cbc
000003b0: dccb a13d 21c5 78bd 38ad 723d ef6e cd3d
000003c0: 2508 2ebc f122 013d 1c43 013e 006d bb3d
000003d0: 3e41 303c 3591 9a3d 3d3b c33d 4c80 e93d
000003e0: cf5f 8e3c 0fc6 4e3d 57dd 9f3d 825f cdbd
000003f0: a420 2abd 40b5 9ebc ecab 243d c6c3 95bd
