VAE-LSTM-anomaly–detection/experiments/NAB/nyc_taxi/NAB-nyc_taxi-win60-seq20-codesize20/checkpoint/vae_best_model.pth (torch, 704018 bytes, 23 tensors)

encoder.0.weight f4 [16, 1, 3, 1]
000000 89 9d e6 3e 35 4e 8b be 13 76 80 be b3 06 f1 3e
       0.45042065 -0.27208105 -0.25090083 0.47075424
000010 41 48 f8 3e 1b fb cc 3e 6f 1f ad 3e c8 8b 61 be
       0.48492625 0.40035328 0.33813044 -0.22025979
000020 65 9e 54 be ac c7 dd 3e 71 91 bf bd 1b 81 e3 be
       -0.20763548 0.433164 -0.093539126 -0.44434437
000030 b5 33 c5 3e a6 1b b7 3e 93 5e e9 3d 0c b0 d8 3e
       0.38516012 0.35763282 0.11394992 0.42321813
000040 20 97 ba be 48 d2 0b 3d 41 71 fe be d1 b2 77 3d
       -0.36443424 0.034136087 -0.4969578 0.060473267
000050 ce c0 c9 3e fc e4 bf be a0 28 1c be 9e 06 c7 be
       0.3940491 -0.3747939 -0.15249872 -0.38872236
000060 7e e1 2e be ba 54 88 be 67 be 17 be b9 8b 73 be
       -0.17078206 -0.2662714 -0.14818726 -0.23783769
000070 3c 4e e2 3e f0 fc e2 3d a0 03 4e bd 36 df 32 3d
       0.44200313 0.110834 -0.050296426 0.0436699
000080 8f 13 03 bf ab 1d 42 3e 02 2d 0c 3f 44 3f aa be
       -0.5120172 0.1895663 0.54756176 -0.33251393
000090 e4 b2 a0 3e 83 98 9a be 44 41 bd be 16 8f f4 3e
       0.31386483 -0.30194482 -0.36963856 0.47765416
0000a0 a2 5e 8d bd 56 2a 60 ba 82 96 6a be d0 50 03 bf
       -0.069028154 -0.00085512304 -0.22908977 -0.51295185
0000b0 90 bb 74 be d6 18 68 3e 01 59 e9 bd f9 d7 a0 3d
       -0.23899674 0.22665724 -0.11393929 0.078536935

encoder.0.bias f4 [16]
000000 73 27 5d 3e 11 67 4e be e3 22 11 3f 81 8d ff 3e
       0.2159708 -0.20156504 0.5669386 0.49912646
000010 d7 0c 85 be cf 60 e5 be 38 ee 0e 3f f7 75 c6 bd
       -0.2598636 -0.44800422 0.5583224 -0.09690469
000020 69 02 37 3d 75 ee ed 3e b1 83 d7 3e 28 6f d4 be
       0.044680033 0.4647099 0.4209266 -0.41491055
000030 9f 62 8e bd 46 58 82 3e c6 60 0c bf b5 17 0d bf
       -0.06952404 0.25457972 -0.54835165 -0.551143

encoder.2.weight f4 [32, 16, 3, 1]
000000 7b da b8 3d cd a9 fc 3d 8b 7c 06 3e 06 81 f1 3d
       0.09026047 0.123370744 0.13133447 0.117921874
000010 1d 1f 7a 3c 5f 85 48 bd 34 b8 9d 3d 20 6e 0a 3e
       0.015266207 -0.048955318 0.077011496 0.13518572
000020 f6 24 b7 3d 18 59 df 3d 2b 69 b9 3d 3e 2c 8d 3d
       0.089425966 0.10905665 0.09053262 0.06893204
000030 63 3e 0c bd f3 82 14 bc 04 9a 19 3c 80 3a f3 bd
       -0.034239184 -0.009064424 0.009375099 -0.11876392
000040 84 c9 c3 3d 1b a4 fc 3d 54 49 be bd 6f ae 0b 3e
       0.095599204 0.12335988 -0.0929133 0.1364076
000050 5e 82 f2 bc 32 82 f9 3c 7a 40 01 be c8 02 96 bc
       -0.02960318 0.03045759 -0.12622252 -0.018311873
000060 38 3b 4c 3d 08 48 05 3e c9 13 f3 3b b8 41 06 3e
       0.049861163 0.13015759 0.00741813 0.13111007
000070 e0 fd 06 3d b4 8c 39 3d 09 40 44 3c 3b 78 31 3d
       0.032956958 0.0453002 0.011978158 0.04332755
000080 15 24 9c 3d ec 11 fe bd 06 2a b0 bd 1d 50 79 3c
       0.076240696 -0.12405762 -0.08601765 0.015216854
000090 5b 18 30 bc 75 ba c0 3c 3c a2 01 3d f1 7b b9 3c
       -0.010747994 0.02352641 0.03164886 0.022642108
0000a0 4d cb 91 3c 5e da 02 bd 48 6c 76 bc 35 51 07 bc
       0.017797137 -0.031946532 -0.015040465 -0.008259107
0000b0 71 a5 07 3e b7 15 5f 3d fe 3b 14 be 72 3a 76 bd
       0.13246705 0.05446407 -0.1447601 -0.06011433
0000c0 04 1e 14 bb 1c 0f fe 3d 06 14 05 be 2a bc 82 3d
       -0.0022600899 0.12405226 -0.1299592 0.06383546
0000d0 fc 56 3a bd d3 73 24 bd 20 16 0b 3d 44 2d 05 3d
       -0.04549311 -0.04014952 0.033956647 0.03251387
0000e0 4b 4e 05 3d 98 5c 06 be 87 49 05 3e e6 25 69 3d
       0.03254537 -0.13121259 0.1301633 0.05692091
0000f0 16 7c cc 3d 12 89 d2 3d a4 da 48 3c 88 13 70 bc
       0.09984605 0.1028005 0.012259159 -0.014653094
000100 4b 6e d7 3d 5f 75 e5 3d b1 ec f8 3d c5 05 00 be
       0.105190836 0.112040274 0.1215452 -0.12502201
000110 45 16 59 bc 27 24 89 3d 3f 18 bf bc 6e 3f 57 3d
       -0.013249938 0.06696349 -0.023326991 0.052550726
000120 fe ba a0 3d 7e 64 db bc ff 2f cf bb b5 f8 ee bd
       0.07848166 -0.026781317 -0.0063228603 -0.11668531
000130 b4 be e8 3c 5a 56 a4 3d 10 d1 b2 3d ed 00 c3 3c
       0.028411247 0.08024283 0.08731282 0.023804152
000140 df 1e 94 3d 7b 3c 3e 3d 53 5a 51 b9 6d e4 38 3d
       0.07232451 0.046444397 -0.00019965442 0.04513972
000150 24 c5 e9 bd 74 7f 9d bd b7 bf 5f 3c b2 04 b5 3c
       -0.11414555 -0.076903254 0.013656548 0.022096965
000160 98 25 fa bd 42 e0 99 3d ca 26 8a 3c f8 8e 2c bd
       -0.12214202 0.07513477 0.0168642 -0.042128533
000170 12 3a e1 bd eb 76 af bd 7b fc 89 bd f9 12 09 3e
       -0.10997404 -0.08567604 -0.0673761 0.13386144
000180 c4 10 c3 bd 48 fa ba bd dc 28 15 3c 5f 1b 8a 3d
       -0.09524682 -0.091297686 0.00910398 0.06743502
000190 c2 e4 0e bd 9d 2f 74 3d b0 0a 04 3c e7 a9 88 bb
       -0.03488613 0.05961572 0.008059189 -0.0041706446
0001a0 02 85 3a bd 0b 6a c1 3d fa 6a 84 bd 98 bd 10 3e
       -0.045537002 0.09444054 -0.06465717 0.14134824
0001b0 76 31 01 be f0 0f 0c be 35 c0 94 3d 08 10 4a bd
       -0.12616524 -0.13677955 0.07263223 -0.049331695
0001c0 6b 4f 98 bd 14 c4 c1 bc 27 b6 c3 3d bf 0a 10 3d
       -0.07437023 -0.023653068 0.09556227 0.0351665
0001d0 53 03 1a bd 35 c8 d9 bd 7a e9 c8 3c 9d 62 07 bd
       -0.037600826 -0.106338896 0.024525393 -0.03305303
0001e0 ca 5c d6 3b 65 c2 86 bd dd b5 8d bd 43 d9 ff 3d
       0.006541823 -0.065800466 -0.06919453 0.12492611
0001f0 9e b0 d0 3d 37 4a a1 bd 57 f3 e9 bd 14 de ae bd
       0.10189937 -0.078754835 -0.114233665 -0.08538452
000200 16 ae f4 bd 17 fa 07 3e 55 56 27 3d c6 3c fb 3b
       -0.11947267 0.13278995 0.040853817 0.007667157
000210 36 a3 f9 3d 1f 61 d3 3d 2a ba 82 bc 05 bb f3 3b
       0.12189333 0.10321259 -0.01595791 0.007438066
000220 6d 43 22 bd 48 d2 77 3c 9b 54 86 3d 10 71 6e 3d
       -0.039615083 0.015125819 0.06559106 0.058213294
000230 f9 70 e6 bd 06 f9 ad 3d 97 7c ee 3d ba d2 b6 bd
       -0.112520166 0.08494763 0.116448574 -0.08926912
000240 72 fc c2 bd 46 fe a0 bb 19 71 8c bd 3f 9a 86 3d
       -0.09520806 -0.0049131243 -0.06857509 0.06572389
000250 30 ab 76 bd 24 af c4 bd ca 37 bb 3d f9 14 c2 3d
       -0.06022185 -0.09603718 0.091415 0.094766565
000260 41 b4 0a 3e fa bf d6 bd c3 cb f8 3d fe 85 04 be
       0.13545324 -0.104858354 0.121482395 -0.12941739
000270 f5 e8 52 3d 1c a9 eb bd fd 01 a6 bd 03 1c 94 3d
       0.051491696 -0.115068644 -0.08105848 0.07231905
000280 34 a9 e3 3d ed b0 cd bd 84 f1 00 bd 9a 27 72 3d
       0.11116257 -0.100435115 -0.031480327 0.0591198
000290 c2 8e c0 bd 98 96 57 3d a0 6f 03 be cc 49 8d bd
       -0.09402229 0.05263385 -0.1283555 -0.06898841
0002a0 f7 30 12 3d d5 1f 94 bc 97 d5 02 3e a7 27 df bc
       0.035691228 -0.018081585 0.1277679 -0.027240587
0002b0 92 35 b9 bd ec de f5 3d 4d 97 6c bc 02 b2 71 bc
       -0.09043421 0.120054096 -0.01444037 -0.014751913
0002c0 47 c1 84 3c fe b6 34 3c ee f1 8b 3d 2f 8f d2 bd
       0.016205443 0.011029957 0.06833254 -0.10281216
0002d0 58 5a a8 bd a8 2e 12 3e 81 d5 dd 3d 87 8e 5f 3c
       -0.08220357 0.1427561 0.10831738 0.013644821
0002e0 e4 f1 15 bc 39 7f b5 bb b9 f1 24 3c 11 32 64 3d
       -0.0091519095 -0.0055388478 0.010067397 0.05571181
0002f0 09 85 86 3c cf d7 98 3d cb 7d d5 bd c9 f0 e7 3a
       0.016420858 0.07463037 -0.10424384 0.0017695661
000300 35 d8 d5 bd 8d cf 7f 3d d2 f0 d9 3c 62 df 89 3d
       -0.10441629 0.062453795 0.02660409 0.0673206
000310 ae d9 ce ba d0 e3 c1 bd 20 b2 da bd 77 b1 fb bd
       -0.0015781426 -0.0946728 -0.10678506 -0.12289708
000320 18 4d 86 3c 8c 08 0b bd e6 7d f3 3d d3 00 97 3d
       0.016394183 -0.033943698 0.118892476 0.07373204
000330 3d 38 79 3d c6 77 08 3e d8 26 ad 3c cb 62 f8 3d
       0.06084465 0.1332694 0.021136686 0.12128218
000340 b5 af dc bd 34 89 0c 3e 89 4d ec 3c 20 51 86 bc
       -0.10775701 0.13724214 0.028845565 -0.016396105
000350 45 f0 fa 3b 2b 5d 6c 3a 3b 2c 78 bd d4 ac c0 3d
       0.007658037 0.00090165687 -0.060589056 0.09407964
000360 52 88 09 be 36 7e c8 3c b6 da cb 3d fd 88 86 bd
       -0.13430908 0.024474245 0.09953825 -0.06569097
000370 db 7e c6 bc eb be bb 3d f2 6f 61 3d 62 42 b5 bd
       -0.024230411 0.09167274 0.0550384 -0.08850552
000380 6d 86 a7 bd 8d ec 91 bc ec f6 e9 bd 26 64 0e 3e
       -0.081799366 -0.017812992 -0.1142405 0.13905391
000390 a8 96 8e bd b9 a1 b8 3d 46 70 05 3e 3e cb 95 bc
       -0.06962329 0.09015221 0.1303111 -0.01828539
0003a0 39 bb 95 bd f5 07 02 be cb 05 d1 3c 6d 3a b6 3d
       -0.073111005 -0.12698348 0.025515458 0.088978626
0003b0 c1 c4 0c be 7e 49 86 3d 9b 2e 62 bd 8f 00 77 bd
       -0.1374693 0.06556986 -0.055220228 -0.060303267
0003c0 ec e8 40 3d d9 a4 e3 3d 37 8e 33 bd e4 cb a2 bd
       0.04709713 0.111154266 -0.0438368 -0.07949045
0003d0 fa 4b 0e bd 9c bb bc 3d e5 23 9b bd 21 22 8c bd
       -0.034740426 0.09215471 -0.07575206 -0.06842447
0003e0 d8 3e 9b bd 06 fa b0 bc b2 1a 6b bd f6 bc d5 3d
       -0.07580346 -0.021603595 -0.057398506 0.10436432
0003f0 4b 5f ca 3d 98 05 83 bd 83 2a 99 bc 91 95 9c 3d
       0.09881457 -0.06397551 -0.018697029 0.07645715

encoder.2.bias f4 [32]
000000 32 97 ef 3c b2 e8 c3 3d 03 d9 ad 3d 2b 52 ff 3d
       0.0292469 0.095658675 0.08488657 0.12466844
000010 c6 61 0a 3e 0e 16 8e 3d 03 c3 8f bc 70 dc be bd
       0.1351386 0.069378 -0.017549044 -0.09319389
000020 80 0f bd 3d d0 4d 1c 3c 74 9c 70 3d a0 1d 87 3c
       0.09231472 0.009540036 0.058742955 0.016493618
000030 82 12 2e bd 30 d8 e5 3d e3 bf 89 bd 3e b2 07 bd
       -0.04249812 0.11222875 -0.067260526 -0.03312897
000040 5a 97 f9 bc c3 49 ef bd 84 f0 12 be 27 4b 96 3d
       -0.030467678 -0.11683991 -0.14349562 0.07338553
000050 7b f0 d8 bd e9 ad 18 bd fd a2 fc bd 39 c3 5c 3d
       -0.10592743 -0.03727523 -0.12335775 0.053897116
000060 ed e7 5d bd 39 97 89 3d ad 92 69 3d e0 68 e6 bb
       -0.05417626 0.067182966 0.057024647 -0.007031545
000070 d2 d1 ab bd e5 7a 94 3d e2 23 8f 3c 72 9a 67 bd
       -0.083896294 0.07250003 0.017473165 -0.056543775

encoder.4.weight f4 [64, 32, 3, 1]
000000 36 09 b1 3d cd 84 23 bd 4e 8a 4e bd 00 ec a7 bd
       0.08644335 -0.03992157 -0.050424866 -0.0819931
000010 dd f6 b2 bd b8 5f 50 bd 9c 46 fb bc 4c 78 81 bd
       -0.08738492 -0.050872535 -0.030673318 -0.06321773
000020 eb 48 a2 bd 55 50 d0 3d 42 00 c1 3d 0d 41 1b 3d
       -0.07924064 0.10171572 0.09423877 0.037903834
000030 4c c3 99 3d f3 5e b6 bd 2a 95 a1 bd af 59 88 3c
       0.07507953 -0.08904829 -0.07889779 0.016644327
000040 c8 33 b7 3c c2 1e b5 3d b1 04 a4 3d 5b cc 8c 3d
       0.022363558 0.08843757 0.08008707 0.06874915
000050 5b e8 29 bb f3 5a 85 3d 72 3f 81 bd c3 86 80 bd
       -0.0025925848 0.06511488 -0.06310929 -0.06275704
000060 9d ff 3c 3d ae 8b c3 bd e8 ee 5c bc 21 11 96 3d
       0.04614221 -0.09548126 -0.013484694 0.07327486
000070 67 6d d1 bc 6c 42 fe 3c 0c 75 ad bc ce b2 c9 bd
       -0.025564862 0.031037532 -0.021173976 -0.098485574
000080 01 72 89 3d 3a 72 d0 3d d0 99 0f 3b 2f d0 8e 3d
       0.06711198 0.10178037 0.0021911748 0.069733016
000090 fe ae d9 bc 33 50 a3 bd 67 a2 ca bd d6 39 88 bd
       -0.0265727 -0.07974281 -0.09894257 -0.06651656
0000a0 ab 85 b1 bc 85 99 1b 3d 90 2b 8d 3d b8 ab aa 3d
       -0.021670183 0.037988205 0.068930745 0.08333534
0000b0 d9 67 95 bd ef c3 61 3d f2 4a 97 bd 88 11 db 3c
       -0.07295198 0.055118497 -0.073873416 0.026741758
0000c0 e0 2c 0f bd 40 33 8f bd 47 49 3e bc bc a5 34 bd
       -0.034954906 -0.06992197 -0.01161415 -0.04410337
0000d0 18 96 12 bd 97 f6 98 3c 3b c8 63 3d 31 f3 7e 3d
       -0.03578767 0.01867227 0.055610877 0.062243644
0000e0 9c ee 37 bd a4 a7 6a bd b7 00 be 3d be df f6 bc
       -0.04490529 -0.05728878 0.0927748 -0.030135985
0000f0 49 8d a4 bd 93 af 26 bd 31 4b 18 bd 24 34 fb bc
       -0.080347605 -0.040694784 -0.037181083 -0.030664511
000100 35 86 01 3d 92 cf 36 bd c0 63 b7 3d ae 72 8d 3c
       0.03162213 -0.04463155 0.08954573 0.017266598
000110 33 3f b7 3c f8 72 81 bc fe 41 0e 3d 36 d2 ca 3d
       0.022369003 -0.015801892 0.034730904 0.09903376
000120 54 cd 85 bd 1b 13 62 3c cd ae 72 3d b1 42 6e bd
       -0.06533304 0.0137985 0.059248734 -0.05816907
000130 39 e0 03 bd d6 77 b1 bd c3 8d 63 3d 33 7e 11 bd
       -0.032196257 -0.08665435 0.055555116 -0.035520744
000140 44 73 a6 bc 49 30 b4 3d b7 11 6f bd 6f 4b 0f 3d
       -0.020318635 0.08798272 -0.058366504 0.03498405
000150 9f e9 7e bd 8f 69 cf bc cd 98 38 bd 74 fb 20 3d
       -0.062234517 -0.025318889 -0.045067597 0.039302304
000160 1f c8 81 bd 81 69 83 3d fd 37 57 bb 64 a3 cf 3d
       -0.06336998 0.06416608 -0.0032839768 0.10138586
000170 7e 34 10 bd ca 3b 93 bd b8 c6 11 3d d5 e1 65 bc
       -0.03520631 -0.07189138 0.035589904 -0.014030893
000180 9e d1 8e bd 9c fb 21 bd 3d e7 e1 3c 0c 15 c2 bc
       -0.06973575 -0.039546594 0.027576083 -0.023691677
000190 2b 92 81 3d fc 4c c2 3d a5 9e c6 3d 55 88 24 3d
       0.063267075 0.0948734 0.09698228 0.04016908
0001a0 77 5e cc bd e0 f6 74 bc 83 a3 a9 3d 46 63 f6 3c
       -0.09978955 -0.014951438 0.082831405 0.030076634
0001b0 d9 32 93 3c da 49 bc 3d 25 0f 78 bd 0e bb b8 bd
       0.017968582 0.091937736 -0.060561318 -0.09020053
0001c0 e8 0a 4b 3d 01 e8 ae 3d 97 de 9f bd 89 3d 98 3d
       0.049570948 0.08540345 -0.078061275 0.07433612
0001d0 d8 84 84 3c ca 26 43 bb 21 df ba 3d 7f f5 5a bc
       0.016176626 -0.0029777759 0.0912459 -0.013364195
0001e0 a5 15 9e 3a c5 a0 cc bb c3 04 97 3d d6 96 a8 bd
       0.0012060894 -0.006244751 0.07373955 -0.08231895
0001f0 c2 8f 1e 3d 78 a9 83 bd 0b ea a9 bc 12 f9 2b bc
       0.038711317 -0.06428808 -0.020741483 -0.010496395
000200 76 4b ef bb 1f 20 66 bc a0 26 bb bd 44 9e b8 bd
       -0.007302697 -0.014045744 -0.091382265 -0.09014562
000210 39 96 c6 3d 4a 57 49 3c a6 47 51 3c 94 e5 67 bd
       0.096966214 0.012288878 0.01277343 -0.056615427
000220 d3 b9 92 3d 1e 67 89 3d e0 67 a4 3d 8e 59 88 bd
       0.071643494 0.06709121 0.08027625 -0.06657706
000230 c4 49 b4 3d a0 f2 7d 3d 0b e3 d1 bc bc bd 7b bd
       0.08803132 0.061998963 -0.025620958 -0.06146024
000240 d2 a8 84 3d 17 c8 eb bc 54 a1 a6 bd dc df 4e bd
       0.064775124 -0.028781934 -0.0813624 -0.050506458
000250 2b 30 af 3d cc e9 9d 3d e9 5b ae 3c 99 c7 3a bd
       0.08554109 0.07710609 0.02128406 -0.045600507
000260 4b e2 98 3d 6b 93 9b 3d c8 46 87 bd 19 a7 c7 3d
       0.07465037 0.07596477 -0.06605297 0.09748668
000270 fc c5 2f 3c 62 e9 63 3d af 60 8d bd e6 04 db bc
       0.0107283555 0.055642493 -0.069032066 -0.026735734
000280 d7 dc 88 3c 84 ce 87 bd 9a 82 d3 bd 64 6d 92 3d
       0.016706867 -0.066311866 -0.10327645 0.07149771
000290 48 20 6b 3d 81 94 2f 3d f0 11 cd 3c 70 8f cc bc
       0.057403833 0.042866234 0.025032967 -0.02497074
0002a0 d9 c1 bd 3d b5 08 af bd 6e da 35 3b cb fc 6a bd
       0.09265489 -0.085465826 0.0027748602 -0.05736999
0002b0 6b 42 02 3d f1 6e 40 3d 0f 2c 86 bc b0 24 a1 bd
       0.031801622 0.046980802 -0.01637843 -0.07868326
0002c0 f0 a1 b9 3d e1 01 99 bd ad c6 9e bd 54 0b a1 3d
       0.0906409 -0.074710615 -0.07752738 0.07863489
0002d0 9f 1f 87 3d 14 3a 30 bd 10 cb 25 3d b4 c4 ac 3d
       0.06597828 -0.043024138 0.04047686 0.08435956
0002e0 8f 82 53 3c 42 16 63 3d 65 1d 56 bd ee d8 54 bc
       0.012909546 0.05544115 -0.052274127 -0.012991173
0002f0 12 6c c6 3d 70 d8 66 bd d3 31 a3 3d cd 79 24 3d
       0.096885815 -0.056358755 0.079684876 0.04015522
000300 e1 93 b2 bd ba dd bc bd 55 2f 2a 3d 09 65 8c bc
       -0.08719612 -0.092219785 0.041549046 -0.017138021
000310 75 76 1b 3c 47 16 59 3d ef 11 32 bd 06 a7 84 bd
       0.009488692 0.05299976 -0.043474134 -0.0647717
000320 cf 17 b7 bd 8d 23 85 bd c7 7d 88 3c dc 20 cd bd
       -0.08940088 -0.065009214 0.016661538 -0.10016033
000330 cd 36 8a 3d bb 3c 13 3d fe 7c 4c 3d 11 e8 cd bd
       0.06748734 0.03594659 0.04992389 -0.10054029
000340 1d ec a7 3c d1 9c 7e bd a3 6b 2e bd 1e 5e 56 bb
       0.02049833 -0.06216127 -0.04258312 -0.0032709907
000350 fe 5c a3 3a 42 e1 89 bd 1a 7f 8f 3d 28 b4 14 bd
       0.0012463627 -0.06732418 0.070066646 -0.036304623
000360 f3 ef 84 3d 97 16 9f 3d 67 d8 e4 bc fd 06 b5 3d
       0.06491079 0.077679805 -0.02793522 0.088392235
000370 a5 b4 9e 3d f2 8e 81 bb 48 7e 8a 39 31 bb 6c 3d
       0.07749299 -0.003953808 0.00026415498 0.057795707
000380 26 c5 1b 3d 95 ad 80 3c 47 23 8b 3d 75 d9 d4 3d
       0.038029812 0.01570777 0.06793838 0.10393039
000390 c3 54 c9 3d 9d d7 ab 3b 2f 6e a8 bd 83 4a ba bd
       0.0983062 0.005244209 -0.08224141 -0.09096243
0003a0 2c 22 ce 3c 10 6c f5 bb 58 33 dc bc fc ff 63 3d
       0.025162779 -0.0074896887 -0.026879951 0.055664048
0003b0 1c a7 20 bd e9 43 5e 3d e6 e8 ce bd cb 3c b1 3d
       -0.039221868 0.054263983 -0.101030156 0.086541735
0003c0 8c e3 f1 bc 5e 80 d5 bd d0 09 e5 bc c0 fd b9 3d
       -0.029527448 -0.10424875 -0.02795878 0.09081602
0003d0 a2 0a 01 bd 42 99 12 3d 6f 7d db bc 20 63 2c bd
       -0.03150428 0.03579069 -0.02679321 -0.04208672
0003e0 2a 94 d7 bc 89 54 9f bd cc ab 96 3c fb c8 b4 3c
       -0.026315767 -0.07779796 0.018392466 0.022068491
0003f0 47 04 11 3d c8 01 1d 3d 48 a7 3b 3c 00 02 06 3d
       0.03540447 0.038331777 0.011453457 0.03271675

encoder.4.bias f4 [64]
000000 67 7b fe 3b 78 a3 52 bd 9e 91 50 bd 9f ef c9 bd
       0.0077661755 -0.051425427 -0.05092012 -0.09860157
000010 f1 2d 9b bd be 16 cc bd df 61 8c bd c2 01 c0 3b
       -0.07577122 -0.09965275 -0.06854605 0.0058595845
000020 1b 2d 4a bd 02 85 33 bc 33 66 89 bc f0 40 11 b9
       -0.049359422 -0.0109570045 -0.016772365 -0.00013852469
000030 58 11 b4 3c 1c 2d 2d bd d7 91 23 3d de d2 b0 bd
       0.021980926 -0.042279348 0.039934006 -0.0863397
000040 2f 2c b8 3b 3d 2e 98 bd bf 9a f4 bc e1 ba 92 3d
       0.0056205015 -0.07430694 -0.029858945 0.071645506
000050 1c 99 76 bc 46 75 b8 3d 2e a6 c5 bd bc 7e b1 3d
       -0.015051153 0.09006743 -0.09650837 0.08666751
000060 0c 78 4e bd bc bb 66 3d 19 cd 86 ba f1 fe 28 3d
       -0.050407454 0.05633138 -0.0010284513 0.041258756
000070 bf a4 b2 3d 52 87 aa 3d e9 e5 a2 bd 29 a5 4c bd
       0.08722829 0.083265916 -0.07954008 -0.049962196
000080 5d d8 b7 3c 5f dc 82 3d 58 f5 50 bd d6 70 19 3a
       0.022442037 0.06389689 -0.051015228 0.00058533007
000090 86 73 9d bd cc 1a 63 3d c2 ef 5e bd b0 07 1c 3d
       -0.0768805 0.055445477 -0.05442787 0.03809327
0000a0 d2 0b ad bd 96 41 5e bd 4f a5 b1 3d c0 d6 ab bd
       -0.0844952 -0.054261766 0.08674108 -0.0839057
0000b0 38 c1 8d 3c c5 a7 ba bd 7e 72 42 3d ab be 3a 3d
       0.017304048 -0.09114031 0.04747247 0.04559199
0000c0 06 51 90 3d 4e 5b 1c bc ea e6 b1 3d d8 3c 0f bc
       0.07046704 -0.009543253 0.086866215 -0.008742534
0000d0 2f 4e de bb a9 b5 76 3d c2 84 ba 3d 04 f9 c4 bd
       -0.0067842226 0.06023184 0.09107353 -0.096178085
0000e0 ca 59 97 3d fe ce 8e 3d c5 09 91 bd 02 44 c8 3d
       0.07390173 0.069730744 -0.070819415 0.097785965
0000f0 d7 90 3c bb ff ec ab bc d3 22 d3 3b 7c b6 8d 3d
       -0.0028772855 -0.020987032 0.0064433604 0.06919572

encoder.6.weight f4 [128, 64, 3, 1]
000000 a7 d7 16 3d 20 de 43 3d fd 0e f3 bc 8a d3 52 bb
       0.036826756 0.047819257 -0.029670233 -0.0032169544
000010 b2 8a a3 bc ae c4 03 3d 9f 87 94 3b cb e8 3b bc
       -0.019963596 0.03216999 0.004532769 -0.011469076
000020 84 91 84 3d 8b b6 57 3c a5 82 db 3c b2 3d 5c bd
       0.064730674 0.01316608 0.026795695 -0.053769775
000030 af 54 d8 3c e6 c8 81 bc 7a 51 6a bd ea 73 32 bd
       0.026407568 -0.015842866 -0.05720661 -0.043567576
000040 6d 56 42 3d e7 6c 57 3d 35 f1 5c bd 8d c2 8c 3d
       0.047445703 0.05259409 -0.05394097 0.06873045
000050 d5 25 fe bb 3c 67 4e 3c b1 21 ce 3c cf ec 66 bd
       -0.007755975 0.012597855 0.02516255 -0.056378182
000060 5b 29 17 bd e8 a5 58 3d b9 da e7 3a 36 e6 77 3d
       -0.036904674 0.052892596 0.0017689086 0.06052228
000070 bf f0 8e 3d 45 69 67 bd 77 cc 27 3c 86 d3 b5 bc
       0.069795124 -0.056496877 0.010241619 -0.022195589
000080 d9 74 be 3c a0 73 92 3d 5e d8 7d bb 12 ff 30 bd
       0.023249077 0.0715096 -0.0038733701 -0.043212004
000090 1c 8a 24 3d 87 65 d7 bb 6a c5 89 bd 06 15 13 3c
       0.040170774 -0.0065733823 -0.06727107 0.00897718
0000a0 a7 e8 13 bd a1 cf 15 3b 8e fe 85 3d 68 2c 11 3d
       -0.036110546 0.0022859352 0.06542693 0.03544274
0000b0 ef 4f aa bc 37 e3 b8 3b 3d 15 04 bd 4b 85 31 3d
       -0.020790068 0.0056423205 -0.032246817 0.04334001
0000c0 4e a5 43 3d 85 dd 01 bd ed 39 2d 3d df 5e 75 3d
       0.04776507 -0.031705398 0.04229157 0.05990493
0000d0 51 e3 28 3d 84 04 80 bd a9 0a 6a bd fd bc 9f bc
       0.04123241 -0.06250861 -0.057139073 -0.019499296
0000e0 3a b6 71 bd ac 67 20 bd d2 5e 61 3d ca 43 98 3c
       -0.059011675 -0.03916137 0.05502207 0.018587012
0000f0 40 7c d7 bc c8 e7 a5 ba c5 eb 7f bb bd d4 06 bc
       -0.026304364 -0.0012657577 -0.0039050442 -0.008229432
000100 0f b2 97 3c 8e f8 92 3d 4c 2f 84 bd 91 91 80 3d
       0.018517522 0.07176314 -0.06454334 0.062777646
000110 a7 be 73 bd b7 9c 3e bd 59 be 1b bd 95 5c 4d bd
       -0.059507992 -0.046536174 -0.038023327 -0.05013712
000120 46 98 05 3d 86 cd d3 3c b1 34 7e bd 8c c8 52 bd
       0.032615922 0.025854837 -0.06206197 -0.051460788
000130 8d 1b 57 bc f6 af a0 bc d8 6b 2e bd a2 8a 90 bd
       -0.013129127 -0.019615155 -0.042583317 -0.07057692
000140 13 58 55 bd 19 02 66 bd 3b d5 e7 bc b7 32 e2 3b
       -0.052085947 -0.056154344 -0.028299918 0.0069030183
000150 07 06 52 3d 02 0e 5f 3c 86 01 c2 3a 95 77 21 bd
       0.05127528 0.01361418 0.0014801479 -0.039420683
000160 b8 4a 06 3d 7b ff 5c bd 7c f8 55 bd cc 70 8f 3b
       0.0327861 -0.053954583 -0.052238926 0.00437746
000170 9f 6d 37 bb 06 16 71 3d 53 05 1d 3d be 6a e5 bc
       -0.0027988923 0.058858894 0.038335156 -0.028005
000180 9e 2b 81 3b 93 1f 68 bd 4f d5 bb 3c d4 0a 43 3d
       0.003941967 -0.056670737 0.022928862 0.04761775
000190 91 6c 9a bc 5b 3e 89 3d 3c a3 83 3d 4d a6 58 3d
       -0.018850597 0.067013465 0.06427619 0.05289297
0001a0 95 16 71 3b 39 d3 ff 3c ed d4 8a 3d 8e 38 73 3c
       0.0036787142 0.031228648 0.067788936 0.014845027
0001b0 11 b0 31 3d 73 67 db 3c 9d f8 7f 3d dc b0 0e bd
       0.0433808 0.026782727 0.062492955 -0.034836635
0001c0 bb 40 67 3d df 46 30 3c 34 bc 2b bd 5b 47 71 bd
       0.056458216 0.0107590845 -0.04192753 -0.05890594
0001d0 7b 5c 67 bc e6 d7 b3 3c f6 8a c1 bb ce 4c bb bb
       -0.01412117 0.021953534 -0.005906458 -0.005715943
0001e0 6c 31 0f bd 2c a6 9f bc 0b 37 70 bd 94 06 70 bd
       -0.03495924 -0.019488417 -0.058646243 -0.058600023
0001f0 e0 0a 92 bd 36 82 f2 bc d3 71 9c 3d 73 79 74 bd
       -0.071309805 -0.029603105 0.07638898 -0.059686136
000200 4b 11 c7 3a 85 1c 19 bc b8 d9 a8 3c 8b ea 27 3c
       0.0015187649 -0.0093451785 0.020611629 0.0102487905
000210 8c 54 8d bd fd b1 5c bd 18 3c 7a 3d 3c 33 8f bd
       -0.06900892 -0.05388068 0.061092466 -0.06992194
000220 20 ee 29 3c 2f 82 2e bd ef 5e 5e 3a 57 07 4a bd
       0.010371715 -0.04260462 0.0008482774 -0.049323406
000230 ce bb 57 3d d9 2e 14 bd 20 83 ad 3c 7d de 38 bd
       0.05266934 -0.03617749 0.02118069 -0.045134056
000240 c9 0a 0f bd fe 61 96 3c d2 96 16 3c 65 9e f4 bb
       -0.034922395 0.018357273 0.009191232 -0.007465171
000250 54 91 7a 3d 14 96 b1 3b 2b 57 8b bd 86 74 3c 3c
       0.061173752 0.005419502 -0.06803735 0.011502391
000260 17 b7 3f 3d b2 2b 11 3d 8b 9b 6e bd dd 31 7b bd
       0.046805467 0.03544206 -0.058253806 -0.06132685
000270 c3 a5 32 bd 70 65 46 3d 55 14 b6 bb 1a 4e 89 3d
       -0.043615114 0.048436582 -0.005556623 0.0670435
000280 eb 93 86 bd 14 bb 8f 3d 74 98 83 bd 36 06 1f 3d
       -0.06571182 0.07018104 -0.064255625 0.038824283
000290 e0 ff 50 bc 86 5e c7 3b b8 42 45 bc ad 88 3a bd
       -0.012756318 0.006084266 -0.012039833 -0.0455405
0002a0 9d 1e 9a bc ca 0f 55 bd 41 f8 35 bd bd 31 06 bc
       -0.018813426 -0.05201701 -0.044426206 -0.0081905695
0002b0 29 fc 01 3d a6 b7 47 bc 8c 29 13 bd 0b a1 84 3d
       0.03173462 -0.012189781 -0.035928294 0.06476029
0002c0 df fc 4c 3d ac 1e 38 bd 0b 42 2c bd c4 f1 8b bd
       0.050045844 -0.044951126 -0.04205517 -0.068332225
0002d0 60 c1 ae bc 68 84 7c 3c 09 1f 75 bd 5e 4c 38 3d
       -0.021332443 0.0154124275 -0.05984405 0.044994704
0002e0 33 d6 4d 3d 73 ef f6 bc 59 2c 0c 3d fd 0e a3 3c
       0.050253104 -0.030143475 0.03422198 0.019904608
0002f0 f5 a0 eb 3c a4 6a 88 3d c6 a4 e8 bc 40 cc 55 bd
       0.028763274 0.06660965 -0.028398883 -0.05219674
000300 90 8b 06 3d ac 3f 7e bd 1c 04 24 bc 81 00 8c 3c
       0.03284794 -0.06207244 -0.010010745 0.017090084
000310 46 a7 53 3d 33 1c 9b bc 74 8d 57 bd 7b 80 30 3d
       0.051673196 -0.018934345 -0.052625135 0.04309128
000320 d6 27 08 3d 23 1d 50 3d 71 d8 b4 bc ff 61 5d bd
       0.033241116 0.050809037 -0.022075864 -0.054048534
000330 86 77 fd 3c 07 fe 58 3d c7 79 0d 3c e6 e6 71 3c
       0.030940782 0.052976634 0.008634991 0.014764523
000340 5c ed d9 39 cc 29 02 3d 06 1b e1 bc 53 43 86 bd
       0.00041566312 0.03177814 -0.027478706 -0.0655581
000350 65 77 70 3d 80 ea 69 3d f5 45 1c bc 53 0e 94 bd
       0.058707613 0.057108402 -0.009538163 -0.07229295
000360 7c cf 0f bd 49 0f a0 bc e1 90 fc 39 e9 34 9a 3c
       -0.035109982 -0.019538539 0.0004817313 0.018824058
000370 83 ca 84 bd e3 af 76 bc 82 89 cc bc 69 95 a2 bc
       -0.064839385 -0.015056583 -0.024967913 -0.019846635
000380 26 a1 af 3c 01 1e c0 3c 61 4e ff 3b 76 c8 88 bd
       0.021439146 0.023451807 0.007791326 -0.0667886
000390 41 37 80 bd d3 0e 45 bd 9b 8a 43 3d 00 b5 e0 3c
       -0.06260539 -0.04810984 0.047739606 0.027430058
0003a0 43 91 8e bd 9b 13 2f 3d ec a6 cc bc 3b 5a 7a 3d
       -0.069613 0.042743307 -0.024981938 0.061121207
0003b0 cb 20 73 bd 5f cd 2c 3c 34 64 c4 3b ea 2a 6b bd
       -0.059357446 0.010547011 0.0059933905 -0.057413973
0003c0 cf a2 6a bd f8 02 c7 bc 44 2f f0 bc 32 24 11 3d
       -0.057284173 -0.024293408 -0.029319413 0.03543491
0003d0 75 78 3b bd f7 e3 0b bd 7e 5e 10 3d 94 c4 88 bc
       -0.045769174 -0.03415295 0.035246365 -0.016695298
0003e0 bb fd 52 3d 0b 45 88 3d 94 75 37 bc 12 85 7f 3d
       0.051511507 0.06653794 -0.011197466 0.062382765
0003f0 17 67 7b 3a 94 13 96 3c df 7b 83 3c ad c4 01 bc
       0.0009590252 0.018319882 0.016050277 -0.007920426

encoder.6.bias f4 [128]
000000 d5 aa 3a 3d 36 b2 7c 3d e4 14 1f bc 8e 6d 6c bd
       0.045573074 0.061693393 -0.009709571 -0.057721667
000010 8a b6 6e bd b8 dd 0a 3c 97 a7 69 bb e8 57 26 bd
       -0.05827955 0.008475713 -0.003565287 -0.040611178
000020 c5 4f dd 3b c1 cf f1 bb a8 37 25 3d 5f 11 77 bd
       0.006753894 -0.0073795025 0.04033628 -0.0603193
000030 9a 11 81 3d 70 37 48 bd 35 15 50 bd 70 27 56 3c
       0.06302185 -0.048880994 -0.050801475 0.013070926
000040 74 13 81 bd c4 a6 9b 3c db 10 b2 3c b5 9c 71 bc
       -0.063025385 0.019000418 0.021736553 -0.0147468345
000050 88 15 79 bd 39 ad 84 bd d0 dd 2d 3d cd e7 d0 bc
       -0.06081155 -0.06478352 0.042447865 -0.025501156
000060 f3 2b c9 bc d3 76 df 3c 8e bc 82 bc b6 5e c2 bc
       -0.02455709 0.02727834 -0.01595905 -0.023726802
000070 64 cc 7e bd d6 62 12 bd 30 5c 0f 3d 95 17 8b bd
       -0.06220664 -0.03573879 0.035000026 -0.06791607
000080 30 cc 78 3d 16 5d 80 3d de 66 c1 bb 4c 82 35 3d
       0.060741603 0.06267755 -0.0059021553 0.044313714
000090 7c 27 8c 3d a1 a2 95 3c c0 47 81 bd 77 96 7e bd
       0.068434685 0.018266024 -0.06312513 -0.062155213
0000a0 bb a3 54 3c af 63 85 3c 02 b6 02 3d 4c 01 13 3d
       0.0129784895 0.016282884 0.031911857 0.03588991
0000b0 2a 6a 8c 3d 3c 68 58 3d 3a 36 13 bd f5 c8 47 bb
       0.06856187 0.05283378 -0.035940386 -0.003048477
0000c0 96 e6 23 bd 83 55 3d bd e9 db f9 3c 2f e2 00 bd
       -0.040014826 -0.04622413 0.03050037 -0.031465705
0000d0 b9 8e 52 bd a9 00 a3 3c 06 a7 73 3d 4e 56 51 3d
       -0.051405642 0.019897776 0.059485458 0.051107697
0000e0 9c 27 48 3d 13 dc 14 bd c3 9c 30 3c 8d 07 a1 bc
       0.0488659 -0.03634269 0.010779562 -0.01965692
0000f0 7a 83 c6 bb 15 42 0b 3d 7a 68 dc 3b 6e d5 8f 3c
       -0.0060581537 0.033998568 0.0067263218 0.017557826
000100 96 5b 85 bd 67 bb da 3b b7 c2 3f 3d ba 13 d0 3b
       -0.06511609 0.006675172 0.046816554 0.006350008
000110 b0 37 4e 3d 9c 1a 53 3c 88 15 79 3d e8 05 85 3d
       0.050346076 0.012884762 0.06081155 0.06495267
000120 73 f7 49 3a fd 99 0a bd 52 00 7d bd b4 6c 47 3d
       0.00077044143 -0.03383826 -0.061767884 0.04868765
000130 93 78 08 bd 9a 45 89 bd 7e af 5c 3c 22 a7 7e bd
       -0.033318114 -0.067027286 0.013469575 -0.06217111
000140 82 d9 7d bd 67 c3 24 bd ee 3f 5d 3d 88 ad 75 bd
       -0.06197501 -0.040225413 0.054016046 -0.059979945
000150 1c a5 1b bd 97 ed 9a 3c ed 1d 86 3d 3d 8d a1 3c
       -0.037999257 0.01891212 0.06548677 0.019720668
000160 22 dc 84 3d 44 b8 9b bc 44 30 73 bd 5c 93 83 bd
       0.064872995 -0.019008763 -0.0593722 -0.06424591
000170 00 51 0c 3a 41 1f 5c bd 38 e4 68 3d 12 37 80 3d
       0.0005352646 -0.053740744 0.05685827 0.06260504
000180 8b 5a 81 3d 1b 4e 61 bd 4f 33 18 3c f5 be 83 bd
       0.06316098 -0.055006128 0.009289577 -0.064329065
000190 b8 20 27 bd 95 e4 34 3d c3 4d 07 bd 40 b9 ec 39
       -0.040802687 0.044163305 -0.033033144 0.0004515145
0001a0 b3 3a 11 3d 9b 41 06 bd 12 14 85 bd 16 94 b3 bc
       0.03545637 -0.03277741 -0.06497969 -0.021921199
0001b0 26 09 64 3d 7f 62 cf bc 47 e0 43 3d 62 68 b4 bc
       0.055672787 -0.025315521 0.04782131 -0.02202243
0001c0 8a 79 86 bd 00 74 38 bd 03 9a 8a bd c1 6a 7a 3d
       -0.065661505 -0.0450325 -0.06767657 0.061136965
0001d0 3d 4a 1c 3d 38 66 6d 3d de 65 49 3c 03 24 cb 3c
       0.038156737 0.05795881 0.012292353 0.024797445
0001e0 3b 8f bb bb 64 27 3a bc 67 0a da bc e6 de 83 3d
       -0.0057238615 -0.0113619305 -0.026616288 0.06438999
0001f0 b3 9d 03 3b bb 34 46 bc bf 56 30 3c a8 1b be 3c
       0.002008301 -0.012097533 0.010762869 0.023206547

encoder.8.weight f4 [256, 128, 3, 1]
000000 04 fe b7 3c 3f 9f 24 3d 6d 90 d0 3c 25 30 66 3c
       0.022459991 0.04019093 0.025459493 0.0140495645
000010 c8 94 87 3c 99 ef 18 bd c4 63 0e 3d 8e e2 4b bd
       0.016550437 -0.037337873 0.034763113 -0.049776606
000020 b9 0e dc 3c 52 71 14 bd 1e a6 c5 bc 3e 56 0e bd
       0.026862489 -0.036240883 -0.024127062 -0.034750216
000030 a9 de 4c bd 94 57 93 3c 10 ba 03 3d f1 39 ba 3c
       -0.050017033 0.017986096 0.032159865 0.022732707
000040 a5 be f3 3c f1 6a cb bb 83 8f db bc c4 63 3b bd
       0.029753992 -0.006207817 -0.02680183 -0.04574944
000050 b2 9b a4 bc 1d 97 2a 3c 8e 26 ff 3c 8b 86 3e bd
       -0.020093773 0.010412005 0.031146314 -0.04651503
000060 b1 13 cf 3c 07 c8 c3 3c 0f bc e2 3c 33 f5 43 bd
       0.025277944 0.023899091 0.027677564 -0.047841262
000070 88 76 05 3d d9 43 00 bd c3 6e 34 3a 8b a2 d2 ba
       0.032583743 -0.031314705 0.000688296 -0.001607017
000080 ee f0 20 bd 51 93 68 bc b2 7a 25 3d 42 3f 90 bc
       -0.03929227 -0.014195279 0.040400214 -0.017608289
000090 16 1f 01 3c 93 0b 2a 3d 99 fb c2 3c 0f d7 a9 3b
       0.007880947 0.041514944 0.023801612 0.0051831077
0000a0 bc ce 36 bd cc f9 bb bc 17 6a 3e bd 8b 35 e0 bc
       -0.04463075 -0.02294626 -0.046487894 -0.027369281
0000b0 f8 f7 1a 3b 62 25 4d bd 94 db 20 bd 2a 97 6a bc
       0.0023646336 -0.05008448 -0.039271906 -0.014318267
0000c0 a8 ee 3f bd 7d 75 cd 3b 34 fe 39 bd 57 df 11 bc
       -0.04685846 0.006270109 -0.045408443 -0.008903346
0000d0 32 c8 11 bc b6 84 b5 3c 30 9c e3 bc eb e7 26 3d
       -0.008897828 0.022158008 -0.027784437 0.040748518
0000e0 4f ef 98 bc f2 cd 05 bd 49 d9 3b 3d 95 e2 0d bb
       -0.018668799 -0.032667108 0.045861516 -0.0021649946
0000f0 46 5f e5 bc ec 40 25 bd f5 d7 27 bd 76 ba 39 3d
       -0.027999531 -0.040345117 -0.040977437 0.04534384
000100 ec 63 35 bc 89 25 d6 bc 64 5f 1d bd 35 29 dc 3c
       -0.0110711865 -0.026140945 -0.03842105 0.026875118
000110 76 6a 49 3d 71 8b 40 bd 8c 58 82 3c 99 98 2f bd
       0.049173795 -0.04700798 0.015911363 -0.042870138
000120 16 d5 12 3d 30 80 19 bd b3 71 84 bc 57 6a 18 bd
       0.035847746 -0.037475765 -0.016167497 -0.03721079
000130 88 14 e2 3c ba 2c f7 bc f4 0a fd bc 4d c7 09 3c
       0.02759768 -0.030172694 -0.030889012 0.008409333
000140 93 44 d6 3c 4d e6 ea 3c 4b a2 45 bd fc ff 84 3c
       0.026155746 0.02867427 -0.048250478 0.016235344
000150 77 06 30 bd 90 be bb 3c 55 ff 14 bd 1c e5 7d 3c
       -0.042974915 0.022918016 -0.036376316 0.015496518
000160 b1 93 04 bd 28 97 48 bd a2 31 7c bc 27 e1 ac 3c
       -0.032367412 -0.04897228 -0.015392693 0.021103455
000170 0d eb 28 3c 23 df 18 bd f7 a4 f9 bc b2 33 c8 3b
       0.010309947 -0.037322175 -0.03047417 0.006109678
000180 ce 88 36 bd 00 9d a7 bc 95 1c 42 3d 67 a3 d1 bc
       -0.04456406 -0.020460606 0.04739054 -0.025590612
000190 a9 0d 30 3d e3 71 3d 3d e4 bb 21 bd fa 58 8e bb
       0.042981777 0.04625119 -0.039485827 -0.004344103
0001a0 5e 15 0d bd af 14 ce bb 0f dc f3 3c 4b 48 48 bd
       -0.034444205 -0.006289087 0.029768018 -0.04889707
0001b0 49 06 29 bc bc e5 10 bc 04 9c 89 bc ee 7e 0c 3d
       -0.01031644 -0.008843835 -0.016798027 0.034300737
0001c0 2b 10 2e 3b 51 94 3f 3d bf dc e0 3c 68 d9 1f 3d
       0.002655993 0.046772305 0.02744901 0.039025694
0001d0 6a dc 4e 3d 6c 71 ac bb bf ef 88 bc 99 3d 3a 3d
       0.050503172 -0.0052625444 -0.016715882 0.0454689
0001e0 29 d0 d4 3c e4 d4 4d 3d e0 f4 e5 3c d3 66 3f bd
       0.025978165 0.050251856 0.028070867 -0.04672892
0001f0 8f 46 2f 3d c7 ca 4c bc 38 4d 36 3d 64 69 5a ba
       0.0427919 -0.012499518 0.044507235 -0.00083317445
000200 df 82 45 bd a3 8f b3 3b 08 01 0a 3d 2b 91 80 3c
       -0.04822051 0.0054797693 0.03369239 0.015694221
000210 1d b7 59 3c 71 cc fe 3c 02 a7 74 bb 7f 47 b8 bc
       0.0132882865 0.031103345 -0.003733099 -0.02249503
000220 35 f2 16 bd 57 de ad 3c 15 85 67 3a 0f 69 32 bc
       -0.03685208 0.021224184 0.00088317815 -0.010889306
000230 7e 2a cf bc fd 07 75 3c 5d 6d c9 bb 7e b7 8f 3b
       -0.025288817 0.014955518 -0.0061470703 0.0043858876
000240 78 93 f1 3c fb b7 c4 3c 3f 88 8b bc 16 97 3d 3d
       0.029489264 0.02401351 -0.01703274 0.046286665
000250 7d 05 a8 bc 7f 49 2c bd 33 2c 34 3d 99 90 2a 3c
       -0.02051043 -0.04206228 0.043987464 0.010410451
000260 21 f4 95 3c 92 58 18 3d 7d 43 88 3c b9 64 95 3c
       0.018304886 0.037193842 0.016633743 0.018236505
000270 b8 23 02 3c 2b 0d d1 bb 50 18 4d 3d 2d fe 42 3c
       0.007943086 -0.0063797436 0.050072014 0.011901421
000280 38 1d 47 bd d3 c6 f4 3b c9 80 21 bd 76 71 f1 3c
       -0.04861185 0.0074699908 -0.03942946 0.029473048
000290 37 af 47 3d e2 da e2 bc 8d 1c 95 bc 59 33 b2 bb
       0.048751082 -0.027692262 -0.01820209 -0.00543825
0002a0 30 7b 98 bc 5d 77 fa 3c 78 d7 88 3c 25 d6 10 3d
       -0.018613428 0.030574495 0.016704306 0.035360474
0002b0 f0 19 05 bd 52 92 a8 bc 6b 33 36 3d 6e be 74 3c
       -0.03249544 -0.020577583 0.04448263 0.01493798
0002c0 bb 6e af 39 79 12 15 bd b5 41 3a bd d9 d1 a1 bc
       0.00033461102 -0.03639457 -0.04547282 -0.019753383
0002d0 04 68 c8 3c 43 3b 0d 3c e1 f2 78 3c 31 77 ea 3c
       0.024463661 0.008620086 0.015194626 0.028621288
0002e0 11 78 7a bc 76 a5 17 bd 81 86 15 bd e3 70 c7 3c
       -0.015287415 -0.03702303 -0.036505226 0.02434582
0002f0 95 46 4e bd d5 e8 36 3d 64 94 14 3d 37 cc 1f bb
       -0.05036028 0.04465564 0.03627433 -0.0024383196
000300 2a 3d 9f bc 86 68 40 3d fa 6a 9f 3c 20 19 e8 bc
       -0.019438345 0.04697468 0.01946019 -0.028332293
000310 07 c6 3e bd 91 24 c5 3c 99 c6 31 3d 5a cf 3e bd
       -0.046575572 0.024065288 0.043402288 -0.046584465
000320 b0 6c b6 bc b3 1f a5 bc d3 e7 15 bd eb 62 22 3d
       -0.022268623 -0.020156717 -0.036598038 0.039645117
000330 92 07 48 3c c5 82 4e bd 9c 41 e6 bc 73 b9 3a 3c
       0.012208836 -0.05041768 -0.028107457 0.011396754
000340 2e b3 97 bc 1a cc 49 bd 48 31 a7 bc c3 c9 91 3c
       -0.018518057 -0.049266912 -0.020409241 0.017796403
000350 5b 4f ab bc 9a fe 87 bb 1a 8b 35 bd 9d 46 0f bd
       -0.020911863 -0.004150224 -0.04432211 -0.03497945
000360 06 28 f1 3c a6 95 0d 3d 2d 2b 08 3c 2b 9f 38 3d
       0.02943803 0.034566544 0.008311075 0.04507367
000370 66 a1 0e 3d 37 00 05 3d 06 83 29 bd 0a 57 39 3d
       0.03482189 0.032470908 -0.04138472 0.045249023
000380 7e eb 41 3d 08 32 19 bd dc ec a4 3c d2 3e 44 3d
       0.047343723 -0.03740123 0.020132475 0.047911473
000390 9e 69 1a bc 48 3c e0 3b 8b 70 0c bd 5c d2 60 3c
       -0.009424595 0.0068431236 -0.034287017 0.013722029
0003a0 88 1c 59 3c 4e aa 1b bd 7f d9 9c 3c 48 33 41 3d
       0.013251431 -0.038004212 0.019146679 0.047168046
0003b0 52 14 fa 3c 04 f3 35 3d 57 ff 5e bc 07 39 f6 bc
       0.030527268 0.04442121 -0.013610682 -0.03005649
0003c0 be 5d 2b bd 1a 47 95 3a f9 c1 d9 bc aa 04 22 3d
       -0.041837446 0.0011388988 -0.026581751 0.03955523
0003d0 9a 3e 22 3d 33 0e 09 3d 22 78 da 3b d3 80 d7 3c
       0.039610483 0.033460807 0.006667153 0.026306545
0003e0 62 df b7 bc e3 b8 a8 3c 71 d5 9a bc 06 41 2a 3c
       -0.022445384 0.020595973 -0.018900605 0.010391479
0003f0 71 01 11 3d 4b 1b 89 3c 34 2e 2f 3d 1f 92 da bc
       0.035401765 0.016736647 0.042768672 -0.026681004

encoder.8.bias f4 [256]
000000 cd 0a 08 bd 1a d5 2c bc 4d a5 b1 3c 4b 30 06 3d
       -0.033213425 -0.010548854 0.021685267 0.0327609
000010 10 25 75 3b 32 70 4d 3d 80 c7 a5 3b b8 ce 23 bd
       0.0037406124 0.050155826 0.0050591826 -0.039992064
000020 88 c0 96 39 50 49 0d bd a2 ce bc bc 35 1d e1 bc
       0.00028753676 -0.034493744 -0.023047749 -0.027479747
000030 b4 26 2b bc b7 79 52 bd eb 6e ad 3c e8 de a4 3b
       -0.010446239 -0.051385608 0.021171054 0.0050314553
000040 1e e9 4c bb d8 26 ad 3c e6 0f ad bc f4 15 1d 3d
       -0.0031266878 0.021136686 -0.021125745 0.038351014
000050 d6 a8 13 3d 07 5a 31 bd 9d 59 20 3d 2f 33 00 3d
       0.036049686 -0.043298747 0.039147962 0.031298812
000060 df c2 f4 3b 0f 3c 8f bc 7f f9 9d bb 59 9b 79 3c
       0.0074695195 -0.017484693 -0.004821002 0.015234792
000070 0a bd e3 3c 3c f2 96 bb 2f 45 b2 3c d7 7a 1b 3d
       0.027800102 -0.0046065133 0.021761505 0.037958946
000080 5a 4a 05 3d 74 60 90 3b 92 43 7d 3b 77 5c 61 3c
       0.03254161 0.0044060294 0.0038645011 0.0137549555
000090 e6 84 5d bc e9 9f a3 bb ea e3 ae 3c cd 7d f3 bc
       -0.013520455 -0.004993428 0.021348912 -0.029723072
0000a0 86 f9 8a bc 13 5c 26 3d e2 28 0b 3d b9 62 0c 3d
       -0.016964685 0.040615153 0.033974536 0.034273837
0000b0 7e 0b 55 3c 7b f9 12 bd 14 fe 03 3c 9f 8e 1c 3d
       0.013003228 -0.035882454 0.008056182 0.03822195
0000c0 81 94 31 3c f5 04 5f 3c bb 76 00 3d 32 ff 00 3d
       0.010838629 0.013612022 0.03136323 0.031493373
0000d0 72 9c 50 bc a5 da cb 3c ec d4 09 bd 6d 2a 80 bb
       -0.012732612 0.024884531 -0.033650324 -0.0039113075
0000e0 1f 9f a0 bb 3d a4 26 bd 35 50 4b bd 07 21 04 3d
       -0.004901781 -0.040683974 -0.04963704 0.03225806
0000f0 98 57 27 bd 07 dd 3e bd 85 97 0e 3d a1 4f 10 3c
       -0.04085502 -0.046597507 0.03481247 0.0088080475
000100 8d 38 96 3c 26 a6 e4 bc f4 89 08 3d 14 8d 0d bd
       0.018337512 -0.027911257 0.033334687 -0.03455837
000110 c7 1e 69 3c e2 aa 17 bd ce 8d 2b 3d e6 e7 02 bd
       0.014228529 -0.0370282 0.041883282 -0.031959437
000120 31 c2 db bb e3 77 9a 3c b1 82 ca bc 31 ca 50 3d
       -0.006706499 0.018855995 -0.024720522 0.050974075
000130 cb 77 e5 3c bf 35 39 3d a1 0f bc bc db ca 37 3d
       0.028011223 0.045217272 -0.022956671 0.044871192
000140 7f 10 c9 3c b9 4d e6 bc ab 11 df bc e8 a2 28 3d
       0.024543999 -0.028113233 -0.027230104 0.041170985
000150 84 57 b5 3c 1a 82 42 bd fe 01 43 bd 8d e4 02 3d
       0.022136457 -0.047487356 -0.04760932 0.031956244
000160 07 44 70 3c ec 6f 3d bc 34 13 18 3c 04 53 bb ba
       0.0146646565 -0.011562329 0.009281922 -0.0014291708
000170 d9 ee 2e bd 18 de 23 bd c0 35 23 3d 26 4f 16 ba
       -0.04270825 -0.040006727 0.039846182 -0.000573384
000180 d3 a1 11 3d dc 08 16 bd 6f f3 4e 3c 14 84 9c bc
       0.03555472 -0.036629543 0.012631281 -0.019105949
000190 8b 63 1f bd d6 41 cf 3a 48 16 e7 bc d8 fa 18 bd
       -0.03891329 0.0015812467 -0.028208867 -0.0373486
0001a0 c5 5d b0 3c f3 dd 52 ba 4a c9 19 3d fb 0b 01 bc
       0.021529088 -0.0008043937 0.03754548 -0.0078763915
0001b0 71 0a 22 bc 71 df 32 3d e2 17 fa bb 54 97 84 3c
       -0.009890185 0.04367012 -0.0076322416 0.01618544
0001c0 6b 3f a3 bc 0f 39 b5 bc c9 50 1b bd 3f a9 0e 3d
       -0.019927701 -0.022121934 -0.03791884 0.034829374
0001d0 dd fb a5 3c 5a 43 e9 3b 9a ab 2a bc 0d a5 fc bc
       0.0202617 0.0071186246 -0.01041689 -0.030840421
0001e0 a3 8c 02 3c 28 9d cc 3b 5f 6e dc bc 46 e5 40 bd
       0.007968101 0.0062443204 -0.026908098 -0.047093652
0001f0 da aa 34 3d d2 b3 f7 3c 6e 0d d8 ba 67 03 49 3c
       0.04410825 0.030237112 -0.0016483495 0.012268878
000200 9c 61 11 3d 7f 57 47 3d a7 f2 41 3c 6f f3 cf 3c
       0.03549348 0.048667427 0.011837638 0.025384633
000210 fb 7f 02 ba ca c4 2d 3d 11 8e 35 bd 47 69 02 3c
       -0.0004978177 0.042424 -0.04432494 0.00795967
000220 db 13 3b bd 00 e8 e4 bc c0 62 ab 3a 06 48 a3 ba
       -0.045673233 -0.027942657 0.0013075694 -0.0012457378
000230 a7 b9 10 3c d5 0e 2d bb e7 96 1a 3d 66 7f 22 bd
       0.0088333255 -0.0026406546 0.037741568 -0.039672278
000240 08 42 16 3b 71 7f 1c bd 77 75 b0 bc 48 3c 6f 3a
       0.0022927541 -0.038207475 -0.021540387 0.0009126109
000250 3c 82 f3 3c 42 aa 21 3d 34 03 88 3c 2b 6c 97 3a
       0.029725187 0.03946901 0.01660309 0.0011552622
000260 68 fe 88 bb 33 a4 a0 bc 45 af f0 3c 58 c7 1f 3d
       -0.004180718 -0.019609546 0.02938045 0.03900847
000270 5c d5 61 3c c0 ab 33 bc 2e 9e 16 3c 9f 87 b9 bc
       0.013783779 -0.010966241 0.009192986 -0.022647677
000280 55 18 0a 3d 68 9d 31 3d a7 81 aa bc 26 62 43 bd
       0.03371461 0.043363005 -0.020813776 -0.047701024
000290 45 a3 4b 3c ab 23 da 3c 07 ce 16 bb 1b 3d 12 3d
       0.012429063 0.026628336 -0.0023010985 0.035702806
0002a0 ba 95 47 3c 70 39 91 3b 5b d5 fa bc 6c a6 9f 3c
       0.012181694 0.004431896 -0.030619314 0.019488536
0002b0 bf 0f 20 bc 3a 9a 09 bd 12 d7 41 3d 8c 2b c7 3b
       -0.009769379 -0.033594348 0.047324248 0.0060781892
0002c0 32 d5 eb 3b 14 b6 e4 bc d6 28 33 bc b8 f6 38 3d
       0.0071970457 -0.027918853 -0.010935029 0.045157164
0002d0 39 6b cf 3c 41 32 1b 3d 8e c7 8e bc 84 61 0a bc
       0.025319682 0.037889723 -0.01742914 -0.008446101
0002e0 f4 80 31 bd 2b 03 0c 3d bf 39 f7 3c 8f 20 e0 bc
       -0.04333587 0.03418271 0.030178903 -0.027359275
0002f0 5e da bd bc e3 46 f6 bb cd 80 9e bc 8a 7d 11 bd
       -0.023175415 -0.0075157746 -0.019348526 -0.035520114
000300 a2 b3 03 3d b3 3e f3 bc 0d ea 2f bc 88 93 0a 3d
       0.032153733 -0.029692983 -0.010736954 0.033832103
000310 45 f5 f4 bc 0a 24 3a 3d bb 41 bb 3c 6d cd 45 bd
       -0.02990211 0.045444526 0.022858491 -0.048291612
000320 6b 2f 2f bd 77 b0 4d 3d ec 10 fb 3c c7 60 48 bd
       -0.04276983 0.050217118 0.030647717 -0.04892042
000330 ff 7f bc bc 09 35 f7 3b 53 4b ba 3b 8c 84 73 bc
       -0.023010252 0.007544164 0.005685249 -0.014863145
000340 20 5b 2f bd 3d a5 1e 3d bb 80 bc bc 1f 7a 1f bd
       -0.042811513 0.038731802 -0.023010602 -0.038934823
000350 0a e5 28 3b 7e 92 0a bd 42 3b ea 3c 0e 1f 3c bd
       0.0025771284 -0.033831112 0.02859271 -0.045928054
000360 dc 86 5c 3c 87 cf a4 3c ac 8f 09 3d 3e 91 13 3d
       0.013459887 0.020118488 0.03358428 0.036027186
000370 fb 47 8b 3b db fc 23 3d d7 b7 c9 bc 70 cc 0f 3d
       0.004250524 0.040036064 -0.024623794 0.035107076
000380 c6 e4 03 bd c8 dc 4c 3b b4 8b 41 bd 29 6e a4 3c
       -0.032200597 0.0031259526 -0.047252372 0.02007206
000390 31 bd 43 3d f4 a9 b1 bc 8d 5a 25 bc b2 a4 c6 3c
       0.04778785 -0.021687485 -0.01009239 0.024248455
0003a0 3d aa fc 3b 5d 9c 0a bd b0 5c df bc 83 03 fb 3c
       0.0077107237 -0.033840526 -0.027265877 0.030641323
0003b0 2e 2e 8b bb 71 8c fb 3c 07 99 91 3c 3e 77 3c 3d
       -0.0042474484 0.030706616 0.017773164 0.046012156
0003c0 78 8c 40 3c e0 e0 25 3d b4 99 a5 3c 5c 35 83 bb
       0.01175224 0.04049766 0.020214893 -0.0040041637
0003d0 a3 08 dc 3b 6a c5 ea ba 90 44 08 bb 79 11 89 bb
       0.0067148968 -0.0017911617 -0.002079282 -0.004182991
0003e0 d5 6f f7 3c be 00 81 3c e9 3b 0c bd 26 a9 0c bd
       0.030204693 0.015747424 -0.034236822 -0.034341
0003f0 4b 95 d5 bb 17 8f ef bc 4a 2b 40 3d ff 33 9c 3c
       -0.0065180412 -0.029243035 0.046916284 0.019067762
