VAE-LSTM-anomaly–detection/experiments/Collected_data/nosein_noseout_9-grid_search-0414/Collected_data-nosein_noseout_9-win_len1500-look_back2-codesize20-VAEunits256-LSTMunits128/checkpoint/vae_best_model.pth (torch, 704594 bytes, 24 tensors)

encoder.0.weight f4 [16, 3, 3, 1]
00000000: b549 f13c 8005 313d 72ff c4bd 5d1c 03be
00000010: bd30 34be 4734 bf3d 9068 653e f1a1 8e3e
00000020: 08c2 843d badb 6abe 8219 f73c cb1a 0fbe
00000030: a9f7 7ebe 4bb9 653e e61c 753e c2ea 81bd
00000040: a7cb 943e 0a54 1ebe 7cb1 fc3d 80eb bebc
00000050: 9c3f 483e 80dd ed3d bed2 7d3e 32a8 a2be
00000060: 4437 25be 5201 693e ffd8 9b3e d9ec 80be
00000070: 82f9 93be 41a0 88be 3354 073e e206 6a3e
00000080: 695a 09be 381c 213e 2b59 293d c94e 753e
00000090: a39d 4d3e 73f5 86be bc36 a13e 6014 bf3b
000000a0: 96a6 f53d 4f9a 0bbe ad74 7f3e 34de 1abe
000000b0: dfab 693e 0f99 9e3c 1f2c 15bb ddb1 8b3e
000000c0: 0902 3d3e d280 3c3e 3f0d 203e 8bdd a7be
000000d0: d3a9 9f3e 4b47 30bc 5ccf 373e 5dee bdbd
000000e0: b2da 08be dd4f 9a3e 1ec9 133e 3cd9 73be
000000f0: 273c 84be b8ed 11bc 9ccd 343e cdc4 2b3e
00000100: 472f ddbb 2dcb 7a3e 458b 0a3e f1f7 ce3d
00000110: 9238 2d3d 91e0 58be daae 883e f7db 073e
00000120: b44c 1abe 1a9c 59be 8eac b03d 0367 e7bd
00000130: fc0c 8d3e 336e 533e 17a4 60bd 01e3 893e
00000140: 8e37 7dbe f8e7 61be 85c9 22be 0617 0c3d
00000150: a592 58be 6825 4d3e 6125 a53e a308 0cbd
00000160: ecd7 493d 8809 ac3d c7a2 27be 9a15 f83d
00000170: b943 ad3e 50a1 8d3d f146 dfbd 484b 0dbe
00000180: ac1a 46be 360c 073e f833 cf3d 9655 853e
00000190: 6c27 583e 67a8 bdbb 7c88 6bbb a908 babd
000001a0: c7a1 da3d 0f3d 4ebe ef85 6dbe 19db a03d
000001b0: 2243 8f3e 2054 9a3e 13cd 9b3e 3d8b 77be
000001c0: 9d35 ebbd 8f8d fcbd 5de6 d73d 0d1e 00bd
000001d0: ccdf 23be a30f 863d 70fe e83d f89f 5b3e
000001e0: c93e 8cbe 63f0 5a3e 4a2c 42bd 4f47 e5bd
000001f0: fa84 54be 789c 8ab9 9d8f a0bd d761 873d
00000200: 79ab 86bd 5a8f c33d 63f8 633e 4647 84bd
00000210: 28c9 8a3e bbdc d3bd d9f5 633e 44b7 bdbd
00000220: 42e3 183e 962d 593d 218e 66be 7218 3a3e
00000230: 5a4e 3d3e f4b2 a5bc 0534 1d3d 80c8 8ebd
0.029454092 0.043218136 -0.09619035 -0.12803788 -0.17596717 0.09336143 0.22403169 0.27857926
0.06482321 -0.22935382 0.03016353 -0.13975064 -0.24899162 0.22433965 0.23936805 -0.063436046
0.29061624 -0.15461746 0.1233854 -0.023305655 0.19555515 0.116145134 0.24787423 -0.31768948
-0.16134363 0.2275441 0.30438992 -0.251807 -0.28901297 -0.26684764 0.13215713 0.22854188
-0.13413395 0.15733421 0.041344803 0.23955835 0.20079665 -0.26359138 0.31487072 0.0058312863
0.11994664 -0.13633083 0.24946852 -0.15123826 0.2281947 0.019360093 -0.0022761894 0.27284136
0.18457808 0.18408516 0.15630053 -0.3278621 0.31184253 -0.010759185 0.17950195 -0.0927398
-0.13364676 0.30139056 0.14432189 -0.23813337 -0.25827143 -0.008906774 0.17656559 0.16774292
-0.0067500207 0.24491568 0.1352969 0.10105885 0.042290278 -0.21179415 0.266959 0.13267504
-0.15068322 -0.21250954 0.08626662 -0.11298945 0.2754897 0.20647506 -0.05484399 0.26931003
-0.24728224 -0.22061145 -0.15897186 0.034201644 -0.2114969 0.200338 0.3225508 -0.034187924
0.049278185 0.084002554 -0.16370688 0.12113495 0.3384073 0.069155335 -0.10902203 -0.13798249
-0.19346112 0.13188252 0.10117334 0.2604186 0.21108788 -0.0057878974 -0.0035939505 -0.09083683
0.10675388 -0.2014048 -0.23195623 0.078542896 0.27980906 0.30142307 0.30429897 -0.24174209
-0.11484835 -0.12331688 0.10541985 -0.03127866 -0.1600334 0.06545951 0.11376655 0.21447742
-0.2739165 0.21380763 -0.04740552 -0.11195242 -0.20753852 -0.0002643799 -0.07839892 0.06610458
-0.065756746 0.095488265 0.22262721 -0.06458907 0.27106595 -0.10344835 0.22261752 -0.09263471
0.14930442 0.05302199 -0.22515155 0.18173388 0.1848692 -0.020226933 0.038379688 -0.06971836

encoder.0.bias f4 [16]
00000000: c29d 873e 06a3 353e f43a 423e f022 ab3c
00000010: 97f7 a4be ab1d adbe b0e1 823d f3ac 453e
00000020: e1d7 523e 624a 813d 9ea5 ee3c 3300 78bd
00000030: e37b 943e da49 afbd b845 38be 7c07 8f3e
0.26487547 0.1773797 0.18967801 0.020890683 -0.32220146 -0.33811697 0.06390703 0.19304256
0.20590164 0.063130155 0.029131707 -0.060547065 0.29000768 -0.08559008 -0.17995346 0.27935398

encoder.2.weight f4 [32, 16, 3, 1]
00000000: 40c7 d73d 7f8e c2bd f0a0 adbd d10b fe3c
00000010: 592b 5d3d 9eca 893c 4752 ed3d 1901 85bd
00000020: 0a49 b13d 8bd6 aebd 3567 b2bc fc76 10be
00000030: d45e 06be aaeb d6bc 45d7 84bc a1ed f0bd
00000040: 41b4 03be 4aad 67bb a821 35bd 321b ce3d
00000050: 4320 803c a774 a3bd 7e6d 043d 2875 933d
00000060: d67f aa3c 0272 e8bd 00b9 4abc 9a0e 723d
00000070: 66b8 07bc 1a41 b1bd 422d 1abe fe94 9e3d
00000080: 8d84 a6bc 9bdb 12be 1125 87bd 42d3 f5bd
00000090: b94b 5b3d ca0b 913d f1a8 063e 5715 92bd
000000a0: fb61 0dbe 80e0 9ebc 076a c73d b194 983d
000000b0: e801 603b 81d8 14be 2127 cdbd 50df 07be
000000c0: 0f2f 0f3d 6d73 b63d a5fd e03d ab58 d03d
000000d0: 1b5b f8bd c4f2 c9bd e752 efbd 8dc9 143d
000000e0: 76e8 cb3d 6c7d 0d3d 8f0c d7bc 80ed d93c
000000f0: 0506 b63c 8e24 67bd db9e a83d 2410 e4bd
00000100: b95d f83d 3afa a8bc 0b5c 9cbc 0f8e fe3d
00000110: 331c 1bbd e4c4 de3d a0fe ce3d 1b23 c63d
00000120: c9be 5d3d 3ab8 90bd 04cd 86bd d724 633d
00000130: 7157 11be 255e a13d 8638 aabd 870d 18be
00000140: 0386 203b e822 0ebd 72d8 17be 69b8 853d
00000150: a001 e63d 8474 a73d d6b3 95bd 9544 e0bd
00000160: 3245 303d 4cd2 5d3d 9901 b13d 4f11 d53d
00000170: b068 20be ff70 0e3c 23cf 69bc d8ac aa3d
00000180: d0dd 11be 5c6f 293b 7287 f4bd 5e01 42bd
00000190: 556d d4bd 8fed eb3d 4fc8 98bd 0cb8 ffbd
000001a0: 5926 12be d9e7 d0bd ffca 88bd 6605 ed3d
000001b0: d09c f43d 3266 c7bd 98ac 033e 6616 b1bd
000001c0: 77ce a23d 7877 21bd 5753 40bd ab2f 10bd
000001d0: 8913 b03c ed9a 4dba 1b0c ddbc 107a b2bd
000001e0: 052d 03bd 5ff7 7e3c 6849 11be 3a98 d03b
000001f0: bdc7 abbb 5710 2a3c ea88 a5bc 05cf 18be
00000200: c5c5 b43d af03 ab3d 4b87 073e 06f0 d93d
00000210: e52f 8e3d 4785 f23d b7bd 173d af66 a9bd
00000220: b875 d3bd 1f31 b6bd c04c 073e 3cda 1ebd
00000230: e9cf fa3d e620 26bd 770a dc3d 987b 55bc
00000240: b659 00be 4d8c 12bc 9fdc 993d e23d 643d
00000250: 2eab 113c 024d d1bc 23ad 043d 53d2 10be
00000260: 0635 f43d 4d1c 0f3d d900 e1bd 5561 04be
00000270: c6f4 02be 8432 97bd 07db e53c 0102 d2bd
00000280: c031 be3d 512c 4ebd 4c9f aa3d be7e a63d
00000290: 5961 c63d 5f0c 43bd dbea 3a3d 7756 ab3d
000002a0: a094 0ebe 88dd e1bd 7d8c a83c 37fc ab3d
000002b0: 19eb 443b 98fb f03d 266c 77bb fc07 0e3d
000002c0: 54fb f83d ab2d 5fbc 0576 ffbd 272a ccbd
000002d0: fcf8 843c fe19 19be b065 b93d f57b 023e
000002e0: 8f76 693d ca64 c43d a22b 343d f8dc b7bd
000002f0: c6eb f0bd 51eb df3d 7491 abbc df0a 59bb
00000300: aa22 5c3d e314 323d be57 a33d f9f6 853d
00000310: be2c a43d 9132 71bd e7b8 963c 8bd7 35b9
00000320: 21e5 05bd 04bc 2abd 8ed9 4abd 84d9 b13d
00000330: fbf0 393d 2008 f6bd bfdd 18be 0b04 a53d
00000340: 66a0 d43b 5554 96bd 400d fd3d 62e4 65bd
00000350: 85e1 943c 4c3c 1bbe 5065 49bd ec8b 863d
00000360: 111a f83d 4438 0d3d 9148 0abe 8cc5 eabc
00000370: 467c febd dcdc 6e3d ec07 e53d a8f1 96bd
00000380: 64ce a4bd 3682 28bd c19a afbd 35f2 373d
00000390: 9512 843d 7de1 20bc efc6 01be 774e e33d
000003a0: 87cd 6c3b a93e cd3d 8653 edbd 9855 b23d
000003b0: f19b fbbd 1527 873d 11af 81bd 1961 a3bc
000003c0: ab10 fa3b 0231 c83d 6274 f9bd c9b0 993d
000003d0: 5848 b43d 8db2 94bc 0f77 17be 970b 1bbd
000003e0: 7ed1 2cbc a258 f4bd 1b8b b43c ad7f 983c
000003f0: f831 ab3d 863a cebd 5ea9 773d 3ef8 16be
0.10536051 -0.09499835 -0.08477962 0.031011494 0.053996418 0.016820248 0.11587959 -0.0649435
0.08656509 -0.085370146 -0.021777729 -0.14107889 -0.13122112 -0.02623542 -0.01621593 -0.11764074
-0.1286173 -0.003535109 -0.04422155 0.10063781 0.015640384 -0.07981234 0.032330982 0.0720008
0.02081291 -0.1134987 -0.012373209 0.059095956 -0.00828371 -0.08654995 -0.15056327 0.07743262
-0.020326877 -0.14341585 -0.06598867 -0.12003185 0.05353901 0.07082327 0.13150384 -0.071329765
-0.13806908 -0.01939416 0.0973702 0.07450236 0.0034180824 -0.14535715 -0.10017229 -0.1326878
0.034956988 0.089087345 0.10985879 0.10173162 -0.12126752 -0.09860757 -0.11685734 0.036325026
0.09956448 0.03454344 -0.026251106 0.026602507 0.022219667 -0.056431346 0.08233424 -0.11135891
0.12127251 -0.02062713 -0.019086858 0.12429439 -0.03786869 0.10877398 0.101071596 0.096746646
0.054137025 -0.070663884 -0.065820724 0.055455055 -0.14193512 0.07879285 -0.08311562 -0.1484891
0.002449394 -0.034701258 -0.14828661 0.06529314 0.11230779 0.081765205 -0.073096916 -0.10950581
0.04303474 0.054155633 0.08642883 0.10403692 -0.15664935 0.008693933 -0.014270577 0.083337486
-0.14244771 0.002585373 -0.11939897 -0.047364585 -0.10372416 0.1151992 -0.07460081 -0.12486276
-0.14272441 -0.102004714 -0.066793434 0.11573295 0.11943972 -0.09736289 0.12858808 -0.0864685
0.07949536 -0.039420575 -0.04695448 -0.03520171 0.02149369 -0.0007843215 -0.026983311 -0.08714688
-0.032025356 0.015561908 -0.14188159 0.006365803 -0.0052423165 0.010379872 -0.020206887 -0.14922722
0.08826784 0.08350312 0.13235204 0.10641484 0.06942729 0.11841827 0.03704616 -0.082715385
-0.103251874 -0.08896088 0.13212872 -0.038782343 0.12246687 -0.04055872 0.107441835 -0.013029955
-0.12534222 -0.008944583 0.07512783 0.05572308 0.00889091 -0.025549415 0.03239168 -0.14142732
0.11924176 0.0349391 -0.1098649 -0.12927754 -0.12788686 -0.07382682 0.028058542 -0.102542885
0.09286833 -0.050335232 0.08331165 0.08129643 0.09686536 -0.04761922 0.045634132 0.08366101
-0.13923883 -0.11028582 0.020574803 0.083977155 0.0030047356 0.11766738 -0.003775367 0.034675583
0.12157312 -0.013621728 -0.12473682 -0.099689774 0.016232006 -0.14951321 0.090525985 0.12742598
0.056997832 0.095895365 0.043986924 -0.08977693 -0.1176372 0.10933555 -0.02094338 -0.0033118052
0.053743996 0.04347695 0.0797572 0.06541247 0.080163464 -0.058886115 0.018398715 -0.00017341801
-0.032689217 -0.041683212 -0.049523883 0.08684066 0.045395833 -0.120132685 -0.1492834 0.08057412
0.0064888475 -0.07340304 0.12356043 -0.056126006 0.018173942 -0.1515972 -0.049168885 0.06569657
0.12114347 0.034477487 -0.13504244 -0.02865865 -0.12426047 0.058316097 0.111831516 -0.07370311
-0.080471784 -0.041139804 -0.08574439 0.04490872 0.06448857 -0.009819386 -0.12673543 0.1109895
0.0036133246 0.10021717 -0.115881965 0.08707732 -0.12285603 0.06599251 -0.063322194 -0.01994376
0.0076313815 0.097749725 -0.121804014 0.07504422 0.08802861 -0.018151546 -0.14791511 -0.03785285
-0.010547994 -0.11930968 0.022038987 0.018615568 0.0835914 -0.10069756 0.060464256 -0.14743134

encoder.2.bias f4 [32]
00000000: a9e3 db3d 2f5a 993d 878e dd3d 0f3f f03d
00000010: 1a70 8abb b3be 73bc 7e1d 95bd fc53 0abd
00000020: 950f c9bd 56cf 803d c322 053e 2488 c53d
00000030: 6ce9 a0bc b4f1 a1bd 935e b2bc 5e8a db3d
00000040: 9ec0 55bc 9ea1 793b 10b8 2fbd f8f9 003e
00000050: 1821 d3bd 6810 d63d 0d2c 003e a4e2 c73d
00000060: 2349 cd3b 465b 0abe 9296 25bd 885f dc3d
00000070: de2a 04be adc9 053e d8b0 9dbc 24c0 db3d
0.10736782 0.07487904 0.108182006 0.117307775 -0.0042247893 -0.014877009 -0.07281016 -0.0337715
-0.09817425 0.06289546 0.13001542 0.096451074 -0.019642554 -0.07907429 -0.021773612 0.10719751
-0.013046412 0.0038090716 -0.042900145 0.12595356 -0.103090465 0.10452348 0.12516804 0.09760025
0.006264822 -0.1351138 -0.0404268 0.10760409 -0.12906978 0.13065214 -0.019249365 0.10730007

encoder.4.weight f4 [64, 32, 3, 1]
00000000: 7dc4 94bb 6b3f ddbc 4b09 393d 1691 5abd
00000010: df92 12bd bc09 d8bd e42f 243d a9ec 0f3b
00000020: c2c1 61bd 2256 943d 1523 d9bb 3bcb 473b
00000030: 2233 0c3c c5c0 bebb 4851 cabc 4637 b63c
00000040: d0a5 a6bc 840b 9ebc 9be4 eb39 0852 e6b7
00000050: eb15 543c b4c1 8f3d cd8c 6c3d 194d 263d
00000060: c4c3 593d f598 97bd b791 d6bb dced 163e
00000070: 7d8e d73d 3a9f 6e3d 2c18 eabc d130 f33c
00000080: 0af0 933d b5d5 84bd 9864 ce3c 1cc2 06bd
00000090: 4824 943c 4ff8 debc 5198 883d 71ad d4bc
000000a0: 2b4d 383d 076b 843c c0d7 9dba 2bd8 f73c
000000b0: 1d0a e2bd 1fb9 78bc 239b 093e 3a5d 66bd
000000c0: b563 e3b9 a025 cfb9 80e1 bb3b e052 a6bd
000000d0: dd00 103d 52b5 2a3d d9e1 343d 35de b53b
000000e0: 9c29 fdbc 2968 a1bd 84fd 823d 57c5 a4bd
000000f0: a92a d1bd c56e 9d3c fdfc 533d ff1d b2bc
00000100: f7d2 d53c 217d debd 8558 8c3d a8c9 86bd
00000110: 857b 7dbd 9108 853d b809 5ebd b6d7 c5bd
00000120: b547 29bd 4d65 d83b 2e0c 84bd a240 56bb
00000130: 8737 a73d 9ee4 c8ba 0bc8 3ebd c79c 813c
00000140: 8507 70bd 77e4 bfbd 125b 563d dc68 c83c
00000150: f320 f43d ed19 ba3c 443a 81bd 8f26 dc3d
00000160: 2ce8 92bc 76aa 5cbd 9aa7 7c3d 59b9 ac3c
00000170: d8ec 0abd 58d1 b9bd 2cfe 0fbd 4d30 37bd
00000180: 0160 a2bc 55a1 1a3d 18c2 bdbd a4ca c73c
00000190: 2388 3ebb f0a1 533d 5e9b b13c fac3 0fbd
000001a0: 344e 803d f93f 11bb 50c2 0dbc 3232 9c3d
000001b0: a23c e2bc c20e bbbd 6f91 123c 80bf 583d
000001c0: 5488 afbd 2ad3 46bd 88b9 8a3c 9b21 923d
000001d0: 381d ccbb 796d 173d 80f7 3ebd c0b8 d8bd
000001e0: 4c49 0dba 6a4e bcbc ad90 b73d 66cf 70bd
000001f0: 8f02 9cbc 82ab acbd cda3 773c c33f a0bd
00000200: 9c4b 043d 08c8 bf3c f0f1 ca3b 9474 b1bc
00000210: a206 adbd 133c d3bd ac13 babd cbd8 abbd
00000220: 4167 673d 8845 853d 1d90 aabd f70e b93d
00000230: 1a8d 93bb 61e3 39bd 8a23 053d 04a3 d1bd
00000240: 2251 2dbd 9c35 05bd e714 6f3d d48b 873d
00000250: d0e2 ac3d c672 c33d e6c1 a53d 316b 35bd
00000260: c286 febd f29d f63c 59bf d0bc f4f2 8cbc
00000270: f3fd febc 7805 c73c 5510 e2bc 9cd2 a93d
00000280: c985 8bbd bd77 0dbd 9ccd 673c 702c b63d
00000290: 3fd7 cebd a657 98bd 6346 61bd f2f2 13b9
000002a0: 8711 9abd 03ce 84bd 3e2b ef3c 878a 0dbd
000002b0: c7db 993d ede5 423c 6cf0 8f3d 1b05 e3bc
000002c0: 2d36 283d d122 8c3d f7d3 0bbc 3e5c 743d
000002d0: 0d72 afbd 882e 82bd 51a2 903d 6471 5dbd
000002e0: 376b 05bd 2601 eb3c 6f67 5dbd f384 5dbd
000002f0: 0205 7dbd 88d0 623d 5c67 25bd ea6a 7fbc
00000300: 2225 273d 10a0 1fbd 7ab0 af3d 6b8d 7c3d
00000310: fd2d 983d ec44 af3d 81a2 8dbd 53e6 81bd
00000320: 5e18 a53d 973c 133b c89c 99bd db28 c43d
00000330: ca8f a6bb 65c6 b2bc 5f4c 993d a2c7 52bd
00000340: 429b 5bbb 7f40 70bd 167a 0e3d b94f 9cbc
00000350: ebca 0f3d 8cd0 9fbb 1b7a c23c 5550 133d
00000360: bb29 da3c 2e0a 87bd e616 af3d 6c18 503d
00000370: 994d b63d 96b5 c3bc b7da 0c3d bf53 473d
00000380: 3c84 9d3c d448 78bd b460 4bbd f5eb 78bd
00000390: 9b6f ae3d f721 5ebd 9c89 b8bd 84a4 0d3d
000003a0: 6f2d d4bc 88ff 01ba 03da aa3c cd1f 813d
000003b0: df77 b7bd 7dd2 513d 6f5b 833d c8f3 433d
000003c0: 8ff9 63bd ecfb 3dbd 69fa b43d 7bf1 a8bd
000003d0: 9171 a23d 4252 c4bd a15c bcbd dff7 8d3c
000003e0: e757 8abd b939 193d 85f4 363d 4e49 23bc
000003f0: a73b dabc 0989 023d 7ab1 9bbd bab4 7e3d
-0.004540025 -0.02700778 0.045174878 -0.05336102 -0.0357846 -0.10548732 0.040084735 0.0021961129
-0.055116422 0.07242991 -0.0066264966 0.0030486125 0.008557113 -0.0058213198 -0.024696961 0.022243153
-0.020342737 -0.0192926 0.00044993017 -2.7456335e-05 0.012944679 0.07019368 0.057751466 0.04060087
0.053165212 -0.07402221 -0.0065481323 0.14739174 0.10525224 0.05825732 -0.02857598 0.029686363
0.07223518 -0.06486074 0.025194451 -0.03289996 0.018083706 -0.027218012 0.06669677 -0.02596161
0.044995468 0.016164316 -0.0012042448 0.030254444 -0.11037085 -0.015180855 0.13438086 -0.05624125
-0.00043371101 -0.0003951015 0.005733669 -0.08121276 0.035157073 0.041676827 0.044160698 0.005550171
-0.03090363 -0.07881195 0.063960105 -0.08045452 -0.10213215 0.019217858 0.05175494 -0.021742819
0.026101572 -0.1086371 0.06852821 -0.065814316 -0.061885376 0.064957745 -0.054208487 -0.09660284
-0.04132815 0.006603873 -0.064476356 -0.0032692333 0.08164888 -0.0015326922 -0.046577495 0.015821828
-0.05860092 -0.09369748 0.052332945 0.024464063 0.11920347 0.02271744 -0.063099414 0.10749542
-0.017932974 -0.0538735 0.061683275 0.021084474 -0.033917278 -0.09073132 -0.035154507 -0.044723798
-0.019821169 0.037751514 -0.09265536 0.024388619 -0.0029072843 0.051668108 0.02168053 -0.035099007
0.06264916 -0.0022163375 -0.008652285 0.076267615 -0.027616803 -0.09133674 0.008945807 0.052917004
-0.085709244 -0.048541225 0.016934171 0.07135316 -0.006229069 0.036969636 -0.046622753 -0.10582113
-0.0005389645 -0.02298661 0.089631416 -0.05879154 -0.019044189 -0.0843115 0.015114737 -0.078246616
0.03229867 0.023410812 0.006193392 -0.021662034 -0.08448531 -0.103141926 -0.09085783 -0.08390959
0.056494955 0.06507403 -0.08328269 0.090360574 -0.0045029046 -0.04538286 0.032504596 -0.10236171
-0.042313702 -0.03252183 0.058369543 0.06618467 0.084416986 0.09543376 0.08093624 -0.04429168
-0.12428047 0.030104611 -0.025481867 -0.017205693 -0.031126952 0.0242946 -0.027595678 0.08292124
-0.06812627 -0.03453802 0.014148142 0.088951945 -0.10099649 -0.074385926 -0.054998767 -0.00014109517
-0.07522874 -0.06484606 0.029195424 -0.034555938 0.07512622 0.011895639 0.07028279 -0.027712395
0.04106729 0.06842578 -0.008534423 0.05965828 -0.08566675 -0.063565314 0.070622094 -0.054063216
-0.03257295 0.028687071 -0.05405372 -0.05408187 -0.061772354 0.055374652 -0.040381774 -0.015589455
0.040806897 -0.038971007 0.08578582 0.061658304 0.074306466 0.08558068 -0.06915761 -0.06342759
0.08061288 0.0022466534 -0.07500607 0.09578105 -0.005083059 -0.021823118 0.0748527 -0.051459916
-0.003350929 -0.05865526 0.0347844 -0.019080983 0.035105627 -0.0048771556 0.023739865 0.035965282
0.026631227 -0.065937385 0.085492894 0.05080454 0.08901519 -0.023890298 0.03438827 0.04866385
0.019228093 -0.06061633 -0.04965277 -0.0607719 0.08517381 -0.05423161 -0.09010622 0.034580722
-0.02590057 -0.00049590366 0.02085591 0.06304894 -0.089584105 0.051226128 0.06413924 0.04783991
-0.05565792 -0.04638283 0.088368244 -0.08249184 0.07931817 -0.09586002 -0.09197355 0.017330108
-0.06755047 0.037408564 0.044666786 -0.009966208 -0.026639773 0.03186897 -0.0760221 0.062184073

encoder.4.bias f4 [64]
00000000: b07a d73c 91a3 1eba 69d7 dabc 8963 a73d
00000010: cfcd c63c 01b4 4a3c 0b7f 2dbd a2a9 abbd
00000020: 1954 a8bd 0ac3 cfbc 4c36 b0bc 9845 24ba
00000030: c93f e13c b5c3 683d 003d 6f3d df1e 953d
00000040: 95ac fbba dbd0 13bd 644a a9bc 1fc4 9b3d
00000050: a635 64bb eb04 f9bc 7aac 3ebd b254 80bc
00000060: 372b 523d f98a 17bd 904b 4b3c 1b94 d53c
00000070: 9458 ecbb fe6d 88bd b3dc 8ebc 307a a43d
00000080: 6c36 f8bb f1b3 40bb a982 6abc b942 98bd
00000090: 41bd b53d b3c1 4ebd 68d4 55bd e3c4 bbbd
000000a0: 47c1 1e3d 47d4 833d 1156 b93c fa20 5cbd
000000b0: bbdd ae3d 4fb7 ab3d 3acf 053d d408 413d
000000c0: 748f 853d b72d 2ebd 7041 ddbc b982 50bc
000000d0: 6465 14bd 2487 963c 10c6 1c3d b235 ab3d
000000e0: 81fd cdbd edd8 f2bc 8603 493d db1c 0e3d
000000f0: 45b4 8a3d 863e aabd 62a3 89bb ce0f 643d
0.02630362 -0.0006051595 -0.026714044 0.08173282 0.024268059 0.012372018 -0.042357486 -0.08381964
-0.08219165 -0.025361557 -0.021510266 -0.0006266474 0.027496235 0.056827266 0.058407784 0.07281279
-0.0019201214 -0.036087852 -0.020665355 0.076057665 -0.0034822016 -0.030397853 -0.046551205 -0.015665386
0.051310744 -0.03699777 0.012408152 0.026071599 -0.007212708 -0.06661604 -0.017439222 0.08031118
-0.007574847 -0.0029404128 -0.014313378 -0.07434601 0.08873988 -0.050477695 -0.05220452 -0.091684125
0.038758542 0.06436973 0.022624047 -0.053742386 0.085383855 0.08384573 0.03266833 0.04712756
0.06521502 -0.042524066 -0.027008742 -0.012726479 -0.036229506 0.018374987 0.038274825 0.08359851
-0.10058118 -0.029644454 0.049075626 0.034695487 0.06772665 -0.08312707 -0.004200385 0.055679135

encoder.6.weight f4 [128, 64, 3, 1]
00000000: ea2a e43b 204d 5fbc 971d 0fb9 622f 09bd
00000010: 12ea 67bc b8ae 673d 7bfb 0f3c dada 90bd
00000020: 7d35 25bc 7dbf cb3c 35e0 d63c a6d0 1dbd
00000030: b73e 623d dd92 13bd 2792 ec3b ee14 54bc
00000040: 051b 2cbd e4d6 0c3d 77cd 82bd f5a3 38bd
00000050: c775 cbbc 55ff fbbc aeea 8738 25e0 4a3c
00000060: b2b5 ad38 0de2 5bb8 121e a9b7 c38e ecb8
00000070: 1856 21b8 929b f7b9 d187 5bbc a609 863d
00000080: 2dd4 8abd 5bfb bb37 1091 7036 ad21 afb8
00000090: 8371 833d 54a9 bb3b 7063 8cbc 7b74 7abd
000000a0: 196a 883d 9728 80bd 6237 96bc 2d17 89bd
000000b0: 4f4d 4cbd bf6e 4bbd 5822 58bd fb0d 533d
000000c0: 3839 93bd ac59 83bd 801b 483d 193e 41bd
000000d0: 30ff c5bc 161d d83c c89b db35 74b5 4437
000000e0: 7e78 a9b8 8998 df3a c306 293d 16c1 c73c
000000f0: 0a67 a8bc d527 89bd 5d04 90bd 6e08 4abd
00000100: a5c1 89bc 2224 4abd 5dfa 323c e304 513d
00000110: 5973 ac3c cc3b 2cbd d737 5e3d c783 02bd
00000120: 86f9 4dbd 32bb 5e3b 62f9 4c3d ab36 02bd
00000130: dc40 87bd 845d 91bc 9cd8 203c 6bf8 aa36
00000140: 161a 9c35 a250 fbbc 293b 66bd dca5 3dbd
00000150: c963 a838 04be 5837 fd50 2cb8 6733 81bd
00000160: 97f6 6d3d 3bf1 0ebd 8b1d b037 aa02 a438
00000170: bbe8 3837 b54b 553d 8b06 fb3c e557 273d
00000180: ea8a 9fbc 2fb7 0ebd 12a8 3a3d 57c0 c3bc
00000190: dfb2 053d 5074 803d 3273 83bd 9a4a 1cbd
000001a0: d938 023c 3d24 9f3a 2731 2bbd 9f33 fc39
000001b0: 0e8d 8b3d b978 92bd 92cd 2a3a 7a53 dc3c
000001c0: d036 503c aaba 4d3d d3ea c73b 2d7e 0bbd
000001d0: 3a3c 9abd c56e ae38 3780 7ebc c5dd 1e3c
000001e0: a1cc b2bc 7669 553d 9577 813d e1ee 133b
000001f0: acd4 5fbd 09cf 32bd 71bc 02bd 1fc1 363c
00000200: 6474 0abd 3cdd c23c 8c81 7d3c 088f 98bb
00000210: 83af 743d 6f07 bdbc 6d89 7c3d 63e9 bd3c
00000220: df49 c73c fa31 14bd eef6 7fbd 53db 3ebd
00000230: 9b03 fcba d57b 1fbd dc14 8eba f21d fc3c
00000240: eb27 ed3c 8d92 8bbd a378 16bd b9bc 85bc
00000250: 8733 06bd eeb5 b3ba b6e4 b43c 2257 21bd
00000260: e28a 833d c29d b73c c68d ed3c b512 6ebb
00000270: bef2 cdbc fe43 12bb 0d5a afbc 2add 33bd
00000280: 17f3 1cbd 58a8 55bd ef44 80bb e842 453d
00000290: 2609 fb3c a596 80bb c161 d6bc bab9 6f3d
000002a0: 75e6 bdbc ee8c 363d 24ae 043d 252c 37bd
000002b0: 50c1 28bb b217 8bb9 6444 23bd 1495 763c
000002c0: 4178 583d 3ba0 113d 4d94 5bbc 8181 533d
000002d0: 4474 5abb 45fb 723d 909a 80bd c8ba fdbc
000002e0: badc 4abd 4edf 65bd 521a b238 d133 2035
000002f0: 89f5 2537 0e91 273d d368 94bd 2499 333d
00000300: de91 91bc 2b84 9abd 9c9b 93bb 5a47 853d
00000310: beb9 67bd e0a7 2d3b e44e 583c 014e d33a
00000320: 648a 5e3d 923a c4bc 803d 56bc 3d99 97bb
00000330: 545c 0e3d 750e f9bb 81fe 07bd dd11 7c3d
00000340: 79f2 b4bc 501f 543d 7525 143d f03d 81bd
00000350: db42 8fbd c0f5 33bd 0da6 2e3c 5c0f 83bd
00000360: eb49 a03c dead 6ebd 01b9 33ba 0081 1f3d
00000370: ac13 c6bc 71b1 9b3c a299 c53c f995 90bd
00000380: 98f8 0bbd de94 c237 af82 8138 142f a6b7
00000390: 1885 36bd 6761 663d 4b71 83bd 1170 6e3d
000003a0: efe6 bcbc 3ff9 ccbc 9065 02bd 9bb6 1fbd
000003b0: 97b0 86bc 03ab 8cbc c65d 623b 37dd 8a3b
000003c0: 5ce7 333d a7f3 d13c 3651 fb3c e26b 6abd
000003d0: b080 a9bc be21 54bb c4c7 0b3d c7b5 36bc
000003e0: 96de 78bc eb6d 68bd e45d bcbc 7084 b93c
000003f0: 3a4c fc3c 4bc2 7fbd b56e 3abc 37cf 32bd
0.0069631236 -0.013629228 -0.00013648566 -0.033492453 -0.014154928 0.05656311 0.008787985 -0.070729926
-0.010083553 0.024871582 0.026229957 -0.03852906 0.05523559 -0.03602873 0.007219571 -0.012944443
-0.042017955 0.034384623 -0.063868456 -0.045078237 -0.024836434 -0.0307614 6.481014e-05 0.012382542
8.283126e-05 -5.2424195e-05 -2.0160373e-05 -0.000112799484 -3.8465572e-05 -0.0004722742 -0.01339908 0.06544809
-0.067787506 2.2409184e-05 3.5847224e-06 -8.350923e-05 0.06418135 0.0057269726 -0.01713726 -0.06114624
0.066608615 -0.06257742 -0.018336955 -0.066938736 -0.049878415 -0.049666163 -0.052767128 0.051527005
-0.07188648 -0.06413588 0.04885435 -0.04717836 -0.024169534 0.026381057 1.636211e-06 1.1724758e-05
-8.0809914e-05 0.0017059009 0.041266214 0.024384063 -0.020556945 -0.066970505 -0.07032082 -0.049324445
-0.01681597 -0.049350865 0.010923949 0.05103005 0.021051096 -0.042049214 0.05425247 -0.031863954
-0.050286792 0.0033986089 0.050042517 -0.031790417 -0.06604168 -0.017744787 0.009817269 5.0953145e-06
1.1630498e-06 -0.030678097 -0.056208763 -0.046300754 8.029451e-05 1.2918845e-05 -4.1083422e-05 -0.06308632
0.058096495 -0.034898024 2.0994592e-05 7.8206256e-05 1.1021441e-05 0.052074153 0.030642768 0.040855307
-0.01947542 -0.034842666 0.04557044 -0.023895426 0.032641288 0.06272185 -0.06418456 -0.038157083
0.007948124 0.0012141537 -0.041794922 0.00048103646 0.068140134 -0.07151932 0.0006515618 0.026895273
0.012708381 0.050226845 0.0061009913 -0.034055877 -0.075310186 8.317599e-05 -0.0155334985 0.009696429
-0.02182609 0.05210253 0.063216366 0.0022572803 -0.05464618 -0.043654475 -0.031917993 0.011154442
-0.033802405 0.023787133 0.015472781 -0.0046557225 0.059737694 -0.023074834 0.061654497 0.023182577
0.024327217 -0.036180474 -0.06249135 -0.046595883 -0.0019227149 -0.038936455 -0.0010839957 0.030775998
0.028949698 -0.06815062 -0.036736142 -0.016325342 -0.032763984 -0.0013710835 0.022081714 -0.039389737
0.06422974 0.022414092 0.028998267 -0.0036327068 -0.025140163 -0.0022318359 -0.021405244 -0.04391209
-0.038317766 -0.0521625 -0.0039144675 0.04815951 0.03064401 -0.003924208 -0.02616966 0.058526732
-0.02318118 0.044567995 0.032392636 -0.044719834 -0.002574999 -0.000265298 -0.039860144 0.015050191
0.052849058 0.0355532 -0.013402057 0.051637176 -0.003333346 0.05932166 -0.062794805 -0.030972853
-0.049526908 -0.056121163 8.492604e-05 5.968005e-07 9.8919345e-06 0.04090982 -0.07246556 0.04384722
-0.01776975 -0.0754474 -0.004504634 0.0650775 -0.056573622 0.0026497766 0.013202403 0.001612127
0.0543312 -0.02395371 -0.013076186 -0.0046264217 0.03475602 -0.0076006004 -0.0332017 0.061540473
-0.022088276 0.051787674 0.036168534 -0.06310642 -0.069951735 -0.043935537 0.010659707 -0.06399414
0.019566497 -0.05827128 -0.0006855876 0.038941383 -0.024179302 0.01900551 0.02412111 -0.07059855
-0.034172624 2.3195924e-05 6.175541e-05 -1.9810665e-05 -0.04456052 0.056245234 -0.06418093 0.058212344
-0.023059336 -0.025021194 -0.03183514 -0.038992506 -0.016441626 -0.017171388 0.0034540757 0.0042377966
0.043921813 0.025628878 0.030678373 -0.05723179 -0.020691246 -0.0032368745 0.03412606 -0.0111517375
-0.015189787 -0.05674545 -0.02299399 0.022646159 0.030798066 -0.06244115 -0.011378934 -0.043654647

encoder.6.bias f4 [128]
00000000: 338b aabc 6c2d 3a3d 8b79 06bd 00fe 4c3d
00000010: 843f 3fbb 9898 863d b835 753b c71d 393d
00000020: 7d8d 82bc 2c94 0cbd 093b 46bd 8ab1 beb9
00000030: 225b e6bc a9be 67bc 4fd8 80bc e743 723c
00000040: 0a25 d33c a508 033d f05e 9a3c 1b79 6a3c
00000050: 8333 913c be68 86bc e7d8 0ebd 3eaa 98bc
00000060: a256 e4bc c28f 063d 1061 7f3d f4f2 62bb
00000070: 75fc 2f3d 1e37 e2b9 119e ad3c 3fd0 59bd
00000080: 04bd 52bd 55f8 3c3d 00e0 5a3d 032e 8c3d
00000090: 8dba a3bb 413a dabb ee7d 6b3d 8051 c13c
000000a0: 6109 833a 5c9a 4d3c e7a3 ec3c 881c 0bbd
000000b0: b6d6 1139 4f04 813d 8173 e8bc a6ef f8bb
000000c0: 2511 66bc a484 fe3c c535 123b db27 7a3d
000000d0: ea4c 87bb 2995 123c c7f2 10bc d42f 35bc
000000e0: 7d26 15bc 379f 1fbc 9bb3 50bd f6cc 81bd
000000f0: 70c0 8f3b bf6c 533c 1e52 bd3a bc93 d43b
00000100: a77e 09bc 9ce2 35bd 3c2d 7e3d 7fad d6bc
00000110: ce24 27bc e05d 63bd 48c3 1a3d 7e51 6dbc
00000120: 886d ed3c 51b0 223d 45c4 97bd 16d3 65bd
00000130: bbea 8dbc 2715 3c3d b956 cb3c 96b1 9cbc
00000140: 077c 4f3c 1c61 a9ba 512d bcbc 3944 66bc
00000150: b9d2 743d cf18 a83c 34d5 97bb 97dc 42b7
00000160: 127d 6a3c a961 8abc 8944 533d f5da 603b
00000170: 02b5 1cbd bb16 2d3d 898d 3bbd e12f c43c
00000180: 1648 693d c22e adbc dd75 313d fa96 25bd
00000190: 8020 e23a a816 1e3c 8283 0d3d 2498 683c
000001a0: 2742 afbc df98 8bbb 9c7c babc c0f0 0fbb
000001b0: 3a7f 69bd 41b6 bfbb 263b ca3a 020e 46bd
000001c0: 954e c0bc 17d0 74bd 0903 e93c ab79 833d
000001d0: 6d0f 9b3c 8ebd 60bd 59f3 1d3d 1aa4 353d
000001e0: d3ec 373a 09bf 2a3d 177b a23c a1d9 cdba
000001f0: 7be2 623c e07f 87bb 0f9f 8b3d 2e32 19bd
-0.020818328 0.045453474 -0.032830756 0.05004692 -0.0029182145 0.06572074 0.0037416052 0.045194414
-0.015936607 -0.034320995 -0.048396144 -0.000363719 -0.028119627 -0.014144578 -0.015728144 0.014786697
0.025774498 0.031990666 0.018844098 0.0143111 0.017724758 -0.016407367 -0.034874823 -0.018635865
-0.027873341 0.032851942 0.062348425 -0.0034629675 0.04296537 -0.00043147145 0.021193536 -0.053177115
-0.05144979 0.046135265 0.05343628 0.068447135 -0.004996604 -0.0066597764 0.057493143 0.023598433
0.0009997302 0.012549009 0.028886748 -0.033962756 0.00013908264 0.0629965 -0.028375389 -0.0075969277
-0.0140421735 0.031069107 0.0022309881 0.061073165 -0.004129042 0.008946695 -0.008846945 -0.011058766
-0.009103415 -0.00974255 -0.050952535 -0.06337921 0.004386954 0.012904345 0.0014444028 0.006487338
-0.008392013 -0.044405565 0.062054858 -0.026205776 -0.010201646 -0.055509448 0.03778389 -0.014484761
0.028982893 0.03971893 -0.07410482 -0.05610951 -0.017323842 0.04591861 0.024821626 -0.019127648
0.012663848 -0.0012922618 -0.022970827 -0.0140543515 0.059771273 0.020519642 -0.00463357 -1.1614661e-05
0.014312046 -0.016892271 0.051579032 0.0034310196 -0.03825856 0.042258006 -0.045789275 0.023948612
0.056953512 -0.02114046 0.043325294 -0.040427186 0.0017252117 0.009648956 0.034549244 0.014196429
-0.021393849 -0.004260167 -0.022764497 -0.0021963567 -0.0570061 -0.005850584 0.0015429005 -0.048353203
-0.02347497 -0.059768762 0.02844383 0.06419691 0.018928254 -0.054868273 0.038562153 0.044345953
0.00070161856 0.04168609 0.019834084 -0.0015705117 0.013847942 -0.004135117 0.068174474 -0.03740137

encoder.8.weight f4 [256, 128, 3, 1]
00000000: ee46 a8bc 0f34 63bc a39c ffbc d04f 313c
00000010: 5554 d93c d28a dbbb cbf7 b2bc 3ba7 183d
00000020: 48eb e4bc 5bc5 ec3c e3a1 acbc 4417 3a3c
00000030: d324 e7b7 7d77 08b5 6db8 d735 4029 36bc
00000040: e67e fa3c a725 49bd d07d 2237 5c68 2cb7
00000050: caae 3537 7475 183d d756 a1bc c916 c3bb
00000060: d309 dbbc 8380 87bc 88d1 f63c fe39 c2bc
00000070: 1b9d 5cbd 869d d4bb 2f5e 223c 7379 263d
00000080: 1147 1dbd cd81 19bb 2eb7 7e3c b091 bebb
00000090: 2841 903c 0d72 573b b768 1d3d c48a 6a37
000000a0: 96b1 6036 4eed fab5 904c b3ba c4ca 17ba
000000b0: bda0 8f3c 1464 83bc 29ec 36bd a02c 7d3c
000000c0: 66de 99bc 0d5e 323d 10e9 fe3c e21b 0a3d
000000d0: 40ca 8a3c bd81 f23a 6524 323c be85 09b8
000000e0: 273f 2134 42d1 b4bc b06c 5cbd 3769 25bc
000000f0: adc2 9dbc 2a04 afbc 7569 50bb 4d87 f63b
00000100: 1b14 2c3d 4459 c0bb c6d4 ab3c 7b7a e83c
00000110: 3633 d73c c9ea 05bd a826 f33c 455f 50bd
00000120: 3f1a abbb 3e38 623c c691 143d 3338 2bbd
00000130: 0e72 103c 20b3 43bd 766b 07bd 4a71 edbb
00000140: 70b9 ab3c 952e 4bbc 0943 66bd 0dbd da3c
00000150: 9126 36bd 0560 10bd 1c61 723c abce c2b5
00000160: c013 6937 b1a9 7937 df56 d2bc f72d 2d3d
00000170: 3e91 a13a 7ab2 50bd f15e 2abd 5ede 22bd
00000180: a6b6 e43c 8ce7 f7b9 2a0b 373c c724 27bd
00000190: 6608 b03c 856d d2bc 617f b43c 3bf9 23bd
000001a0: 477a 6bbc 8319 23bd 9a3a 373d 1301 51bd
000001b0: f190 43bb 123a 67bd 368d f3bc c58c 21bd
000001c0: 93ed 2a3b 85df 0fbd 24bd 4dbc dd95 26bd
000001d0: 9ed7 3e3c d29b c3bc 474c cbbb d9fe 433b
000001e0: 165b 2fbd 7953 023c 9c7c b6bc 8a76 b0bc
000001f0: 1591 0dbd 9761 bc3c 34c6 c4bc 57d9 e63c
00000200: f9a1 823c 69b5 e4bc 858c e93a 49aa 37bc
00000210: 50ec 493b 70e4 0a3d d626 c0bc 6e33 22bd
00000220: 6f7f 813b 57c5 023d fd80 fcbc ed92 b33c
00000230: 373f babc 2fca 7037 5c98 8fb7 7207 1eb7
00000240: 7f34 a6b7 4fad 0435 85fd 2c36 2b81 433b
00000250: e322 61bb b482 c5bc f32e 5abd d270 423c
00000260: 5b58 513c 822c 3f3c e800 3d3c a6db 5abd
00000270: 8be8 1ebc d6a0 54bc 83d5 a43c 5bc0 31bd
00000280: f834 00bd 498f 0d3d 8be4 343d 1328 49bd
00000290: bd75 eebc 72b5 6c36 3b6c 1eb5 cc83 1e37
000002a0: ae83 2735 850f eab6 9e01 b8b6 6fb1 6eb6
000002b0: 173d 1335 f4c3 1134 1a06 553b 5e6c 22bd
000002c0: f2af b73c 8d2d 99bb 25f3 23ba 85ff 8cbb
000002d0: c51d ec3b 1adb 75bc 0f36 7fb5 0e14 30bd
000002e0: a489 fc3c 98f5 203d 1fb9 c6bc ee78 99bb
000002f0: a035 0b3d 745a e4b6 2f3c e737 c8fb 8ab7
00000300: bca2 3a3d 56d5 1abc 805c 36bc 11b6 943c
00000310: 4134 383d d066 34bd dcf0 373b 171d 8ebc
00000320: c271 06bd 5401 fbbc 2782 053d a04c 56bd
00000330: 0c8c 3abd be62 edbb 90aa 3bbd 5cc5 253d
00000340: 4398 083c 6d10 223d 1655 acbb edcc b73c
00000350: 1827 29bd 919d 203d b4b4 4d3c ad79 2e3c
00000360: fdb1 56bd ebb9 163d 0ede aa3b c526 8f3c
00000370: 9f95 54bd 1511 f0bc 0c72 373d 21aa ddbc
00000380: 1c40 183b fc98 f039 d06a df3a e8ee 13ba
00000390: 9cad 81bc 10e9 2dbd 0511 d2bb f312 61bc
000003a0: b4c0 c43c d1c6 ad3c 2b0c 693c bb84 f43a
000003b0: 794f 283b a79d e23b 284a 3bbd dd57 43bd
000003c0: a96c 4c3d b090 013d 1b57 8abb c3eb e8b9
000003d0: 81b1 483b e9ab e8bc a33d 28bd 6a3b fd3c
000003e0: a641 72bc 248c 1eb7 c912 b436 f30a d8b7
000003f0: 8117 65bd b1b3 8dba 3d47 2bbd ec2f eebc
-0.020541634 -0.013867392 -0.03120262 0.010822251 0.02652947 -0.0066998983 -0.021846673 0.03726886
-0.027944222 0.0289027 -0.021073287 0.011358086 -2.7554493e-05 -5.0837826e-07 1.6072423e-06 -0.011118233
0.030578088 -0.049108174 9.6852455e-06 -1.0276297e-05 1.0829137e-05 0.037221387 -0.019694729 -0.005953644
-0.026738083 -0.016540771 0.03012921 -0.023709293 -0.053860765 -0.006488505 0.00991015 0.040643167
-0.038397852 -0.0023423315 0.015546603 -0.005815707 0.017609194 0.0032874376 0.038429942 1.3979796e-05
3.348197e-06 -1.8695516e-06 -0.0013679434 -0.00057904073 0.0175327 -0.016038932 -0.044658814 0.015452534
-0.018782806 0.043546725 0.031116992 0.033717997 0.016942143 0.00185018 0.010872935 -3.2787902e-05
1.5017268e-07 -0.022072438 -0.05381459 -0.010095886 -0.019257868 -0.02136429 -0.0031801139 0.0075234533
0.04201136 -0.0058700163 0.020975482 0.028378716 0.026269536 -0.03269461 0.029681519 -0.050872106
-0.0052216346 0.0138073545 0.036271833 -0.041801643 0.008816255 -0.04777825 -0.033061467 -0.007246171
0.020962447 -0.012401243 -0.056216273 0.026701475 -0.044470374 -0.03524782 0.0147936605 -1.4514275e-06
1.3892481e-05 1.4881066e-05 -0.025676189 0.042280164 0.0012326611 -0.05095146 -0.04159445 -0.039762847
0.027919125 -0.00047284027 0.011172095 -0.040806558 0.02148838 -0.025686989 0.022033395 -0.040032607
-0.014372415 -0.03981925 0.04473362 -0.051026415 -0.002984103 -0.056451865 -0.02973042 -0.03944089
0.0026081547 -0.035125274 -0.012557302 -0.040670265 0.011648087 -0.023878012 -0.0062041613 0.002990654
-0.042811476 0.007954472 -0.022276215 -0.021540899 -0.03456219 0.022995753 -0.024020292 0.028179808
0.015946375 -0.027918534 0.0017818367 -0.011210033 0.003081102 0.03390926 -0.023456018 -0.03959983
0.003951959 0.03192648 -0.030823225 0.021920646 -0.022735221 1.4352189e-05 -1.7117876e-05 -9.419267e-06
-1.9813187e-05 4.942603e-07 2.5777565e-06 0.0029831629 -0.003435307 -0.024110176 -0.05326743 0.011867719
0.012777413 0.011668326 0.011535861 -0.05343213 -0.009698997 -0.012977799 0.020121342 -0.043396335
-0.031300515 0.034560475 0.044163268 -0.049110483 -0.029108876 3.5272355e-06 -5.901708e-07 9.44822e-06
6.2403967e-07 -6.97555e-06 -5.4838156e-06 -3.5568044e-06 5.4850665e-07 1.3575465e-07 0.0032504858 -0.03965413
0.022422764 -0.0046746195 -0.0006254188 -0.0043029212 0.0072056972 -0.015005851 -9.507357e-07 -0.042987876
0.03082735 0.039296716 -0.024258194 -0.0046836054 0.033986688 -6.8054596e-06 2.7565371e-05 -1.6568127e-05
0.04556535 -0.009450277 -0.011130452 0.018153222 0.04497171 -0.044043362 0.0028067147 -0.017347855
-0.03282333 -0.030640282 0.032594826 -0.05231917 -0.045543715 -0.007244437 -0.045816958 0.04047142
0.008337083 0.039566446 -0.0052591665 0.022436583 -0.04129705 0.039212767 0.01255529 0.010649127
-0.052415837 0.0367984 0.0052144593 0.017474541 -0.051900502 -0.02930502 0.044786498 -0.027058663
0.0023231572 0.0004589035 0.0017045382 -0.0005643205 -0.015829854 -0.042458594 -0.0064107203 -0.013737428
0.02401767 0.021212967 0.0142240925 0.001865528 0.0025682135 0.0069157663 -0.045725018 -0.047691215
0.049908314 0.031632125 -0.0042218096 -0.00044426144 0.0030623379 -0.028402286 -0.041074406 0.03091212
-0.01478616 -9.450163e-06 5.366605e-06 -2.5754305e-05 -0.05593062 -0.0010810999 -0.041815985 -0.029075585

encoder.8.bias f4 [256]
00000000: 2b93 85bc 1d11 20bd bf99 613c d957 ed3c
00000010: 441f 283d 7418 43b8 7cf0 0dbb 6be7 dbbb
00000020: f4fb 48bd 6abb abbb 0f7a b33c 982b 023d
00000030: 2d22 203c 8654 033d 6c16 093d e34e 3cbc
00000040: 491a fabc a187 e2bc 58f0 f3bb 4c24 8b3c
00000050: 87a3 48bd 6e3e e03c 97a6 4cbd bea3 c9ba
00000060: 9fb8 05bc 8fe1 dc3b af0a 0bbd 5414 dabb
00000070: 2de0 99bb 7b21 003c 8c06 f03c d8ea 0abb
00000080: e088 8a3c 0d53 1bbc b01d ae3c 6cc1 583c
00000090: cc3a 52bc 8caa da3c 46d4 fbbb a5f3 a2bb
000000a0: a574 123b 5e1c 223d c7b2 c1bc 0caf 603b
000000b0: 54d2 953c 8ea5 ca3c 337a 053d b329 063d
000000c0: fc82 c33c d7e4 d3bc 3ccd 13bd 0e48 b3bb
000000d0: 06f7 20bd a163 2d3d 1943 df3c 3b96 a5bb
000000e0: db31 a23c 3ec2 82bc 9cd3 ecbc 99ae 913c
000000f0: 584e a2bc 5c62 99bc 51fb a53c ea94 0bbd
00000100: 7eba bc3c 62d4 243b ba94 223d 99e7 adbc
00000110: c07e d3bc b99d cb3c 18fe 963c b38e 553c
00000120: ab51 d2bc 93aa e23c 37a1 2a3d cee3 8a3c
00000130: d334 953c 1f3b 153d 1ff6 b6bb 245d 643c
00000140: fb51 3abd 6eed 66bc 6fee 0ebc 822d 1b3d
00000150: 3f6c 1dbd 4aad 853b d50a 493c 6b66 0abc
00000160: 4fe7 fabb 2853 c23a 34a8 30bc a9c5 11bc
00000170: 448e fe3c a80c 58bd 57a5 223d 3db7 0d3d
00000180: f9a6 85bc 5ad8 3fbb 28f1 b63c d1fb f0bc
00000190: a500 bfbc 3a17 923c d6f3 0e3d 4e04 173d
000001a0: 6feb 39bd a346 023d e2b9 103d cda2 23bd
000001b0: 5cae 103b 35e2 fabc a28a e5bb acf4 193d
000001c0: 786e c1bc 4305 49bd 97e2 e1bb c286 563c
000001d0: 93a1 a13b 9518 c5bb 8bd9 25bb e449 2bbc
000001e0: 31c1 c43c d5cd bab9 7deb 933c 4b4a dabc
000001f0: 4379 b039 cd58 c2bb e0e2 523c 801a 63bb
00000200: 870a 07bb 5667 a63c ba5e 48bd c6a8 b13c
00000210: 837c c73c 8691 b33c 437f 0d3d 1948 843a
00000220: 5b9d 953b e000 69bd cb82 ebbb c004 253d
00000230: 27ad 1ebc 72bc 8cbb cc89 06bc d968 173d
00000240: 3bca 01bc db50 8e3c 0eaa 1b3c 0802 2dbd
00000250: 1798 72bc 68e5 043d 516f 573c 8435 2c3d
00000260: 0eac 0b3d df2a af3b 66a1 dfbb 3eba 003d
00000270: 2e87 92bb fd42 d63b a4dd 263d bd74 103d
00000280: 693e 1cbb 8012 32bd 64b5 3f3a 18ac 05bc
00000290: 75d0 f83c 6627 93bc 0641 463d 54d5 06bd
000002a0: 79a5 3c3d 710f c33c 2bf9 bfbc d403 8c3c
000002b0: d9c9 04bd 7a6f 88bb 5e9a d13c 5a8b 2abd
000002c0: 100a 4abc 17e3 c1bb 4043 33bb 8923 233d
000002d0: 5bbc 41bb 8254 7d3c 10f2 1e3d d556 2c3d
000002e0: 82f0 48bd 1da5 9a3c 2b79 b539 049e f23c
000002f0: 4e91 b0bb 1b53 a3bb 5216 8f3b 9b67 5dbc
00000300: c7b0 ad3c a82e d9bc 03ce 59bd 3af2 0abd
00000310: 2801 84bb 228a 14bd db19 20bc 67f9 e0bc
00000320: d736 bdbc cf61 e13c 4b38 94bc 51ce 8dbc
00000330: bdae 05bb 3a00 febb b6f9 993c 73fb 27bb
00000340: 1ad6 ecbc 8e1e f1bc 2c9f c7bc f447 30bb
00000350: 9443 2abb caa4 fdbc d951 ef3c 5a9a 043d
00000360: e605 d5bb a4f3 d03b ae04 c33c 80d8 10bd
00000370: 03ea 21bd 3d66 053d 585f a6bc f411 d33c
00000380: 32b3 2f3d 50a5 2e3d ee1f 20bc 4e58 3a3d
00000390: 8d33 24bb 9d16 4ebb fda2 753c 2801 f93b
000003a0: d38d aebb c9a6 823c 2459 79bc a7ab 09bc
000003b0: 0501 2b3d 4bd7 d73c 25e3 673c b508 50bb
000003c0: 73e2 14bd bc03 2d3c 5372 8abc 3ab2 f5bc
000003d0: d692 38bd ef38 ff3c dcf7 87bb ac94 6ebb
000003e0: b1e3 dabc 5a3c ce3c 8aa9 0ebd c237 a7bc
000003f0: 30e5 5abc b8ce 873a 4a64 1d3c f9d2 3a3b
-0.016305527 -0.03907882 0.013769566 0.028972553 0.041045442 -4.6514397e-05 -0.0021658232 -0.006710937
-0.049068406 -0.0052408474 0.021908788 0.031779855 0.009773773 0.03206303 0.03346865 -0.011493417
-0.030530112 -0.027652564 -0.0074444227 0.016985081 -0.048984077 0.027373519 -0.04996356 -0.0015383882
-0.008161693 0.006740756 -0.033945736 -0.0066552553 -0.0046959133 0.007820482 0.029299997 -0.0021197107
0.01691097 -0.00948025 0.02125439 0.013229709 -0.012831401 0.026692651 -0.007685217 -0.0049728923
0.0022347358 0.039577834 -0.023644818 0.0034284024 0.018288769 0.024737146 0.03258724 0.03275461
0.02386617 -0.025865955 -0.0360844 -0.005471236 -0.03929808 0.04233134 0.027253674 -0.0050533093
0.019799164 -0.015961763 -0.028909497 0.01778345 -0.019812748 -0.01872366 0.020261439 -0.034077562
0.023038145 0.0025151004 0.039692618 -0.021228598 -0.025817275 0.024855481 0.018431708 0.01303451
-0.025673708 0.027669227 0.041657653 0.016954329 0.018213665 0.036433335 -0.005583539 0.013938222
-0.04548834 -0.014094694 -0.008723839 0.037885197 -0.03843331 0.0040794956 0.012270649 -0.00844727
-0.0076569687 0.0014825808 -0.01078229 -0.0088972235 0.031073697 -0.052746445 0.03970846 0.034598578
-0.01631497 -0.0029273243 0.02233179 -0.02941695 -0.023315737 0.01783334 0.03490051 0.03686934
-0.045390543 0.031805646 0.03533352 -0.03995018 0.0022076583 -0.030625442 -0.0070050517 0.037586853
-0.023612246 -0.049077284 -0.0068934667 0.013093652 0.004932591 -0.0060148933 -0.0025306668 -0.010454629
0.024017902 -0.0003563004 0.018056626 -0.026646754 0.00033659683 -0.005930996 0.012871474 -0.0034653246
-0.002060564 0.020312946 -0.048918463 0.021686923 0.024351364 0.021919977 0.034545194 0.0010092288
0.0045658774 -0.0568856 -0.0071872226 0.040287733 -0.009684837 -0.0042949254 -0.008211564 0.036965225
-0.007921751 0.01737254 0.009500993 -0.042238265 -0.014806769 0.03244534 0.0131490985 0.042043224
0.03409963 0.005345687 -0.00682466 0.031427614 -0.004471681 0.0065387473 0.040738717 0.03526758
-0.002384091 -0.043474674 0.0007313101 -0.008158706 0.030372838 -0.017963123 0.048401855 -0.03291829
0.046056245 0.023811074 -0.023434242 0.01709167 -0.03241906 -0.0041636797 0.025586303 -0.041636802
-0.012331501 -0.005916964 -0.0027353317 0.03982881 -0.0029561731 0.015462043 0.038805068 0.042074997
-0.04905749 0.01887756 0.00034613287 0.029616363 -0.0053884154 -0.004984272 0.0043666745 -0.013513471
0.021202458 -0.026511505 -0.053174984 -0.03392241 -0.004028458 -0.036264546 -0.009771789 -0.027462674
-0.023097439 0.02751246 -0.018093249 -0.017310293 -0.0020398342 -0.007751492 0.01879583 -0.0025632053
-0.028910685 -0.029433515 -0.024367891 -0.0026898356 -0.002598022 -0.030962367 0.029213833 0.032373764
-0.0065009473 0.0063767005 0.023805942 -0.03536272 -0.03952981 0.032568205 -0.020309135 0.025765397
0.042895503 0.042638123 -0.009773238 0.04549437 -0.002505514 -0.0031446584 0.014992473 0.007599015
-0.0053269654 0.01594867 -0.015219007 -0.0084027415 0.04174902 0.026347777 0.014153277 -0.003174347
-0.03634877 0.010559972 -0.016900217 -0.029992212 -0.04506191 0.031155078 -0.00414942 -0.0036404533
-0.0267199 0.025175262 -0.034829654 -0.02041233 -0.013360307 0.001036129 0.00960643 0.0028507097

conv_mean.weight f4 [20, 256, 3, 1]
00000000: f92d bb3c a6ed d43c 9fd0 e33b c0aa 803c
00000010: 803e a13c 853e 12bc a3d4 c0bc 5d74 50bb
00000020: bb03 dfbc bf0d 6a3c b43e b63c 9335 c23c
00000030: af7d bfbc 595d 0a3d 65c4 2c3c 07e8 3e36
00000040: be60 03b7 c300 9bb6 aea1 87bb f429 65bb
00000050: 6cad fabb 4a3f 3bbb b7fa 4fbb 36b4 6cbb
00000060: 4cc9 55bc b912 c63b 1a5a 1abd 14d5 55b7
00000070: 594f 8636 53b4 34b6 84aa 283c c7cd 8b3c
00000080: 9860 dfb9 c822 9d3c ebfd c3bb 9a5f 0e3d
00000090: f672 24bc 66a0 163c 9b73 fd3c 0f80 753c
000000a0: 31d2 2c3c 7a93 23bb 9819 113d 0b33 b8bb
000000b0: f5be 0e3a 5d3c a53c e558 acbc 634f 573c
000000c0: e09b be3c ac3c c53c 4761 433b 22b6 85bc
000000d0: 0817 5dbc 74d7 783c 48a8 2c3c 4420 943c
000000e0: d5de f93c b4a4 a1bc ee67 e0bc 412c 69bb
000000f0: 3ad2 4bbc 0679 733c 3733 b1bc da17 bbbb
00000100: d1b4 aebb cc18 133a c643 d4b8 1c9f 81b7
00000110: a945 ceb5 9a79 cd3c b978 eabc da87 a13c
00000120: 7c75 57bc 8425 b73c 8a5e 2b3d fee5 c03c
00000130: 6df3 eebc 324a e4bc 1d80 eb3c c23f 93bc
00000140: 085e bcbc d8eb e43b b650 fb3b a239 ac3b
00000150: d363 e43a d289 c43b 77c6 7cbb 7d83 abbc
00000160: 0cd8 4dbc 0e85 1f3d eacf afba 4e52 023c
00000170: f87d 933a f2dc b83b 37b3 3d3b 85d3 8e38
00000180: f0fa 93bc 4e8d 013d cc5c c13c f0ee c83b
00000190: 1069 bb3b 852f e03b 0848 083b baac d6bc
000001a0: ee83 1abc 73b2 d33c 0683 743c c6a2 8a3c
000001b0: d7b5 213d 0a27 dcbc cdc2 b03c c1c5 be3c
000001c0: 0eb4 d5bc 8f2d f3bc e87d 9abb c8c6 afbb
000001d0: eea9 b7bb 4878 e5bb 4f66 e7bb 0221 e6bb
000001e0: d0cd 98bc 376b 00bc a61b c13c 1e16 033a
000001f0: 695c b83b d70e f13b 4a31 013c fb3a 2c3c
00000200: a736 0a3d 85e6 9cbc fe40 dd3b f161 d0bc
00000210: 982d 94bb 8873 123d 3e9b 313c 400a 48bc
00000220: 559d 8abc 3d75 37b8 d54b 9fbc 9c1f df3c
00000230: 8cd5 1d3d 4883 64bc d6ce f43c 7af3 053c
00000240: 3a96 9f3c e034 833c b26f f53c 7c23 d4bb
00000250: 82c5 03bd 0185 d4bc 10e6 8c3c e3f4 97bc
00000260: 9fc6 03bd 09e6 c9bb f8c5 cfbb 287e bbbb
00000270: 5102 17bc 2481 b63c 8a60 7b3b 20ec 0f3d
00000280: 5a31 c73c 6e76 ddbc 820f 49bc 2595 ba3c
00000290: b440 1dbd fa38 cdbb 582b b6ba 61b5 abbc
000002a0: 5962 d03b dea3 e4bc b509 8f3c f36b c63b
000002b0: eddf 6d3d bdbb 053c f73d abbc 9c8e 683b
000002c0: 6da8 0b3c 5798 c6bc 7d1e 213d 8ab8 f1bb
000002d0: ae78 3dbc 186c a9bc 35b8 e3bc f671 01bd
000002e0: 4195 00bc 1269 c13b d6ef 6cbc 345b bdbc
000002f0: bd00 54bc 7823 053d 775a 163d aa0d 873c
00000300: 0fc7 123a faa1 c1bc 154d b03c 171e 073d
00000310: 7bf1 d0bc dde0 59bc 0da6 6f3c 65ee 233b
00000320: 352e 2bbc 0485 1cba beef 003d e0b2 39bc
00000330: 49a8 a83a beb3 2f3c 9766 92bc 61a4 84bc
00000340: 6469 0e3d a194 bbbc 1797 94bc 497d 183d
00000350: dc08 f9bc a16a a83a eb1e dcbc de70 39bc
00000360: 11b7 ef3c cd46 f83c 8f61 8d3c 911b b43c
00000370: 1f75 fcbc c725 b2bb f46a 7ebb f7ad 91bc
00000380: 1953 143d 84cb 933c 3719 e8bc 3432 053c
00000390: b568 9dbc 3706 a63c 9648 f13c 962b c1bc
000003a0: a097 6bbc 87d1 84bb f436 e4bb 1118 c4bb
000003b0: dba4 bdbb ae28 e03c b4ce 03bd bcde 33bc
000003c0: 6229 52bc 6282 f7bc ed87 b238 271c 35bc
000003d0: 56df b8ba f687 97bc 19dd f6bb 2c31 eabb
000003e0: 1066 f8bb 4782 133c 7098 153c 9e7a 863c
000003f0: 4119 05bd e7f4 82bc 794c 8abb 3ea3 3fbc
0.02284907 0.025992226 0.00695236 0.01570642 0.019683123 -0.008926039 -0.023538893 -0.003180764
-0.027223459 0.014285504 0.022246696 0.023707187 -0.02337536 0.03378043 0.010544871 2.8447264e-06
-7.830733e-06 -4.6194486e-06 -0.004139147 -0.0034967633 -0.007650068 -0.0028571659 -0.003173513 -0.0036118156
-0.013048481 0.0060447124 -0.037683584 -1.27454e-05 4.0027485e-06 -2.6927053e-06 0.01029456 0.017065896
-0.00042605842 0.019181624 -0.005981197 0.03475914 -0.010037174 0.009193515 0.030938914 0.014984145
0.01054816 -0.002495973 0.0354248 -0.005621319 0.0005445325 0.020170385 -0.021038482 0.013141486
0.023267686 0.024076782 0.002981262 -0.0163222 -0.013494261 0.015188087 0.010538168 0.018081792
0.030501762 -0.019731857 -0.027393308 -0.0035579356 -0.012440259 0.014860397 -0.021630866 -0.0057096304
-0.0053316136 0.00056113 -0.000101215715 -1.545209e-05 -1.536847e-06 0.025082398 -0.028622018 0.0197181
-0.013150569 0.022356756 0.041838206 0.023547169 -0.029168809 -0.02786741 0.028747613 -0.017974738
-0.022994056 0.0069861226 0.0076695336 0.005255894 0.001742477 0.005997875 -0.0038570443 -0.020936722
-0.012563717 0.03894525 -0.0013413404 0.007954193 0.0011252752 0.005641573 0.0028945932 6.810486e-05
-0.018063992 0.0316289 0.02360382 0.006131999 0.0057193115 0.0068416023 0.0020794887 -0.02620541
-0.009430869 0.025841927 0.014923817 0.01692332 0.039480057 -0.026874084 0.021577263 0.023287656
-0.026086833 -0.02968481 -0.004714716 -0.0053642727 -0.005604974 -0.007002864 -0.0070617567 -0.007022978
-0.018652827 -0.007838062 0.023572754 0.0005000549 0.0056262505 0.0073565054 0.007885287 0.010512109
0.033743527 -0.019152889 0.0067521324 -0.025437327 -0.0045220368 0.03575471 0.010840235 -0.012209475
-0.016920725 -4.3739787e-05 -0.01944534 0.027236752 0.038533732 -0.0139473155 0.029883783 0.008175725
0.019480813 0.016016424 0.029960487 -0.0064739566 -0.03217078 -0.025942327 0.017199546 -0.018549388
-0.03217184 -0.0061614555 -0.0063407384 -0.005721826 -0.009216861 0.022278376 0.0038357102 0.035137296
0.024315525 -0.02703401 -0.012271764 0.022776196 -0.038391784 -0.0062628957 -0.0013898415 -0.020960512
0.00635938 -0.02791017 0.017460683 0.006055349 0.05807488 0.008162436 -0.02090357 0.0035485392
0.008524043 -0.024242563 0.039335717 -0.007376735 -0.011564417 -0.020681426 -0.027797798 -0.031602822
-0.007848085 0.005902418 -0.014461478 -0.023114778 -0.012939629 0.03250453 0.036707368 0.016486008
0.000559912 -0.023636807 0.02152113 0.03298768 -0.025505772 -0.0132982405 0.014626992 0.002501392
-0.010448028 -0.00059707486 0.031478636 -0.011334151 0.0012867536 0.010724006 -0.017871184 -0.016191663
0.034768477 -0.02289802 -0.018138452 0.037228856 -0.030399732 0.0012849161 -0.026870212 -0.011318414
0.029262098 0.030307198 0.017258434 0.021985801 -0.030817566 -0.0054366323 -0.0038821073 -0.017783148
0.03621206 0.01804138 -0.028332336 0.008129645 -0.019214967 0.020266635 0.029453557 -0.023580354
-0.014379412 -0.004053298 -0.0069645587 -0.0059843143 -0.0057874746 0.027363148 -0.03217955 -0.010978397
-0.012827249 -0.030213539 8.5130196e-05 -0.011054075 -0.0014104645 -0.018497448 -0.007533681 -0.007146975
-0.007580526 0.0090032285 0.009130582 0.01641589 -0.032494787 -0.01598592 -0.004220542 -0.011696635

conv_mean.bias f4 [20]
00000000: 8824 7fbc ce84 9abc cc4a f9bb 086a 5ebc
00000010: 3225 a7bc 4f21 893c 9341 ce3b db61 b6bc
00000020: f4ce cdbc 455b 87bc 329e b13b b58d 70bc
00000030: 1712 803c eed3 5ebc 10db e8bc 5c9f c3bc
00000040: 9d8e a5bc e217 68bc 10ee b1bb 7d42 97bb
-0.015572675 -0.018862154 -0.0076077934 -0.0135750845 -0.020403478 0.016739516 0.006294438 -0.022263458
-0.025123097 -0.016523013 0.0054204697 -0.014682223 0.015633626 -0.013600333 -0.02842477 -0.0238797
-0.020209605 -0.01416585 -0.0054299906 -0.0046160803
