VAE-LSTM-anomaly–detection/experiments/NAB/machine_temp/NAB-machine_temp-win48-seq10-codesize8/checkpoint/lstm/lstm_best_model.pth (torch, 480396 bytes, 18 tensors)

lstm.weight_ih_l0 f4 [256, 8]
0	0x3d04c984	0.032418743
1	0xbdd0e2eb	-0.10199531
2	0xbcfb1a80	-0.030652285
3	0xbce0973e	-0.027415868
4	0x3dad0578	0.08448309
5	0xbde855e0	-0.11344504
6	0xbcb6976b	-0.022288999
7	0x3cdc3db4	0.026884891
8	0x3cf8db4d	0.030378008
9	0x3d70bc18	0.05877313
10	0xbcc6a70c	-0.024249576
11	0x3ddc8668	0.107678235
12	0xbc566087	-0.013084537
13	0xbd9021e3	-0.070377134
14	0x3d65acde	0.056073062
15	0xbd247892	-0.040154047
16	0xbd220cf7	-0.039563145
17	0x3d1bd75e	0.038047187
18	0x3baac0d7	0.0052109766
19	0xbc4e8b73	-0.0126064895
20	0xbdc89412	-0.09793867
21	0x3db4e42d	0.088325836
22	0x3d296be7	0.04136267
23	0x3dfb16e1	0.12260223
24	0x3c8be933	0.017078971
25	0xbc77c23f	-0.0151219955
26	0x3c9d8b80	0.019231558
27	0x3d937e91	0.07201875
28	0x3d89796e	0.06712614
29	0xbc8e31fa	-0.017357815
30	0xbc1a1a54	-0.009405691
31	0x3dc377db	0.09544345
32	0xbca83d97	-0.02053718
33	0xbddb38cb	-0.10704192
34	0x3dcf1771	0.10111893
35	0xbddacdc9	-0.10683782
36	0xbc3df728	-0.011594571
37	0x3d43a15b	0.047761302
38	0x3dcf7349	0.10129411
39	0xbc563bea	-0.013075808
40	0xbd726bb2	-0.059184738
41	0x3df1cbd9	0.11806459
42	0xbc1daa6c	-0.009623151
43	0xbdf9b9d9	-0.12193651
44	0xbd75a2a8	-0.059969574
45	0x3d9cba57	0.07652729
46	0x3d654a0a	0.055978812
47	0xbc377cad	-0.011199159
48	0x3d9d60bf	0.076844685
49	0x3d55c38d	0.052188445
50	0x3dc406b5	0.09571592
51	0xbdb94c7c	-0.09047791
52	0x3dbe6108	0.09295851
53	0xbd9f65e1	-0.07783104
54	0x3c70a47c	0.014687654
55	0x3dd8f61b	0.10593816
56	0xbd4aa3a6	-0.049472474
57	0xbdd93abe	-0.10606907
58	0xbc92717b	-0.017876377
59	0xbddb51d0	-0.10708964
60	0x3de08a40	0.10963869
61	0x3d80096b	0.06251796
62	0x3c02fbde	0.00799462
63	0xbd83211e	-0.06402801
64	0x3cadb80c	0.021205924
65	0x3ddc87a4	0.10768059
66	0xbdb0ba2c	-0.086292595
67	0x3d8b7d9f	0.0681107
68	0x3d1593f7	0.036518063
69	0xbd9d1d57	-0.07671612
70	0xbd389e2e	-0.045072727
71	0x3c7bd51e	0.015370635
72	0x3d973ca9	0.07384617
73	0x3cca91af	0.02472767
74	0x3c723bfd	0.01478481
75	0xbdcd4929	-0.1002372
76	0x3c73d41f	0.014882117
77	0x3c513c48	0.01277072
78	0xbde366fd	-0.11103628
79	0xbd5de459	-0.054172847
80	0x3d08c137	0.03338739
81	0xbca866ef	-0.020556895
82	0xbb16b287	-0.0022994594
83	0x3b9410d6	0.0045186086
84	0xbcc641b8	-0.024201259
85	0x3c8ecd3a	0.017431844
86	0xbd3bf1c3	-0.04588486
87	0x3d53c76c	0.051703855
88	0xbcdeb552	-0.02718607
89	0x3d57e426	0.052707814
90	0x3d305ba2	0.043056138
91	0x3db2494a	0.08705385
92	0xbda80ef5	-0.08205978
93	0xbc5bfe5b	-0.013427342
94	0x3c8b49a6	0.017002892
95	0x3d02322c	0.03178613
96	0xbda57d9d	-0.080805995
97	0x3dd00681	0.101574905
98	0xbdd8a9aa	-0.10579236
99	0xbcd12900	-0.025532246
100	0xbdd8fe21	-0.10595346
101	0x3de1d7ca	0.110274866
102	0xbdaeaf77	-0.08529561
103	0xbc229c5b	-0.009924973
104	0xbd779342	-0.06044317
105	0xbd823412	-0.06357588
106	0x3deb0dc9	0.11477239
107	0x3d791496	0.060810648
108	0x3daeb7c9	0.08531148
109	0x3de8a6b7	0.11359923
110	0x3d475705	0.048666973
111	0xbdb82b07	-0.08992582
112	0xbdeb5f3e	-0.114927754
113	0x3d8935af	0.066996925
114	0xbca0345b	-0.019556215
115	0x3d9d7ef0	0.07690227
116	0xbdb449f2	-0.088031664
117	0x3d83ee8a	0.06441982
118	0xbd0e8e16	-0.034803472
119	0x3cd42224	0.025895186
120	0x3d818d6c	0.06325802
121	0xbdd70119	-0.10498256
122	0xbd35446e	-0.044254713
123	0xbb833d6a	-0.004005124
124	0xbd4f5488	-0.050617725
125	0xbdd73479	-0.10508055
126	0xbcab5e46	-0.020918977
127	0xbdc1dfb0	-0.09466493
128	0xbcdab7a3	-0.026698893
129	0xbd3e1b1a	-0.046412565
130	0xbcb7691d	-0.02238899
131	0x3b8c0f19	0.0042742607
132	0x3dfbb9a2	0.12291266
133	0xbd506b67	-0.050883677
134	0xbd94e87b	-0.07270905
135	0xbdcfd60f	-0.1014825
136	0xbde4db4e	-0.111746415
137	0xbcf1d359	-0.029519724
138	0xbbe0440d	-0.00684405
139	0x3da0c693	0.07850375
140	0xbdbf0279	-0.093266435
141	0x3d39677a	0.0452647
142	0xbce42603	-0.027850157
143	0x3dc01057	0.093781166
144	0xbcf81aa5	-0.030286143
145	0xbd96978d	-0.07353125
146	0xbe0018a8	-0.12509406
147	0x3ce4f847	0.02795042
148	0x3cc71b0f	0.024304895
149	0x3d4041ee	0.046937875
150	0xbd5a47c7	-0.05329111
151	0x3da223d5	0.07916991
152	0x3dafbd9a	0.085810855
153	0x3d4ea64f	0.050451573
154	0x3b8d43b6	0.0043110503
155	0x3d52dc32	0.051479526
156	0xbdc5d21a	-0.09659214
157	0xbb4cbd35	-0.0031240706
158	0xbdab1cd3	-0.08355107
159	0x3d62956f	0.055318292
160	0x3da97cee	0.082757816
161	0x3c842421	0.016130509
162	0xbdf6c26f	-0.12048804
163	0xbdd9a8a5	-0.106278695
164	0x3de3cb5d	0.11122773
165	0x3dcf4466	0.10120468
166	0x3dbf4301	0.09338952
167	0xbd5deaef	-0.05417913
168	0x3d38ad7f	0.045087334
169	0xbdb92c0d	-0.09041605
170	0x3d0b6090	0.034027636
171	0xbdf561ba	-0.119815305
172	0x3d6245f5	0.055242497
173	0xbdbc61ed	-0.09198365
174	0x3d33ab25	0.043864388
175	0xbc330f05	-0.010928874
176	0xbda61836	-0.081100866
177	0x3dcdecf9	0.100549646
178	0xbda522bb	-0.08063265
179	0xbdadd2e3	-0.08487489
180	0xbda5946d	-0.080849506
181	0xbdb47390	-0.08811104
182	0x3da5f2cd	0.08102951
183	0xbd1754af	-0.036945995
184	0x3dca3870	0.09874046
185	0xbd94f337	-0.07272952
186	0x3db5d0fa	0.0887775
187	0x3de53fdc	0.11193821
188	0xbd1d1186	-0.03834679
189	0xbd38d5bd	-0.04512571
190	0xbd03a6d4	-0.03214152
191	0xbcb5c876	-0.022190314
192	0xbd14ced0	-0.036330044
193	0xbd064f26	-0.032790326
194	0xbdf4d245	-0.11954168
195	0x3d3dddd2	0.046354122
196	0x3cf570f6	0.02996109
197	0xbdbbaf79	-0.09164328
198	0xb925f4f5	-0.0001582688
199	0xbd48be3b	-0.049009543
200	0x3deb5ff1	0.11492909
201	0xbda74893	-0.08168139
202	0x3c367283	0.0111357
203	0x3c9ac515	0.018892804
204	0x3df2a214	0.1184732
205	0x3dd0136f	0.10159957
206	0x3de2b475	0.11069576
207	0x3d5b9739	0.053611014
208	0x3d1433d9	0.03618226
209	0x3dfba214	0.12286773
210	0xbdcd7f1c	-0.1003401
211	0x3cd42c98	0.02590017
212	0xbc124b9d	-0.00892916
213	0xbd59554c	-0.05305986
214	0xbd949f68	-0.07256967
215	0xbd16796a	-0.036736883
216	0x3d45f930	0.048333347
217	0xbda1a18c	-0.07892141
218	0x3c1bc650	0.009507731
219	0x3dd21109	0.102571554
220	0xbdcade5e	-0.099056944
221	0x3d8139a4	0.06309822
222	0xbdee2b07	-0.116293006
223	0x3da519ce	0.080615625
224	0x3d9247c3	0.07142594
225	0xbd66fbb5	-0.05639239
226	0xbdc7a261	-0.09747768
227	0xbb8761e8	-0.0041315444
228	0x3dd2d698	0.10294837
229	0xbd154675	-0.036444146
230	0xbdb5d8b3	-0.08879223
231	0xbd1459e4	-0.03621854
232	0xbd0decd6	-0.034649692
233	0xbd9e6440	-0.07733965
234	0x3deb0ff7	0.114776544
235	0xbd468f5b	-0.04847656
236	0xbd62191f	-0.05519974
237	0xbd8b8521	-0.06812502
238	0x3df6ce08	0.12051016
239	0x3da363a2	0.07977988
240	0xbc3c5690	-0.0114952475
241	0x3d082b1d	0.03324424
242	0xbdf8bd82	-0.12145521
243	0x3dabd11d	0.083894946
244	0x3e02add3	0.12761621
245	0xbd5784c2	-0.052616842
246	0x3da956fb	0.08268543
247	0xbcb26557	-0.021776838
248	0x3d1beaab	0.038065594
249	0xbd0417e9	-0.032249365
250	0xbde48d86	-0.11159806
251	0xbd78801e	-0.060669057
252	0x3cf3196f	0.029675214
253	0xbde9ad0a	-0.11409958
254	0x3de5d4e3	0.112222455
255	0x3d9b4f1e	0.0758345

lstm.weight_hh_l0 f4 [256, 64]
0	0x3de3db83	0.11125853
1	0xbd7a81b9	-0.06115887
2	0xbdf7d490	-0.1210109
3	0xbdc8f5f1	-0.098125346
4	0x3deffc51	0.117180474
5	0xbcc9f7c6	-0.02465428
6	0xbcee8f2e	-0.029121008
7	0xbde65459	-0.11246557
8	0x3cfaba9a	0.030606557
9	0x3cbcf9e6	0.02306838
10	0x3d171d04	0.036892906
11	0xbda8908e	-0.082306966
12	0x3bb17f32	0.005416774
13	0xbbf4600f	-0.00745774
14	0xbd15ade6	-0.036542796
15	0xbd7383d6	-0.0594519
16	0xbc1e6d61	-0.009669633
17	0x3cea5b27	0.028607918
18	0x3d997dcb	0.07494696
19	0xbd36d390	-0.044635355
20	0xbd4273ce	-0.04747372
21	0xbdde8095	-0.10864369
22	0x3c6de3ba	0.014519626
23	0xbdbacafd	-0.09120748
24	0xbdcfddb7	-0.101497106
25	0x3d32498f	0.043527182
26	0x3da9e1c1	0.08295012
27	0x3dbe93b3	0.09305515
28	0xbd1acc28	-0.037792355
29	0xbcb5130d	-0.02210381
30	0x3df2919c	0.11844179
31	0x3dbe265e	0.09284662
32	0x3d957317	0.07297342
33	0x3c6bfaa1	0.014403016
34	0xbd5014db	-0.05080114
35	0xbd77b95b	-0.060479503
36	0x3dbb044d	0.0913168
37	0xbdc4199f	-0.09575199
38	0x3d40befc	0.047057137
39	0xbdc0bdc5	-0.09411196
40	0xbd20f476	-0.039295636
41	0xbb3b5915	-0.0028587033
42	0xbca82324	-0.020524569
43	0xbdb71b14	-0.089407116
44	0xbca38920	-0.019962847
45	0xbb227078	-0.0024786275
46	0xbd56d864	-0.05245246
47	0x3da2b8f8	0.07945436
48	0x3ccb256f	0.024798123
49	0x3dfc5c6a	0.12322314
50	0xbd05b68a	-0.032644786
51	0xbdf37018	-0.118866146
52	0xbdc6a6e1	-0.096997984
53	0xbde420e6	-0.111390874
54	0x3dc7f6cf	0.09763872
55	0xbcbe1e30	-0.023207754
56	0xbbb8365d	-0.005621715
57	0xbda978b2	-0.08274974
58	0x3d94acfd	0.072595574
59	0x3dba30ee	0.09091364
60	0xbdb8be63	-0.090206884
61	0x3dc000ff	0.0937519
62	0x3cf0b553	0.029383337
63	0xbd296b61	-0.04136217
64	0xbde5c9ce	-0.11220132
65	0x3dc9b229	0.098484345
66	0xbda4f204	-0.08053973
67	0xbde27f31	-0.11059416
68	0x3cb92507	0.022600664
69	0x3d019a2a	0.031641163
70	0x3dc0a19c	0.094058245
71	0x3d92580f	0.07145702
72	0x3d135970	0.035973966
73	0x3dadd337	0.08487552
74	0xbdf8f83b	-0.12156721
75	0xbdc7b019	-0.09750385
76	0x3ce2eef3	0.02770183
77	0xbda1d47a	-0.07901855
78	0x3d008411	0.03137595
79	0xbc5c1f67	-0.013435221
80	0xbd5d1c91	-0.05398232
81	0x3c3d509b	0.011554862
82	0xbd5b66a7	-0.053564694
83	0xbdc0e5ff	-0.09418868
84	0x3bcfbe0a	0.006339793
85	0x3b63d2ed	0.0034763173
86	0x3dd6dfb2	0.10491885
87	0x3db65745	0.08903364
88	0x3bf1a18d	0.0073739947
89	0xbdc24f0d	-0.09487734
90	0x3b3ad8c6	0.0028510555
91	0xbc929183	-0.017891651
92	0x3d9ba4f2	0.0759982
93	0x3da1fd9f	0.079097025
94	0x3c14332b	0.0090454025
95	0xbdd5f485	-0.10447029
96	0x3dd4c92b	0.10389932
97	0x3c2e9e1d	0.010657814
98	0xbdc3f767	-0.095686726
99	0xbd9cec0a	-0.076622084
100	0xbda7607a	-0.08172698
101	0x3bf9ea50	0.007626809
102	0xbdafbebd	-0.08581302
103	0x3da69678	0.081341684
104	0x3db4d88a	0.08830364
105	0xbd0589a4	-0.032601967
106	0xbc1f49eb	-0.009722213
107	0x3cc999b3	0.024609422
108	0x3dc7cd13	0.09755912
109	0x3d6362b4	0.055514053
110	0xbdf04db1	-0.117335685
111	0x3dd86e47	0.10567909
112	0xbabcdc01	-0.0014408828
113	0xbd7dd31e	-0.061968915
114	0x3cd7dd3f	0.026350616
115	0xbda89700	-0.08231926
116	0xbdff9db8	-0.12481254
117	0x3db01371	0.08597458
118	0x3dd7894d	0.10524235
119	0xbdd22d95	-0.102626
120	0x3ccd5442	0.025064591
121	0xbd17c79a	-0.03705559
122	0x3e005214	0.1253131
123	0x3c13994d	0.009008718
124	0x3d61cbed	0.05512612
125	0xbda55ec5	-0.080747165
126	0x3c32058b	0.010865579
127	0x3deefd23	0.11669376
128	0x3c0a4ee1	0.008441658
129	0xbdbaadab	-0.09115156
130	0x3b1d3da6	0.0023993044
131	0xbd45e715	-0.04831608
132	0x3dfb7be0	0.12279487
133	0xbd1c2c43	-0.03812815
134	0x3d60bba4	0.054866448
135	0xbd6f7dac	-0.05846946
136	0xbce086c3	-0.02740801
137	0x3deb5888	0.11491495
138	0x3dcac1cc	0.09900245
139	0xbc9046ce	-0.017611887
140	0xbcb07708	-0.021541134
141	0x3b6e941c	0.0036404198
142	0x3df95dfe	0.12176131
143	0xbdfd9d2d	-0.123834945
144	0x3d0fbf6d	0.035094667
145	0xbd78779e	-0.06066095
146	0x3d6973e1	0.056995276
147	0xbd3b8942	-0.045785196
148	0xbda195e0	-0.078899145
149	0x3c9cb9ea	0.01913162
150	0xbd8615f2	-0.065471545
151	0x3c5d5d5f	0.013511031
152	0x3d927248	0.07150704
153	0x3d56162b	0.052267235
154	0xbc9826ab	-0.018573126
155	0xbdc1b51d	-0.09458373
156	0xbdfc6064	-0.123230726
157	0x3d9a5661	0.07536007
158	0x3cb7c7e0	0.022434175
159	0xbe01e499	-0.1268486
160	0xbd016811	-0.031593386
161	0xbd84a20d	-0.06476221
162	0x3d8b4dc6	0.068019435
163	0xbd0ee512	-0.034886427
164	0x3df10084	0.117676765
165	0x3d56d5fc	0.052450165
166	0x3c6bbab2	0.014387773
167	0x3d5d1568	0.053975493
168	0x3dd8babb	0.10582491
169	0xbdcb532b	-0.099279724
170	0x3dcd3cd7	0.1002137
171	0xbde23234	-0.11044732
172	0xbd5824fa	-0.05276964
173	0xbcf3c907	-0.029758943
174	0xbd292985	-0.04129936
175	0xbd23e719	-0.040015314
176	0xbd861e0e	-0.06548701
177	0xbd72e792	-0.059302874
178	0xbdbe18af	-0.09282052
179	0xbcad036d	-0.021119798
180	0xbda0acf5	-0.07845489
181	0xbc903507	-0.01760341
182	0x3cb37bb1	0.021909567
183	0x3dea2a4d	0.114338495
184	0xbab4a941	-0.0013783352
185	0x3de687ff	0.11256408
186	0xbd3d477f	-0.046210762
187	0x3d65b44c	0.056080148
188	0xbcb8b1fc	-0.022545807
189	0x3d60e7bd	0.054908503
190	0xbd969a4a	-0.07353647
191	0x3cc7e59f	0.024401484
192	0x3c285550	0.010274246
193	0x3cdbb997	0.026821895
194	0xbdd14283	-0.10217764
195	0x3cb6ab1e	0.022298392
196	0x3de1a03d	0.11016891
197	0x3dede721	0.1161635
198	0x3cb22564	0.021746345
199	0x3dec15aa	0.115275696
200	0x3dc985aa	0.098399475
201	0x3d432e39	0.047651503
202	0x3d672efa	0.056441285
203	0x3d1d1e29	0.03835884
204	0x3d127109	0.03575233
205	0x3d7936b2	0.060843177
206	0xbd8ae612	-0.06782164
207	0xbd5e152e	-0.054219417
208	0x3c238f1b	0.0099828495
209	0xbdba4e53	-0.090969704
210	0xbdaaf49b	-0.08347436
211	0x3dfbe458	0.122994125
212	0xbb677af3	-0.0035321086
213	0x3de4aa87	0.11165338
214	0xbdc3c9dd	-0.09559987
215	0x3d5944f0	0.05304426
216	0x3d3a560e	0.045492224
217	0x3d8954b4	0.06705609
218	0xbd4d8a2d	-0.050180603
219	0x3d957649	0.07297952
220	0xbd00e490	-0.031467974
221	0x3c2b616b	0.010460238
222	0xbcabd589	-0.020975845
223	0xbded7a91	-0.11595643
224	0x3cd3a48e	0.025835302
225	0x3d5f47aa	0.054511704
226	0xbc4da35c	-0.012551155
227	0x3d84bfda	0.06481905
228	0x3d274857	0.040840473
229	0xbd8d38f3	-0.06895628
230	0xbde8cdde	-0.11367391
231	0xbda027c0	-0.07820082
232	0x3d94da9a	0.072682574
233	0x3def3ed8	0.11681908
234	0x3d95a36f	0.07306563
235	0x3d621e91	0.05520493
236	0x3db7d730	0.08976591
237	0xbdb8c9ab	-0.0902284
238	0x3d61ab76	0.05509516
239	0xbc69a2f7	-0.014260045
240	0x3dc0e203	0.09418108
241	0x3d092a5e	0.03348767
242	0x3d889a34	0.06670037
243	0x3db8860a	0.09009941
244	0x3db2ba2e	0.08726917
245	0x3ca7d352	0.020486508
246	0x3cf0e8c8	0.029407874
247	0x3d4cba0f	0.049982127
248	0x3dae88f8	0.085222185
249	0xbd43eaab	-0.04783122
250	0xbdd86522	-0.105661646
251	0xbdbb7bec	-0.091544956
252	0xbd7c5bde	-0.06161105
253	0x3dfdb8f8	0.123887956
254	0xbca266a3	-0.019824332
255	0x3dc57b44	0.09642652

lstm.bias_ih_l0 f4 [256]
0	0xbd31272e	-0.043250255
1	0x3da83376	0.082129404
2	0xbdd452dc	-0.10367367
3	0xbd445208	-0.047929794
4	0x3ddb1347	0.10697036
5	0xbd9367fd	-0.071975686
6	0xbcda25bd	-0.026629323
7	0xbda8f0e4	-0.08249071
8	0xbda810d0	-0.08206332
9	0xbd388525	-0.04504885
10	0xbdbea33c	-0.09308478
11	0x3d7f5d2d	0.06234472
12	0x3cabbefa	0.020965088
13	0x3d4dfc4f	0.05028945
14	0xbd713624	-0.058889523
15	0xbd0ad6b6	-0.03389617
16	0x3dec5712	0.11540045
17	0x3ce88050	0.028381497
18	0xbde29084	-0.110627204
19	0xbd50d14f	-0.050980862
20	0xbddafe81	-0.10693074
21	0x3de638e5	0.112413205
22	0xbdca9f8a	-0.09893711
23	0xbd8c4c8c	-0.06850538
24	0x3d32d13d	0.043656576
25	0x3d119205	0.035539646
26	0xbdc205cf	-0.09473764
27	0x3ddd39f1	0.10802067
28	0x3dc15f9e	0.09442066
29	0x3cda98fe	0.02668428
30	0x3dacf7f3	0.0844573
31	0xbdd1ce2a	-0.10244401
32	0xbc86f733	-0.016475296
33	0xbd143273	-0.036180925
34	0xbda2cf00	-0.07949638
35	0x3c84dd32	0.016218755
36	0xbd9f6e3a	-0.07784696
37	0xbd8c97b3	-0.06864872
38	0x3dac1907	0.08403211
39	0x3dcb984b	0.09941157
40	0x3df2e7c8	0.11860615
41	0x3ded4463	0.11585309
42	0xbcb4a6f7	-0.022052271
43	0x3d602874	0.05472608
44	0x3d9efa0a	0.07762535
45	0xbd7772fe	-0.0604124
46	0x3dce398d	0.10069571
47	0xbdd67475	-0.10471431
48	0xbd416940	-0.047219515
49	0xbb425dba	-0.0029657916
50	0x3c9aeb11	0.018910917
51	0x3da31471	0.07962883
52	0x3b37f832	0.002807152
53	0x3ca82964	0.02052755
54	0x3d6d6396	0.0579563
55	0xbd8ea749	-0.06965501
56	0x3debf00c	0.11520395
57	0xbdebe9a4	-0.11519173
58	0x3db1ed87	0.08687883
59	0xbdb196ce	-0.08671342
60	0x3a84533a	0.0010095604
61	0xbc58a0de	-0.0132219475
62	0xbdc018e6	-0.09379749
63	0xbd5d13e3	-0.053974044
64	0xbda54156	-0.080691025
65	0x3dbf7a65	0.09349517
66	0xbd598a90	-0.05311066
67	0x3da444be	0.08020924
68	0xbd8e38fc	-0.06944463
69	0xbd8106c9	-0.06300122
70	0xbdb96538	-0.09052509
71	0xbd7eb7e1	-0.06218708
72	0x3d7d340b	0.06181721
73	0xbbf12d1b	-0.0073601133
74	0xbd956387	-0.07294374
75	0x3c9a295c	0.01881855
76	0xbac3c519	-0.0014936059
77	0x3dc59341	0.09647227
78	0x3d0d6cc7	0.034527566
79	0x3d5c7dfc	0.053831086
80	0xbc0a24ed	-0.008431655
81	0xbd1e4723	-0.03864206
82	0xbd1582c6	-0.03650167
83	0x3d7c0a0c	0.06153302
84	0xbcf3c661	-0.02975768
85	0xbdee6ece	-0.11642228
86	0xbccf5e9b	-0.025313666
87	0x3d148b31	0.036265556
88	0x3d35eec3	0.044417154
89	0xbd002bea	-0.03129188
90	0x3d161d74	0.036649182
91	0xbb5b9536	-0.0033505685
92	0x3dfb9d48	0.122858584
93	0x3d07a9af	0.033120807
94	0x3ded141c	0.11576101
95	0xbdaeade7	-0.08529263
96	0x3bd022be	0.006351798
97	0x3db78df6	0.08962624
98	0x3d5b9d43	0.053616773
99	0xbd4c975a	-0.049949028
100	0x3d88f072	0.06686486
101	0x3d13aef9	0.03605554
102	0xbc9ea63f	-0.019366382
103	0xbcb06000	-0.021530151
104	0xbde7ff72	-0.11328019
105	0xbd9e24dc	-0.07721874
106	0x3d45b563	0.048268687
107	0x3cb69e4b	0.022292277
108	0x3d94f834	0.072739035
109	0x3b511378	0.0031902473
110	0x3de92f1d	0.11385939
111	0x3db764cf	0.089547746
112	0x3dbc94f1	0.09208096
113	0x3d75e0ab	0.060028713
114	0x3db62c4f	0.0889517
115	0xbd268645	-0.040655393
116	0x3ccd668a	0.025073308
117	0x3c283997	0.010267637
118	0x3dc68209	0.09692771
119	0xbd912273	-0.07086649
120	0x3d556f9f	0.052108403
121	0xbcdff9a5	-0.02734072
122	0x3c9d02df	0.019166408
123	0x3c7cd90c	0.015432607
124	0x3d379d31	0.044827644
125	0xbdcefa7d	-0.101063706
126	0x3d09c5e5	0.033635993
127	0x3d6ffa42	0.058588274
128	0xbdb05e53	-0.08611741
129	0x3d9cb96c	0.07652554
130	0x3d72ad8d	0.059247542
131	0x3c833640	0.01601708
132	0x3ddb3268	0.107029736
133	0xbd9d073f	-0.07667398
134	0x3e0352e5	0.1282459
135	0xbdf8b939	-0.121447034
136	0x3ddceefb	0.107877694
137	0x3d7a0eec	0.061049387
138	0x3ceed61a	0.029154826
139	0x3bb3db17	0.005488764
140	0xbd09d985	-0.03365471
141	0x3d7aff07	0.06127837
142	0x3c26c69e	0.01017919
143	0xbbbe06e0	-0.0057991594
144	0xbdefe35e	-0.11713289
145	0xbddb95f5	-0.107219614
146	0xbd24463c	-0.040106043
147	0xbcebd2e4	-0.028787084
148	0xbdd02db3	-0.101649664
149	0x3ddcd38f	0.10782539
150	0xbdb1d88e	-0.08683883
151	0xbb679832	-0.0035338518
152	0x3c8d1d3a	0.01722585
153	0x3d8a92ee	0.06766306
154	0x3c2f645e	0.010705082
155	0x3dfbc7bf	0.12293958
156	0x3d82829f	0.0637257
157	0xbdd0faaf	-0.10204064
158	0x3c99ba9c	0.01876574
159	0x3da7296d	0.08162198
160	0x3c82f1b1	0.015984388
161	0xbe021022	-0.12701467
162	0xbc70572c	-0.014669221
163	0xbb0ee238	-0.0021802317
164	0xbda7b103	-0.08188059
165	0x3df34b49	0.11879594
166	0xbad3e9e1	-0.0016167724
167	0xbb326d3a	-0.0027225749
168	0xbd984f40	-0.07436991
169	0xbd852f9b	-0.06503221
170	0x3d51b2aa	0.051195778
171	0xbce22a6f	-0.027608125
172	0xbd487943	-0.04894377
173	0x3deed5ef	0.11661898
174	0xbc8b9618	-0.017039344
175	0x3c8aab84	0.016927488
176	0x3cee82b1	0.029115053
177	0x3caae055	0.020858923
178	0xbddecf5a	-0.10879393
179	0xbded3140	-0.11581659
180	0xbd58b583	-0.052907478
181	0x3c1f155a	0.00970968
182	0x3d8a86e0	0.067640066
183	0xbda49f7c	-0.08038232
184	0x3d66c6d9	0.05634198
185	0xbc702e16	-0.014659425
186	0x3d9aa5f0	0.07551181
187	0x3d087234	0.033312038
188	0xbdf46d5c	-0.11934921
189	0x3b38dfdd	0.0028209605
190	0xbdb01302	-0.085973755
191	0xbdedecdb	-0.11617442
192	0x3cf3a5bd	0.029742116
193	0x3b09b3f1	0.0021011794
194	0xbd28f222	-0.04124654
195	0xbd4842a8	-0.048891693
196	0x3db8d64f	0.09025251
197	0x3d51d7ab	0.051231068
198	0x3dd35f9a	0.10320969
199	0x3dee3838	0.116318166
200	0x3d066732	0.03281326
201	0x3dbaf3d5	0.091285385
202	0x3d0c9634	0.034322932
203	0x3dfb605b	0.12274238
204	0x3de3d2f5	0.11124221
205	0x3b55279c	0.003252483
206	0x3c27866d	0.010224921
207	0xbde1bd10	-0.11022389
208	0x3d8e0e9a	0.06936379
209	0xbc1fe203	-0.009758475
210	0x3d9850be	0.07437275
211	0xbd2bec2e	-0.041973285
212	0xbda1b3c1	-0.078956135
213	0x3dd1b13a	0.102388814
214	0xbd87cfa0	-0.06631398
215	0xbcc78b2d	-0.024358356
216	0x3d379f20	0.044829488
217	0x3d794ef7	0.060866322
218	0xbd1b5d63	-0.037930857
219	0xbd78e315	-0.060763437
220	0x3db4ab53	0.0882174
221	0x3c9b7dee	0.018980946
222	0x3d3eb611	0.04656035
223	0xbdac7c9c	-0.08422205
224	0x3d373717	0.044730272
225	0x3c883f4d	0.016631747
226	0x3d4acaf9	0.049509976
227	0xbcbf1417	-0.02332501
228	0x3dfd5eef	0.12371623
229	0xbc1ac82f	-0.009447142
230	0xbd7646d6	-0.06012615
231	0xbd12a0b4	-0.03579779
232	0xbdcff9c4	-0.10155061
233	0x3cf43698	0.029811189
234	0x3ca158ed	0.019695723
235	0x3cf83bcb	0.030301949
236	0x3dd21410	0.10257733
237	0xbdb65bb9	-0.089042135
238	0x3e041250	0.1289761
239	0xbc93dde3	-0.01805014
240	0x3cee149e	0.029062565
241	0x3c9c9a8d	0.019116664
242	0x3d6c7ad1	0.057734314
243	0x3cb380ce	0.021912005
244	0x3c5232c6	0.012829488
245	0x3ce9e5e1	0.028551998
246	0x3d9587a9	0.07301266
247	0xbcd0932b	-0.0254608
248	0xbd477097	-0.04869136
249	0x3da20e17	0.07912844
250	0xbd067edb	-0.032835823
251	0xbd9446bb	-0.07240053
252	0x3bea597c	0.0071517807
253	0x3c1c57c8	0.009542413
254	0x3e04181f	0.12899826
255	0x3cc7c783	0.024387127

lstm.bias_hh_l0 f4 [256]
0	0xbd804d74	-0.06264773
1	0x3d8e3762	0.06944157
2	0x3dcf7254	0.10129228
3	0xbd3b6c80	-0.04575777
4	0xbcf6322b	-0.030053219
5	0x3dff2a55	0.12459246
6	0x3db2d0e2	0.087312475
7	0xbc900548	-0.017580643
8	0xbdd6ddca	-0.10491522
9	0x3d90a900	0.07063484
10	0x3d847c0a	0.06468971
11	0xbdd422c3	-0.10358193
12	0x3dd78605	0.10523609
13	0x3d841bea	0.06450637
14	0xbd5e7f34	-0.05432053
15	0x3dcc89fd	0.09987257
16	0x3d884986	0.066546485
17	0x3da12851	0.07869018
18	0xbb1d85fb	-0.0024036157
19	0xbd8e96f1	-0.069623835
20	0x3d314b89	0.043284927
21	0x3de92f21	0.11385942
22	0xbd32ef21	-0.043685082
23	0xbd5ade9b	-0.05343495
24	0xbde5e2ce	-0.112249
25	0xbd443212	-0.047899313
26	0x3d6d5dda	0.057950832
27	0xbc4797b8	-0.012182169
28	0xbdeb9fb4	-0.1150507
29	0x3ce93fc6	0.028472792
30	0x3d835330	0.06412351
31	0xbdd6300a	-0.104583815
32	0xbc5aae43	-0.013347211
33	0xbdb05ea0	-0.08611798
34	0xba006c7e	-0.0004898979
35	0xbbcf7054	-0.006330529
36	0x3dd80654	0.10548082
37	0xbd72fec2	-0.059324987
38	0xbc80009f	-0.015625296
39	0xbd186fbf	-0.037215944
40	0x3c8ea307	0.017411722
41	0x3ca466b6	0.020068508
42	0x3d8e3148	0.069429934
43	0x3ce695b1	0.02814755
44	0xbdb18718	-0.08668345
45	0x3db274c0	0.087136745
46	0x3d88d439	0.06681103
47	0x3a96c6c0	0.0011503324
48	0x3d59d6d0	0.053183377
49	0xb9ddc207	-0.00042296966
50	0xbd1566bf	-0.03647494
51	0x3dde3aad	0.10851035
52	0xbd5f3e31	-0.05450267
53	0x3c8e3ad4	0.017362036
54	0xbdf21154	-0.11819711
55	0x3d102568	0.035191923
56	0x3d91ef86	0.071257636
57	0x3db518f8	0.08842653
58	0x3dd10dc3	0.10207703
59	0x3e02e8ca	0.12784114
60	0xbd6129ce	-0.05497151
61	0x3dd9efd6	0.10641448
62	0xbbaa0ced	-0.005189529
63	0x3dfeb166	0.1243618
64	0xbca2ac4d	-0.01985755
65	0xbe007462	-0.12544397
66	0xbdb7ea4f	-0.08980238
67	0x3d715082	0.05891467
68	0x3d08d911	0.033410136
69	0xbdd0088d	-0.10157881
70	0x3dcc7c12	0.09984602
71	0x3c105fec	0.008811932
72	0x3dad204d	0.084534265
73	0x3de1e2d3	0.110295914
74	0x3d4febb1	0.050761882
75	0x3cb19612	0.021678004
76	0x3dd11860	0.10209727
77	0x3dbb36ed	0.09141336
78	0x3c04ebc3	0.008112851
79	0x3bcdc880	0.006280005
80	0xbd85f77f	-0.06541347
81	0xbd1d5747	-0.038413312
82	0xbd2b24b6	-0.041783057
83	0xbdba6e2f	-0.09103047
84	0xbd05c9cd	-0.032663155
85	0x3c929393	0.017892634
86	0xbdd360fd	-0.103212334
87	0x3db19c6e	0.08672415
88	0xbdf29a0e	-0.1184579
89	0x3bec9dfb	0.007220981
90	0x3d472356	0.048617683
91	0xbd0323c3	-0.032016527
92	0x3dbf4800	0.09339905
93	0xbcb9cc4e	-0.022680428
94	0x3dd1de2a	0.102474526
95	0x3d05593e	0.03255581
96	0x3dedcc81	0.11611272
97	0xbd8c9324	-0.06864002
98	0xbd418d31	-0.04725379
99	0xbdd9a1c7	-0.1062656
100	0x3c5956d7	0.013265333
101	0xbd7622d0	-0.060091794
102	0xbcd24417	-0.025667233
103	0xbd1cbb7c	-0.038264737
104	0x3db7e8e8	0.0897997
105	0xbc765fb0	-0.015037462
106	0x3d7e4f12	0.062087126
107	0x3de914fe	0.11380957
108	0x3c01e8f8	0.007929079
109	0xbdde954d	-0.108683206
110	0xbdaf7ff7	-0.08569329
111	0xbdd1670b	-0.10224732
112	0xbdc88675	-0.09791271
113	0x3c510a35	0.012758781
114	0x3dc5afd3	0.096526764
115	0xbcd96e69	-0.026541905
116	0x3dd482b3	0.103764914
117	0xbd49caba	-0.0492656
118	0xbd6b9122	-0.057511456
119	0xbd12f446	-0.03587749
120	0x3c781823	0.015142473
121	0xbd43e4ec	-0.04782574
122	0xbb205cac	-0.00244693
123	0xbdc550ca	-0.0963455
124	0xbd0c0e03	-0.03419305
125	0x3ddc13ef	0.107459895
126	0xbd8f87da	-0.070083335
127	0x3debc84a	0.115128115
128	0xbd643550	-0.055714905
129	0x3d72317c	0.059129223
130	0xbd9129bd	-0.07088039
131	0xbbc42be1	-0.005986676
132	0xbb135ab4	-0.0022484483
133	0xbd896b29	-0.06709892
134	0xbc98bf58	-0.018645927
135	0x3ca3920d	0.019967103
136	0x3d99e737	0.07514804
137	0x3d8d674b	0.06904467
138	0x3d8af9a8	0.067858994
139	0x3d724741	0.059149984
140	0xbd72b87e	-0.059257977
141	0xbc848da3	-0.016180819
142	0x3d9f13ac	0.07767424
143	0x3de0e2ec	0.10980782
144	0x3dfdde6e	0.12395941
145	0x3d0e3621	0.03471959
146	0x3cad826e	0.021180358
147	0xbd451097	-0.048111524
148	0xbd8b0787	-0.06788545
149	0x3da70c95	0.08156697
150	0xbbedd412	-0.0072579468
151	0xbdf10a8f	-0.11769592
152	0x3dd3a769	0.10334665
153	0xbcd24bdf	-0.025670944
154	0x3dd85d7e	0.10564707
155	0xbd170df3	-0.036878537
156	0xbd8d2783	-0.06892302
157	0xbd8aa2bb	-0.067693196
158	0x3dfa0269	0.12207491
159	0x3d3687fd	0.044563282
160	0xbd1396f3	-0.03603263
161	0xbd62c7fc	-0.0553665
162	0xbdb49809	-0.08818061
163	0xbd5bb2f0	-0.053637445
164	0x3e040a13	0.12894468
165	0xbd4cf3f9	-0.050037358
166	0xbbbf9029	-0.0058460427
167	0xbe012b5f	-0.12614201
168	0xbdf0836a	-0.11743815
169	0xbc62a2a3	-0.013832721
170	0xbd9f7b92	-0.07787241
171	0xbda2b554	-0.07944742
172	0x3a2d4140	0.0006609149
173	0xbc9a6a6c	-0.018849574
174	0xbd93b074	-0.0721139
175	0x3d802dbe	0.06258725
176	0x3d88a63a	0.0667233
177	0x3d3df977	0.046380486
178	0xbd23cb16	-0.0399886
179	0xbccd48d8	-0.025059149
180	0x3da0eeb9	0.07858033
181	0xbdf6414a	-0.12024172
182	0xbdd7d638	-0.10538906
183	0x3db6bd36	0.08922808
184	0x3df82c22	0.12117793
185	0x3c1d822c	0.009613555
186	0xbd760889	-0.060066734
187	0xbd643375	-0.055713136
188	0x3cad3787	0.021144642
189	0xbda8b230	-0.082371116
190	0xbc9d9323	-0.0192352
191	0x3da7bef5	0.08190719
192	0xbd9e858b	-0.07740315
193	0xbd078b78	-0.033091992
194	0xbdb13e53	-0.086544655
195	0xbd0f3488	-0.034962207
196	0xbda1b57f	-0.07895946
197	0x3da06f39	0.07833714
198	0x3de95dae	0.11394821
199	0x3d810500	0.06299782
200	0x3cc5bd26	0.024138045
201	0xbdd31993	-0.10307612
202	0x3cb03c94	0.02151326
203	0xbc76e45f	-0.015069096
204	0x3dac4b41	0.08412791
205	0x3d87de23	0.06634166
206	0xbc4d8081	-0.012542845
207	0xbcc9a337	-0.02461396
208	0xbd9219fe	-0.07133864
209	0xbdbab49f	-0.09116482
210	0x3d13b296	0.036058985
211	0xbca3f7f5	-0.020015696
212	0x3d4b78a3	0.049675595
213	0xbd8d47db	-0.06898471
214	0xbd988c5a	-0.07448645
215	0x3cd2aa53	0.025715983
216	0xbdf3f5f8	-0.11912149
217	0xbba683d3	-0.0050816326
218	0xbdb1b778	-0.08677572
219	0xbd669552	-0.056294747
220	0xbd8d9599	-0.06913299
221	0x3d39e9e8	0.045389086
222	0x3da4e94d	0.08052311
223	0x3cd9af93	0.026572978
224	0xbbf3f81e	-0.0074453494
225	0x3df99ab4	0.121877104
226	0x3df6ca2c	0.1205028
227	0x3d58a523	0.05289186
228	0x3cf2e819	0.029651688
229	0x3c854209	0.01626684
230	0xbd7b1a42	-0.06130434
231	0x3c5d7bc9	0.013518282
232	0x3dcb8b6e	0.099387035
233	0xbda7d314	-0.08194557
234	0xbb6b2a14	-0.0035883235
235	0x3c8329ac	0.016011082
236	0x3d11edbd	0.035627116
237	0xbdeeae3b	-0.116543256
238	0xbc272890	-0.010202542
239	0xbdae626b	-0.085148655
240	0xbd0261c9	-0.031831536
241	0xbd67a9be	-0.056558363
242	0xbd8b421c	-0.06799719
243	0x3cf33b64	0.029691406
244	0xbc3da339	-0.01157456
245	0xbdffb03b	-0.12484785
246	0x3de7d65f	0.11320185
247	0xbdc914b8	-0.09818405
248	0x3df7b3d7	0.120948486
249	0x3d916083	0.07098486
250	0x3dad2550	0.084543824
251	0xbdb28d65	-0.08718375
252	0x3baceada	0.00527702
253	0x3de613e1	0.1123426
254	0x3c8bf52d	0.017084682
255	0xbdc2ed0a	-0.09517868

lstm.weight_ih_l1 f4 [256, 64]
0	0x3dc4e51d	0.096140124
1	0x3d8fbc84	0.070183784
2	0xbdb0303f	-0.08602952
3	0x3d5ae833	0.0534441
4	0x3bdc49d2	0.0067226673
5	0xbdcc9ac9	-0.099904604
6	0xbda357e1	-0.07975746
7	0xbccb4c43	-0.024816638
8	0x3d1991b0	0.037492454
9	0xbd08110b	-0.03321938
10	0x3d926700	0.07148552
11	0x3cc3a37e	0.02388167
12	0xbdf89c52	-0.12139191
13	0x3dfe5c5d	0.12419961
14	0xbdbbbed4	-0.09167257
15	0x3b8242e2	0.003975258
16	0x3d4489c8	0.04798296
17	0xbdde84ad	-0.1086515
18	0xbd0a806c	-0.03381388
19	0xbdd7c205	-0.10535053
20	0xbd8c2645	-0.06843237
21	0x3de4b458	0.1116721
22	0xbcc91e71	-0.024550648
23	0x3dfaf3f5	0.12253562
24	0xbd446db2	-0.047956176
25	0x3c92c0f2	0.01791427
26	0x3da02029	0.07818634
27	0x3d811d3c	0.06304404
28	0xbda5dba8	-0.08098537
29	0xbcf48ad6	-0.029851358
30	0x3cc4c8bd	0.0240215
31	0xbd97a9d5	-0.0740544
32	0x3cc943a4	0.024568386
33	0xbdbf8bf7	-0.09352868
34	0xbda2ef4e	-0.079558
35	0x3df38113	0.11889853
36	0x3df13814	0.11778274
37	0x3db241ad	0.08703933
38	0x3dbcd424	0.0922015
39	0x3db65978	0.089037836
40	0xbd8104b7	-0.062997274
41	0x3c2a4b7d	0.010393974
42	0x3dcfaded	0.101405956
43	0xbd46a493	-0.048496794
44	0x3c739c58	0.014868818
45	0x3de6b642	0.11265232
46	0x3d7db7d2	0.061942883
47	0xbdfe0e7d	-0.12405107
48	0x3c6b1173	0.014347422
49	0x3c5a4b00	0.013323545
50	0xbc257bbb	-0.0101003
51	0x3d41f5e6	0.047353648
52	0x3d907fb2	0.07055606
53	0x3d36c904	0.044625297
54	0xbc1faefc	-0.009746309
55	0xbd2c13d3	-0.042011093
56	0x3dfd0d12	0.123560086
57	0x3de5ee09	0.11227042
58	0xbdcf176a	-0.10111888
59	0xbd0fa15a	-0.035065986
60	0x3a4fb58c	0.0007923476
61	0xbded37ac	-0.11582884
62	0xbd18f19e	-0.0373398
63	0xbd2e69dc	-0.042581424
64	0x3d424b88	0.047435313
65	0xbd22ee5a	-0.03977809
66	0x3d65e963	0.056130778
67	0xbd689dc7	-0.056791093
68	0x3d938952	0.07203926
69	0x3dd354f6	0.103189394
70	0x3da69914	0.08134666
71	0x3d69e8fe	0.057106964
72	0xbdd7aeb0	-0.10531366
73	0x3d34e92f	0.044167694
74	0xbdae7c77	-0.085198335
75	0x3cc785d3	0.024355805
76	0xbcd90ef8	-0.026496395
77	0x3d5953f1	0.05305857
78	0x3d17ae4b	0.037031453
79	0x3d3babfb	0.04581831
80	0x3d35efda	0.044418193
81	0x3de8cebf	0.11367559
82	0xbdca4746	-0.098768756
83	0x3d793085	0.060837287
84	0xbd735007	-0.059402492
85	0x3d42834c	0.047488496
86	0xbc8961bc	-0.016770236
87	0xbd9e4332	-0.0772766
88	0x3e00f26c	0.12592477
89	0x3e068835	0.13137896
90	0x3dd441ae	0.1036409
91	0xbb2c455c	-0.0026286459
92	0x3df890e9	0.121370144
93	0xbe00954e	-0.12556955
94	0x3dd4254e	0.10358678
95	0x3c0fad44	0.008769337
96	0xbd030d2e	-0.03199499
97	0x3da4e6c4	0.080518275
98	0x3b199ea0	0.0023440495
99	0x3d874581	0.06605054
100	0x3dc5ab1d	0.09651778
101	0x3db09bd2	0.0862347
102	0xbd898ecd	-0.0671669
103	0xbdbffddc	-0.09374592
104	0x3d95734e	0.07297383
105	0xbd2d12c3	-0.04225422
106	0x3dbef9df	0.09325003
107	0xbe068c37	-0.13139425
108	0xbcc0f247	-0.023553027
109	0xbc841349	-0.016122477
110	0x3da146e9	0.07874853
111	0xbd83e603	-0.06440356
112	0xbddc68a0	-0.10762143
113	0xbd58a14f	-0.05288821
114	0xbddc4339	-0.10755009
115	0xbd240131	-0.0400402
116	0xbae2a281	-0.0017290862
117	0x3d8b6841	0.06806994
118	0xbddd4156	-0.108034775
119	0x3d49d0bf	0.04927134
120	0x3c3db552	0.011578875
121	0xbd6e419a	-0.05816803
122	0x3dafd772	0.08586015
123	0xbab1b5ac	-0.0013558171
124	0xbd4e2bd0	-0.05033475
125	0x3b4adab2	0.0030953106
126	0x3dd9e5bb	0.10639521
127	0xbd903310	-0.070409894
128	0xbc39b480	-0.011334538
129	0x3dd2564c	0.10270366
130	0xbd08d8ca	-0.03340987
131	0x3dc63c50	0.096794724
132	0x3d2f3990	0.042779505
133	0x3dcedea0	0.10101056
134	0x3d123bcd	0.03570156
135	0xbd6b0cc6	-0.05738523
136	0xbdca7060	-0.09884715
137	0x3b6efe6d	0.0036467568
138	0x3dbb2c53	0.091393135
139	0xbd7e1121	-0.062028054
140	0xbd5b30f4	-0.053513482
141	0xbcbf9a26	-0.023388933
142	0x3ddb468d	0.10706816
143	0x3dfa48db	0.12220927
144	0x3d8af681	0.06785298
145	0x3dbc2e85	0.091885604
146	0xbd7dbd2c	-0.061947986
147	0xbd9e124d	-0.07718334
148	0x3bf95b81	0.007609785
149	0xbde073ef	-0.109596126
150	0xbdaddf4e	-0.084898576
151	0xbd8c8f49	-0.06863267
152	0xbdbc0212	-0.091800824
153	0x3c926667	0.017871095
154	0x3dfab960	0.12242389
155	0xbd999577	-0.07499211
156	0x3d985916	0.07438867
157	0xbd677fed	-0.056518484
158	0xbde9bf73	-0.11413469
159	0x3d83b25e	0.06430505
160	0xbdde978a	-0.108687475
161	0x3da178e2	0.07884385
162	0x3c001ae0	0.0078189075
163	0x3d83171f	0.064008944
164	0xbdea1bcd	-0.11431084
165	0xbcc00ab3	-0.023442602
166	0x3d85731b	0.06516095
167	0xbdf334a6	-0.11875276
168	0xbdd744dc	-0.10511181
169	0x3cde1ca5	0.027113268
170	0xbd35ed40	-0.044415712
171	0xbdee2419	-0.11627979
172	0xbdba035b	-0.09082671
173	0x3c796d9f	0.01522389
174	0x3da3cdb6	0.079982206
175	0xbbd840f7	-0.0065995413
176	0x3cc2a705	0.023761282
177	0x3d47eb3c	0.04880832
178	0x3d398648	0.045294076
179	0x3df791ed	0.1208838
180	0x3d992339	0.07477421
181	0x3dfd2835	0.123611845
182	0x3cbf12c2	0.023324374
183	0x3d67cb3e	0.05659031
184	0xbc83ab8f	-0.016073016
185	0x3dd2a179	0.10284705
186	0xbdaf7407	-0.08567052
187	0x3dd2ad28	0.10286933
188	0xbd5a762c	-0.053335354
189	0xbd540f5a	-0.051772453
190	0xbccac148	-0.024750367
191	0x3dca075f	0.09864687
192	0x3c3d8b70	0.011568889
193	0x3d933e11	0.071895726
194	0xbdb5050c	-0.08838853
195	0x3d331506	0.04372122
196	0xbde7fd6d	-0.11327634
197	0xbca7ae8b	-0.02046897
198	0x3d95baf9	0.07311053
199	0x3ca3bc83	0.01998735
200	0x3c26bed5	0.010177334
201	0xbd84ae8b	-0.06478604
202	0x3d7a4007	0.061096217
203	0xbda8d98e	-0.0824462
204	0x3cc9a3e9	0.024614291
205	0x3d0b14da	0.033955432
206	0x3c87fc2c	0.016599737
207	0x3cb6431d	0.022248799
208	0x3d7de263	0.061983477
209	0xbd4ea50c	-0.05045037
210	0x3cfc786c	0.03081914
211	0xbdc726e5	-0.097242154
212	0x3d5caf0c	0.053877875
213	0x3cd986c9	0.026553528
214	0x3dd35028	0.10318023
215	0xbe0269cc	-0.12735671
216	0x3d392320	0.045199513
217	0x3dbed8c3	0.09318688
218	0xbded87a8	-0.1159814
219	0xbcef5acb	-0.029218098
220	0xbd0d035d	-0.034427036
221	0x3d42e0b0	0.04757756
222	0x3dd75e5d	0.10516045
223	0x3d3f23d5	0.04666503
224	0xbd24a724	-0.04019846
225	0x3ddf000c	0.10888681
226	0xbc5fdc4b	-0.013663362
227	0xbd0463f9	-0.032321904
228	0x3d230949	0.039803777
229	0xbde23cfc	-0.11046788
230	0xbd0491ed	-0.03236573
231	0xbdc23ddf	-0.09484457
232	0x3d4cd701	0.05000973
233	0xbd05a623	-0.032629143
234	0x3d61f37d	0.05516385
235	0xbd4f6a16	-0.05063828
236	0x3cb6fc7c	0.02233719
237	0x3c9a7d4d	0.018858576
238	0x3dbeff5a	0.09326048
239	0xbda2d04b	-0.07949885
240	0xbd71810e	-0.058960967
241	0x3de574e4	0.11203936
242	0x3d6073bf	0.054797884
243	0x3dca93e5	0.0989149
244	0x3cc7ae5d	0.024375135
245	0x3d838516	0.064218685
246	0x3dd9e795	0.10639874
247	0x3bb3476c	0.0054711606
248	0x3d69514e	0.056962304
249	0xbdd796f6	-0.105268404
250	0x3cc03796	0.023464005
251	0x3dd419bd	0.10356472
252	0x3dde1afd	0.10844991
253	0x3c3d44b6	0.0115520265
254	0xbc543790	-0.0129527
255	0x3d933373	0.071875475

lstm.weight_hh_l1 f4 [256, 64]
0	0x3cd119f3	0.025525069
1	0xbcc0f93b	-0.023556342
2	0xbcc68722	-0.024234358
3	0x3ba12c1e	0.0049185893
4	0xbda87bca	-0.08226736
5	0x3d76320e	0.06010633
6	0x3b905d86	0.00440568
7	0xbc98e602	-0.018664364
8	0x3d9378f3	0.072008036
9	0x3d98836f	0.07446944
10	0x3c907f49	0.01763882
11	0x3de15a5f	0.11003565
12	0x3d4777b3	0.04869814
13	0xbda01ad9	-0.07817621
14	0x3de1ece7	0.11031514
15	0xbd82864e	-0.06373273
16	0xbd378397	-0.04480323
17	0x3db0b9bb	0.08629175
18	0xbdea0ea8	-0.11428577
19	0x3ddfd133	0.109285735
20	0xbdaef022	-0.085418954
21	0xbdcfd4f2	-0.10148038
22	0xbd69f2b5	-0.05711623
23	0x3bb72026	0.005588549
24	0xbdac91ac	-0.08426222
25	0xbd8fbb80	-0.07018185
26	0x3d7075ee	0.058706217
27	0x3de50b1a	0.11183758
28	0xbb3c25ee	-0.0028709131
29	0x3dafdb61	0.08586765
30	0x3c9254d9	0.017862724
31	0xbd725886	-0.059166454
32	0xbded2249	-0.11578805
33	0xbdf5f763	-0.12010076
34	0x3d642196	0.055696093
35	0x3d1b8f97	0.037978735
36	0xbce0f32a	-0.0274597
37	0x3daef28d	0.08542357
38	0xbd2e9c12	-0.04262931
39	0xbda8aa22	-0.08235575
40	0xbc9244af	-0.017855017
41	0xbdf0973d	-0.117475964
42	0x3daa863d	0.08326385
43	0xbda941f5	-0.082645334
44	0xbdc89f23	-0.09795978
45	0x3d9a143b	0.0752339
46	0x3c723574	0.014783252
47	0xbdf97e27	-0.12182265
48	0x3d89e28e	0.06732665
49	0x3dcbba0d	0.09947596
50	0xbdb8eaef	-0.09029185
51	0x3c5d9896	0.013525149
52	0x3ce22538	0.027605638
53	0xbdd87848	-0.10569817
54	0xbd4a4731	-0.0493843
55	0x3ba3feba	0.005004731
56	0x3c115ff3	0.008872974
57	0xbc8f8471	-0.017519208
58	0xbc6a3750	-0.014295414
59	0xbc2b3689	-0.010450014
60	0xbdf667c3	-0.1203151
61	0x3d321065	0.043472666
62	0x3dc6185d	0.09672616
63	0x3db368ef	0.08760249
64	0xbd356de7	-0.044294264
65	0x3cb4a273	0.022050118
66	0xbaba3666	-0.0014206886
67	0xb98e2ac2	-0.00027116208
68	0xbc83e87a	-0.016102064
69	0xbdc10ecc	-0.094266504
70	0x3d4986ec	0.049200937
71	0x3d1cc291	0.03827149
72	0xbdc7f674	-0.09763804
73	0xbdeff0ba	-0.11715837
74	0x3d2f79e9	0.042840872
75	0xbc19e6e1	-0.009393425
76	0x3b2a77be	0.0026011313
77	0xbdcb5ad8	-0.099294364
78	0xbc6c0f41	-0.014407934
79	0xbd439cd0	-0.04775697
80	0x3dc7ce76	0.09756176
81	0xbb748b65	-0.003731453
82	0xbdbf7a07	-0.09349447
83	0xbd85284f	-0.06501829
84	0x3dbb602c	0.09149203
85	0xbde617f6	-0.11235039
86	0xbc9d68fc	-0.0192151
87	0xbcaa0a83	-0.020756966
88	0xbd6a27f9	-0.057167027
89	0x3d5d50b9	0.05403206
90	0xbc9b27c0	-0.018939853
91	0x3b243f84	0.0025062272
92	0x3bb24220	0.0054400116
93	0x3db2fd21	0.08739687
94	0xbb49d66b	-0.003079797
95	0xbaa77f21	-0.0012778976
96	0x3de36e12	0.111049786
97	0x3dc01e78	0.093808115
98	0x3d8be8d6	0.06831519
99	0xbcd99f48	-0.026565209
100	0x3c4b75ec	0.0124182515
101	0x3bc3b24d	0.005972183
102	0x3d9da1df	0.0769689
103	0xbd6ec5a8	-0.05829397
104	0x3db14d85	0.08657364
105	0xbd8cb166	-0.068697736
106	0xbc8899fe	-0.016674992
107	0xbd29cefc	-0.04145716
108	0x3d86b99a	0.065783694
109	0x3d4ba1c1	0.049714807
110	0xbdadd5eb	-0.08488067
111	0x3dfca102	0.12335397
112	0x3da6e295	0.08148686
113	0xbd22de31	-0.03976268
114	0x3c8ba583	0.017046696
115	0xbd360a65	-0.044443507
116	0xbd1d885d	-0.038460124
117	0x3d8c8db7	0.068629675
118	0xbd784f1a	-0.060622312
119	0xbdea75f8	-0.11448282
120	0x3d22ae9f	0.039717313
121	0x3d26eb84	0.04075195
122	0xbda93085	-0.082612075
123	0x3da52122	0.0806296
124	0x3c0d75c0	0.008634031
125	0x3dfb8afb	0.12282368
126	0xbdcbede3	-0.09957483
127	0xbda3eeb0	-0.080045104
128	0x3d0973c6	0.033557676
129	0x3cb2321e	0.021752413
130	0xbd96518f	-0.07339775
131	0x3d31f438	0.043445796
132	0xbdad1382	-0.084509864
133	0xbc7521a0	-0.01496163
134	0x3cad9111	0.021187337
135	0xbce98247	-0.028504504
136	0x3bb91834	0.005648637
137	0xbda24875	-0.07923976
138	0xbdef6d31	-0.116907485
139	0xbd014297	-0.031557646
140	0xbc69c9d7	-0.014269314
141	0x3b3cf191	0.0028830508
142	0xbdf80d8c	-0.12111959
143	0x3c37744c	0.011197161
144	0x3dbb1cf9	0.091363855
145	0xbd2a5716	-0.041586958
146	0x3ded921b	0.11600133
147	0x3d93c997	0.072161846
148	0x3d61d160	0.055131316
149	0xbda795e3	-0.081828855
150	0xbd34707e	-0.044052593
151	0xbd9238f4	-0.07139769
152	0x3d837298	0.064183414
153	0x3da2314b	0.07919558
154	0x3b436e98	0.0029820558
155	0xbdca69ae	-0.09883438
156	0xbdcf9623	-0.10136058
157	0x3d3ea6ab	0.046545666
158	0x3dc7b3d4	0.09751096
159	0xbd47d7f3	-0.04878993
160	0xbdd4c04b	-0.103882395
161	0x3d1cb51d	0.03825866
162	0x3dc29173	0.095003985
163	0x3db47534	0.08811417
164	0x3da1f9fd	0.079090096
165	0x3ab08479	0.0013467214
166	0xbd8b3f89	-0.06799228
167	0x3d331522	0.043721326
168	0xbc9c5b02	-0.019086365
169	0x3de51a54	0.11186662
170	0x3dfa1a3c	0.12212035
171	0xbdee18ae	-0.11625801
172	0xbd175d4f	-0.03695422
173	0x3da54449	0.08069665
174	0xbd1ad25c	-0.03779827
175	0xbde8b061	-0.113617666
176	0xbd4bbf8d	-0.049743224
177	0x3ddad2ce	0.10684739
178	0xbcaeba11	-0.021328958
179	0x3dcece01	0.10097886
180	0x3cbeb525	0.023279736
181	0xbe01865d	-0.12648912
182	0xbde8d0f0	-0.11367977
183	0xbc4206ca	-0.011842439
184	0xbbdc195d	-0.0067168907
185	0xbd82e31f	-0.06390976
186	0xbda3cfc4	-0.079986125
187	0x3c653625	0.01398996
188	0xbde192b3	-0.11014309
189	0xbd4bb704	-0.049735084
190	0x3dcf05aa	0.10108502
191	0xbd9e2a31	-0.07722891
192	0xbd3afed4	-0.04565318
193	0x3c68345e	0.014172642
194	0x3cb925b4	0.022600986
195	0xbcc2c97d	-0.023777718
196	0xbde491f4	-0.11160651
197	0x3d5b804d	0.053589154
198	0xbb9bfb58	-0.004760187
199	0xbc018379	-0.007904881
200	0x3dabf538	0.08396381
201	0xbda9caed	-0.08290658
202	0x3daaebb6	0.083457395
203	0xbc3312f7	-0.010929815
204	0x3d1f11fb	0.038835507
205	0x3ddf4922	0.10902621
206	0x3dfba837	0.12287944
207	0xbdb32e26	-0.087490365
208	0xbd9436e0	-0.07237029
209	0xbd39acf1	-0.045330945
210	0xbc766a5c	-0.0150400065
211	0xbe00727a	-0.1254367
212	0xbc516909	-0.01278139
213	0x3a807c2c	0.0009802631
214	0xbdb7d19f	-0.08975529
215	0x3c73adbb	0.014872964
216	0x3db14048	0.08654839
217	0xbc32e298	-0.010918282
218	0x3d9269b6	0.07149069
219	0x3d1c77fe	0.03820037
220	0x3b9b67fc	0.0047426205
221	0x3d959349	0.07303483
222	0xbd87c566	-0.06629448
223	0xbd25794c	-0.04039888
224	0xbd9e2c5c	-0.07723305
225	0xbd9b96a2	-0.0759709
226	0xbdbe0184	-0.09277633
227	0xbdedf737	-0.11619418
228	0x3de740ff	0.11291694
229	0x3ddf2ff6	0.1089782
230	0x3d0ad7f3	0.03389735
231	0x3dab41dc	0.08362171
232	0x3c2adb1e	0.010428218
233	0xbdf48e5f	-0.11941218
234	0xbdc34b50	-0.09535849
235	0x3c19ade1	0.009379835
236	0x3ddba191	0.10724176
237	0xbde6db8e	-0.112723455
238	0x3d0c545d	0.034260143
239	0x3dc91d71	0.09820069
240	0xbd319c82	-0.043362148
241	0x3df6f37a	0.12058158
242	0xbdef1d53	-0.11675515
243	0x3c9d9bd3	0.019239342
244	0x3dab439b	0.08362504
245	0xbdb25087	-0.087067656
246	0xbdc4d169	-0.09610254
247	0xbdad27f1	-0.08454884
248	0x3dc8b357	0.09799831
249	0xbc08a620	-0.008340389
250	0xbd2a9713	-0.04164798
251	0xb93e2b07	-0.00018135841
252	0xbcc81620	-0.024424613
253	0xbc12d258	-0.008961283
254	0xbe05df38	-0.13073432
255	0x3cc41ccf	0.023939518

lstm.bias_ih_l1 f4 [256]
0	0x3d56b50e	0.05241876
1	0xbdc5746c	-0.09641346
2	0xbdbc02b3	-0.09180202
3	0xbdc6244a	-0.0967489
4	0xbbabbaed	-0.005240789
5	0x3c538be6	0.012911772
6	0xbd2084b7	-0.039189067
7	0xbcf50eac	-0.029914223
8	0xbdeb1d03	-0.11480143
9	0x3dd649f2	0.10463323
10	0xbdaaf24f	-0.08346998
11	0x3dc8443b	0.09778639
12	0x3d72906d	0.059219766
13	0x3dd70845	0.10499624
14	0xbd6c2eca	-0.05766181
15	0x3db6f093	0.08932605
16	0x3cc4690c	0.023975872
17	0x3d542ade	0.051798694
18	0xbcb040d5	-0.02151529
19	0x3dffee84	0.12496665
20	0xbd32253c	-0.04349254
21	0x3d2bc51a	0.041936018
22	0x3bcf5a66	0.006327915
23	0x3d4549bd	0.048166025
24	0x3e0575e2	0.1303325
25	0x3d3f2389	0.04666475
26	0xbcaee11a	-0.021347571
27	0xbc5fac28	-0.013651885
28	0x3d4cbea4	0.049986497
29	0xbbadab31	-0.0052999486
30	0x3de72c41	0.11287738
31	0xbca820e1	-0.02052349
32	0xbdf11297	-0.11771124
33	0x3d73962c	0.059469387
34	0x3da1113c	0.07864615
35	0xbdc8f129	-0.09811623
36	0x3ca587fe	0.020206448
37	0xbd2503d9	-0.040286873
38	0xbde5ced1	-0.11221088
39	0x3b970fc6	0.0046100346
40	0x3dac53ec	0.08414444
41	0x3c61f65b	0.013791646
42	0xbd48de99	-0.04904041
43	0x3dc30ba3	0.09523704
44	0xbd9b7d49	-0.075922556
45	0x3d1578ea	0.036492266
46	0x3dc64ac1	0.09682227
47	0x3db39c8e	0.08770095
48	0x3cfa7d59	0.030577349
49	0xbbc71a85	-0.0060761594
50	0x3d2d5f99	0.042327497
51	0x3dd1c0db	0.102418624
52	0xbd803c42	-0.06261493
53	0x3db6d6aa	0.08927663
54	0x3db8f08a	0.09030254
55	0xbc873df3	-0.016509032
56	0x3ce8ea2c	0.028431974
57	0x3cb16fee	0.021659818
58	0x3b8e14a4	0.0043359566
59	0x3dd2da03	0.10295489
60	0x3d15a936	0.036538325
61	0xbc87d54e	-0.016581204
62	0xbd99ce32	-0.07510032
63	0xbd143cf9	-0.03619096
64	0x3d67238c	0.056430385
65	0x3d7da6d7	0.06192669
66	0xbcfa8773	-0.030582165
67	0x3cb46cde	0.022024568
68	0xbd66ad53	-0.05631764
69	0x3df69c1e	0.12041496
70	0x3d8ceede	0.06881498
71	0x3def03b8	0.11670631
72	0x3d14b911	0.036309306
73	0x3cd99973	0.026562428
74	0x3c63091c	0.013857152
75	0xbbc730ac	-0.0060788
76	0xbdf2cf3b	-0.11855932
77	0x3d7d8859	0.06189761
78	0x3d46667d	0.048437584
79	0x3dd8977b	0.105757676
80	0x3d9ab87b	0.07554718
81	0xbd648b3b	-0.055796843
82	0x3cf93ada	0.03042357
83	0x3d9183ac	0.071051925
84	0xbcd30f0d	-0.025764013
85	0xbb0f77db	-0.0021891508
86	0xbb813ebd	-0.0039442466
87	0xbd2133cd	-0.03935604
88	0xbd23c635	-0.039983947
89	0xbd757e81	-0.059935097
90	0x3dc80f11	0.09768499
91	0x3d900a9a	0.07033272
92	0x3dcf6105	0.10125927
93	0x3de61142	0.112337604
94	0x3c85fd70	0.0163562
95	0xbc86e5eb	-0.016467055
96	0x3dfdab95	0.12386242
97	0xbdf018a9	-0.117234536
98	0xbda56186	-0.08075242
99	0x3dbf8f00	0.09353447
100	0x3d8cc1ef	0.068729274
101	0xbda9cdaa	-0.082911804
102	0xbc7bddb2	-0.0153726805
103	0xbd4b2a36	-0.049600802
104	0x3de01ffc	0.109436005
105	0xbda3266d	-0.079663135
106	0x3dcc0146	0.099611804
107	0xbdbc8924	-0.09205845
108	0xbd245694	-0.04012163
109	0xbcccd9e6	-0.025006246
110	0xbdcb1c31	-0.099174865
111	0x3d8e459e	0.06946872
112	0xbdd26561	-0.10273243
113	0xbdb75407	-0.08951574
114	0x3d831af5	0.06401626
115	0x3d9dadca	0.07699163
116	0x3cf111dd	0.029427463
117	0x3d5c5021	0.053787354
118	0x3d41eed7	0.047346916
119	0xbd9937fb	-0.074813806
120	0x3ce6e4e4	0.028185315
121	0xbdd91307	-0.10599332
122	0xbcb48648	-0.022036687
123	0xbd89bb40	-0.06725168
124	0x3d647b19	0.055781458
125	0xbd79be44	-0.060972467
126	0xbdb32c7a	-0.087487176
127	0xbcc360e6	-0.023849916
128	0x3c7b1231	0.015324161
129	0xbdb9c3ce	-0.0907055
130	0x3d9b8685	0.07594017
131	0xbd266f5d	-0.040633548
132	0xbc4395fa	-0.011937613
133	0x3dc69249	0.096958704
134	0x3d97c31b	0.0741026
135	0x3d53e167	0.051728632
136	0xbdc91baa	-0.098197296
137	0xbe01470e	-0.12624761
138	0x3d440e0f	0.04786497
139	0x3d54e52a	0.05197636
140	0xbc3b8448	-0.0114451125
141	0xbd9c3bf9	-0.076286264
142	0xbd414519	-0.047185037
143	0x3dd52f18	0.10409373
144	0xbd4e296c	-0.05033247
145	0xbd936517	-0.07197016
146	0xbd4a08f0	-0.04932493
147	0xbd3c3a60	-0.04595411
148	0x3d96d331	0.073645
149	0xbdcff957	-0.1015498
150	0x3ddfde2c	0.10931048
151	0x3cb802bb	0.02246224
152	0xbdc0c63a	-0.09412809
153	0xbc541aaa	-0.01294581
154	0x3dbe3be2	0.092887655
155	0xbb4110a5	-0.0029459384
156	0x3c82a0fb	0.015945902
157	0xbd90b4e2	-0.07065751
158	0xbc7a6cd0	-0.015284732
159	0x3d979397	0.074011974
160	0xbd2f1f46	-0.042754434
161	0xbdf6e331	-0.12055052
162	0xbdb6f37c	-0.0893316
163	0x3cc9592f	0.024578659
164	0xbd7b0c42	-0.061290987
165	0x3d8310b8	0.06399673
166	0x3b97ce5a	0.0046327533
167	0x3dc01f93	0.09381022
168	0xbd44b43f	-0.04802346
169	0xbd9a6389	-0.07538516
170	0xbdf567c5	-0.11982683
171	0xbd212616	-0.039342962
172	0xbdd6e69b	-0.10493203
173	0xbdb9f1bd	-0.09079311
174	0xbd4b5f56	-0.049651466
175	0x3d0d0009	0.03442386
176	0xbad8714e	-0.001651326
177	0x3d989d0c	0.07451829
178	0x3d68708a	0.05674795
179	0xbd8b2895	-0.0679485
180	0xbc8f49e9	-0.017491298
181	0xbd83adbb	-0.06429621
182	0x3d25fe4b	0.040525716
183	0x3d4d1206	0.050066017
184	0x3cbee6d8	0.023303434
185	0xbd671041	-0.056411985
186	0xbd6b92f0	-0.057513177
187	0xbd2d7a59	-0.042353008
188	0xbdb11d53	-0.08648171
189	0xbb110fbe	-0.0022134627
190	0xbd6921ee	-0.056917123
191	0xbd4e811b	-0.050416093
192	0xbdb219b5	-0.086963095
193	0xbdb3ce21	-0.0877955
194	0x3d31a369	0.04336873
195	0x3daa165d	0.08305047
196	0xbcdd3002	-0.027000431
197	0x3d344ad1	0.044016663
198	0x3c9445ed	0.01809975
199	0x3cae96a3	0.021312064
200	0x3c53048a	0.0128795
201	0xbcb5e593	-0.022204196
202	0x3d4434c2	0.047901876
203	0xbc30213f	-0.010750114
204	0xbcffa686	-0.031207334
205	0x3d97fe12	0.07421507
206	0x3d81d0a7	0.063386254
207	0x3de113f6	0.10990135
208	0x3e034fd9	0.12823428
209	0x3db66884	0.089066535
210	0x3df6e40a	0.12055214
211	0xbbc64c71	-0.006051593
212	0xbd4a66d6	-0.04941448
213	0xbdc50c37	-0.096214704
214	0x3d85e4cb	0.065377794
215	0xbbff2886	-0.007786813
216	0x3d8e82d3	0.069585465
217	0xbd81fb8e	-0.063468084
218	0x3dbe4ab6	0.09291594
219	0xbccc8ea7	-0.024970366
220	0xbc396926	-0.011316573
221	0xbd987f29	-0.07446129
222	0x3cd126c8	0.025531188
223	0x3d633575	0.055470902
224	0xbd0762f9	-0.033053372
225	0xbdec9d52	-0.11553444
226	0xbdd0fa16	-0.1020395
227	0xbc4b44d0	-0.012406543
228	0x3dc52855	0.09626833
229	0xbc983ae9	-0.018582778
230	0x3cd576ab	0.026057562
231	0xbdd69c70	-0.10479057
232	0x3d18016f	0.037110742
233	0xbd0ad7a7	-0.03389707
234	0xbb8c4cea	-0.00428163
235	0x3c840848	0.01611723
236	0xbd080a18	-0.03321275
237	0xbd2415d3	-0.040059876
238	0x3ca8bf85	0.020599136
239	0x3dde0f1e	0.10842727
240	0x3cfa6fc5	0.030570874
241	0xbd155f62	-0.036467917
242	0xbb671c9f	-0.0035264862
243	0xbcc66748	-0.02421917
244	0x3df4b762	0.1194904
245	0x3d385ce6	0.04501047
246	0x3d5fda18	0.05465135
247	0x3d721bef	0.05910867
248	0x3dc4a06e	0.09600912
249	0x3ddb3d1a	0.107050136
250	0x3dce3bd6	0.100700065
251	0x3d779c02	0.060451515
252	0x3d43b34c	0.047778413
253	0x3d7a893f	0.061166044
254	0xbdb325d4	-0.087474495
255	0xbcfa0688	-0.030520692
