VAE-LSTM-anomaly–detection/experiments/Collected_data/nosein_noseout_9-grid_search-0414/Collected_data-nosein_noseout_9-win_len1000-look_back3-codesize20-VAEunits256-LSTMunits128/checkpoint/vae_best_model.pth (torch, 704594 bytes, 24 tensors)

encoder.0.weight f4 [16, 3, 3, 1]
0	0xbe1a937d	-0.15095325
1	0xbe9197c3	-0.28436098
2	0xbdaf1432	-0.08548774
3	0x3e423cef	0.18968557
4	0xbe3c61a8	-0.18396628
5	0xbea60161	-0.32422927
6	0x3cb963c1	0.022630574
7	0x3c113188	0.008861907
8	0x3e0220f7	0.12707888
9	0x3e17b2b8	0.1481427
10	0x3de8fe90	0.11376679
11	0xbdd9b6d6	-0.10630576
12	0xbe929042	-0.28625685
13	0xbe934ea0	-0.28770924
14	0x3e831278	0.25600028
15	0xbe862d4c	-0.26206434
16	0xbe5e726d	-0.21723337
17	0x3e6216bf	0.2207899
18	0x3cbd1192	0.023079667
19	0xbe45cf0c	-0.19317263
20	0x3c5c6289	0.013451227
21	0x3e31cc3a	0.17363063
22	0xbd96f5af	-0.07371079
23	0x3e41519c	0.18878788
24	0x3e46c688	0.19411671
25	0xbe6e8d72	-0.23296145
26	0x3ea3f66e	0.32023948
27	0xbe8bbf6c	-0.2729448
28	0x3d9338e6	0.07188587
29	0x3de87144	0.11349729
30	0xbd881d35	-0.06646196
31	0x3dd599b6	0.10429709
32	0xbe027419	-0.127396
33	0xbea314e0	-0.31851864
34	0xbd3772c7	-0.044787195
35	0x3c9e8eb3	0.019355154
36	0x3ea1932f	0.31557605
37	0xbe4e6ee2	-0.20159486
38	0xbea034b0	-0.31290197
39	0x3deabb93	0.11461558
40	0xbe4cb8e5	-0.19992407
41	0xbe880053	-0.26562747
42	0x3e831581	0.25602344
43	0xbc81d623	-0.015849179
44	0x3e3d2741	0.18472005
45	0x3bb8bd1c	0.005637778
46	0xbe777874	-0.24167043
47	0xbc26522a	-0.010151425
48	0xbe9fbe80	-0.31200027
49	0x3d7758f2	0.06038756
50	0xbe6a84b7	-0.22902189
51	0xbe22a820	-0.15884447
52	0x3e0c175a	0.13680783
53	0x3dadc4f3	0.08484831
54	0x3e9aefab	0.30260977
55	0x3d993ebf	0.07482671
56	0x3d4f0619	0.050542925
57	0x3cb41772	0.021983836
58	0x3e8cf5f5	0.275314
59	0xbda0073f	-0.07813882
60	0xbe157b6c	-0.14597863
61	0xbd7a60a4	-0.06112732
62	0x3e3fcd76	0.18730721
63	0xbb6c859a	-0.0036090375
64	0x3d819aef	0.06328379
65	0xbe268015	-0.16259797
66	0xbd4dcc75	-0.050243814
67	0xbdc1b6b9	-0.0945868
68	0xbe7144e8	-0.23561442
69	0xbe827b78	-0.25484824
70	0xbe566880	-0.20938301
71	0x3e97829d	0.29591838
72	0xbd9e2bfa	-0.077232316
73	0xbe48cea4	-0.19610077
74	0x3eaa131c	0.33217704
75	0x3e73a80f	0.23794578
76	0x3e240a5d	0.16019578
77	0x3e73f4aa	0.238238
78	0x3c53d38b	0.012928854
79	0x3e7ed4a7	0.24885808
80	0x3e8b51cb	0.2721084
81	0xbdd578c6	-0.10423426
82	0x3d41cdec	0.047315523
83	0xbe586ee4	-0.21136051
84	0xbe8fcede	-0.28087515
85	0x3e8f40c6	0.27979106
86	0xbdd190b0	-0.10232675
87	0xbe303b4f	-0.17210124
88	0xbd611536	-0.05495187
89	0xbd7162a0	-0.058931947
90	0xbe2ac904	-0.16678244
91	0x3e37ff11	0.17968394
92	0x3e942ffa	0.28942853
93	0x3dbbbc21	0.09166742
94	0xbdfd5c1a	-0.123710826
95	0x3e204d01	0.15654375
96	0xbe59f793	-0.21285848
97	0xbe95b139	-0.29236773
98	0x3e80d246	0.25160426
99	0xbe9eaa5f	-0.30989358
100	0x3ca5f317	0.020257516
101	0x3cf6ca9d	0.03012591
102	0xbd8f2f9c	-0.06991503
103	0xbd6958c9	-0.056969438
104	0x3e0e5912	0.13901165
105	0xbd71ef7e	-0.05906629
106	0x3e24fe99	0.16112746
107	0xbe55ac2c	-0.2086646
108	0xbcc11462	-0.02356929
109	0xbe8a2c03	-0.26986703
110	0x3d28e1fb	0.041231137
111	0xbe71c7b1	-0.23611332
112	0xbe8a7c93	-0.27048168
113	0xbc0ac6b8	-0.00847023
114	0x3e6f8af9	0.23392858
115	0x3d915ed6	0.07098167
116	0xbe9e235e	-0.30886358
117	0xbe3fa252	-0.18714264
118	0x3dc243a2	0.09485556
119	0x3e3f177b	0.18661301
120	0x3ea08591	0.31351903
121	0x3e8c959d	0.27457896
122	0xbdd5e7e1	-0.10444618
123	0x3e9fb943	0.3119603
124	0x3d8ab7c4	0.06773332
125	0x3b8940b0	0.0041886196
126	0x3e8e9d6a	0.27854472
127	0xbe2ae442	-0.16688636
128	0xbe5c9d4c	-0.21544379
129	0x3e1eeb03	0.15519337
130	0x3e7962ec	0.24354142
131	0x3e8b9226	0.2725994
132	0xbea97cd5	-0.33103052
133	0x3c92f737	0.017940147
134	0x3e816400	0.25271606
135	0xbe912a4f	-0.2835259
136	0xbd1b20ac	-0.037872955
137	0xbe996246	-0.2995779
138	0xbd9e12d5	-0.07718436
139	0x3e98b394	0.29824507
140	0xbe2aa719	-0.16665305
141	0xbc906b44	-0.017629273
142	0xbe51e9c2	-0.20499328
143	0xbe5ffda6	-0.21874103

encoder.0.bias f4 [16]
0	0xbe98124e	-0.29701465
1	0xbd953c16	-0.07286851
2	0x3d010304	0.031497017
3	0xbb7f9e91	-0.0039004425
4	0xbe3e92a3	-0.18610625
5	0xbe23c9e7	-0.15994988
6	0x3e89f5c6	0.26945323
7	0x3e890653	0.26762637
8	0x3e276537	0.16347204
9	0x3e0a06d5	0.13479169
10	0xbc196594	-0.009362597
11	0xbea579fe	-0.32319635
12	0x3c99a7f5	0.018756846
13	0xbdbd8642	-0.09254123
14	0xbe15867f	-0.14602087
15	0x3dad3d02	0.08458902

encoder.2.weight f4 [32, 16, 3, 1]
0	0xbe0c996c	-0.13730401
1	0x3df47d7e	0.11937998
2	0x3dd5bbbc	0.10436198
3	0x3de6f75d	0.112776496
4	0x3d39136d	0.04518454
5	0x3d252982	0.040322788
6	0xbdaf2a86	-0.085530326
7	0xbdca3d68	-0.098749936
8	0x3d333ba9	0.04375807
9	0x3d2cbdf1	0.04217333
10	0x3b957397	0.0045608985
11	0xbda09213	-0.078403614
12	0x3c8b3588	0.0169933
13	0xbe0c6165	-0.13709028
14	0x3bf89607	0.007586244
15	0xbcf8ae99	-0.030356692
16	0xbd80605f	-0.06268381
17	0x3dfd1827	0.12358122
18	0xbd823b9a	-0.06359024
19	0xbd6e6b55	-0.05820783
20	0xbc60ea38	-0.013727717
21	0x3dfea58e	0.12433921
22	0xbdf3aaaf	-0.1189779
23	0xbda39bc5	-0.07988695
24	0xbbc109d3	-0.0058910637
25	0xbdfbd79e	-0.12296985
26	0xbde88cdc	-0.11354992
27	0x3dffa342	0.12482311
28	0x3cb7d9f1	0.02244279
29	0xbe151e42	-0.14562324
30	0x3dc1ebf3	0.09468832
31	0xbd93effa	-0.07223506
32	0xbc3cea6f	-0.011530503
33	0x3daf5f4d	0.08563099
34	0xbd53d34c	-0.05171518
35	0x3d59fdae	0.053220443
36	0x3c059b4e	0.008154703
37	0xbd05531f	-0.032549974
38	0xbe1709be	-0.1474981
39	0xbb959717	-0.0045651305
40	0xbd912fce	-0.07089196
41	0x3cded646	0.027201783
42	0x3db83f28	0.08996421
43	0xbc58b9ae	-0.013227863
44	0xbda41143	-0.08011105
45	0xbd7087d7	-0.058723297
46	0x3d3dc546	0.046330713
47	0x3cd3fe86	0.025878202
48	0x3d9580a7	0.07299929
49	0xbddab502	-0.10679056
50	0x3cd9eca7	0.026602102
51	0x3db2876e	0.087172374
52	0x3dfa84e6	0.122323796
53	0xbdb3a3db	-0.08771487
54	0xbd15e12c	-0.036591694
55	0x3dd1a304	0.10236171
56	0xbdb953ad	-0.09049163
57	0x3c588486	0.01321519
58	0xbdf50198	-0.119631946
59	0x3daf56ca	0.085614756
60	0x3d8c89c9	0.06862218
61	0xbd8b66b7	-0.06806701
62	0xbcc6cb95	-0.024266997
63	0xbdf74ac2	-0.12074806
64	0xbca660ef	-0.020309893
65	0x3dd40086	0.10351662
66	0x3d092eb7	0.033491816
67	0xbdedba44	-0.11607793
68	0xbd529300	-0.05140972
69	0x3d605d73	0.05477662
70	0x3d87834e	0.06616841
71	0xbe0987c4	-0.13430697
72	0x3deaa836	0.11457865
73	0x3dacf0cc	0.08444366
74	0x3d98f3fc	0.07468411
75	0xbd77762f	-0.060415443
76	0xbce9c46a	-0.02853604
77	0x3e00ae6a	0.12566534
78	0xbd6089a7	-0.054818776
79	0xbd8f9a9f	-0.070119135
80	0xbe002019	-0.12512244
81	0x3dece215	0.11566559
82	0xbded69b0	-0.11592424
83	0xbdb9e9c3	-0.0907779
84	0x3d642b34	0.055705264
85	0xbd99c4de	-0.075082526
86	0xbc988d91	-0.018622192
87	0xbdfabbed	-0.12242875
88	0x3d56e8b8	0.05246803
89	0xbda73c0a	-0.081657484
90	0xbd380532	-0.04492683
91	0xbc90e6ab	-0.017688116
92	0x3da1853b	0.0788674
93	0x3cf613bd	0.030038709
94	0x3cb729b0	0.022358745
95	0xbdcfe8b3	-0.10151806
96	0xbe089773	-0.13339023
97	0x3c00f86c	0.007871728
98	0xbd8933ae	-0.0669931
99	0x3d7f2275	0.06228872
100	0x3d87224f	0.06598341
101	0x3de9f4d1	0.11423648
102	0x3e01db7f	0.12681387
103	0xbc980010	-0.018554717
104	0x3c4a548d	0.01234926
105	0xbc248fb2	-0.010044025
106	0xbde051d2	-0.10953106
107	0xbda0c017	-0.07849138
108	0xbbec7055	-0.0072155395
109	0xbdad4247	-0.08459907
110	0x3dd57612	0.10422911
111	0x3de08b51	0.109640725
112	0x3be27085	0.006910386
113	0xbe0f5350	-0.13996625
114	0xbd96c071	-0.07360924
115	0xbc6653e6	-0.014058089
116	0x3cecf256	0.028924149
117	0xbe03c860	-0.12869406
118	0xbda4eb7a	-0.08052726
119	0xbcc24dc1	-0.023718717
120	0x3d322f01	0.043501858
121	0x3dac3184	0.08407882
122	0xbdd04eeb	-0.101713024
123	0xbd8e0000	-0.06933594
124	0xbe07913f	-0.13239
125	0xbdcb6be9	-0.099326916
126	0xbbea7931	-0.0071555604
127	0xbbbdc338	-0.005791094
128	0x3d72aed4	0.05924876
129	0xbe05e0dd	-0.1307406
130	0xbd765f63	-0.06014956
131	0x3d4dc0c2	0.050232656
132	0x3da58f1a	0.08083935
133	0xbd9d331a	-0.076757625
134	0xbdded249	-0.108799525
135	0xbd839f70	-0.06426895
136	0xbdc9796c	-0.098376125
137	0xbd956de0	-0.072963476
138	0x3d892f1a	0.06698437
139	0x3dca449f	0.0987637
140	0xbdd5936a	-0.104285076
141	0xbdec2a56	-0.115315124
142	0x3e006f6e	0.12542507
143	0x3ca8088e	0.020511892
144	0x3ddf2d79	0.10897345
145	0x3d9e63db	0.0773389
146	0xbde717cd	-0.112838365
147	0x3d8a7ab1	0.06761683
148	0xbdfea007	-0.124328665
149	0x3ca25127	0.019814087
150	0x3dcda5db	0.100414
151	0x3db5b02c	0.08871493
152	0x3d300e7f	0.042982575
153	0xbc02d248	-0.007984705
154	0xbd03c9a9	-0.03217474
155	0x3c85494a	0.016270299
156	0xbd8091ae	-0.06277786
157	0x3c835fda	0.016036917
158	0x3ddc01e9	0.10742552
159	0x3dcc144a	0.09964807
160	0x3b5b24bb	0.003343864
161	0x3d96c92c	0.07362589
162	0x3ddfbddd	0.109248854
163	0xbd60abdb	-0.054851394
164	0x3cd253bf	0.025674699
165	0x3b8860b0	0.0041619167
166	0x3dd90443	0.10596516
167	0x3c676616	0.01412346
168	0xbdbfc946	-0.09364562
169	0x3e02234f	0.12708782
170	0x3c832d36	0.01601277
171	0x3e038fb6	0.1284779
172	0x3daa050d	0.083017446
173	0xbdd8bcfc	-0.10582921
174	0x3cef7c05	0.029233942
175	0xbda747a6	-0.08167963
176	0x3c1243e8	0.008927323
177	0x3de77a30	0.11302602
178	0xbd28ea27	-0.04123893
179	0xbe06bd88	-0.13158238
180	0xbe0149b8	-0.12625778
181	0xbd69bc6f	-0.05706447
182	0x3dc8c691	0.098034985
183	0xbd74301b	-0.05961619
184	0xbdf98bf8	-0.121849
185	0x3ddef82b	0.10887178
186	0xbdcbcfc0	-0.099517345
187	0xbd0e7ee5	-0.034788985
188	0xbde58111	-0.11206258
189	0xbd95d3af	-0.07315766
190	0x3dee7823	0.11644008
191	0xbd0223df	-0.03177249
192	0xbd01559f	-0.031575795
193	0x3d21181d	0.039329637
194	0xbda70d08	-0.081567824
195	0xbcb5cc3a	-0.02219211
196	0xbc982bb2	-0.018575523
197	0xbdea8cc3	-0.114526294
198	0x3a99ecde	0.0011743566
199	0xbddcbd9a	-0.10778351
200	0x3dc6aacc	0.09700546
201	0x3c95dfcb	0.01829519
202	0x3e00647d	0.12538333
203	0xbdfccbd8	-0.123435676
204	0x3ded57fe	0.11589049
205	0xbdf169d7	-0.117877655
206	0xbd9d502c	-0.07681307
207	0xbdfae769	-0.12251169
208	0xbe02433d	-0.12720962
209	0x3d1894cb	0.037251275
210	0xbe073d5b	-0.13206999
211	0xbe06cfd9	-0.13165225
212	0xbd36e483	-0.04465152
213	0xbd9acd7e	-0.07558726
214	0x3d594612	0.05304534
215	0xbd73c927	-0.059518006
216	0x3d8ede51	0.06975997
217	0xbcd15ee1	-0.025557937
218	0xbd586607	-0.052831676
219	0x3d104323	0.035220277
220	0xbe0dc6f3	-0.13845424
221	0xbddef0d5	-0.10885779
222	0xbdcbc7c9	-0.09950215
223	0xbd20501f	-0.03913891
224	0xbe11a078	-0.1422137
225	0xbb98287d	-0.0046434985
226	0xbe019b2f	-0.12656854
227	0xbdab6c6f	-0.083702914
228	0x3de24194	0.11047664
229	0xbd19d794	-0.037559107
230	0x3c5e4f41	0.0135687
231	0xbd0e712f	-0.03477591
232	0xbd36d10c	-0.044632956
233	0x3e0829ad	0.13297148
234	0x3dc6789f	0.096909754
235	0x3db0d9f1	0.08635319
236	0x3d7a2235	0.06106778
237	0x3dfc92fc	0.123327225
238	0xbe13f0b7	-0.14447294
239	0xbdd5d8af	-0.1044172
240	0xbe0d782e	-0.13815376
241	0xbe03f198	-0.1288513
242	0x3d093afe	0.033503525
243	0xbdf78980	-0.12086773
244	0xbda9a7fb	-0.08283993
245	0x3d9428af	0.07234322
246	0xbd2719be	-0.040796034
247	0x3d26f910	0.04076487
248	0xbe062931	-0.13101651
249	0x3dadb13b	0.0848107
250	0x3dfbec19	0.123008914
251	0x3dbd3361	0.092383154
252	0x3ddde7a9	0.10835201
253	0xbd09a614	-0.03360565
254	0x3dd4d786	0.1039267
255	0xbe05646b	-0.13026588

encoder.2.bias f4 [32]
0	0xbdc7fd5e	-0.09765123
1	0x3dfee7af	0.12446534
2	0x3dc5bede	0.09655546
3	0xbd73f7c7	-0.05956247
4	0x3de76ec8	0.11300427
5	0x3d212a17	0.03934678
6	0xbb87a21f	-0.0041391994
7	0x3dbff1ca	0.093722895
8	0x3e0b636f	0.1361215
9	0xbd19f05b	-0.037582736
10	0xbc9b09c2	-0.018925551
11	0xbddcc439	-0.10779614
12	0xbe0ec0b7	-0.13940702
13	0xbd7d5e31	-0.061857406
14	0x3de23c9d	0.11046717
15	0xbd5a28bc	-0.053261504
16	0xbe1925e5	-0.14955862
17	0x3dcbc48e	0.09949599
18	0x3d4a2fd2	0.04936201
19	0xbde6cc48	-0.11269432
20	0x3e18f7f1	0.14938332
21	0xbdde8d50	-0.10866797
22	0x3dcebb44	0.10094312
23	0x3c9456e4	0.018107839
24	0x3db7ab88	0.08968264
25	0x3da19ab1	0.07890833
26	0x3dfa2452	0.12213959
27	0xbda51f3b	-0.08062597
28	0xbe0010ff	-0.12506483
29	0xbd75ebe4	-0.060039416
30	0x3ccc06f6	0.024905663
31	0x3d825b32	0.063650504

encoder.4.weight f4 [64, 32, 3, 1]
0	0x3b16df70	0.0023021363
1	0x3d4461bd	0.047944773
2	0xbd6481cd	-0.05578785
3	0xbd9dba3b	-0.07701536
4	0xbd02cec0	-0.031935453
5	0x3dcb4e54	0.09927049
6	0x3dc0540e	0.09391032
7	0xbc2f9f9e	-0.010719208
8	0xbdb19fc4	-0.08673051
9	0xbd95f200	-0.073215485
10	0x3dc9cb0a	0.0985318
11	0xbd26fb2a	-0.040766872
12	0xbcaa425c	-0.020783596
13	0xbd9396f0	-0.072065234
14	0x3cf05dd7	0.029341621
15	0x3d94d75b	0.07267638
16	0x3dbc8b2f	0.09206235
17	0xbc2d108e	-0.010563029
18	0xbd8e32e5	-0.06943301
19	0xbdcdbacb	-0.100453936
20	0xbdca4a91	-0.09877504
21	0x3c217fa4	0.009857092
22	0x3da5ed7c	0.08101937
23	0x3d9b5bd0	0.07585871
24	0xbd9b671e	-0.075880274
25	0x3d9737ae	0.07383667
26	0x3c99e7e3	0.01878733
27	0xbd5c1d75	-0.05373903
28	0x3cef90ba	0.029243816
29	0x3cd0807a	0.025451887
30	0xbc273700	-0.010205984
31	0x3da13c94	0.078728825
32	0xbc29e253	-0.010368901
33	0xb9fb6bba	-0.00047954713
34	0xbd8e9a78	-0.06963056
35	0x3db3991f	0.0876944
36	0x3d8f4ad0	0.06996691
37	0xbd13f821	-0.036125306
38	0x3c274769	0.010209897
39	0xbdbe7658	-0.09299916
40	0xbd3c17e2	-0.045921214
41	0x3c1f4d7e	0.009723065
42	0xbd39bfd8	-0.045348972
43	0xbd51fafa	-0.05126474
44	0xbd07e985	-0.033181686
45	0x3dc81ee6	0.097715184
46	0x3d6f4d49	0.058423314
47	0xbdaf20f8	-0.0855121
48	0x39a30ce1	0.00031099378
49	0xbc545287	-0.012959129
50	0xbd814256	-0.06311481
51	0xbdb98ea0	-0.09060407
52	0x3d83082c	0.06398043
53	0xbd7ec0de	-0.06219565
54	0xbd8e99a3	-0.06962898
55	0xbd0857ca	-0.033286847
56	0xba42aee5	-0.0007426574
57	0xbcce610c	-0.02519276
58	0xba85aa48	-0.0010197842
59	0x3da66596	0.08124845
60	0xbc36071b	-0.0111100925
61	0x3d428423	0.047489297
62	0x3d8d57ad	0.069014885
63	0x3d00005e	0.03125035
64	0xbc2430a2	-0.010021361
65	0x3d026d3d	0.03184246
66	0x3dd4c202	0.103885666
67	0x3d990c13	0.07473006
68	0xbd9158ff	-0.07097053
69	0x3d4a2fc3	0.049361955
70	0xbd56d3d0	-0.052448094
71	0xbb86784a	-0.004103695
72	0xbdc67e70	-0.09692085
73	0x3d93e535	0.07221452
74	0xbcac95c2	-0.021067504
75	0x3d12922b	0.035783928
76	0xbd8333ff	-0.06406402
77	0x3df0b61b	0.11753484
78	0x3d04c040	0.032409906
79	0x3c2c4ae4	0.010515902
80	0xbc1275a4	-0.0089391805
81	0x3d30f109	0.04319862
82	0xbd761437	-0.060077872
83	0x3d6378f5	0.055535275
84	0xbd23dece	-0.040007405
85	0x3c9b48c5	0.018955598
86	0x3b553ee8	0.0032538716
87	0x3a3aa437	0.0007119807
88	0x3b866af1	0.004102104
89	0xbb523c9c	-0.0032079583
90	0xbe3eb71c	-0.18624538
91	0xbd2fb0e5	-0.04289331
92	0x3d1f0a18	0.038827986
93	0xbc61daae	-0.013785047
94	0x3d12a449	0.035801206
95	0x3ce8e1ca	0.028427977
96	0xbb622056	-0.0034504137
97	0x3d949cc3	0.072564624
98	0xb8dbe282	-0.00010484924
99	0x3db9dc31	0.09075201
100	0x3cf85e9c	0.03031855
101	0xbd988fc7	-0.07449298
102	0xbd8a6368	-0.067572415
103	0x3cbbda45	0.022931227
104	0xbd976682	-0.07392599
105	0x3d21704b	0.03941373
106	0x3cfa9b66	0.030591678
107	0x3d4500c4	0.048096433
108	0x3d9e2a2d	0.07722888
109	0x3dbf6b23	0.093466066
110	0xbd968997	-0.07350462
111	0x3d74c7c2	0.059760816
112	0x3d8862fe	0.06659506
113	0x3c9ed368	0.019387916
114	0xbda850d3	-0.08218541
115	0x3d9ca261	0.07648159
116	0xbdad5c1b	-0.08464833
117	0x3cce3860	0.025173366
118	0x3318211e	3.5420378e-08
119	0xbd035aab	-0.03206889
120	0xbda4a5ae	-0.080394134
121	0xbc7a33d8	-0.01527115
122	0xbc45cea5	-0.012073194
123	0xbdb957b1	-0.09049929
124	0x3d2c3094	0.042038515
125	0x3c7f9189	0.015598663
126	0x3d9e5aef	0.07732188
127	0xbb9d9582	-0.0048090825
128	0x3cefda8a	0.029279012
129	0x3db33ff7	0.08752435
130	0x3d8a7314	0.06760231
131	0x3c50bfac	0.012741011
132	0xbd65ffa9	-0.05615202
133	0xbd502ce8	-0.050824076
134	0xbcf43cd5	-0.029814163
135	0xbd6982e0	-0.057009578
136	0xbc7ac4bd	-0.015305695
137	0x3bd72dfa	0.00656676
138	0x3b492927	0.0030694695
139	0xbdbb20e1	-0.091371305
140	0x3db13383	0.08652403
141	0xbd057bc3	-0.03258873
142	0xbb7ed951	-0.0038886855
143	0x3dc39fe3	0.0955198
144	0xbaeba798	-0.0017979024
145	0xbc61f8cf	-0.013792231
146	0xbba172d8	-0.0049270205
147	0xbd9155c3	-0.07096436
148	0x3d9ca261	0.07648159
149	0xbc88fd43	-0.016722327
150	0x3c556ff3	0.013027179
151	0xbd0b81e6	-0.034059428
152	0xbd9d4699	-0.07679481
153	0xbc8b67a2	-0.01701719
154	0x3caf06c9	0.02136554
155	0xbcdd5a60	-0.027020633
156	0xbc88cff3	-0.01670072
157	0xbd3c0044	-0.04589869
158	0x3da49fe1	0.08038307
159	0x3ce13587	0.027491344
160	0x3d28f908	0.04125312
161	0x3d36ec9d	0.044659246
162	0x3d79f48e	0.06102424
163	0xbdba00c7	-0.090821795
164	0x3d80f0d1	0.06295932
165	0xbd4dd878	-0.05025527
166	0x3d6c2f71	0.05766243
167	0x3d81a1df	0.063297026
168	0xbd67164f	-0.05641776
169	0x3d2e3dd5	0.042539436
170	0xbc52f7c4	-0.012876455
171	0xbd4f16d5	-0.050558884
172	0x3c8b84df	0.017031131
173	0x3d20e28d	0.039278556
174	0x3d8fb4a9	0.0701688
175	0xbd8688fb	-0.06569096
176	0xbda4f800	-0.08055115
177	0xbdb79eff	-0.08965873
178	0xbd88d9ae	-0.06682144
179	0xbd9aee69	-0.075650044
180	0xbd07d67c	-0.033163533
181	0x3b72452a	0.0036967495
182	0xbdb21beb	-0.08696731
183	0xb1967695	-4.379056e-09
184	0x3271b8c2	1.4070055e-08
185	0x32bf15d6	2.2245256e-08
186	0x3c9afc04	0.018918999
187	0x3d909d77	0.07061284
188	0xbcad48cd	-0.021152878
189	0x3dacaeeb	0.084318005
190	0x3c4a3e64	0.012343977
191	0xbc94d00c	-0.01816561
192	0x3b5a437f	0.003330439
193	0xbc770ffa	-0.015079493
194	0xbdcb3b48	-0.099234164
195	0x3bc310ff	0.005952954
196	0x3daa0a07	0.08302694
197	0x3d7b2049	0.061310086
198	0xbc33ed0e	-0.010981811
199	0xbd1b9e01	-0.03799248
200	0xbd4ad0b9	-0.04951546
201	0xbd2061fa	-0.039155938
202	0xbba75acd	-0.00510726
203	0xbdaaa468	-0.08332139
204	0xbc3b86d2	-0.011445718
205	0x3ccdc23b	0.02511703
206	0xbdb2acfa	-0.08724399
207	0xbb0f9488	-0.00219086
208	0x3da27eb6	0.079343244
209	0xbdb1fcc6	-0.08690791
210	0x3da0d50e	0.07853137
211	0x3db86af7	0.09004777
212	0xbd58baff	-0.05291271
213	0xbb0df1bb	-0.0021658975
214	0x3cda8fdb	0.026679924
215	0xbc93009f	-0.017944632
216	0x3d88343d	0.06650589
217	0x3ced44c4	0.028963454
218	0x3d82b83e	0.06382798
219	0x3d8aced4	0.067777306
220	0xbd146fb3	-0.036239337
221	0x3d5c5a9c	0.05379735
222	0xbdceef0a	-0.10104187
223	0xbc29dbae	-0.010367317
224	0xbd040e7e	-0.032240383
225	0x3d7db887	0.061943557
226	0x3cc367d5	0.023853222
227	0xbca08a68	-0.019597247
228	0xbbabbe26	-0.0052411733
229	0xbd9a94c3	-0.07547905
230	0x3c4be602	0.012444975
231	0x3d279cf1	0.040921155
232	0xbdc4d8a1	-0.09611631
233	0xbd39b702	-0.045340545
234	0xbcb20a52	-0.021733437
235	0x3db700a5	0.0893567
236	0x3d8131dd	0.06308339
237	0xbd9d0e8e	-0.07668792
238	0x3d31d283	0.04341365
239	0x3d8bfd59	0.068354316
240	0x3b5b5cf8	0.0033472162
241	0xbc953756	-0.018214863
242	0x3ba12c3c	0.004918603
243	0xbd600e08	-0.05470088
244	0x3c945c30	0.018110365
245	0xbdb349c8	-0.08754307
246	0xbd338d0d	-0.04383569
247	0x3d1253e6	0.035724543
248	0xbdd2d749	-0.10294969
249	0x3d977ece	0.07397233
250	0xbcba4e9e	-0.022742566
251	0xbd6b9c8b	-0.057522338
252	0xbd20f48a	-0.03929571
253	0x3d55517b	0.05207966
254	0xbc4d4f7b	-0.012531157
255	0x3cb3aec1	0.021933915

encoder.4.bias f4 [64]
0	0xbd5dd3a9	-0.054156933
1	0xbdc1fd18	-0.09472102
2	0xbdcba7a4	-0.09944084
3	0x3d2e827b	0.042604905
4	0xbdc26de8	-0.09493619
5	0xbdbacc57	-0.09121006
6	0x3d253257	0.04033121
7	0x3d91e446	0.07123618
8	0xbd9cc507	-0.076547675
9	0x3d18c1bb	0.03729413
10	0xbcf11e65	-0.029433439
11	0xbdb2b949	-0.087267466
12	0x3ba8bad5	0.0051492252
13	0x3c2fec10	0.010737434
14	0x3d7f3631	0.06230754
15	0x3da812f9	0.08206744
16	0xbd795eae	-0.06088131
17	0xbda8f77e	-0.082503304
18	0xbda582eb	-0.08081611
19	0xbd221ecc	-0.03958015
20	0xbd0ed9e0	-0.03487575
21	0x3d239180	0.03993368
22	0xbd00d6d8	-0.03145489
23	0xbdb5172e	-0.08842312
24	0x3c348a48	0.011019297
25	0x3da05395	0.07828442
26	0xbda55895	-0.08073536
27	0x3cc41227	0.023934437
28	0x3da4ed02	0.08053018
29	0x3d25d9ad	0.040490795
30	0xbdbb1f71	-0.09136856
31	0x3d815dfa	0.06316753
32	0xbcd2fe18	-0.025755927
33	0xbd82b3a6	-0.063819215
34	0xbd042607	-0.03226283
35	0x3d5e1ca4	0.054226533
36	0x3d362a08	0.044473678
37	0xbce5b677	-0.028041108
38	0x3d975c39	0.07390637
39	0xbc821d79	-0.015883194
40	0xbdd0d4a9	-0.10196812
41	0x3cb3ca5b	0.021947077
42	0xbd997716	-0.07493417
43	0xbdc90b0e	-0.09816562
44	0x3cb19ef2	0.021682236
45	0x3d2a3457	0.04155382
46	0xbb761edc	-0.0037555015
47	0xbd80212a	-0.062563255
48	0x3d9934eb	0.074807964
49	0xbad64a36	-0.0016349021
50	0xbd070717	-0.032965746
51	0x3d8ec783	0.069716476
52	0xbd9595ef	-0.07303988
53	0xbdc4abab	-0.096030556
54	0xbd64f866	-0.055900954
55	0xbd426859	-0.047462795
56	0x3d884fed	0.0665587
57	0xbd9d2569	-0.07673151
58	0xbd109d44	-0.03530623
59	0xbd505c70	-0.050869405
60	0x3c26b798	0.010175608
61	0xbdcb1ce5	-0.099176206
62	0x3d2e4c87	0.04255345
63	0x3bae9e25	0.005328911

encoder.6.weight f4 [128, 64, 3, 1]
0	0x3d930431	0.07178534
1	0x3d0373bc	0.032092795
2	0xbd20606c	-0.039154455
3	0xbc9bf414	-0.019037284
4	0x3ce1aa30	0.027546972
5	0x3d8cb264	0.06869963
6	0x3d91324b	0.07089671
7	0xbcef5b7e	-0.029218432
8	0x3d3dbbf1	0.046321813
9	0x3bfff5ac	0.007811269
10	0xb90cc80e	-0.00013425967
11	0x3c2bdc74	0.010489572
12	0x3daae2d2	0.08344044
13	0x3d986bd0	0.074424386
14	0xbb30993d	-0.0026946806
15	0xbd0b53c1	-0.03401542
16	0xbd11cae3	-0.03559388
17	0xbd546f30	-0.05186385
18	0x3cb9a1d5	0.022660175
19	0x3bbfbddf	0.005851492
20	0x3cf15200	0.029458046
21	0xbd1b3bf8	-0.037898988
22	0xbd4cf430	-0.050037563
23	0x3d84f1e1	0.06491447
24	0xbb75e3c0	-0.0037519783
25	0xbc95628c	-0.018235467
26	0x3c107779	0.008817547
27	0x3d75bff0	0.0599975
28	0x3b0d2da7	0.0021542103
29	0xbd81c78c	-0.06336889
30	0xbcfd8a2f	-0.03094968
31	0xbc2016e6	-0.009771084
32	0xbd3b96cb	-0.045798104
33	0xbcd6d7e3	-0.02622599
34	0x3d9c9c25	0.0764697
35	0x3d0fd4a6	0.035114907
36	0x3cd362d8	0.025803968
37	0xbd2693f3	-0.04066844
38	0xbca88c7e	-0.020574804
39	0xb186a074	-3.9181547e-09
40	0x3ae48aef	0.0017436425
41	0x306712fe	8.40643e-10
42	0xbcbc1881	-0.022960903
43	0x3d1477a0	0.036246896
44	0x3d2e0acc	0.042490765
45	0xbd268324	-0.04065241
46	0x3c45c575	0.012071003
47	0xbd393a35	-0.045221526
48	0x3d44a80b	0.04801182
49	0xbd792b1c	-0.060832128
50	0xbb076a2a	-0.0020662644
51	0xbbf18a2a	-0.007371207
52	0x3d64b608	0.05583766
53	0x3d00384e	0.031303696
54	0x3c303145	0.010753934
55	0x3c9bb9cf	0.019009499
56	0x3d62b63a	0.055349566
57	0x3d2b5aa2	0.04183448
58	0x3d2d94dc	0.04237829
59	0xbb18c798	-0.0023312327
60	0x3cd4dd75	0.025984505
61	0xbd2a6542	-0.041600473
62	0x3d64fb14	0.05590351
63	0xbceea109	-0.029129522
64	0x3d0ee760	0.034888625
65	0xbd49ab01	-0.049235348
66	0xbc9975a7	-0.018732859
67	0x3d839004	0.06423953
68	0xbc1119da	-0.008856261
69	0xbd4a9f20	-0.04946816
70	0x3bcaa97a	0.006184754
71	0x3c8c3729	0.017116146
72	0x3ccebc6c	0.02523633
73	0x3b7114eb	0.003678615
74	0xbd0024da	-0.031285144
75	0xbc8d27f0	-0.017230958
76	0xbcb9b23f	-0.022668002
77	0x3d05f45d	0.032703746
78	0x3b61b70a	0.0034441375
79	0xbbc991ab	-0.006151398
80	0x3ccdc9ff	0.025120733
81	0xbb71a6a4	-0.0036873007
82	0x3d4e6b7c	0.050395474
83	0x3d12f281	0.0358758
84	0xbd0698d3	-0.03286059
85	0xbd02de98	-0.031950563
86	0xbbdc8608	-0.006729845
87	0x3ae05202	0.0017114284
88	0x3d15b01c	0.036544904
89	0xbd0bca64	-0.03412856
90	0x3bfdc041	0.0077438657
91	0xbd42162a	-0.04738442
92	0xbcf96925	-0.030445645
93	0xbd7135fa	-0.058889367
94	0xbd8be2a5	-0.068303384
95	0xbd28d193	-0.04121549
96	0xbd763edb	-0.060118537
97	0x3c9ada5c	0.01890295
98	0xbc8fb19a	-0.017540742
99	0x3c249065	0.010044192
100	0x3d883586	0.06650834
101	0xbca14a03	-0.019688612
102	0xbcf138c2	-0.02944601
103	0x3ce26c60	0.027639568
104	0xbd3c2bec	-0.045940325
105	0x3d8c4485	0.068490066
106	0x3d229b47	0.039698865
107	0xbd7845bf	-0.06061339
108	0x3caa6c2f	0.02080354
109	0x3a6d5e62	0.00090548967
110	0x3d2ef201	0.04271126
111	0x3d91ec0c	0.071251005
112	0x3cc391dd	0.023873264
113	0x3b941daf	0.00452014
114	0xbd1ea543	-0.038731825
115	0xbd832d3d	-0.06405113
116	0xbcf9fa17	-0.03051476
117	0xbccf02a3	-0.025269812
118	0xbc868b28	-0.016423777
119	0x3cda9274	0.026681162
120	0x3cc34206	0.023835193
121	0x3d0dadb3	0.03458948
122	0x3ccfe456	0.025377434
123	0x3aced321	0.0015779474
124	0xb94a42b9	-0.00019289077
125	0x3caa5586	0.020792734
126	0x3ce012ab	0.027352652
127	0x3d4d3f66	0.05010929
128	0xbc1dabb3	-0.009623456
129	0x32c9ea08	2.3505905e-08
130	0xb1bc2482	-5.4756706e-09
131	0x2fc85e6c	3.644688e-10
132	0xbcbc64ea	-0.022997338
133	0xbd6d0713	-0.057868075
134	0xbc0ca68c	-0.00858463
135	0x3c55dc59	0.013053023
136	0x3d5cda8e	0.053919367
137	0xbd009cd7	-0.031399574
138	0xbd54cbef	-0.0519523
139	0x3c2b37c5	0.010450308
140	0x3d8358d6	0.064134285
141	0xb0dfda2b	-1.6287393e-09
142	0xba59863e	-0.0008297897
143	0x3cdb99c9	0.026806729
144	0x3d0546e8	0.032538325
145	0x3d19c5af	0.03754204
146	0x3d6b8743	0.057502043
147	0x3c8f964d	0.017527724
148	0x3cea9a56	0.028638046
149	0x3ca819cf	0.020520119
150	0xbd1d8c99	-0.038464162
151	0x3d281e74	0.041044667
152	0x3ce8d61f	0.028422413
153	0xbc35c53d	-0.011094389
154	0xbd1be13a	-0.03805659
155	0x3b566e3c	0.0032719513
156	0xb0116a9e	-5.2902205e-10
157	0x375fa655	1.3330563e-05
158	0x311b9faf	2.2646238e-09
159	0xb4f9312e	-4.6415647e-07
160	0xb0cab88a	-1.4749884e-09
161	0x300e4c3e	5.1767646e-10
162	0xbc069f1f	-0.008216648
163	0x3c52cce5	0.0128662335
164	0x3d79550b	0.06087212
165	0xbc3a29fa	-0.011362547
166	0xbce1c537	-0.02755986
167	0xbd41b4d0	-0.047291577
168	0x3d68ce99	0.056837652
169	0x3c48c509	0.012254008
170	0x3d056121	0.032563332
171	0x302a4299	6.194028e-10
172	0x32372a16	1.0661571e-08
173	0x3103aa9f	1.9159996e-09
174	0xb9c9ab94	-0.00038465543
175	0x3d3cc41a	0.046085455
176	0xbc61a861	-0.013773055
177	0x3da9d385	0.08292297
178	0x3d79bf12	0.060973234
179	0xbcdd2f3a	-0.027000058
180	0xb77fad94	-1.5239599e-05
181	0x3a053a31	0.00050822186
182	0xb1137459	-2.1457451e-09
183	0xbad2f015	-0.0016093279
184	0x38d8fd1f	0.0001034683
185	0x30c567e5	1.4363165e-09
186	0x3ca481ba	0.02008139
187	0xbd1e923a	-0.03871367
188	0xbd42f0f3	-0.04759307
189	0xbb340c7b	-0.002747326
190	0x3d89c25e	0.06726526
191	0x3d4ca626	0.04996314
192	0x3d74bad3	0.059748482
193	0xbd157020	-0.036483884
194	0x3d05ceec	0.03266804
195	0xbc3caf75	-0.011516442
196	0x3d5ef5b9	0.054433558
197	0xbc84533c	-0.01615297
198	0x3d7729a6	0.060342453
199	0x3abb2f77	0.0014281113
200	0xbd8b2446	-0.06794028
201	0x3c3b2953	0.011423427
202	0xbbd1f0db	-0.006406886
203	0xbb32a272	-0.002725747
204	0x3c73c9a6	0.01487962
205	0x3c1157bc	0.008871015
206	0x3cff399f	0.031155406
207	0xbd875c42	-0.06609394
208	0x3c965b7a	0.018354166
209	0xbb56077e	-0.0032658274
210	0xbd86741a	-0.06565113
211	0x3ce24dac	0.027624927
212	0x3d4050de	0.04695212
213	0xbd4acdaf	-0.04951256
214	0x3d82d0ff	0.06387519
215	0xbc9252d4	-0.017861761
216	0xbd62af87	-0.055343177
217	0x3d56b223	0.05241598
218	0x3d492f9b	0.049117666
219	0xbaf2886a	-0.0018503789
220	0x3d5b5c94	0.053555086
221	0x3cd12a20	0.025532782
222	0xbbe76544	-0.0070616324
223	0xbc3da9b8	-0.011576109
224	0xbd5a10a6	-0.053238533
225	0x3d7700c5	0.06030347
226	0x3cc82546	0.024431836
227	0xbd552eb9	-0.05204651
228	0x3d0c0c9f	0.034191724
229	0x3d74daed	0.059779096
230	0xbc055de8	-0.008140065
231	0x3c295dfc	0.010337349
232	0xb53bc1af	-6.9944775e-07
233	0x2e402e0e	4.369665e-11
234	0xbd29181d	-0.04128276
235	0x3a26cce8	0.0006362931
236	0x3cc7a2c6	0.024369609
237	0xbd36e907	-0.044655826
238	0xbcda7852	-0.026668701
239	0xbca2b9dd	-0.019864017
240	0x3bac46ae	0.005257449
241	0x3d07f02c	0.03318803
242	0xbc12570d	-0.008931887
243	0x3d381154	0.0449384
244	0xbd8fd937	-0.07023852
245	0xbd4ada04	-0.049524322
246	0xbb643234	-0.0034819962
247	0x3c542915	0.012949248
248	0xbd632693	-0.05545671
249	0xbc9ec4de	-0.019380983
250	0xbc301075	-0.010746111
251	0xb1a9a14f	-4.936886e-09
252	0x3d0271b6	0.031846724
253	0xbd908b1d	-0.07057784
254	0x3d7a7d6d	0.06115477
255	0xbd780cf8	-0.060559243

encoder.6.bias f4 [128]
0	0x3b11d88e	0.002225432
1	0xbd16a741	-0.0367806
2	0xb9c88a82	-0.0003825017
3	0x3c70c353	0.014695006
4	0x3cff30c4	0.031151183
5	0xba85d28a	-0.001020984
6	0x3d796d34	0.06089516
7	0xbc330299	-0.010925912
8	0xbbad4891	-0.0052881916
9	0x3cb951ac	0.022621952
10	0x3cc39f74	0.023879744
11	0xbc80ec2f	-0.015737621
12	0x3d3b9950	0.045800507
13	0x3cb4bf59	0.022063898
14	0xbd09ef67	-0.033675577
15	0x3cf7d2b2	0.030251835
16	0xbd54ebf1	-0.051982824
17	0xbb6d742d	-0.0036232576
18	0xbd852ac5	-0.06502298
19	0xbc1c2818	-0.0095310435
20	0x3d08d11e	0.033402555
21	0x3d85e7ce	0.06538354
22	0xbc0cf244	-0.0086026825
23	0xbc98f5fb	-0.01867198
24	0xbd0a7039	-0.03379843
25	0xbd077bcf	-0.033077057
26	0x3c1975b2	0.00936644
27	0x3c8e05ed	0.01733681
28	0xbc8143ef	-0.015779464
29	0x3d7731c9	0.060350213
30	0x3d8473ee	0.06467424
31	0xbcf84bbb	-0.030309549
32	0x3ca3c110	0.01998952
33	0xbd590d92	-0.052991457
34	0xbd1fde28	-0.039030224
35	0xbd86d54e	-0.065836534
36	0xbc14dd44	-0.009085957
37	0x3d665860	0.056236625
38	0x3d972fda	0.07382174
39	0x3d6e4013	0.058166575
40	0x3c181823	0.009283098
41	0x3c5a9f72	0.013343679
42	0xbd8c13d7	-0.06839722
43	0xbd3b80a7	-0.04577699
44	0x3d907568	0.070536435
45	0x3d82c6c5	0.063855685
46	0xbcdcef33	-0.026969528
47	0xbd1f4a79	-0.038889382
48	0x3d4caaf5	0.049967725
49	0x3bfd59b0	0.007731639
50	0xbc60eed8	-0.01372882
51	0xbc842de6	-0.016135167
52	0x3cb69092	0.022285733
53	0xbaf5fee9	-0.0018767986
54	0xbcdff48b	-0.027338287
55	0xbba9142a	-0.0051598744
56	0xbb6c0971	-0.003601637
57	0xbc380987	-0.01123274
58	0xbcbf6784	-0.02336479
59	0x374c4468	1.2175275e-05
60	0xbd330d60	-0.043713927
61	0xbd256141	-0.04037595
62	0x3d3c1e73	0.045927476
63	0x3bed4b55	0.0072416463
64	0x3b54341a	0.0032379688
65	0xbd76e9a0	-0.060281396
66	0x3c86fc46	0.016477715
67	0x3cc365b3	0.023852205
68	0xbd39cd88	-0.045362025
69	0xbb43e2da	-0.0029889853
70	0x3bb1098c	0.0054027494
71	0x3d3d5d1f	0.046231385
72	0xbd3b2377	-0.04568812
73	0x3d5b05da	0.053472377
74	0xbd9d6be2	-0.07686593
75	0xbab98342	-0.0014153498
76	0x3c59a436	0.01328378
77	0xbd932afc	-0.07185933
78	0x3d84ed6d	0.06490598
79	0x3cd32903	0.025776392
80	0xbcf63521	-0.03005463
81	0x3c338417	0.010956786
82	0xbb1a3ae0	-0.0023533627
83	0xbc4d1cf1	-0.012519107
84	0x3c16c507	0.009202248
85	0x3d24d971	0.04024643
86	0x3c2bfe8f	0.010497703
87	0x3d1e8eb9	0.03871033
88	0xbc682658	-0.014169298
89	0x3d4aa15a	0.049470283
90	0xbd3eca7a	-0.046579815
91	0xbcfe5b0c	-0.031049274
92	0x3b6bb1fe	0.0035964246
93	0x3d492d1d	0.04911529
94	0xbcca6506	-0.024706375
95	0x3c1634bd	0.009167847
96	0x3ca7a146	0.020462643
97	0x3d539b2b	0.05166165
98	0x3d541719	0.05177984
99	0x3d4aa402	0.049472816
100	0x3d7d00b5	0.061768252
101	0xbc28c311	-0.010300414
102	0x3d545852	0.05184204
103	0x3d221f5a	0.03958068
104	0xbcf7557d	-0.030192131
105	0x3cfde20a	0.030991573
106	0x3d6b452e	0.05743902
107	0x3d90e63e	0.07075165
108	0x3d856096	0.06512563
109	0xbcc62dc8	-0.024191752
110	0xbd19b561	-0.037526492
111	0xbd1687d3	-0.036750626
112	0xbcab9bb1	-0.020948263
113	0x3ca44811	0.020053895
114	0x3d19a1d6	0.037507854
115	0x3b494037	0.003070844
116	0x3d3ae55d	0.045628894
117	0xbcd4b73b	-0.025966277
118	0x3c8648e0	0.016392171
119	0xbcc27ad1	-0.023740204
120	0x3bbe312c	0.0058042016
121	0xbc880d89	-0.016608017
122	0xbd3380eb	-0.043824118
123	0xbd74434c	-0.05963449
124	0x3d0a7955	0.033807117
125	0xbca0c2d6	-0.019624155
126	0x3d6f12cc	0.058367535
127	0x3d540a86	0.05176785

encoder.8.weight f4 [256, 128, 3, 1]
0	0x300eea6d	5.199244e-10
1	0xb1e82598	-6.7563626e-09
2	0x3131ff61	2.5902056e-09
3	0xb002eb3c	-4.762801e-10
4	0x310775b0	1.9711983e-09
5	0x305a0803	7.9319323e-10
6	0x2faeb37c	3.1777947e-10
7	0x2fbbb14f	3.4141087e-10
8	0xb084ca35	-9.661735e-10
9	0xbb85e05a	-0.0040855827
10	0x395ecf4c	0.00021248794
11	0xba7b1687	-0.0009578247
12	0x3b68c7e7	0.0035519542
13	0x3afb735f	0.0019184164
14	0xba9a338d	-0.0011764631
15	0x30ae0808	1.2662449e-09
16	0xb00df6ed	-5.1646404e-10
17	0x30071abb	4.91507e-10
18	0x3c285d43	0.010276142
19	0x3c2837bf	0.010267197
20	0x3c13897f	0.00900495
21	0xb0fed1e8	-1.8540591e-09
22	0x315dd45e	3.228045e-09
23	0x2fd5df36	3.8903075e-10
24	0xaf001ab1	-1.1651015e-10
25	0x30b52b14	1.3181727e-09
26	0xb0cb255b	-1.4780811e-09
27	0xafd4220d	-3.858677e-10
28	0x2fad0a45	3.1475814e-10
29	0x310c314f	2.040071e-09
30	0xbb331eb6	-0.0027331538
31	0xba472296	-0.0007596401
32	0xba559656	-0.0008147707
33	0xafb6ffd3	-3.328738e-10
34	0x2f334d5f	1.6307443e-10
35	0xb00486f3	-4.8213095e-10
36	0x357a5d4a	9.326801e-07
37	0xb2813760	-1.5042758e-08
38	0xb2c1ccb3	-2.2561244e-08
39	0xb96d398b	-0.00022623518
40	0xba6ab2b1	-0.00089530187
41	0x3ad1ccac	0.0016006432
42	0x2e723638	5.5072585e-11
43	0xaf446c98	-1.7864676e-10
44	0xb0df1ea4	-1.6234094e-09
45	0xbbe077ba	-0.00685021
46	0xbc0798a6	-0.00827614
47	0xbbdd760b	-0.0067584566
48	0x30587d89	7.875874e-10
49	0x304aa827	7.372613e-10
50	0x2f46c285	1.8077102e-10
51	0xb1357301	-2.6404339e-09
52	0x2f2ad698	1.5537649e-10
53	0x2f35f291	1.6548031e-10
54	0x30b2d80c	1.3012609e-09
55	0xaf67dab0	-2.1087021e-10
56	0xb09f6c55	-1.1599562e-09
57	0xb0e38ec1	-1.6556997e-09
58	0xb009871b	-5.0032306e-10
59	0xaf873041	-2.4590643e-10
60	0xbb069e17	-0.0020541006
61	0xba9f07c1	-0.0012133048
62	0xba40f22c	-0.0007360305
63	0xbbeb822f	-0.00718715
64	0xbbd26693	-0.006420919
65	0xbbc60901	-0.006043554
66	0x31101983	2.096926e-09
67	0x30934fb5	1.0718312e-09
68	0xb18500bf	-3.8708943e-09
69	0xbad3fd4e	-0.0016173513
70	0xbaedfe2a	-0.0018157412
71	0xbb969b85	-0.004596176
72	0x2f5f7022	2.032157e-10
73	0x301dee1f	5.745466e-10
74	0x30edf3ab	1.7313274e-09
75	0xb0a4d66e	-1.1993515e-09
76	0x301cdf45	5.7069754e-10
77	0xb120f901	-2.3424607e-09
78	0xbc0d7fe1	-0.008636446
79	0xbbeabf96	-0.007163952
80	0xbc1df714	-0.009641428
81	0x3175acf2	3.57505e-09
82	0xb1cac47a	-5.9013106e-09
83	0x31cabec4	5.9006613e-09
84	0xafa6ae0f	-3.03189e-10
85	0xafa172ff	-2.936744e-10
86	0xaf6b5a3b	-2.1405182e-10
87	0xbba7a6df	-0.005116328
88	0xbbcad939	-0.0061904457
89	0xbb704dfc	-0.0036667576
90	0xbba2dbd2	-0.0049700523
91	0xbb7ebe1f	-0.0038870645
92	0xba8b1847	-0.0010612094
93	0x2eb329af	8.147382e-11
94	0x2e3b4d5a	4.258758e-11
95	0x301308ed	5.349097e-10
96	0xbbb7ff99	-0.0056151864
97	0xbbb5f026	-0.0055523096
98	0xbbf8d733	-0.007594013
99	0x312ebdb9	2.5428177e-09
100	0xb07e646d	-9.2547375e-10
101	0x2f90bc93	2.6327437e-10
102	0xb1526114	-3.0614205e-09
103	0xb104ed08	-1.9343265e-09
104	0x3150d6e5	3.0390137e-09
105	0x317c40e0	3.6707704e-09
106	0x3136a954	2.6580738e-09
107	0xafbae026	-3.399247e-10
108	0x303b34e3	6.810536e-10
109	0x3126ba79	2.4262177e-09
110	0xb0d561cf	-1.5525589e-09
111	0xbb03ada5	-0.0020092514
112	0xbb79a039	-0.0038089885
113	0xbad393db	-0.0016142087
114	0xbb38bdda	-0.0028189332
115	0xbb8831fb	-0.0041563488
116	0xbb82f052	-0.0039959336
117	0xba20f2bd	-0.00061396864
118	0xb9ebf7df	-0.0004500737
119	0xbb80aa2f	-0.0039265375
120	0xbb3a7bb5	-0.0028455083
121	0xbadf86ce	-0.0017053725
122	0xbb3a222d	-0.0028401718
123	0x30533e82	7.685018e-10
124	0xb28ef644	-1.6642964e-08
125	0xb2189002	-8.880308e-09
126	0x2fa65165	3.0253058e-10
127	0x3084b907	9.656852e-10
128	0x30c5a6de	1.4381063e-09
129	0x2ecca551	9.306212e-11
130	0xad036ae2	-7.470221e-12
131	0x317a1178	3.6389718e-09
132	0xbb070f97	-0.0020608658
133	0xbb13319e	-0.0022459994
134	0xbab12d53	-0.0013517536
135	0xbb933e1e	-0.004493489
136	0xbb711278	-0.003678469
137	0xbbe86028	-0.007091541
138	0xb33e77e9	-4.434688e-08
139	0x33336a09	4.1773124e-08
140	0xb1c689ff	-5.7782468e-09
141	0xaf8bac41	-2.5406346e-10
142	0xafd79813	-3.9216327e-10
143	0x2fcf1125	3.7665263e-10
144	0xbbda38a9	-0.0066595864
145	0xbba1e480	-0.0049405694
146	0xbc230c2a	-0.009951631
147	0x33924c2c	6.8125104e-08
148	0x328f53f1	1.6685563e-08
149	0xb237d5b6	-1.0700594e-08
150	0xafb8d0e4	-3.361783e-10
151	0xafd6ca01	-3.9069906e-10
152	0x2df4fbd1	2.7851417e-11
153	0xb1cab4cb	-5.8995275e-09
154	0xb06ddeef	-8.6536905e-10
155	0xb042ed42	-7.091395e-10
156	0x3b4fc0d6	0.0031700633
157	0x3bc429a2	0.0059864083
158	0x3ba0d69e	0.004908397
159	0x3b0d14d4	0.0021527307
160	0xbb4c56c1	-0.003117964
161	0xb9b3743e	-0.00034228148
162	0x318f8448	4.1768864e-09
163	0x2ba5233d	1.1733736e-12
164	0x311cbc20	2.2807924e-09
165	0xb13f4f35	-2.7839182e-09
166	0xb048ea38	-7.309242e-10
167	0x3048e4b1	7.3084566e-10
168	0xbbbf8d06	-0.0058456687
169	0xbb8dfd0c	-0.004333144
170	0xbba40ee4	-0.005006658
171	0xb08cc183	-1.024134e-09
172	0x318fe760	4.188152e-09
173	0x3011a04f	5.2978505e-10
174	0xb1a879a6	-4.9032733e-09
175	0xaf993d45	-2.7874072e-10
176	0xb04a92a4	-7.369556e-10
177	0x319e82b6	4.6132653e-09
178	0x332ce3c5	4.0254026e-08
179	0x32b02a3d	2.0508304e-08
180	0x30e14e8a	1.6393227e-09
181	0xb0da0f2d	-1.5865901e-09
182	0xb151e223	-3.0542047e-09
183	0xb18eda65	-4.1575725e-09
184	0x31834827	3.8208046e-09
185	0x319fc6a9	4.650094e-09
186	0xbbce76ff	-0.0063008065
187	0xbc08fba1	-0.008360774
188	0xbbc29e94	-0.005939314
189	0x31828b5e	3.799342e-09
190	0x32ab3630	1.9931662e-08
191	0x32243cac	9.559852e-09
192	0xbc234a3c	-0.009966429
193	0xbc1bc16b	-0.009506564
194	0xbc075e17	-0.008262179
195	0x3092e790	1.0688712e-09
196	0xafd58d0d	-3.8844697e-10
197	0xb09f1d3d	-1.1577083e-09
198	0x3afc2f3e	0.0019240153
199	0x3b158449	0.0022814444
200	0xbacb0859	-0.0015490159
201	0xbaa5e23a	-0.0012655922
202	0xb9a1bf83	-0.00030851
203	0xba6350ac	-0.0008671384
204	0xaf3c7378	-1.7139523e-10
205	0x30d52f6d	1.5511269e-09
206	0x313d4082	2.7539788e-09
207	0x3073fd9c	8.8763286e-10
208	0x30fade30	1.8253044e-09
209	0x30800de1	9.31717e-10
210	0xafb8419c	-3.3516023e-10
211	0xb02ab0fc	-6.209715e-10
212	0xae3fcd6e	-4.361083e-11
213	0xbaf0dcdb	-0.0018376367
214	0xbb5335f0	-0.0032228194
215	0xbb2b131f	-0.0026103926
216	0x3139625b	2.6976952e-09
217	0x30dc58bb	1.6032325e-09
218	0x31cd4be1	5.9749117e-09
219	0x3c04e3a5	0.008110915
220	0x3bb54398	0.0055317394
221	0x3a133333	0.0005615234
222	0x303a8f50	6.7870065e-10
223	0x3161ab61	3.2839227e-09
224	0x31a34466	4.7517004e-09
225	0x310d2f3d	2.0545052e-09
226	0x31064d7e	1.9543616e-09
227	0xb1306b80	-2.5672477e-09
228	0x306c6393	8.5997803e-10
229	0xb1d0ae47	-6.0734098e-09
230	0xb1a48dc9	-4.7891473e-09
231	0xb0611316	-8.1881646e-10
232	0xb00e9b31	-5.187984e-10
233	0xb1813423	-3.7603214e-09
234	0x3b9908ca	0.004670237
235	0x3b345d68	0.0027521495
236	0x3a869831	0.0010268745
237	0x3c29ab05	0.010355716
238	0x3c20adf7	0.009807101
239	0x3be9e865	0.0071382993
240	0x3b0374b8	0.0020058583
241	0x3a8aca9e	0.0010588949
242	0xb993a336	-0.00028159627
243	0x32f41b0f	2.8417643e-08
244	0x3148b477	2.9206413e-09
245	0xb130704b	-2.5675202e-09
246	0xb0203639	-5.8284716e-10
247	0xb14395a0	-2.8461287e-09
248	0xb115560c	-2.1731266e-09
249	0xb0808e69	-9.353701e-10
250	0xb0f922d5	-1.8127034e-09
251	0x2e435c48	4.441983e-11
252	0xbc089e19	-0.008338475
253	0xbbaa24ae	-0.005192361
254	0xbc0e0d5f	-0.00867018
255	0xb85d0b0c	-5.2700794e-05

encoder.8.bias f4 [256]
0	0xbb65756e	-0.003501262
1	0xbc766f74	-0.015041221
2	0x3c0c2f4e	0.0085562
3	0x3b066d3a	0.0020511881
4	0xbc06e70e	-0.008233799
5	0x3d17bf5b	0.037047725
6	0x3d09ed67	0.03367367
7	0xbcc1fe98	-0.02368097
8	0xbb8ba5f8	-0.0042617284
9	0x3d2389e5	0.03992643
10	0x3bd0ccf0	0.0063720867
11	0x3cdeb732	0.027186964
12	0x3c626f5f	0.013820498
13	0x3cf71732	0.030162428
14	0xbad80981	-0.0016482325
15	0xba84bdd9	-0.001012738
16	0xbce2ef4c	-0.027701996
17	0xbc8307ad	-0.015994871
18	0xbd2740bc	-0.04083322
19	0x3ca8b73d	0.020595187
20	0x3d160a15	0.03663071
21	0x3c771b5f	0.015082209
22	0xbce673e6	-0.028131437
23	0x3cf57f4e	0.02996793
24	0x3cc7da07	0.024395956
25	0xbb86ffda	-0.0041198554
26	0x3b9d3bec	0.004798403
27	0xbc23d6a5	-0.009999906
28	0xb788e051	-1.6316919e-05
29	0xbc3398ce	-0.010961724
30	0xbc877cfe	-0.016539093
31	0x3cb71f18	0.022353694
32	0x3d3f1ce0	0.046658397
33	0x3d0a2a72	0.033731885
34	0xbd408c1c	-0.04700862
35	0x3d344a19	0.044015978
36	0x3cb64e1d	0.022254044
37	0xbca702b4	-0.020387031
38	0xbd43a97e	-0.047769062
39	0xbd3a0c85	-0.045422096
40	0xbd38d61b	-0.045126062
41	0x3d3a8edf	0.04554641
42	0xbc11aa35	-0.008890678
43	0x3d01f388	0.03172639
44	0xbb1965cb	-0.002340662
45	0xbcfc1607	-0.030772222
46	0x3b7bd641	0.0038427266
47	0xbbc4d075	-0.0060062953
48	0x3c216d3b	0.009852703
49	0xbcfcc279	-0.03085445
50	0x3aad5307	0.0013223597
51	0xbb2131f2	-0.002459642
52	0x3cce7960	0.02520436
53	0xbcfd177e	-0.030894991
54	0xbc676d78	-0.0141252205
55	0xbbe89cc3	-0.0070987656
56	0xbc145775	-0.0090540545
57	0xbca91ed7	-0.020644588
58	0x3d293208	0.04130748
59	0xbb5cf925	-0.0033717838
60	0x3c2a26e3	0.010385248
61	0x3ceb59ca	0.028729338
62	0xbc1c78c8	-0.009550281
63	0xbbac4cec	-0.0052581932
64	0xbb3cdf87	-0.0028819756
65	0x3bcbda95	0.0062211254
66	0x3c86713f	0.016411422
67	0xbcae007c	-0.021240465
68	0x3d1c3f08	0.03814605
69	0xbcb19e17	-0.021681828
70	0x3cfc0369	0.030763345
71	0x3d3ea2e4	0.046542063
72	0xbc4ff8c3	-0.012693587
73	0x3aecba39	0.001806087
74	0x3ce472b9	0.027886735
75	0xb9df14d8	-0.00042549404
76	0x3ce37f39	0.027770625
77	0xbceb8522	-0.028750006
78	0xbcb2501e	-0.021766718
79	0x3c9c07bb	0.019046655
80	0xbd3ca779	-0.046058152
81	0xbc94be1c	-0.018157057
82	0x3d0022f7	0.031283345
83	0x3c5c21ad	0.013435763
84	0xbd2b1a70	-0.04177326
85	0xbd51a6b5	-0.051184375
86	0xbc190e90	-0.009341851
87	0xbc1808f1	-0.009279476
88	0xbb93648b	-0.0044980696
89	0xbcd2279c	-0.025653653
90	0xbc1500a6	-0.009094393
91	0x3c44edb0	0.01201956
92	0x3d025ed7	0.031828728
93	0xbba9bf9c	-0.0051803123
94	0xbc731d25	-0.014838492
95	0xbc1a9de0	-0.009437054
96	0xbd45af3a	-0.048262812
97	0x3cb243e5	0.02176089
98	0x3d031014	0.031997755
99	0x3c912fff	0.017723082
100	0xbd00040c	-0.03125386
101	0x3c753d02	0.014968159
102	0xbcc702fe	-0.024293419
103	0x3cd807c2	0.026370887
104	0xbb29cea6	-0.0025910526
105	0x3d0ebae2	0.034846194
106	0x3ce28795	0.027652541
107	0xbb7396ee	-0.0037168819
108	0xbc095d1f	-0.008384018
109	0xb88610be	-6.3927364e-05
110	0x3c21f973	0.0098861335
111	0xbb1ab33c	-0.0023605367
112	0xbc6afecb	-0.014342974
113	0x3a66be73	0.0008802183
114	0x3cd98531	0.026552768
115	0xbc763ab6	-0.015028646
116	0xbd2f6065	-0.04281654
117	0x3cd34766	0.025790881
118	0xbb8acaad	-0.0042355866
119	0xbd2d5a45	-0.042322416
120	0x3cf18a1b	0.0294848
121	0xbca35bc7	-0.019941224
122	0x3d19954a	0.03749589
123	0x3ce19693	0.02753762
124	0x3d0d7b0e	0.034541182
125	0x3cc0db77	0.023542149
126	0x3c52a708	0.012857206
127	0xbc3073b1	-0.0107697705
128	0x3c7ed31e	0.015553264
129	0x3bf03366	0.007330346
130	0xbd13d82a	-0.036094822
131	0xbd4d576a	-0.050132193
132	0x3a5e63b2	0.00084834837
133	0xbc770dd9	-0.015078985
134	0x3d05581f	0.032554742
135	0x3cf2db0d	0.029645467
136	0xbd422d5e	-0.047406547
137	0xbb21b799	-0.0024676083
138	0x3ce82aa4	0.028340645
139	0x3b707c36	0.003669513
140	0xbbefbe9f	-0.007316425
141	0xbc9e84e9	-0.019350486
142	0x3c119d17	0.008887551
143	0x3c8f7a68	0.017514423
144	0x3d317281	0.04332209
145	0x3c6c0200	0.014404774
146	0x3d1f946c	0.038959906
147	0x3c836ef3	0.016044116
148	0xbd5c3ce5	-0.05376901
149	0x3ae4801d	0.00174332
150	0x3c174692	0.009233134
151	0xbbebaa2d	-0.0071919174
152	0x3c063a97	0.00819268
153	0x3c922780	0.0178411
154	0x3cd7193f	0.026257155
155	0xbd223df9	-0.039609883
156	0x3d02f9a3	0.031976353
157	0x3a9628dc	0.0011456269
158	0x3c377d30	0.011199281
159	0x3c4222a3	0.011849078
160	0xb9f43d47	-0.00046584962
161	0xbc555e1c	-0.013022926
162	0xbb2eccab	-0.0026672285
163	0xbcd9f0ad	-0.026604021
164	0xbd5628a5	-0.052284855
165	0x3d25f4dc	0.04051672
166	0xbcb85ef6	-0.022506218
167	0x3cd3072c	0.025760256
168	0xbc775ed8	-0.015098296
169	0x3c169942	0.009191813
170	0x3c97ed70	0.018545836
171	0x3b4ea46c	0.0031531109
172	0xbb8622d2	-0.0040935064
173	0xba22c581	-0.000620924
174	0x3cda2816	0.026630443
175	0x3c802e3e	0.01564705
176	0xbc417856	-0.0118084755
177	0x3c278956	0.0102256145
178	0xbcd8fe5a	-0.026488472
179	0xbc006402	-0.007836344
180	0xbc2876dc	-0.0102822445
181	0x3b861b60	0.004092619
182	0xbd3366d5	-0.04379924
183	0x3c043260	0.008068651
184	0x3b334ed0	0.0027360208
185	0xbba4f237	-0.005033757
186	0x3b402d32	0.0029323814
187	0x3cc0e556	0.023546856
188	0x3d3ba68c	0.04581313
189	0x3cc45480	0.023966074
190	0xbc8c7f62	-0.017150585
191	0xbc76dc5a	-0.015067184
192	0xbb80176e	-0.003909043
193	0x3d3480bb	0.04406808
194	0xbc1d90a5	-0.0096170055
195	0xbce4fa88	-0.027951494
196	0x3b053e1f	0.0020331217
197	0xbd564f3b	-0.052321654
198	0x3d0e56ad	0.03475063
199	0x3cc46bc1	0.023977162
200	0xbcc6860c	-0.02423384
201	0xbcae5050	-0.02127853
202	0xbc1ae25f	-0.009453385
203	0xbc2e02ec	-0.010620814
204	0xbd06819b	-0.032838445
205	0xbccc6449	-0.024950163
206	0xbc074257	-0.008255563
207	0x3b801220	0.0039084107
208	0xbc3e609d	-0.011619714
209	0xb6273532	-2.4915903e-06
210	0x3d353ca1	0.044247273
211	0x3a44992e	0.0007499632
212	0x3d5281c0	0.05139327
213	0xbbf3755b	-0.0074297613
214	0x3c4e5974	0.0125945695
215	0x3d1d4baf	0.038402256
216	0xbc9b51de	-0.018959936
217	0x3c090ab6	0.00836437
218	0xbce18c7d	-0.02753281
219	0x3b999081	0.0046864157
220	0x3ca1f038	0.019767866
221	0xbc39bbcc	-0.011336278
222	0x3d03869e	0.032110803
223	0xbbba1414	-0.005678663
224	0x3b66c81b	0.0035214487
225	0x3cd509e6	0.026005697
226	0xbbd9fe46	-0.006652626
227	0xbc1984f5	-0.009370078
228	0x3d121794	0.035667017
229	0x3be8fa95	0.00710995
230	0xbbbf8122	-0.0058442513
231	0xbcc0e7e4	-0.023548074
232	0x3b551160	0.0032511577
233	0xbceca483	-0.028887039
234	0xbd15c00b	-0.0365601
235	0xbc9693ef	-0.018381087
236	0xbca761d1	-0.020432385
237	0xbc5d64fe	-0.013512848
238	0x3ace8792	0.0015756956
239	0x3cbbf5ef	0.022944419
240	0x3bffc74a	0.0078057395
241	0x3c040c47	0.008059568
242	0xbc3aafa4	-0.011394415
243	0xbba0f230	-0.0049116835
244	0x3c7a96c8	0.015294738
245	0x3d2685d9	0.04065499
246	0xbd5a8221	-0.053346757
247	0x3ce0277a	0.027362574
248	0x3cfe1ecd	0.031020546
249	0x3c2a5402	0.010396006
250	0x3c9f7241	0.01946366
251	0xbd4972bc	-0.049181685
252	0x3bee6bac	0.007276019
253	0xbd54d0c3	-0.051956903
254	0xbc1accf9	-0.009448283
255	0xbc62f7a9	-0.013852992
