pure_LSTM_prediction/checkpoints/PureLSTM_WTH_ts24_hs64_ln4_in11_out1_lr0.0005_bs64_ep1000_pa20_rand21/checkpoint.pth (torch, 481577 bytes, 17 tensors)

lstm.weight_ih_l0 f4 [256, 11]
000000 60 5f ff bd 57 a8 3b bd ce 2f ea 3d 9a 8c 49 3e
       -0.12469363 -0.04581484 0.11434899 0.19682541
000010 1b a1 c8 bc 8e 3f 98 3c 3e 70 08 3e 59 7d d2 bc
       -0.024490884 0.018584993 0.13324067 -0.025694536
000020 d0 9a 9a 3e 40 2b 01 bc fc 53 84 bd 06 e4 c4 3d
       0.30196238 -0.007883847 -0.06461331 0.096138045
000030 03 13 08 3d aa f4 3f bc 78 08 d4 3d 9c 8c e3 3d
       0.033221256 -0.011716047 0.10353178 0.111108035
000040 1f 20 09 3e 55 8b 82 3e 55 cb 11 3d 4e 23 67 bd
       0.1339116 0.25496927 0.035594303 -0.056430154
000050 0e d6 3d 3d 90 a2 9a 3d ff 00 13 be 4c dc 8d 3d
       0.046346717 0.075505376 -0.14355849 0.06926784
000060 5c 19 1e bd bc 93 27 3c eb fb 4b be 94 90 69 bd
       -0.038598403 0.010228094 -0.19920318 -0.057022646
000070 fd ac ad bd f3 15 ea bc 44 f4 2e bd 78 ac 40 bd
       -0.084802605 -0.02857492 -0.04271342 -0.04703948
000080 17 7c 7e bc f6 ce 60 bd 38 e4 00 3e 33 e2 5b 3d
       -0.015532515 -0.054884873 0.12587059 0.053682517
000090 1e aa 08 3e c0 95 7c 3d 4e 99 3c 3e a5 e5 6f 3d
       0.13346145 0.06166625 0.18417856 0.058568615
0000a0 05 fc 43 3d e1 87 c7 bc f5 26 d6 3c 37 21 f4 bd
       0.047847766 -0.024356784 0.026141623 -0.11920398
0000b0 0b 69 c5 bd 0e eb 73 bd bf 87 b9 bd 50 7b 8f bd
       -0.09639176 -0.059550337 -0.09059095 -0.07005942
0000c0 66 71 1e be f5 98 44 bd a0 87 a0 3d 70 c5 8d bc
       -0.15472946 -0.047997434 0.078383684 -0.01730606
0000d0 58 0c b6 bd 29 ce 87 be 0f 9a 75 be 97 aa e7 3d
       -0.08889073 -0.26524475 -0.2398455 0.11311834
0000e0 43 ef 90 3e 28 2d 11 3e ee 53 44 3e aa ec 24 3e
       0.28307542 0.14177382 0.19172642 0.16105905
0000f0 f6 da 74 3d 6a a2 47 3d ae f2 33 be df e7 ff bd
       0.05977913 0.048738874 -0.17573044 -0.12495398
000100 2e a0 bf 3c ce f5 23 3d 29 b4 0c 3e 21 49 72 bc
       0.02339181 0.04002934 0.137406 -0.014787943
000110 91 1c 27 3e 9e 7e 26 3e 72 e2 8d 3b 60 d7 3b 3e
       0.16319491 0.16259238 0.004329973 0.18343878
000120 6e 6b e7 3d db d4 e8 bb 61 75 3b bc 2c 59 81 3c
       0.112997875 -0.0071054525 -0.0114415595 0.01578959
000130 52 f1 c2 3d 9c ec b5 3d 09 30 e9 bd ce 0b 17 be
       0.095186844 0.0888302 -0.11386115 -0.14750597
000140 f7 a2 61 3e af 75 cb 3d 6f 6a 7d 3d d3 79 b8 3e
       0.22034822 0.09934556 0.06186908 0.36030445
000150 2d 08 b9 bd cc 2c 16 3e 78 e4 13 3e a3 55 62 3d
       -0.090347625 0.14665526 0.14442623 0.05525745
000160 71 03 d1 3c 93 7e 02 be bb 6c 0b bd 3c a9 ce bc
       0.025514336 -0.12743597 -0.03403924 -0.025227182
000170 e3 6f 14 3e 50 58 c6 bc 0b 67 bc 3d 2f ab ae bd
       0.14495806 -0.024212033 0.091993414 -0.085287444
000180 6a 76 91 3d a6 56 a2 bc 1d ba 1e bd a9 b3 c5 bd
       0.07102664 -0.019816708 -0.03875171 -0.09653408
000190 67 dc 70 3d 61 ef 4f 3e 80 f4 16 3e be e1 f3 3d
       0.058803942 0.2030616 0.14741707 0.11908291
0001a0 7b 8b 14 3e 54 b9 94 be e6 b4 46 3e 54 60 fc 3c
       0.14506333 -0.29047644 0.19404945 0.030807652
0001b0 32 b5 c0 bd 78 ca 9e 3d 3d 5d 07 be aa 2e b9 bc
       -0.0940956 0.077534616 -0.13219161 -0.022605259
0001c0 ad a7 c2 bd 84 64 b8 be 9a 1b ce bd 0a 73 0b bd
       -0.09504638 -0.36014187 -0.10063858 -0.034045257
0001d0 0d df 7a 3e ef af 0a bd c0 4f 60 3d fe b9 af bc
       0.2449915 -0.03385919 0.054763556 -0.021450993
0001e0 23 41 bf 3d 6b 3e da 3c 86 54 c8 3d 71 0d 3f 3d
       0.09338596 0.026641091 0.097817466 0.046643678
0001f0 21 6c a9 3c e6 4f 03 3e a5 5c 73 3d 9b 44 6b be
       0.020681443 0.12823448 0.059414525 -0.2297539
000200 c9 1e 9f 3e c2 96 13 3f 1f 15 cf 3d 45 6c cb 3c
       0.31078175 0.57651913 0.101114504 0.0248319
000210 2f ad f8 3d d6 53 64 bd 50 d7 16 3e 0f 6b c9 bb
       0.12142407 -0.055744015 0.14730573 -0.0061467956
000220 c9 e1 c8 bd 5c 50 f7 3d e3 a8 36 be 10 80 c1 bb
       -0.0980869 0.12075874 -0.17837863 -0.005905159
000230 81 b0 70 3a bf 0a 82 bd a5 42 fb 3c d5 0a 2f 3e
       0.00091815746 -0.06349706 0.030671427 0.17093976
000240 87 36 fc bc 0b e8 41 bd 6d 18 b8 3d fe 4c 1e 3e
       -0.03078772 -0.047340434 0.08989034 0.15459058
000250 37 48 dd 3c 18 5c 2f 3e 6b 07 7d bd cd 87 4a be
       0.027011974 0.17124975 -0.061774652 -0.19778366
000260 c7 b0 fb 3d bf 30 6e bd b0 b3 5c 3d 71 eb 63 3b
       0.12289577 -0.058151957 0.0538823 0.0034777785
000270 21 9a eb b6 dd 8c 85 bc f1 e9 d5 3c 2a 00 22 3d
       -7.0214887e-06 -0.01630252 0.026112529 0.039550938
000280 51 a3 29 3e b6 a8 6e bd 39 c8 fd 3c 44 bf d1 bc
       0.16566207 -0.058266364 0.030979263 -0.025603898
000290 cf ac c5 3c 6b c6 a5 3b 8d cc ec 3d 9c 11 01 3e
       0.024130253 0.0050590537 0.115624525 0.12604374
0002a0 7b db ec 3d 43 8f ae 3d 76 89 f8 3d f2 c0 69 be
       0.115653 0.08523419 0.121355936 -0.22827509
0002b0 49 4f 28 3d e6 19 45 3d 2a 09 61 3d b8 59 c8 bd
       0.041091237 0.0481204 0.05494038 -0.097827375
0002c0 19 58 16 3e 1f 88 af 3d 76 67 14 3e 8c 90 bb 3d
       0.14682044 0.08570885 0.14492592 0.091584295
0002d0 bb 31 84 3e 04 06 d5 3e e5 e6 40 3e d4 82 1a 3d
       0.2581919 0.41606152 0.1883808 0.037722424
0002e0 ce 5f 1d be 16 73 83 bb cf 02 c0 3c a9 42 83 be
       -0.15368578 -0.004011522 0.02343884 -0.25636795
0002f0 ef 94 89 bd 99 f0 65 bd 89 09 82 be fe ab 49 3e
       -0.0671786 -0.056137655 -0.253979 0.19694516
000300 f1 3d b1 bc 1d d5 d1 bd 4f 9b 98 bd 37 88 85 be
       -0.021635981 -0.10245726 -0.07451498 -0.26080486
000310 0a 1f e1 bd f0 9e 8c 3a d2 ab 2e bd 69 22 44 3c
       -0.10992248 0.0010728519 -0.04264433 0.011971095
000320 b0 2f 84 3d 7b 46 69 3d eb 6b 2c be fb 03 36 bd
       0.06454408 0.05695198 -0.16838042 -0.04443739
000330 39 ab 83 3e c0 3a ec bd 1c 18 03 bd 32 62 a7 3e
       0.2571657 -0.11534643 -0.032005414 0.32692105
000340 45 50 a5 3d 5a 0e 58 3b 41 7b 17 be dd d7 38 be
       0.08071951 0.0032967539 -0.14793111 -0.18051095
000350 a0 1a 67 be 7f 8f 77 be ce 27 81 be 4a e5 d7 3c
       -0.2256875 -0.24175833 -0.2522568 0.02635445
000360 79 4e c0 bc 13 02 53 bc 8f bf c8 bd 7a d8 da bc
       -0.023474919 -0.0128789125 -0.09802162 -0.026714552
000370 af e8 af 3d de 00 e3 3a 79 22 6f bd d6 18 41 3e
       0.08589303 0.0017318984 -0.058382485 0.1885713
000380 7c 06 5f bd 54 e2 af bd 0d 7c 9e 3d 92 a1 21 be
       -0.054449543 -0.085880905 0.077385046 -0.1578429
000390 93 91 e8 bd ef 8c 89 bd 6c a2 1d bc b9 0d 21 3d
       -0.11355891 -0.06716334 -0.009621244 0.039319728
0003a0 ce 66 1b be 48 a9 0f be d1 c8 a7 3c 7b 8b d3 bd
       -0.15175936 -0.1402942 0.020481499 -0.10329338
0003b0 c9 8a f2 3c 77 e3 0d be 92 c9 84 bb 2c 00 4d 3e
       0.029607194 -0.13856302 -0.0040523494 0.20019597
0003c0 6b c0 25 bd 8d cb 2c be 6b f0 8a 3c fc 6c b5 bd
       -0.040466707 -0.16874523 0.016960343 -0.08858678
0003d0 a7 bc 15 bc 5f 8d b3 3d 91 75 03 be 57 55 1f 3d
       -0.0091392165 0.08767199 -0.12837817 0.038899746
0003e0 88 aa 86 3d 64 93 be bc 2a 71 46 3c 54 00 dd bd
       0.06575495 -0.02326364 0.012111941 -0.10791078
0003f0 73 4c 60 3d e3 33 23 bd 70 51 98 3d dc 15 7f bc
       0.054760408 -0.039844405 0.07437408 -0.0155691765

lstm.weight_hh_l0 f4 [256, 64]
000000 91 00 bd bd 5b 90 07 3e 60 ff 08 be 05 3b ad bc
       -0.09228624 0.13238661 -0.13378668 -0.021146307
000010 fd f9 06 3e 3d 45 74 be 50 ac 0e be 40 a4 97 bc
       0.131813 -0.23854537 -0.1393292 -0.018510938
000020 b8 85 3e bd 18 cd 16 3e 48 90 e9 3c 01 82 95 3b
       -0.046514243 0.14726675 0.028511181 0.004562617
000030 a4 05 88 bd 2a cf 7a 3d 9a 06 3c 3e 50 62 3e 3e
       -0.06641701 0.061232723 0.18361893 0.1859219
000040 45 f6 c3 bb e3 89 e5 bd b6 7f 70 3d 4f 1a 39 be
       -0.0059802854 -0.112079404 0.058715545 -0.18076442
000050 be f4 f2 bd 3c a9 1c 3e 96 29 ef bc ef 18 ec bd
       -0.11863087 0.15298933 -0.029194634 -0.11528193
000060 50 a0 70 bd a3 6d a9 bc 40 99 de bd f4 fc 35 3e
       -0.058746636 -0.020682162 -0.10869074 0.17772275
000070 88 19 eb 3d 81 b5 8a bd 12 a3 22 3e 78 d0 e1 3d
       0.11479479 -0.067729004 0.15882519 0.110260904
000080 46 84 cc bc 59 d3 69 3d 43 e6 37 bd f1 59 5f 3e
       -0.024965417 0.057086322 -0.04489733 0.21811654
000090 9b 28 bd bc 6a b3 7b bb a4 ae 33 bb df 24 87 3d
       -0.023090651 -0.00384065 -0.0027417326 0.065988295
0000a0 ed 21 95 3c 20 f6 4e 3e 32 9d 87 3d 78 95 9d bd
       0.018204654 0.20211077 0.066217795 -0.076945245
0000b0 be 87 c5 bd 7d 3f a4 3d 45 a0 18 3d 64 25 00 be
       -0.096450314 0.08019922 0.03726222 -0.12514263
0000c0 f9 f3 25 bd a0 82 4f 3e 78 33 7b 3e 87 4f 97 3d
       -0.040515874 0.20264673 0.24531353 0.073882155
0000d0 98 2a 66 3d 03 c3 ac 3c 1a 05 22 3e 3a e6 fb bd
       0.056192964 0.021089083 0.15822259 -0.122997716
0000e0 86 b8 6f bd 2e f4 a9 3d fb 96 93 3d dd 86 7a bb
       -0.058525585 0.08298527 0.072065316 -0.0038227357
0000f0 3b b7 df ba 72 d3 39 be bc c6 56 be 29 a7 06 bc
       -0.0017068157 -0.18147066 -0.20974249 -0.008218565
000100 47 8f b2 bc f0 c8 24 be 24 05 07 3d 35 d0 b3 bc
       -0.021796836 -0.16092277 0.032963887 -0.021949867
000110 51 4f 07 3e 28 74 c0 3d 27 a3 d1 3c 44 7d 79 3d
       0.1321385 0.09397155 0.025590492 0.06091048
000120 6a ab 37 3d 70 a5 76 bd bd 8a 45 3e 23 43 f2 bd
       0.044841208 -0.060216367 0.19291206 -0.118292116
000130 68 ea de bd 58 5f 94 3c 36 e2 95 3d 42 c5 17 3d
       -0.10884553 0.01811187 0.07318537 0.037053354
000140 46 4d 2a bd d3 f1 b6 bd f9 d0 c3 bd 03 96 07 be
       -0.0415776 -0.08932843 -0.09561343 -0.13240819
000150 e7 46 7f bd e4 6d 9e 3d 5d 52 07 bd 46 bc 83 3d
       -0.062323477 0.07735804 -0.033037532 0.06432395
000160 63 ef bb bd 77 cd 56 bd 03 e6 02 be a5 ce 19 bd
       -0.09176519 -0.05244204 -0.12783055 -0.037550587
000170 b3 e6 5e 3e 25 89 3c 3e 5b e8 8e 3e fa d5 ea 3b
       0.21767692 0.18411691 0.27911648 0.0071666213
000180 93 19 bd bd 34 33 10 3e 5b 4c c8 3d b9 e9 00 3e
       -0.092333935 0.14082032 0.09780189 0.12589158
000190 34 af fb bd cf 1a 1a ba 95 18 b0 3d 89 e2 eb 3d
       -0.12289277 -0.00058786286 0.08598439 0.115178175
0001a0 c9 1f c2 bd 03 16 8e 3d 31 7f 81 bd 72 88 65 bd
       -0.09478719 0.06937792 -0.06323088 -0.056038328
0001b0 4e f2 73 3d 78 a4 c9 bd 43 b3 a5 3d ac fa 32 bd
       0.05955725 -0.09845823 0.08090832 -0.04369609
0001c0 b9 36 ae 3d e3 2b 25 3e f7 7f 25 3d 26 74 87 bd
       0.08506531 0.16130023 0.04040524 -0.066139504
0001d0 dc 31 a9 bc 54 de fc bd 0f f8 b7 39 74 ad 55 3d
       -0.020653658 -0.12347093 0.00035089298 0.05216737
0001e0 62 d4 a0 3d 9a 8c c5 3d 01 c3 2b 3d e6 71 19 bd
       0.07853009 0.09645958 0.041934017 -0.037462138
0001f0 b9 9e 8f bd 7e 58 7e be 67 92 8d be 15 46 95 bd
       -0.07012696 -0.24838445 -0.2765076 -0.07288758
000200 a9 31 94 3d e3 b7 11 bd 2d f8 21 be 4b 8e f8 3d
       0.072360344 -0.03557576 -0.15817328 0.12136515
000210 c1 6f fe bd 69 36 97 3d 54 f8 4f bd 75 43 1d bd
       -0.12423659 0.07383425 -0.050773934 -0.03839441
000220 19 94 ca 3d 5e fa 63 bd 63 02 02 be ee 18 03 be
       0.09891529 -0.05565869 -0.12696223 -0.12802479
000230 07 55 ff bd e3 d7 1f bd ea 75 da bd d8 81 09 bd
       -0.124673896 -0.039024245 -0.106670216 -0.033571094
000240 5f bd ad 3d 1d 4c 0e 3d 11 f5 fd 3c b2 bd f7 bc
       0.08483385 0.034740556 0.031000646 -0.030241821
000250 2b 52 15 be 8b 67 47 3c c3 a8 1f 3e 49 2a 1d be
       -0.14582126 0.012170683 0.15591721 -0.15348162
000260 71 0f da bd 60 3b 33 3e 5b 90 e0 3d 49 90 b4 bc
       -0.106474765 0.17503119 0.109650336 -0.022041457
000270 73 c9 76 bd db 46 b9 bb e7 48 0e be 4c 1f 82 3d
       -0.06025071 -0.0056541986 -0.13894998 0.06353626
000280 43 cc cc bd 03 d6 13 3d e1 dd cb 3d 4d 4f af 3d
       -0.09999897 0.03609277 0.099544294 0.08560047
000290 bc a2 d8 3d 3a 1e aa 3d b6 32 87 bd b6 ce b0 3c
       0.10577914 0.083065465 -0.06601469 0.021582942
0002a0 1d fc fc 3d c1 cc 27 3d f3 be 00 3c 9f 87 5c 3d
       0.12352774 0.040966753 0.007858026 0.053840276
0002b0 cc 4f d3 3c f8 95 55 bd 01 15 28 3d b8 16 46 bd
       0.025794886 -0.052144974 0.041035656 -0.04836151
0002c0 99 09 84 3d 19 63 18 be 98 03 a7 bd 26 c9 9b bd
       0.06447143 -0.14881553 -0.08154982 -0.076067254
0002d0 67 1f 04 3e 83 ed 82 3e 35 12 16 be c0 57 dd bc
       0.12902604 0.25571832 -0.14655383 -0.027019382
0002e0 c5 ca f2 3d 7d 9d 0e be 6b 4d fe 3c 40 00 71 bd
       0.118550815 -0.13927265 0.031042775 -0.05883813
0002f0 c5 69 20 3e 7c 4b 18 3d f0 2f 25 3e 24 25 41 be
       0.15665348 0.037181363 0.16131568 -0.18861824
000300 54 31 1a bd 98 d2 f2 3c 13 f8 42 bd ee c6 e7 3c
       -0.0376447 0.029641435 -0.047599863 0.0282931
000310 ac 73 20 3e ca 8c a3 3d 2d 4f 3a bd cf bd 81 bd
       0.15669125 0.07985838 -0.045485664 -0.06335031
000320 33 2a fc 3d 4a 1c 67 bd bf ca 29 3d 8a 31 11 bd
       0.12312736 -0.056423463 0.04145312 -0.035447635
000330 c9 0a 61 3d 71 9f 5f bd 3a cd 98 3d fc 12 a0 3d
       0.054941926 -0.054595415 0.07461019 0.07816121
000340 ed 38 b1 3d ab 72 42 be ce f5 12 3d 43 6d b5 be
       0.08653436 -0.18989055 0.03587895 -0.35434923
000350 4b f8 be 3d 32 3c 80 3d 87 63 1d bd df f7 49 bc
       0.09324702 0.06261481 -0.038424995 -0.0123271635
000360 19 2d 2d bd 5f 4a 55 3d 9a 25 37 3c b4 bf f5 ba
       -0.042279337 0.05207288 0.0111783985 -0.0018749149
000370 80 da f0 bd 78 78 a8 3d bd c5 4b 3d 7e b1 23 bd
       -0.117604256 0.082261026 0.049749125 -0.03996419
000380 f0 57 b1 bd 33 2d 61 bd 01 cc 9a bd 85 15 27 3d
       -0.08659351 -0.054974746 -0.07558442 0.040792007
000390 ea 38 88 3d 84 d7 0a 3d 52 c7 e2 3d 50 36 d4 3d
       0.066514805 0.033896938 0.110731736 0.10361922
0003a0 03 19 de 3c 3e a8 1e 3c bf 8a f1 3d 36 54 18 be
       0.027111536 0.009683667 0.11794042 -0.14875874
0003b0 17 ad 2b be 9d 44 7d bd a8 09 57 be f8 ec df bd
       -0.16765247 -0.061833013 -0.20999777 -0.1093387
0003c0 78 dc 5a bd da c9 b2 bc 75 00 ad 3d ac 9d 44 bd
       -0.05343291 -0.021824766 0.08447353 -0.04800193
0003d0 a6 c2 55 3d 62 54 ad bd 46 4f 90 3d 31 ec 5f 3d
       0.052187584 -0.0846336 0.0704637 0.05466861
0003e0 85 c6 af bd c5 d0 ee 3b c9 4c 0f 3d 70 fe a9 bc
       -0.085827865 0.007288071 0.034985337 -0.020751208
0003f0 c4 1b e2 3d 4f bd 5b 3d e1 13 21 be 53 b6 f4 bd
       0.11040452 0.053647336 -0.1573024 -0.11948838

lstm.bias_ih_l0 f4 [256]
000000 70 3c e2 3c 75 96 a0 3d d5 98 dd ba 79 3d dd bd
       0.02761671 0.078411974 -0.0016906509 -0.108027406
000010 ea 7c b9 3d ac 72 df 3c 68 db 11 3e 54 b9 0c 3e
       0.090570286 0.02727636 0.14243853 0.13742572
000020 df 55 dd 3d f9 83 9f bd 41 1c 9d 3d eb b3 18 be
       0.10807394 -0.07788844 0.07671405 -0.14912383
000030 8b 62 16 3d 89 33 b3 bd f3 72 e9 bd 6f 8e 27 be
       0.03671507 -0.08750064 -0.11398878 -0.16362928
000040 c3 1f fb 3d 43 e7 73 3c 4f fb 99 bc 64 49 6c bc
       0.122619174 0.01488668 -0.018796591 -0.014421795
000050 d1 20 13 3d c7 cb 6d 3d 8b b7 4b bd ab 87 9a bd
       0.035919968 0.058055665 -0.049735587 -0.07545408
000060 04 79 bf bd f2 00 f5 bd 0b d6 02 be 25 25 18 be
       -0.09349254 -0.11963071 -0.12776963 -0.1485792
000070 6a 92 70 3e d9 6e 5c 3e bc 0c 05 bd dc 7f 48 bd
       0.23493353 0.2152666 -0.032482848 -0.04895006
000080 d9 39 bd bd 8e 7a d2 3d ab e4 ff 3d e8 9b 0c bc
       -0.09239549 0.10277282 0.12494787 -0.008582093
000090 39 06 cc 3d c3 b5 b2 3d 26 ef 07 bd 80 29 3b bc
       0.099621244 0.087260745 -0.033187054 -0.011423469
0000a0 69 b9 99 3d e4 84 68 be 6c 54 83 bd e1 e7 8b bd
       0.07506067 -0.22706944 -0.064125866 -0.06831337
0000b0 21 1b 57 bd cd 75 45 3d 16 b7 76 bd 35 85 6c bd
       -0.052516107 0.048208047 -0.060233198 -0.057744224
0000c0 f7 d4 cf bd fe 16 c0 bd 27 75 cc bd b5 2d b5 bb
       -0.10148042 -0.093793854 -0.099832825 -0.0055291303
0000d0 f1 e5 f4 3c 3e 91 13 3c a6 3a ee bd b3 40 bd bd
       0.0298948 0.009006796 -0.1163228 -0.09240856
0000e0 b1 0a 8a 3d 7a 92 f3 3d 9f be 10 be 2a 95 0b 3d
       0.067403205 0.118931726 -0.14135216 0.0340778
0000f0 39 1c 32 3d 77 28 ed 3c a5 93 86 3d 79 47 aa bd
       0.043483946 0.02894996 0.0657113 -0.083144136
000100 82 be e6 3d 54 c3 af bc 7c 7a c0 bd 7a f8 91 bc
       0.11266805 -0.021455444 -0.09398362 -0.017818678
000110 55 8f 23 3b 45 cf bb bc af 41 c5 3d 06 11 60 bd
       0.0024957259 -0.022925982 0.09631669 -0.054703735
000120 2c df 9a 3d 17 19 b1 bd 89 52 fb bd d6 23 06 3e
       0.07562098 -0.08647364 -0.12271602 0.13099608
000130 3a ab f3 bd db 51 cc bd 2a 91 5e bd 90 51 ca bd
       -0.11897893 -0.0997655 -0.054337658 -0.09878838
000140 d8 97 a8 3d 4f ba eb bd 2b 66 94 3d 02 da 2e bd
       0.08232087 -0.11510145 0.072460495 -0.042688377
000150 d1 e9 ce 3d bb 3c 60 3b 6b 1d e6 bd a9 f5 9d 3d
       0.10103191 0.0034215886 -0.1123608 0.077128716
000160 17 7a 27 3a 53 3c d2 3d ab 06 2e bd db 75 c1 3b
       0.0006388737 0.10265412 -0.042486828 0.005903942
000170 2d f8 97 bb b7 26 70 3d 1f c1 c5 bd 97 db b5 3d
       -0.004637739 0.05863067 -0.096559756 0.08879774
000180 e5 60 df 3d 6b 1a 40 3e 38 d8 ea 3d 92 e6 23 be
       0.10907153 0.18760078 0.11467022 -0.16005924
000190 69 87 0e be 22 3a f7 bd e8 fb 25 3e 25 f4 f8 3d
       -0.13918842 -0.12071635 0.16209376 0.12155942
0001a0 48 f5 af bd d3 be 1d 3c d7 79 b7 3d 6d a9 7d 3d
       -0.085917056 0.009628016 0.08958786 0.061929155
0001b0 52 70 ef 3d a6 0e ee 3d 57 98 e4 bc 3c 0f f9 bd
       0.11691345 0.11623888 -0.027904673 -0.12161109
0001c0 a0 dd 6a 3d 10 da 06 3c 37 05 2d bc 9b 1f fd 3c
       0.057340264 0.008230701 -0.010560325 0.03089886
0001d0 db 63 ad 3c db f1 f6 bd 88 70 23 3c 4b c0 ac bd
       0.021165779 -0.12057849 0.00997556 -0.084351145
0001e0 06 a7 97 bb c6 cd 83 3c 8e ea df ba 61 57 17 bd
       -0.004628065 0.016089331 -0.0017083453 -0.036948565
0001f0 70 9d cc bd b1 ca 0b 3d 3d 2d a5 bc ce df eb 3b
       -0.09990966 0.03412885 -0.020163173 0.0071983105
000200 d2 f0 e1 3d 92 1e 2b 3d ef 6f 00 3d b4 bf f6 3c
       0.11032261 0.0417772 0.03135675 0.030120708
000210 c0 1c f6 3c e2 0f 44 bc e8 9e e6 3c a8 7e c1 bc
       0.030043006 -0.011966677 0.028151944 -0.023619965
000220 18 a3 88 bd 3c c6 ce 3d 1b d0 ac bd fb c3 95 3d
       -0.06671733 0.10096404 -0.084381305 0.07312771
000230 7d f5 8e bd 1e e4 c3 3d 82 32 14 3d 08 42 c8 bd
       -0.06980417 0.09564994 0.03618098 -0.097782195
000240 e4 93 48 bd 58 03 79 bd eb c2 77 3d ff 88 bf bd
       -0.048969164 -0.060794204 0.060488623 -0.09352302
000250 3d 63 bd 3d 6c 66 31 bd 55 46 81 3b 7a ae c2 bd
       0.09247444 -0.043310568 0.003945152 -0.09505935
000260 4c ce a3 bd ce be 17 3c 81 22 30 3d 58 3c b9 3c
       -0.079983324 0.0092618 0.043001655 0.022611782
000270 50 2d d3 3d cf 3f 08 3d 6c e6 5b 3c 47 ae c4 bd
       0.10311377 0.033263978 0.013421636 -0.09603553
000280 44 7a e7 bc 88 04 3a bd 5d 1f f7 bd 90 88 a8 3d
       -0.028256543 -0.045414478 -0.12066529 0.08229172
000290 bd eb 57 bd 04 92 32 3b 8b 1d 0c 3d 22 72 2f 3c
       -0.052715052 0.0027247677 0.034207862 0.010708364
0002a0 2d d9 1a 3d 60 21 54 3d 46 58 98 3d 09 85 b4 bd
       0.03780477 0.05178964 0.07438712 -0.08814437
0002b0 60 77 c1 bc 85 1d c8 3d 6a 4e a0 bd 95 ed 2a 3d
       -0.023616493 0.097712554 -0.07827456 0.041730482
0002c0 4e a6 a3 3c cb 3a d6 3d ee 32 a8 bd 30 89 66 3d
       0.019976761 0.104604326 -0.08212839 0.056283176
0002d0 e0 af 9e bd 73 08 3b 3d ca db 87 3d e8 09 93 bb
       -0.07748389 0.045662355 0.06633718 -0.004487265
0002e0 ca 87 2a bc 66 2c ad bd ee d0 a0 bc c2 3a d3 3d
       -0.010408351 -0.08455734 -0.019630875 0.103139415
0002f0 ab 39 ad bd 52 62 a7 3c 10 1f 36 bd 69 62 45 bc
       -0.08458265 0.020432625 -0.044463217 -0.012047389
000300 97 41 0b 3c b8 75 a6 bd 02 00 2e 3d 12 1b 6a bd
       0.008499525 -0.08127922 0.042480476 -0.057154723
000310 be 3e ab bc 7a 45 8a bc 0f 11 d5 3d 5a 9e 8d 3d
       -0.020903941 -0.016878832 0.10403644 0.06914969
000320 67 4f 0f 3e c2 c2 7c 3c 21 24 b2 bc 69 58 84 3d
       0.13995133 0.015427293 -0.021745743 0.064621754
000330 11 59 d6 bd fc ea f1 bc a0 be ab 3a 8b 83 ca bb
       -0.10466207 -0.029530995 0.0013103075 -0.006180232
000340 e3 99 7d bd 79 72 39 3d ae a8 09 3e 69 12 86 3d
       -0.061914336 0.045275185 0.13443252 0.0654648
000350 99 b7 3b bb 3d 00 4b be 23 82 96 bb a8 56 d1 3c
       -0.0028643368 -0.1982431 -0.00459315 0.025554016
000360 b2 a3 de bc 11 38 6c 3d 41 b4 85 3d 27 9a 17 bd
       -0.027177665 0.057670657 0.06528521 -0.037012246
000370 72 e9 2e 3e 69 d4 4c 3e 3f c1 e4 3d ba 7a af bd
       0.1708124 0.20002903 0.11169671 -0.0856833
000380 4d 68 b9 bd 01 20 d9 3d cd f5 d4 3d 95 78 57 3d
       -0.09053097 0.106018074 0.10398445 0.05260523
000390 a7 83 46 3d e0 a7 ad 3d 88 c5 05 3e 02 b2 8a bc
       0.048465397 0.08479285 0.13063633 -0.016930584
0003a0 82 b0 2b 3d d3 b3 46 be 03 99 54 bd 64 c4 99 bd
       0.041916378 -0.19404535 -0.051903736 -0.07508162
0003b0 18 52 13 3e bc 76 c2 3c c7 81 88 3d 66 89 87 3d
       0.14386785 0.023738258 0.06665378 0.066180035
0003c0 dd 20 b3 bd 9d f1 89 bd 2b 58 d8 bd a8 e8 1c 3b
       -0.087465025 -0.06735537 -0.10563692 0.0023942385
0003d0 45 0c 9e bd c4 ca 62 bd ad 60 38 be 50 21 e0 3c
       -0.07717184 -0.055369154 -0.18005629 0.027359635
0003e0 09 7e 3c 3d 85 89 a3 3d f4 b5 24 be c4 b1 ac 3d
       0.046018634 0.07985214 -0.16085035 0.084323436
0003f0 e8 7b 10 3e c9 1b 92 bd c5 23 f5 bc 65 e7 86 3d
       0.14109766 -0.07134206 -0.029924283 0.06587104

lstm.bias_hh_l0 f4 [256]
000000 3a 04 90 bd 83 09 94 3d 99 fc 36 bd cd da e8 3d
       -0.07032056 0.07228377 -0.04467449 0.11369858
000010 46 a6 0e be 85 27 f9 3d 52 72 bf 3c 96 09 b1 bd
       -0.13930616 0.12165741 0.023369942 -0.086444065
000020 53 6f 00 3e ab cf 94 bd 37 d3 50 bd 20 58 04 be
       0.12542467 -0.07266172 -0.05098268 -0.12924242
000030 24 a7 37 bd e7 27 c2 bc 0b b4 94 3d c4 76 b0 3a
       -0.044837132 -0.023700668 0.07260903 0.0013463129
000040 be fd c0 bb 1f 63 e6 bd fe 62 57 3e 06 66 4a bd
       -0.0058896234 -0.112493746 0.21033856 -0.049413703
000050 43 6e 9d bc a8 a5 78 bd 0a bb c7 bd 22 f1 76 bd
       -0.019217616 -0.060704857 -0.09752472 -0.060288556
000060 a4 41 ee bc c6 c9 c0 bc 35 08 b9 bd fc c8 65 3d
       -0.029084034 -0.023533713 -0.090347685 0.056099877
000070 7a 41 4b 3d a7 da f2 3d 21 c1 41 bc 5f de 90 3d
       0.04962299 0.11858111 -0.011825831 0.07073664
000080 07 57 b7 bd 9d af 3d bd db 70 88 3d bc 50 ea bd
       -0.08952146 -0.046310056 0.066621505 -0.1144118
000090 ea bd 8f bd 21 12 55 bd e3 cc 14 3e 94 b0 5b 3d
       -0.07018645 -0.052019242 0.14531283 0.053635195
0000a0 9a 7b 36 3e 6d 21 a7 bd f6 87 05 ba 7d 61 1a bd
       0.17820588 -0.08160672 -0.0005093807 -0.03769063
0000b0 a7 c5 49 3d ba ea 31 3e 9c b7 34 3d 7b 52 0b 3c
       0.04926076 0.17374697 0.044120416 0.008503552
0000c0 13 8b 30 be 61 6a 9a 3c 2a 2b 83 bd 9e dc af 3d
       -0.17240553 0.018849554 -0.06404717 0.08587001
0000d0 29 9c 7c 3d cb 12 ae bd 8e 23 4b be 25 9b 95 3d
       0.061672363 -0.08499678 -0.19837782 0.07304982
0000e0 2c 74 88 3d b5 15 57 3e 7f 7c 4f 3d 3c cb fa bd
       0.06662783 0.21004374 0.050655838 -0.12245795
0000f0 ed 7a 4f 3d 13 8a 85 bc 8c 50 06 3e e1 cd af bd
       0.05065434 -0.01630119 0.13116664 -0.0858419
000100 42 f2 9c 3b 41 e5 48 3d 8f df 4f bd 19 ac 0e be
       0.0047896216 0.04904676 -0.05075031 -0.13932838
000110 18 59 2c 3d 7b 3c ce bd c7 30 0e be 2c c7 11 be
       0.042077154 -0.100701295 -0.13885795 -0.14236134
000120 17 24 74 bd 67 1b 97 bc a3 7e 51 bd f3 39 0f 3b
       -0.05960473 -0.018445684 -0.05114616 0.0021854609
000130 ba 48 df bb 03 23 4b 3d 5c a9 a8 bd f8 f7 13 bd
       -0.0068140896 0.049593937 -0.08235428 -0.036125153
000140 58 84 9f bd 37 fe 2e 3d db 1c ec bd 6c d9 0f 3e
       -0.077889144 0.042722907 -0.11528941 0.14047784
000150 17 5a a8 3d bc 24 24 be af 78 e7 3d f4 c5 6d bd
       0.08220308 -0.16029638 0.113023154 -0.05805011
000160 0c 61 7a 3d 1d 7e 32 bd 3c 71 92 3d 08 ae bc bd
       0.061127707 -0.043577302 0.07150504 -0.09212881
000170 22 26 b0 ba 96 34 7f 3c cd d6 54 3d d1 35 0c bd
       -0.0013439099 0.015576502 0.051962662 -0.03423101
000180 67 3b dc bd a6 a6 16 3d 81 a6 ce 3d 61 dd 1c be
       -0.107535176 0.036780022 0.10090352 -0.15318824
000190 7c 35 bb bc cd 61 d5 bd 37 b4 4b 3d 50 3b bf 3d
       -0.022852652 -0.10419045 0.049732413 0.09337485
0001a0 7a c5 2b 3d 08 21 46 bd f2 17 34 3d 48 22 b1 bd
       0.041936375 -0.048371345 0.04396815 -0.08649117
0001b0 49 0e fe 3d 65 f8 5c bc e6 47 cb bd 5d 6b 21 3c
       0.124050684 -0.013486956 -0.09925823 0.009852258
0001c0 96 8a 35 bc a2 28 95 3d e6 a8 c3 3c 8f 9a ab 3c
       -0.011080405 0.07283141 0.023884248 0.020947723
0001d0 72 db c0 3d 59 57 94 3d 12 ce bb bd b6 cf ad bc
       0.09416856 0.07243223 -0.09170164 -0.021217208
0001e0 ea 50 60 bd e6 41 47 3e ab 6d 67 3d 46 70 36 bd
       -0.054764666 0.19458732 0.056501072 -0.044540666
0001f0 34 5d c5 3d 15 17 df bc de f8 90 bd 16 e0 30 3e
       0.09636918 -0.027232686 -0.07078718 0.17272982
000200 de b1 aa 3d c2 63 82 3d 7f e2 7a 3d 2e d2 18 bc
       0.08334707 0.063666835 0.06125116 -0.0093274545
000210 56 67 9b 3c 73 99 88 bd ff 7f ec 3d fc 1c cc 3d
       0.018970173 -0.06669893 0.11547851 0.09966466
000220 d0 64 d0 bb af 2a 4c bc 9f 29 c7 3d 9c da 9e 3d
       -0.006359674 -0.012461348 0.097247355 0.0775654
000230 3f 4e ac 3d bf a5 c7 bc 0a 2c d2 3b bc 78 9a 3d
       0.08413362 -0.024371026 0.0064139413 0.075425595
000240 53 70 4e 3d da df 98 3d 01 09 da bd a9 fd 59 bc
       0.05040009 0.07464571 -0.106462486 -0.013305106
000250 0d ee d9 bd d6 54 ae bd 55 84 b5 bd fb bb 62 3d
       -0.10641108 -0.08512275 -0.08863131 0.055355053
000260 77 dc 1d 3d 33 9a c4 bd 26 74 2a bd 22 d2 c8 bc
       0.03854033 -0.09599724 -0.041614674 -0.024514262
000270 db b7 37 bd 6b a4 ab 3d c5 11 d4 bb 84 b3 18 bc
       -0.044853073 0.083809696 -0.006471845 -0.009320144
000280 0b 8d 9e bd 8c c7 fb bd 9d a8 36 3d 0e 45 0a 3d
       -0.077417456 -0.1229392 0.044594396 0.033757262
000290 49 5f e4 3c be be 3e bd b6 1f 14 bd 7a 43 f7 bd
       0.027877467 -0.046568625 -0.036163054 -0.12073417
0002a0 6a e8 a7 3d 0e 59 83 bd 46 f8 e7 bd af 3b 4d bd
       0.08198626 -0.0641347 -0.11326651 -0.050105747
0002b0 97 fc b1 3c 51 1d 0c be a4 9e 33 3c 50 60 32 3d
       0.02172689 -0.13683058 0.010963116 0.043548882
0002c0 7c 7d 56 3d 96 c4 6f 3d a4 7d 88 3d 4a 04 38 3c
       0.052365765 0.05853709 0.06664589 0.011231491
0002d0 7c 39 eb 3c 24 a4 ce 3d ac 7b 1e 3d 3a b5 ec 3d
       0.028713934 0.10089901 0.03869216 0.11558004
0002e0 ff 46 78 3d 91 24 46 3c a0 6b 9b 3d e4 04 37 3d
       0.060614582 0.012093679 0.07588887 0.0446824
0002f0 e2 33 88 3d 85 6a 2a bc 29 fa f2 3d b3 11 9e 3d
       0.06650521 -0.010401373 0.118641205 0.077182196
000300 b1 13 66 bd 8e 84 94 3d 11 07 d4 bd 03 56 89 bd
       -0.056171123 0.07251845 -0.1035291 -0.067058586
000310 c1 0c fc bd 15 69 4f bd 99 b5 1f bd d6 d5 e4 3d
       -0.1230712 -0.050637323 -0.038991544 0.111735985
000320 58 54 8d 3d 90 d9 84 3d c1 91 02 bd dc 34 97 bd
       0.06900853 0.06486809 -0.031877283 -0.07383129
000330 fa 4e b4 bc 35 87 0e 3e 86 01 c2 bd 1b d2 88 3d
       -0.022010315 0.13918765 -0.09472947 0.066806994
000340 53 ef f8 bd e2 0b 01 3d 85 15 16 3e 76 6d b4 bd
       -0.121550225 0.031505473 0.14656647 -0.088099405
000350 63 3c 0a 3d c2 83 4f bc a6 f3 05 bd 90 4a 91 3d
       0.033748996 -0.012665691 -0.032703064 0.070943
000360 99 05 91 3d 1a 51 23 3d b6 d8 77 3d b6 e6 5a 3d
       0.07081146 0.039872266 0.060509406 0.05344268
000370 7d 36 0f 3e 9d ff 94 3d 0c a1 23 3d 17 33 d3 bd
       0.1398563 0.07275317 0.03994851 -0.10312479
000380 83 79 bb 3d a1 94 37 3d 06 f4 eb bd 24 33 a4 3d
       0.09154036 0.044819478 -0.11521153 0.08017567
000390 83 b5 a6 3d e4 94 80 3d 4d 7a 91 3d 97 8f 23 3d
       0.08140089 0.06278399 0.07103405 0.03993186
0003a0 90 f8 3b 3c 0a e6 82 be 70 ae 0f bd 5c 24 cd 3d
       0.011472836 -0.2556613 -0.035078466 0.100167006
0003b0 c3 68 ac 3c be ca c3 3d ae 3c c8 bd 1a 74 87 3d
       0.021046048 0.095601544 -0.09777199 0.066139415
0003c0 04 79 e6 bd 80 09 b3 bd 44 1d 97 bb d7 19 28 be
       -0.11253551 -0.08742046 -0.004611643 -0.16416107
0003d0 35 a7 bd 3d 9a f5 16 bd f5 b2 34 bd e5 76 d6 bd
       0.09260408 -0.036855318 -0.04411598 -0.10471896
0003e0 66 1f 00 be 8c f8 84 3d 84 ce 79 3d aa cc b7 3d
       -0.12511978 0.06492719 0.060987964 0.089745834
0003f0 7d 10 af 3c 03 58 67 bd 09 19 3d 3e eb 79 5f 3b
       0.021370167 -0.05648042 0.18466581 0.0034099768

lstm.weight_ih_l1 f4 [256, 64]
000000 ed 9b 50 3e 99 a7 02 3e 7c 22 09 3e 55 c7 1c be
       0.20371981 0.12759246 0.13392061 -0.15310414
000010 d2 92 97 3d 8a e6 ec 3c f5 69 3c 3e 92 fe 80 be
       0.074010506 0.028918523 0.18399794 -0.25194222
000020 04 15 55 be 65 4b e9 3c a3 18 75 3d 48 e2 4e 3d
       -0.20808798 0.028478334 0.05983795 0.050508767
000030 ea 1e e2 bd b3 77 23 be b7 ae 96 3d de 48 b0 3c
       -0.11041053 -0.1596363 0.07357543 0.02151912
000040 25 38 2a be 22 b6 51 bd df ff b0 be d8 09 d0 bd
       -0.1662298 -0.051199086 -0.34570214 -0.101581275
000050 c0 e3 36 3e 5b 16 21 3e 09 b5 6f bd cb a3 fb bc
       0.17860317 0.15731184 -0.058522258 -0.030717751
000060 eb dc a4 3e eb de 2b 3e fd e2 05 bd 2a b9 78 be
       0.32199797 0.16784255 -0.032687176 -0.24289384
000070 51 8e 07 3d db 86 fe 3c b7 7b 55 bd 71 40 b2 bd
       0.033094708 0.031070163 -0.052119937 -0.087036975
000080 56 18 79 3d 4d dd 8e 3d 44 b8 e8 bc ca 7e 6c be
       0.060814224 0.069758035 -0.028408177 -0.23095241
000090 1a 1f 10 bd d4 5e 8a 3d b4 bc be 3d ef f8 cd bd
       -0.03518591 0.06756368 0.09313336 -0.10057246
0000a0 4c ca cb bd c4 89 60 3c a9 d5 37 be 84 0c 83 be
       -0.099506944 0.013704721 -0.17952599 -0.25595486
0000b0 d4 6d f8 bd b2 08 b4 be fc d6 53 be 56 d1 39 3e
       -0.12130323 -0.35162884 -0.20687479 0.18146262
0000c0 bb 95 13 3d 34 9a 7e 3e d3 ae 01 be 8c 08 b7 3d
       0.036031466 0.24863511 -0.12664346 0.08937177
0000d0 b3 c0 fe bb bb 55 9c be 57 98 89 3e 81 f2 ea 3c
       -0.0077744364 -0.30534157 0.2687404 0.028680088
0000e0 56 0e e2 bd 58 e1 f6 3d 79 9d e7 bd 70 3f 6b 3e
       -0.110378906 0.120547 -0.113093324 0.22973418
0000f0 25 c0 1f bd be f3 24 be f8 49 2d be db b8 9a 3d
       -0.039001603 -0.16108605 -0.16922748 0.0755479
000100 89 7b 1b 3e ec e4 22 bc db 46 c1 3d a1 fb 76 3d
       0.15183844 -0.009942275 0.09437343 0.060298566
000110 1c 08 38 3e b6 86 07 3e 0c a0 f0 3d 34 ae fd 3c
       0.17971843 0.13234982 0.117492765 0.030966856
000120 6e a0 4d 3c 1e e7 c3 bd f5 ca fb bd 2b e0 20 bd
       0.012550456 -0.095655665 -0.1229457 -0.039276283
000130 2d b1 40 3e f7 ab 84 3d b3 0e 1a be 16 f6 65 be
       0.18817587 0.06478112 -0.1504467 -0.22457156
000140 21 4e 1f 3e 71 2b 2d 3d 11 4b ad bc 4d 2a c8 bc
       0.15557148 0.042277757 -0.021153959 -0.024434233
000150 6f 36 fe 3d 07 25 97 3c de 88 19 bd de 74 37 3c
       0.12412726 0.018450273 -0.037484042 0.011197297
000160 82 46 ff bc c6 0a 4e 3e 79 dd 8d 3e dd f8 52 bd
       -0.03116155 0.20121297 0.27708033 -0.051506866
000170 eb f7 62 be c4 5f 36 3d 4b 7b af 3c 9a 33 71 ba
       -0.22164886 0.044524923 0.021421095 -0.00092011096
000180 b9 d0 ba 3d c9 ca 2e be 0b 71 99 3e 3b c5 35 be
       0.09121842 -0.17069544 0.29969057 -0.17751019
000190 2d 24 4a 3e de 20 89 3b 67 2d 94 bd 62 ef 88 bb
       0.19740362 0.0041848263 -0.07235222 -0.0041789273
0001a0 c7 3c 0a be a7 bc a8 bd b3 9c a4 bc a8 09 0a bd
       -0.13499747 -0.082391076 -0.020094251 -0.033700615
0001b0 5d 65 57 bd 17 e3 10 be 51 82 90 3c 4f dd 3e bd
       -0.052586902 -0.14149128 0.017640265 -0.046597775
0001c0 2e f3 24 3e 44 5e 61 be d0 02 8b bd f4 9b bc bc
       0.1610839 -0.22008616 -0.06787646 -0.023023583
0001d0 e6 67 a6 bd c4 a5 a9 bc bc f9 4d 3e 1f 24 56 bd
       -0.08125286 -0.020708926 0.20114797 -0.05228054
0001e0 d7 68 d7 3c ca 9a 53 be 78 c4 9d bd 51 2a 6b bd
       0.026295109 -0.20664516 -0.07703489 -0.057413403
0001f0 98 4e 9f ba 08 e5 3c 3e bf 6c 51 3e b2 50 cf bb
       -0.001215416 0.18446743 0.2045164 -0.0063267583
000200 fb 42 30 3d b7 e8 1d 3e 48 c1 29 3c 12 7a 17 be
       0.043032628 0.15420805 0.010361023 -0.1479266
000210 50 a0 c9 bd 5a 09 07 3e 04 05 09 be 64 b2 3d be
       -0.0984503 0.13187161 -0.1338082 -0.18525082
000220 57 9d 50 3b 44 4c 0b bd f8 a0 e2 bb 24 6c ae bd
       0.0031832063 -0.03400828 -0.0069161616 -0.0851672
000230 60 a6 25 3c fb 41 47 bd f8 8b cf bc c1 b6 00 3e
       0.010110468 -0.04864691 -0.025335297 0.12569715
000240 f5 44 63 bd 6d 4a c4 3c bb b5 1e bc 85 7d 60 bd
       -0.055485684 0.02396127 -0.009686883 -0.054807205
000250 24 20 2e 3e 6c 1d 30 be 94 89 4f 3d d6 a8 65 bd
       0.17004448 -0.17198724 0.050668314 -0.056069218
000260 b7 a0 68 bd f2 08 8d 3b 53 6b 12 3e 37 b8 76 bd
       -0.056793895 0.004304045 0.14298753 -0.060234275
000270 e8 ca 64 be 43 ce 5e bd 9a e8 00 3c 74 7c 65 bd
       -0.22343028 -0.054395925 0.0078679565 -0.05602689
000280 12 0f 1e bd 3f fc d0 bd a2 9b 3f bc 8c 1f df 3c
       -0.03858859 -0.10204362 -0.011694821 0.027236722
000290 e4 08 27 3e 94 94 31 3d 25 ea 08 bd 93 c7 ab 3d
       0.16311985 0.043354586 -0.033426423 0.08387675
0002a0 df 70 01 3c bd 75 16 bd 54 61 dd bc 18 55 34 bc
       0.007900446 -0.036733378 -0.027023949 -0.011006616
0002b0 e2 b2 ff bd ba 1c 6e 3d 6b 0e f5 bc a8 56 3d 3e
       -0.12485291 0.058132865 -0.029914102 0.18490088
0002c0 8c 17 85 ba 76 1b f2 3d 69 1f ec 3d c9 a5 0b 3c
       -0.0010154112 0.11821644 0.115294285 0.008523413
0002d0 da 9f b1 3b 52 4f 12 3e a8 fa cf 3d 34 71 12 3c
       0.005420667 0.14288071 0.10155231 0.008938123
0002e0 51 98 b0 bd 0b 66 bb bd 1b 95 a1 bd 55 55 ff 3b
       -0.08622802 -0.091503225 -0.07889768 0.007792155
0002f0 26 28 08 be 51 ad 81 3d c1 c9 52 3d fe 71 ad bd
       -0.13296565 0.063318856 0.05146194 -0.08469008
000300 ee 19 f2 3d 37 e7 9d 3d 58 0b 1c 3d 4c e4 82 bb
       0.11821352 0.07710116 0.038096756 -0.0039945003
000310 cd fe ec 3d 4c 60 55 bd 5b c5 a7 bd 13 b0 07 3e
       0.11572037 -0.05209379 -0.081919394 0.1325076
000320 b3 dd a2 bc c7 16 9a 3a a1 bc 7e bd d8 f4 b8 3b
       -0.019881105 0.0011756056 -0.06219161 0.005644422
000330 97 27 1a 3c 28 48 07 be dd 20 f5 3c 79 ea d3 3d
       0.009408853 -0.13211119 0.029922897 0.103474565
000340 3f a1 9f 3c 6f b0 09 3e c0 5e b7 bc a4 4c 78 3d
       0.019486068 0.1344621 -0.022384048 0.060619965
000350 3a 56 02 3e e0 25 01 be 8d 0f 91 3d 48 69 06 3e
       0.12728205 -0.12612104 0.07083044 0.13126099
000360 25 6c f0 b8 46 31 a9 3d 09 76 2c bd 3f 05 54 bd
       -0.00011464235 0.08261351 -0.042104755 -0.051762816
000370 c5 c6 9b 3d 45 5e d5 bc 6f b7 91 3e b4 23 ee bc
       0.07606272 -0.026045928 0.2846026 -0.029069759
000380 91 26 d9 bd 20 cc 43 3e a5 9f d5 3d 05 05 28 bd
       -0.10603059 0.19120836 0.104308404 -0.041020412
000390 42 76 fa bc e1 54 63 bd 44 0c 9b bc ea 1f 00 be
       -0.030573968 -0.05550087 -0.018926747 -0.12512174
0003a0 32 73 d3 bb 6b 0f b5 3d e9 30 6d 3b cc fd d7 3d
       -0.0064529413 0.08840831 0.0036192483 0.10546455
0003b0 5b 6f ea 3c fa db ac bd 38 a2 27 be 98 9e ee 3b
       0.028617552 -0.08440395 -0.16370475 0.0072820894
0003c0 c8 5f 47 3d b8 06 17 3e 51 68 13 be 2b 8c bd bd
       0.04867533 0.14748657 -0.14395262 -0.092552505
0003d0 48 0e 1f 3e 84 9c 8e bc 83 f9 a1 bd 4b 27 55 3d
       0.15532792 -0.017408617 -0.07908919 0.052039426
0003e0 9c fd f1 3d e9 89 8d bb 59 b2 e6 3d ff 38 50 3c
       0.1181595 -0.0043194187 0.11264486 0.012708901
0003f0 fd bd 0e 3d 04 11 8d bc a9 d0 ab bd ca 00 40 bd
       0.034849156 -0.017220028 -0.08389408 -0.046875753

lstm.weight_hh_l1 f4 [256, 64]
000000 97 38 a3 bc 32 49 32 bb 36 0f 88 be 23 75 68 be
       -0.019924445 -0.0027204272 -0.26574105 -0.22700934
000010 93 0d 09 3e 8d ef 07 3b 05 7a ec 3b 0e 51 ae bc
       0.13384084 0.0020742149 0.0072166943 -0.021278884
000020 3c 7b 69 bc a7 de 1c bd 6b b9 bc 3c b6 11 be 3d
       -0.014250573 -0.038298275 0.023037633 0.09280722
000030 af f3 8f 3b 24 f8 ce bd 4b 96 06 3d 8b 8b 1f 3d
       0.004393063 -0.10105923 0.032858174 0.038951438
000040 37 e2 83 3e 25 f1 0e bd d5 e6 1e 3d 74 41 35 3e
       0.25758526 -0.034897942 0.038794357 0.1770075
000050 df 2a f5 3d c1 a0 7b bd ef a0 06 bd 5c 06 61 bc
       0.11971068 -0.061432604 -0.032868322 -0.013734426
000060 20 90 f2 bd 1f 89 cf 3b 7e 26 12 3d f9 57 60 be
       -0.11843896 0.006333485 0.03568124 -0.21908559
000070 8c e9 11 be 71 00 1b 3b 62 b2 f0 3b 0a ad d9 3c
       -0.14249247 0.0023651386 0.0073454836 0.02657177
000080 17 e0 3a 3d 10 11 68 bd 94 3d 85 3d 91 08 b2 bd
       0.045623865 -0.056656897 0.06505886 -0.0869304
000090 a7 b2 db bd 15 3b 13 3e 65 92 27 bd 8b e8 9f bd
       -0.107274346 0.14378007 -0.040911097 -0.07808026
0000a0 b9 cd e4 3d 50 8d 89 bb 17 49 15 be ed 62 db 3d
       0.11172051 -0.004197754 -0.14578663 0.10712228
0000b0 54 75 c6 3d 66 76 c1 bd 50 09 27 3e db 3e 91 3d
       0.09690347 -0.09446411 0.16312146 0.07092067
0000c0 ca ba 06 be 46 74 22 be 5a a9 c1 3d a2 db 24 3d
       -0.13157192 -0.15864667 0.09456129 0.04024852
0000d0 73 86 2e be 9d 3a b0 3d 7c 97 55 3c 3e 3b a1 bd
       -0.17043476 0.086049296 0.013036605 -0.07872628
0000e0 16 c8 91 bc 30 d0 0d 3e ad a8 d6 3d 89 07 b2 3d
       -0.017795604 0.13848948 0.10481391 0.086928435
0000f0 b0 20 df bd 5e c6 7d 3d b3 27 26 3d 02 9f 57 3d
       -0.108949065 0.061956756 0.040565204 0.052641876
000100 34 9c 8f 3d 9c 5f 76 bc 7c 98 9f bd 74 bc bb 3d
       0.07012215 -0.0150374435 -0.07792756 0.09166804
000110 8a dc ce 3d 29 d0 f9 3d 9e 63 d9 bc 1c 06 22 be
       0.10100658 0.121979065 -0.026536759 -0.15822643
000120 a3 f8 9f 3d a0 61 18 3b e9 bf 40 bc 91 26 1f 3d
       0.078110956 0.0023251548 -0.011764505 0.03885514
000130 5b 64 b5 bc 75 ba cb bd 85 88 0d be b1 67 26 3d
       -0.02214258 -0.09947673 -0.1382161 0.04062623
000140 17 bd 46 bd 67 ff 2f 3e 8b 72 13 3d 34 9c 73 3d
       -0.048520174 0.17187272 0.03599791 0.05947514
000150 49 e6 f2 3d e0 a4 d2 bd 91 60 2e bc f8 7d 0b 3d
       0.1186033 -0.10285354 -0.01064314 0.03405568
000160 79 05 25 3e b0 9c 74 be aa 6a 11 bd eb a1 b3 3d
       0.16115369 -0.23887897 -0.035502113 0.08771118
000170 71 8c c8 3d ab ac f3 3c b5 7d 28 be ab 38 37 3e
       0.09792412 0.02974542 -0.16454203 0.17892711
000180 c0 bf c0 bc 37 66 07 be b7 f3 13 bd 41 60 1d be
       -0.023528934 -0.13222586 -0.036121096 -0.15368749
000190 db b3 64 bd ec 01 40 3d e9 ad 1b be 28 9c 35 bd
       -0.055835586 0.046876833 -0.1520306 -0.044338375
0001a0 4e f1 35 bd e1 15 f2 3d f7 3a b9 bd bc 20 8d bc
       -0.04441958 0.11820579 -0.0904445 -0.017227523
0001b0 ce e3 98 bd c8 96 54 3d d8 3d c9 bd be eb 05 3e
       -0.07465325 0.05190161 -0.09826249 0.1307821
0001c0 01 30 42 3e a3 52 b8 3c 13 5b f4 bd df 3b 1c 3e
       0.18963625 0.022500342 -0.119314335 0.15257214
0001d0 2f 23 01 be 7f 03 b3 3d 02 61 a6 3d 58 2e c6 bb
       -0.12611078 0.08740901 0.081239715 -0.006048005
0001e0 91 87 30 3e e7 15 da bc b5 9f 12 bd dc e5 56 bd
       0.17239214 -0.026621772 -0.03579684 -0.052465305
0001f0 a7 82 d6 bb f7 44 88 3d b1 a6 b1 3d 7b 76 75 3d
       -0.0065463367 0.06653779 0.08674372 0.059927445
000200 06 22 d0 3d 7b 25 55 bc 49 66 f9 3d d3 2d 8d 3d
       0.101627395 -0.013009424 0.121777125 0.06893506
000210 2e 00 e5 3b 97 c6 c5 3d 7b a2 7d bb 26 32 2e bd
       0.006988547 0.09657019 -0.0038701582 -0.042528294
000220 06 b4 27 3b 17 18 29 bd 7c 28 12 3d 8f ae 79 3c
       0.002558948 -0.04128274 0.03568314 0.015239372
000230 a2 27 d0 bd 2d 28 ed bd 5c 8d 88 bd 15 4d 41 bc
       -0.10163809 -0.115799285 -0.06667587 -0.011798163
000240 f9 c7 ab 3d 44 29 88 3d ac a5 f9 3d f2 95 94 3d
       0.08387751 0.06648496 0.121898025 0.07255162
000250 34 ce 02 3e dd 9e 12 be 55 b8 8a 3d c2 b5 19 bd
       0.12773973 -0.14318414 0.0677344 -0.037526853
000260 62 f9 c5 bd 71 d9 bb bd 04 83 b5 3d 22 51 de bc
       -0.096667066 -0.09172333 0.0886288 -0.027138297
000270 b6 51 65 3d 84 14 ee bd 5e 75 a2 3d e0 b3 19 be
       0.05598613 -0.11625007 0.07932542 -0.15010023
000280 2f cb d5 3d 39 b0 a9 bd 77 17 85 bb 3a 2a 94 bd
       0.10439145 -0.08285565 -0.004061635 -0.072346166
000290 27 bb 03 bd 54 1d ce 3d 7a 69 07 be 16 a7 3e 3d
       -0.032160904 0.10064188 -0.1322383 0.046546064
0002a0 15 30 ec 3c 56 ef db bd 5f 01 46 3e 6a 91 dd 3b
       0.028831521 -0.10739009 0.1933646 0.0067617195
0002b0 e0 be 11 bd 96 a9 a3 3c 2d f5 64 bd ac a6 18 be
       -0.035582423 0.019978326 -0.05589788 -0.1490733
0002c0 53 bd 91 3d da e6 a1 3d b7 a0 ed 3d fa 17 9f bd
       0.07116189 0.079053596 0.116029195 -0.07768245
0002d0 9f f7 17 be 10 39 ef 3c 1b 73 85 3d b3 5c 6b bd
       -0.14840554 0.029202014 0.06516095 -0.05746145
0002e0 0c 82 5f 3d be 07 6d bc 25 95 d5 3d 90 02 94 bd
       0.05456738 -0.014467178 0.10428838 -0.07227051
0002f0 ba 25 10 bd 18 c1 48 bd 1e c8 e0 bc 22 02 11 be
       -0.03519223 -0.049012274 -0.027439173 -0.1416097
000300 c7 54 86 bd 76 4c f6 bd dd bc d8 bd f9 18 f5 bd
       -0.06559139 -0.120263025 -0.10582898 -0.11967654
000310 96 c5 0a be 17 5a 3e bd a3 b2 cf 3d 14 61 a0 bc
       -0.13551936 -0.046472635 0.10141494 -0.01957754
000320 1f c2 91 3c 50 2d 26 3e 34 dc ae 3d 2d 58 c9 bd
       0.01779276 0.16228223 0.08538094 -0.09831271
000330 be dc 13 be 99 01 d2 3d ec 96 0f 3e 4c ea 58 3b
       -0.14439675 0.10254211 0.14022416 0.0033098636
000340 3b fe da 3d 89 92 11 be 4a 19 aa 3d 8c 9f ae 3d
       0.10693022 -0.14216055 0.08305605 0.08526525
000350 4c 04 07 3e 54 b8 ea 3d e1 db 88 3c f9 2e 04 3e
       0.13185233 0.11460939 0.016706409 0.12908544
000360 f2 b9 fe 3d b0 0f 44 be 76 c1 03 bd 47 3f de 3d
       0.1243781 -0.1914661 -0.03216692 0.10851913
000370 bf 64 97 3d b0 d5 13 be 2a f5 19 3e 98 15 d5 3d
       0.07392263 -0.14436984 0.15034929 0.10404509
000380 57 7d f6 3b f8 3b 50 bd 06 2d cc bc 64 dc cf bd
       0.007522266 -0.05083844 -0.024923813 -0.10149458
000390 d3 1a 31 be 37 d3 a0 bb 42 65 b5 bc 5f d8 96 3c
       -0.17295389 -0.0049079913 -0.02214301 0.01841372
0003a0 8b a4 48 3c 3f 0b 69 bd 17 0e 97 3d 5c b1 88 3c
       0.012246261 -0.05689549 0.07375734 0.016686134
0003b0 0f 86 be bd 2c fc 7a 3d 68 08 09 be c1 c3 1c be
       -0.093029134 0.061275646 -0.13382113 -0.15309049
0003c0 ec a6 ba bc c2 df bb bd 43 d3 05 3e 15 7f 3b 3d
       -0.022784673 -0.09173538 0.13068871 0.04577549
0003d0 e1 cb 44 3d 44 d5 83 3d f7 12 ef bd e8 54 c6 bd
       0.048045997 0.064371616 -0.11673539 -0.09684163
0003e0 79 1a 8a bd 4b e1 39 bd 7a 42 5d 3d 44 85 83 bd
       -0.067433305 -0.04538087 0.054018475 -0.06421903
0003f0 36 7b 1e bd 20 b3 87 3d 91 69 c1 3c ae db 5c 3d
       -0.03869172 0.06625962 0.023609908 0.05392044

lstm.bias_ih_l1 f4 [256]
000000 d9 e4 ee 3d 48 bb 64 bd 31 0a 01 be e5 4a 5c bd
       0.11664743 -0.055842668 -0.12601544 -0.053782362
000010 70 93 fa bd a2 0f 57 3b 42 ae b6 3d fc b3 a1 3d
       -0.12235153 0.0032815714 0.08919956 0.078956574
000020 f5 19 b2 3d 3a e7 82 bc 1d ff ab 3e 01 45 53 3e
       0.08696357 -0.015979398 0.33593073 0.20631792
000030 64 64 d2 bd 21 be b7 3e 90 cf 11 bc 31 46 1d 3e
       -0.10273054 0.35887244 -0.008899584 0.15358807
000040 78 82 06 bd f0 56 7e 3e a1 77 80 3d ad f9 10 3e
       -0.03283927 0.24837852 0.062728174 0.14157744
000050 fd 4d 36 3c 97 4f ca 3c 6f e8 b3 bd 93 ef c2 3d
       0.011126992 0.024696155 -0.087845676 0.095183514
000060 eb 33 d3 3d 11 90 e6 bb 07 49 8e 3d bb 4a 30 3d
       0.10312637 -0.007036217 0.069475226 0.04304002
000070 86 51 ce 3d 16 e0 cd 3d 25 31 4e bd c5 f6 cf 3d
       0.10074143 0.100525066 -0.050339837 0.101544894
000080 33 33 ab bd 16 c2 0b 3d f9 50 4b be a8 3b a4 3e
       -0.08359375 0.03412064 -0.19855107 0.32076764
000090 ee 8f de bb c8 45 96 bb b7 d8 92 bc 2a 79 08 3e
       -0.00679206 -0.0045859553 -0.017925603 0.1332747
0000a0 ee 05 c2 3d aa ef 82 bd 28 f8 16 3e 36 74 3d bd
       0.09473787 -0.063933685 0.14743102 -0.046253406
0000b0 d2 5f 94 3d bc ae 12 be 28 31 eb bd 7b ba fa 3d
       0.07244839 -0.14324468 -0.11483985 0.122425996
0000c0 c4 e0 de 3d 4e 5d ac 3c 47 82 1f 3e 79 cd 18 3d
       0.108827144 0.021040585 0.1557704 0.03730533
0000d0 5f 3e bd 3e 5c 0e 99 bc e0 c7 54 3c a2 65 9e 3d
       0.36961648 -0.018683605 0.012987107 0.07734229
0000e0 b7 5e 22 3d 26 1a c4 3d 21 e4 e1 3c ed d2 4f 3d
       0.03964111 0.095753 0.0275746 0.050738264
0000f0 1d a8 92 3e 2b 69 cc bd 7b 79 35 bd 4a 8f 12 be
       0.28643885 -0.09980997 -0.044305306 -0.14312473
000100 b1 9d a5 bd 04 68 13 be aa c8 d4 bc e2 42 f4 3d
       -0.08086718 -0.14395148 -0.02597459 0.119268194
000110 55 64 f4 bd b3 a6 06 3d 9f d1 e4 bd e3 25 c3 bd
       -0.11933199 0.03287382 -0.111727946 -0.09528711
000120 7f b9 36 bc 48 ed 95 3d 10 57 9c bd 42 20 02 bd
       -0.011152624 0.073206484 -0.07633793 -0.031769045
000130 30 24 50 bd 98 d5 26 3d aa c5 af 3c 02 18 83 bd
       -0.05081576 0.040731043 0.021456558 -0.064010635
000140 64 9f 0c bd 14 40 95 bd 93 01 0b bd 41 45 16 3d
       -0.034331694 -0.072876126 -0.03393705 0.03668714
000150 44 be fb bd 01 9c 09 bc 1c 0d 10 be df e9 29 3e
       -0.1229215 -0.008399011 -0.14067501 0.16593121
000160 2b bf 9e bd 43 08 f0 bd 99 7d a6 bd 98 2e a4 bd
       -0.07751306 -0.11720326 -0.081294246 -0.080166996
000170 1a ae 94 3d b6 0d 3d bd f8 05 a8 3c 3c cf 37 3b
       0.0725977 -0.046155654 0.020510659 0.0028047105
000180 44 47 ea bd 7f dc b4 3c b1 dd bb bb 5a 6c 0a 3e
       -0.11439374 0.022077797 -0.005733215 0.13517895
000190 b4 60 e6 bd 26 a1 ad bc 81 a2 2d bd 7c 05 bf bd
       -0.112489134 -0.021195006 -0.042391304 -0.09327218
0001a0 17 8b c6 bd 95 bf f3 3d 3b b8 9b 3d 6d eb d5 bd
       -0.09694498 0.11901776 0.076034985 -0.104452945
0001b0 32 ea f3 bd 06 3b 67 bd 9f 69 0e be 91 92 6f 3e
       -0.119099036 -0.056452774 -0.13907479 0.23395754
0001c0 6e fd 04 be f7 0b 1c 3d 90 ce f7 bd 42 e6 d1 3c
       -0.12987301 0.038097348 -0.120999455 0.02562249
0001d0 e0 6d ab bd ef ed bf 3d 4b b9 d0 3b ba 3b 2d bd
       -0.08370566 0.09371554 0.006369745 -0.042293288
0001e0 45 87 97 bd dd 78 ec bd c7 28 a7 3d dd ec 29 3d
       -0.073988475 -0.1154649 0.081620745 0.041485656
0001f0 86 1d 14 3d d3 dc bb bd 8a b1 c3 bd 4f 08 81 3d
       0.03616097 -0.09172978 -0.09555347 0.06300413
000200 74 5b b9 3d 12 cb 2f bc 29 e2 3a bb 7f 54 b9 3d
       0.090506464 -0.010729568 -0.002851615 0.090493195
000210 55 74 f1 bd 83 90 92 bd 57 e4 b4 3d 72 6e 9e 3c
       -0.11789767 -0.0715647 0.08832615 0.019339774
000220 63 d4 44 3d c2 1a 00 bd 1d 71 fc 3b 16 43 ba 3d
       0.04805411 -0.03127552 0.007703914 0.09094827
000230 cc 05 b6 bd bd aa f0 bb 7a 69 6c 3d bd e6 52 bd
       -0.088878244 -0.0073445723 0.057717778 -0.05148958
000240 78 42 8a 3d 0a 1e 86 bd 91 18 53 3d 4d 27 0a bd
       0.06750959 -0.06548698 0.0515371 -0.033728886
000250 12 76 77 3d d0 65 f4 bd 02 ea 61 bd 14 43 0b bd
       0.060415335 -0.11933482 -0.055154808 -0.033999518
000260 5a f5 dd 3d 3f f9 ff 3d 2e 30 09 3d 6f 51 c6 3c
       0.10837813 0.12498712 0.033493213 0.024208752
000270 f5 db 9d bd 35 59 98 bd 73 89 69 3c a5 c8 d5 bd
       -0.07707969 -0.0743889 0.014253962 -0.104386605
000280 95 94 ce bd 64 b7 bc 3b cd 74 7c 3d 72 3f 20 bd
       -0.100869335 0.0057591666 0.061634827 -0.039123006
000290 7c b3 0f 3d ed ee 86 bb 67 c1 b7 bd fa f7 e8 3d
       0.03508328 -0.0041178376 -0.089724354 0.11375423
0002a0 43 bd 3a 3d c0 64 78 bc ba 8e c4 3c 44 df 9a 3b
       0.04559065 -0.015160739 0.023993839 0.0047263224
0002b0 36 8b a8 3c 3a 93 50 3d 7b 65 28 3d 39 86 9f bd
       0.020574193 0.050921656 0.041112404 -0.07789273
0002c0 ad da 48 3d 8a 66 36 3d e6 2b 88 bb 91 66 ab 3d
       0.04903667 0.044531383 -0.0041556237 0.08369172
0002d0 21 ef e1 3d 98 e6 6f 3d fe 5c 68 bc e0 c2 b9 bd
       0.11031938 0.05856952 -0.014182327 -0.090703726
0002e0 da b3 39 3d a2 ca b7 3d 58 54 e7 3d 9c 04 aa 3d
       0.045337535 0.08974196 0.11295384 0.083016604
0002f0 d1 95 96 3d 17 83 ef 3c c3 97 01 3e 30 a0 86 3d
       0.07352794 0.029237313 0.12655549 0.06573522
000300 0e d3 23 3e 27 9a 46 be 41 6a be 3c c5 a0 3d 3e
       0.1599848 -0.19394742 0.023244025 0.1851836
000310 2c e3 01 3c c7 47 17 3d 6e 87 dc bd 65 ec 07 bd
       0.007927697 0.036933687 -0.10768019 -0.033184428
000320 f4 42 82 3d 08 25 9f 3c d3 af 18 3e 9d 9d 35 3e
       0.063604265 0.019426838 0.14910822 0.17735906
000330 23 c6 b2 bb 83 eb 48 3e 90 94 80 bd e4 db fd 3d
       -0.0054557486 0.1962109 -0.06278336 0.123954564
000340 c6 bb a0 bd a3 de 24 3e d9 65 18 bc 4a 65 55 3e
       -0.07848315 0.16100554 -0.009301626 0.2083942
000350 c1 37 66 3d ad 8a af bc da 23 0b be 68 45 63 3e
       0.056205515 -0.02142843 -0.13587895 0.22194445
000360 e1 33 6f bd 16 71 e8 3d 2e ab 64 3d 18 97 ef bc
       -0.058399085 0.113496944 0.055827312 -0.029246852
000370 75 0e c5 3d e7 db 1e 3d e8 8f a6 bb a5 3f 87 3e
       0.09621898 0.038783934 -0.005083073 0.26415744
000380 10 07 0e bc a0 f5 0e be 36 24 ca bd 28 52 c4 3e
       -0.008668676 -0.13960886 -0.09870188 0.3834393
000390 cd 9e fb bd 70 d9 47 3d 70 dd f8 bb fb 32 2b 3e
       -0.12286148 0.04879135 -0.007594757 0.16718666
0003a0 a5 78 d4 bb 1e 6e 30 bc 91 5f 90 bd 50 60 d3 3c
       -0.0064841085 -0.0107684415 -0.07049478 0.025802761
0003b0 c6 b6 03 be c7 ac b3 3d 9c 0f 59 3d ff eb 12 3e
       -0.12862691 0.08773189 0.052993402 0.14347838
0003c0 47 40 24 3d c9 e4 0f bd 89 8b b6 3e bf d5 ab 3d
       0.040100362 -0.035130296 0.35653332 0.08390378
0003d0 81 a6 76 3e be fe f2 bd 6a 45 b5 3c 82 61 d8 bc
       0.24086954 -0.118649945 0.022127826 -0.026413683
0003e0 15 59 15 3e ee 87 de 3c 62 ed ad bc f8 1b 19 3e
       0.14584763 0.027164426 -0.021231357 0.14952075
0003f0 51 98 98 3e 80 35 d2 bd 2e d7 b2 bd 96 7d a1 bd
       0.29803708 -0.102641106 -0.087324485 -0.07885282
