VAE-LSTM-anomaly–detection/experiments/Collected_data/nosein_noseout_9-grid_search-0414/Collected_data-nosein_noseout_9-win_len1800-look_back4-codesize20-VAEunits256-LSTMunits128/checkpoint/vae_best_model.pth (torch, 704594 bytes, 24 tensors)

encoder.0.weight f4 [16, 3, 3, 1]
0	0x3debace4	0.11507586
1	0xbc1dc17f	-0.009628653
2	0x3e3ca4fc	0.18422312
3	0x3daa935f	0.0832889
4	0xbea457b6	-0.32098168
5	0x3cbde6ec	0.023181401
6	0x3e35d151	0.17755629
7	0x3de03092	0.10946764
8	0x3e178614	0.1479724
9	0x3ccc6346	0.024949681
10	0xbdd3fc61	-0.10350872
11	0x3d036639	0.03207991
12	0x3d26f752	0.040763207
13	0xbcda007c	-0.02661156
14	0xbe8d913a	-0.27649862
15	0x3e8d169c	0.27556312
16	0x3e5cc7c9	0.21560587
17	0x3dc87222	0.09787394
18	0x3e257571	0.16158082
19	0x3eaac72b	0.33355078
20	0xbe89b161	-0.26893142
21	0xbd74508e	-0.059647135
22	0xbcd0abda	-0.02547257
23	0xbccfffa6	-0.025390457
24	0x3e99d3a1	0.30044273
25	0xbe84e63a	-0.259569
26	0x3df545dc	0.11976215
27	0x3e7c73e4	0.24653584
28	0x3c0d4c12	0.008624094
29	0x3de48ab0	0.11159265
30	0x3d9729f2	0.07381047
31	0xbd2bde25	-0.0419599
32	0x3dad10e3	0.084504865
33	0xbc6f9893	-0.014623779
34	0xbcdda9b5	-0.027058462
35	0x3ccc04e7	0.024904681
36	0x3e8d4913	0.27594814
37	0xbe55d60c	-0.20882434
38	0xbe981fdb	-0.29711804
39	0xbe81c382	-0.25344473
40	0xbe2b9b11	-0.16758372
41	0x3d70d0fa	0.058793046
42	0x3e4386f1	0.19094445
43	0x3dda76c6	0.106671855
44	0x3e16134c	0.14655799
45	0x3d8fb754	0.07017389
46	0x3ea4a99b	0.3216065
47	0x3e9adcb0	0.30246496
48	0x3e97025a	0.29493982
49	0xbe864e34	-0.2623154
50	0xbd27c4ef	-0.040959295
51	0xbe7d6245	-0.24744518
52	0xbe680dab	-0.22661464
53	0xbe5ea426	-0.21742305
54	0x3eaec9df	0.3413839
55	0x3e24c846	0.16092023
56	0xbdac2b2c	-0.08406672
57	0x3ea87387	0.3290064
58	0xbde155de	-0.11002706
59	0xbe14df28	-0.14538252
60	0x3e77e56c	0.24208611
61	0x3e888ed0	0.26671457
62	0x3e480ed3	0.19536905
63	0xbe86db64	-0.26339257
64	0xbd74d55c	-0.059773788
65	0xbe9b41ef	-0.3032374
66	0xbe682e03	-0.22673802
67	0xbd826f84	-0.06368926
68	0x3c7fddc4	0.015616838
69	0xbe5071a9	-0.20355858
70	0x3d65ab13	0.056071352
71	0xbe4b4cd7	-0.19853531
72	0x3e660ee5	0.2246662
73	0xbdf3a5d0	-0.118968606
74	0xbe81a39c	-0.25320137
75	0xbe828bdf	-0.25497338
76	0xbe40adda	-0.18816319
77	0xbdbe39a4	-0.09288338
78	0x3e6bac5b	0.23014967
79	0xbe0412e9	-0.12897839
80	0xbe1684f9	-0.14699163
81	0x3d01b529	0.03166691
82	0x3d809f54	0.062803894
83	0xbd88f308	-0.066869795
84	0xbe1388b1	-0.14407612
85	0x3e9d8bdf	0.30770776
86	0x3e32a576	0.17445931
87	0xbe5fa074	-0.21838552
88	0xbe332f5f	-0.1749854
89	0xbc6556d4	-0.013997752
90	0x3dc30348	0.0952211
91	0xbe916cf5	-0.2840344
92	0x3e9b89c7	0.30378553
93	0x3dd7bfad	0.10534606
94	0x3d051f5c	0.03250061
95	0xbe5f3640	-0.21798038
96	0xbe33f231	-0.17572857
97	0xbe0f7857	-0.1401075
98	0xbe3fbd1c	-0.18724483
99	0xbde61107	-0.112337165
100	0x3e961dcf	0.29319617
101	0x3e7efbef	0.24900793
102	0x3dd2989d	0.10283015
103	0xbcef6aac	-0.02922567
104	0x3e451181	0.19244958
105	0xbe9bb3bf	-0.30410573
106	0x3c966ffa	0.018363941
107	0xbe1f3fd6	-0.15551695
108	0x3e0c8f3a	0.13726512
109	0xbe58119a	-0.21100464
110	0x3e94e325	0.29079548
111	0xbdc2ca7e	-0.095112786
112	0xbe2a3de0	-0.16625166
113	0x3e5cb335	0.21552737
114	0x3e1c8402	0.15284732
115	0x3dfbcbae	0.12294708
116	0xbdc61b12	-0.09673132
117	0xbe1950ed	-0.14972277
118	0xbe380c57	-0.17973457
119	0x3e365bfa	0.17808524
120	0xb8d52da2	-0.00010165131
121	0xbe629cd7	-0.22130142
122	0x3de32588	0.11091143
123	0xbd89ab2c	-0.067221016
124	0xbe3a4dcc	-0.1819374
125	0x3e03a993	0.12857656
126	0x3e872a1f	0.26399323
127	0xbc6f408c	-0.0146027915
128	0xbc316b0c	-0.010828745
129	0xbd407d7f	-0.046994682
130	0x3e39622f	0.1810386
131	0xbe18d3f0	-0.14924598
132	0x3dfd4139	0.12365956
133	0x3e204b1e	0.15653655
134	0x3e8aa4f1	0.27078965
135	0xbe0b366a	-0.13594976
136	0xbdebdd8f	-0.11516868
137	0xbe82f358	-0.25576282
138	0x3d642cb4	0.055706695
139	0xbe2ebbe4	-0.17063862
140	0xbe852d51	-0.26011136
141	0x3e6eb703	0.23312001
142	0xbc6a6277	-0.014305702
143	0xbcc5ed5e	-0.024161037

encoder.0.bias f4 [16]
0	0xbe196309	-0.14979185
1	0x3e435096	0.1907371
2	0x3e57288c	0.21011561
3	0x3e8c8797	0.27447197
4	0x3e07977b	0.13241379
5	0xbe5435a3	-0.20723586
6	0x3e8fd80f	0.28094527
7	0xbe707b4f	-0.23484538
8	0x3e8aa0ad	0.2707571
9	0x3e3ffab9	0.18747987
10	0xbe6f36de	-0.23360774
11	0xbea95e38	-0.33079696
12	0xbe219be2	-0.15782121
13	0x3e06f5f5	0.13179763
14	0xbbd8eb07	-0.0066198143
15	0x3dc5f5b6	0.09666006

encoder.2.weight f4 [32, 16, 3, 1]
0	0xbdadab77	-0.0847997
1	0x3cf6c05f	0.030121027
2	0x3de93343	0.113867305
3	0xbd251ecc	-0.040312573
4	0x3b579a7e	0.003289848
5	0xbdcf7a88	-0.10130793
6	0x3d28aaf3	0.041178655
7	0x3ce3831b	0.027772477
8	0xbda479e2	-0.0803106
9	0xbc3b96e6	-0.011449551
10	0x3deceb5d	0.115683295
11	0xbd803651	-0.0626036
12	0x3d502fa7	0.050826695
13	0xbddd2fb2	-0.10800113
14	0xbe107692	-0.14107731
15	0x3d99afe4	0.075042516
16	0x3bb8f351	0.00564424
17	0xbe009690	-0.12557435
18	0xbd54e074	-0.051971868
19	0xbd830f80	-0.06399441
20	0x3dc20412	0.094734326
21	0xbd2139af	-0.039361652
22	0xbc0efbbf	-0.008727013
23	0x3df1b077	0.11801236
24	0xbdc5eef9	-0.09664721
25	0xbe04b661	-0.12960197
26	0x3d975559	0.07389326
27	0xbe1799dd	-0.14804788
28	0x3d990f35	0.07473604
29	0xbd0644e5	-0.032780547
30	0xbcdb97d6	-0.0268058
31	0xbd2e6533	-0.04257698
32	0xbd019608	-0.03163722
33	0xbd7e45b4	-0.062078193
34	0xbc3949ac	-0.011309069
35	0xbc6ceb7f	-0.0144604435
36	0x3dc4b141	0.09604121
37	0x3c84d9c5	0.016217122
38	0xbe04f238	-0.12983024
39	0xbdd4d5c0	-0.10392332
40	0xbd209497	-0.039204206
41	0x3d8a643e	0.06757401
42	0xbd9b7e74	-0.075924784
43	0x3e04af4f	0.129575
44	0xbd19d436	-0.037555896
45	0xbc1baca9	-0.009501615
46	0xbd6646f5	-0.056220014
47	0xbdacfd6d	-0.08446775
48	0xbe07dd2d	-0.13267966
49	0x3c8a43bd	0.016878003
50	0xbd2a0f92	-0.041518755
51	0x3d80f796	0.06297223
52	0xbe0e0c6d	-0.13871928
53	0xbde4f2ce	-0.11179124
54	0x3bc0847d	0.005875169
55	0x3c3ad31a	0.01140287
56	0xbd9cfb3c	-0.07665107
57	0xbce74d93	-0.028235232
58	0x3e062084	0.13098341
59	0x3d6880e6	0.056763552
60	0xbd736a08	-0.05942729
61	0x3b61e96f	0.0034471413
62	0x3dbedae5	0.093190946
63	0xbd0e0522	-0.034672864
64	0x3dc7d490	0.0975734
65	0xbd9f202e	-0.0776981
66	0x3d93490f	0.07191669
67	0xbe06fa2f	-0.13181375
68	0xbdb09bff	-0.08623504
69	0xbd024ed8	-0.031813473
70	0x3de55a12	0.1119882
71	0xbd44f512	-0.04808528
72	0xbde58872	-0.112076655
73	0xbd0c37f5	-0.034233052
74	0xbd8a7bb2	-0.06761874
75	0x3c9d3b7c	0.019193403
76	0x3db93a1b	0.09044286
77	0x3d529a13	0.051416468
78	0x3d3f7c48	0.046749383
79	0x3dd7d1ec	0.10538086
80	0x3d7a2a9c	0.06107579
81	0xbe10fc30	-0.14158702
82	0xbe0e386d	-0.13888712
83	0x3db5308c	0.0884715
84	0x3cba0128	0.02270563
85	0xbda8ecb6	-0.08248274
86	0x3cbd838a	0.023134012
87	0xbd76baf7	-0.060236897
88	0xbd9f991b	-0.077928744
89	0x3dc33a4f	0.09532606
90	0xbdc13f19	-0.09435863
91	0xbe044b7d	-0.12919421
92	0x3d9cb79d	0.07652209
93	0x3d795336	0.06087037
94	0xbd848583	-0.06470778
95	0x3d0f8d48	0.035046846
96	0x3dce03b8	0.10059303
97	0xbdb75ec6	-0.089536235
98	0xbdb46a5b	-0.08809348
99	0xbda21cbe	-0.079156384
100	0x3dcb95c4	0.09940675
101	0x3d192142	0.037385233
102	0x3d635ec5	0.0555103
103	0xbcacd3ee	-0.02109715
104	0x3dac99c4	0.08427766
105	0x3d78d822	0.060752995
106	0xbd85c6a6	-0.0653203
107	0x3b97410d	0.004615909
108	0x3db48aaa	0.088155106
109	0x3c0e519e	0.008686451
110	0xbd8b4abc	-0.06801364
111	0xbe0d24de	-0.13783595
112	0x3e080596	0.13283381
113	0xbd4af5cb	-0.049550813
114	0x3dc0d3a7	0.094153695
115	0x3dde6d6f	0.108607166
116	0xbdaef648	-0.08543068
117	0xbe0ce6f6	-0.1375998
118	0xbdd0b3f9	-0.10190577
119	0xbd629684	-0.055319324
120	0x3d8e86e6	0.069593236
121	0xbda0bb5f	-0.07848238
122	0xbe0845e5	-0.13307913
123	0x3da8ba42	0.08238651
124	0xbd42337b	-0.047412377
125	0x3cdac72b	0.026706299
126	0x3e05817f	0.1303768
127	0xbd5a0769	-0.053229723
128	0xbddbf91a	-0.10740872
129	0x3ce12427	0.02748306
130	0x3d90bcef	0.07067286
131	0x3dd89579	0.10575385
132	0x3c1f6369	0.009728291
133	0xbd9054b0	-0.07047403
134	0x3dc9ea17	0.09859102
135	0xbab56bdb	-0.0013841348
136	0xbd95b46f	-0.073098056
137	0x3d97db2a	0.07414849
138	0xbd86e047	-0.06585746
139	0xbddfbf61	-0.109251745
140	0xbe0d9144	-0.13824946
141	0xbc2defa0	-0.010616213
142	0xbd8be919	-0.06831569
143	0xbdaa0f1a	-0.08303662
144	0x3de1c191	0.11023248
145	0x3c81f4ed	0.01586386
146	0x3d20f0f3	0.039292287
147	0x3df83992	0.12120356
148	0xbe1b4643	-0.15163521
149	0x3d38e99e	0.04514467
150	0xbb369f56	-0.0027865968
151	0x3daa936e	0.08328901
152	0xbe12439a	-0.142836
153	0x3e055642	0.13021186
154	0xbdf06fab	-0.11740049
155	0xbde4bf63	-0.111693166
156	0x3d4ad325	0.04951777
157	0xbd3abb0b	-0.045588534
158	0xbcd35ee0	-0.025802076
159	0xbd8ce0ad	-0.06878791
160	0xbe0142c6	-0.12623128
161	0x3c7bca4e	0.015368057
162	0xbd1fc31d	-0.039004434
163	0xbd1aec81	-0.037823204
164	0xbd8ea7fc	-0.06965634
165	0x3cff6732	0.031177137
166	0x3df1c987	0.118060164
167	0x3d894a70	0.06703651
168	0x3d3527f6	0.044227563
169	0x3dc4bec2	0.09606697
170	0xbc1b2620	-0.009469539
171	0xbe086198	-0.13318479
172	0xbdbb81af	-0.091555946
173	0x3db34111	0.08752645
174	0xbd6e4d86	-0.0581794
175	0x3d9ae085	0.07562355
176	0xbda2384d	-0.07920895
177	0xbc192b97	-0.009348772
178	0xbbdfd3eb	-0.0068306825
179	0x3d9d6dd4	0.07686964
180	0xbcfaba0e	-0.030606296
181	0x3d4300e3	0.047608268
182	0xbdaf6fbd	-0.08566234
183	0xbd5a5fae	-0.053313904
184	0xbdcf4f9e	-0.10122608
185	0xbe0da987	-0.13834201
186	0xbd5ee350	-0.054416
187	0xbd7c115f	-0.061540004
188	0x3d125267	0.035723116
189	0xbda7e7d5	-0.08198515
190	0x3cfeee1e	0.031119402
191	0xbda38918	-0.07985133
192	0xbceab68a	-0.028651495
193	0x3c952cbe	0.018209811
194	0xbd899038	-0.06716961
195	0xbc9a30b5	-0.018822053
196	0xbd05663c	-0.0325682
197	0x3d90c495	0.07068745
198	0x3d99b699	0.07505531
199	0x3db1d2f1	0.08682812
200	0xbd762c0b	-0.060100596
201	0xbdd1b4da	-0.10239573
202	0xbd4c6251	-0.04989845
203	0xbca1a86d	-0.019733632
204	0x3d00cf57	0.031447735
205	0xbd432a55	-0.047647793
206	0xbd9e5340	-0.077307224
207	0x3d5230b3	0.051315974
208	0xbdb16d83	-0.08663466
209	0x3dc93c8c	0.098260015
210	0xbda11589	-0.07865436
211	0x3d8df6ae	0.06931816
212	0xbd1edc00	-0.038784027
213	0xbd27c394	-0.040958002
214	0x3e05a252	0.13050202
215	0x3db23ce9	0.08703024
216	0xbc9ed206	-0.019387256
217	0x3db0be4f	0.086300485
218	0xbe003f61	-0.12524177
219	0x3db14c84	0.08657172
220	0x3dafc235	0.08581964
221	0xbd508779	-0.050910447
222	0xbda67f23	-0.08129718
223	0xbdbd69ff	-0.09248733
224	0xbd7eb103	-0.06218053
225	0x3cd8cd5f	0.026465116
226	0x3b738e45	0.0037163657
227	0x3de13ad7	0.10997551
228	0xbdbbc0cf	-0.09167635
229	0x3cdbf340	0.02684939
230	0x3d0a6948	0.03379181
231	0xbdf08411	-0.1174394
232	0xbd1c43c7	-0.038150575
233	0xbd89e90b	-0.067339025
234	0xbd6f8cb1	-0.058483783
235	0xbc877e4a	-0.016539712
236	0x3daac0d5	0.08337561
237	0xbda3d59c	-0.07999727
238	0x3d004f08	0.03132537
239	0x3cebc907	0.02878238
240	0x3de55bfb	0.111991845
241	0x3da4ec8c	0.0805293
242	0xbdf8c74d	-0.121473886
243	0x3e058076	0.13037285
244	0xbdda0822	-0.106460825
245	0xbd47dec1	-0.04879642
246	0x3ccce444	0.02501119
247	0x3dab85b5	0.08375112
248	0xbdcf910c	-0.10135087
249	0xbd8517f1	-0.06498707
250	0x3d57a789	0.05265001
251	0xbde504a6	-0.11182527
252	0xbda4e92a	-0.08052285
253	0x3dd78e19	0.1052515
254	0xbceccde8	-0.028906778
255	0x3dcf764e	0.10129987

encoder.2.bias f4 [32]
0	0xbbd34e4e	-0.0064485436
1	0xbd462dee	-0.048383646
2	0x3c8b476c	0.01700183
3	0xbe123185	-0.14276703
4	0xba9acaf1	-0.0011809749
5	0x3e014963	0.12625651
6	0x3d2c3cf2	0.04205031
7	0xbda46d0a	-0.0802861
8	0x3cb42ce6	0.021994065
9	0x3d9067fb	0.07051083
10	0xbd9a0392	-0.07520212
11	0xbd3b89a0	-0.045785546
12	0x3c5123f5	0.0127649205
13	0x3cdb694a	0.026783604
14	0x3de5c01d	0.11218283
15	0x3d271105	0.040787715
16	0xbe03c83a	-0.12869349
17	0xbcc343b4	-0.023835994
18	0x3d4c9034	0.04994221
19	0x3d6dbdb8	0.058042258
20	0xbd1e196e	-0.03859847
21	0x3ce3dd20	0.027815402
22	0x3dca090c	0.09865007
23	0xbc9aa4e2	-0.01887745
24	0x3d402249	0.046907697
25	0xbe0e3b22	-0.13889745
26	0xbdc76a08	-0.09737021
27	0xbddf5ddb	-0.109065734
28	0xbe0869d0	-0.13321614
29	0xbd9579b6	-0.07298605
30	0xbe1348d6	-0.14383253
31	0xbda7cc78	-0.08193296

encoder.4.weight f4 [64, 32, 3, 1]
0	0x3d500e7a	0.050795056
1	0x3c4cc89f	0.012499004
2	0xbd8ccfd0	-0.068755746
3	0xbd98b03b	-0.07455488
4	0x3d51c5e3	0.05121411
5	0x3c585a6e	0.013205154
6	0x3d1486ed	0.036261488
7	0xbd98c119	-0.074587055
8	0x3da0d1e6	0.07852535
9	0x3d5b60ee	0.053559236
10	0xbddcb21c	-0.10776159
11	0xbdb1ceb2	-0.08682002
12	0xbd6a066f	-0.05713504
13	0xbdc5a60d	-0.09650812
14	0x3bc658e6	0.006053078
15	0x3dab6807	0.08369451
16	0x3db661e2	0.089053884
17	0x3d47c912	0.04877574
18	0xbd03190c	-0.03200631
19	0xbcc687c4	-0.02423466
20	0x3da32b46	0.07967238
21	0xbd463a3a	-0.048395373
22	0xbcee39dd	-0.029080326
23	0xbd1da235	-0.03848477
24	0xbd9a7463	-0.0754173
25	0xbca03bdc	-0.019559793
26	0xbda814ea	-0.08207114
27	0xbd24c65b	-0.04022823
28	0xbda7232b	-0.08161005
29	0xbde0d377	-0.10977834
30	0x3bbbcbcc	0.0057310816
31	0x3d1cec71	0.038311426
32	0x3bc8466e	0.0061119115
33	0xbd8ed6fc	-0.06974599
34	0x3c9d93f8	0.019235596
35	0xbc9c8816	-0.01910786
36	0x3c887f05	0.01666213
37	0x3d41918e	0.047257952
38	0x3d4ea511	0.05045039
39	0xbd9e8df2	-0.07741918
40	0xbd2b44ca	-0.04181365
41	0xbdb44279	-0.08801741
42	0xbd5135cb	-0.05107669
43	0xbd813fe0	-0.06311011
44	0xbd84a7cc	-0.06477317
45	0xbc14c5e0	-0.00908038
46	0xbc11d495	-0.008900781
47	0x3ce74505	0.028231153
48	0xbd72dbc7	-0.059291627
49	0xbd7dcfd5	-0.061965782
50	0xbdab53bc	-0.083655804
51	0xbdaccb23	-0.08437183
52	0x3cc12015	0.023574868
53	0x3cd263fa	0.025682438
54	0x3d65d35b	0.056109767
55	0x3d175e7c	0.03695534
56	0x3d84de13	0.0648767
57	0xbddf4041	-0.10900927
58	0xb95ef4e0	-0.00021262793
59	0x3da6bba3	0.081412576
60	0x39455fca	0.00018823068
61	0xbda6780f	-0.08128368
62	0x3c788f34	0.015170861
63	0x3c53c962	0.012926431
64	0xbd9051dd	-0.07046864
65	0x3da4960c	0.08036432
66	0xbcb634c0	-0.02224195
67	0x3d8b59ed	0.06804261
68	0xbcd664e5	-0.026171157
69	0xbda8640e	-0.08222209
70	0x3d8af679	0.06785292
71	0xbd584490	-0.05279976
72	0x3c9c03bf	0.019044755
73	0xbd2eea8c	-0.04270415
74	0x3d2643a6	0.04059186
75	0xbdb1a0f8	-0.086732805
76	0x3d232607	0.039831188
77	0xbc49fb11	-0.012327925
78	0xbdd051ff	-0.101718895
79	0x3ca8bcae	0.020597782
80	0xbdce8485	-0.1008387
81	0xbcb943ed	-0.022615397
82	0xbdb6cb90	-0.08925545
83	0xbc12af69	-0.008952954
84	0x3d99ccb4	0.07509747
85	0xbb56fa69	-0.0032803065
86	0xbd95dc18	-0.0731737
87	0xbdd4e9aa	-0.103961304
88	0x3d45e15d	0.048310626
89	0xbd977ab9	-0.07396454
90	0xbdd3a27f	-0.10333728
91	0xbdc4adef	-0.09603488
92	0xbcc3eb16	-0.023915809
93	0x3da49309	0.08035857
94	0x3d4f8fee	0.05067437
95	0xbdbe2195	-0.09283749
96	0xbcd84cb1	-0.026403757
97	0xbd3e2aa5	-0.046427388
98	0x3d0e46be	0.034735434
99	0xbcbf677a	-0.023364771
100	0x3db11763	0.08647039
101	0x3d83dbdc	0.06438419
102	0x3d8def47	0.06930404
103	0x3cf609d2	0.03003398
104	0x3c31b94a	0.010847399
105	0x3caa39dc	0.020779543
106	0x3d956b73	0.07295885
107	0x3d2744f6	0.04083725
108	0xbdde4407	-0.10852819
109	0xbdc6176e	-0.096724376
110	0xbd1ccf07	-0.038283374
111	0x3c7fd3ff	0.015614509
112	0xbcfde0c0	-0.030990958
113	0xbd7e05c8	-0.062017232
114	0x3cf54929	0.029942112
115	0xbdd3236a	-0.10309489
116	0xbdc4e2d0	-0.096135736
117	0x3c8c6724	0.017139025
118	0x3badfb21	0.005309478
119	0x3da3563d	0.07975433
120	0xbd1b1e40	-0.037870646
121	0x3c3f084e	0.011659695
122	0x3da0555d	0.07828782
123	0x3db6062e	0.088878974
124	0xbda2acf1	-0.07943142
125	0x3d1d2637	0.038366523
126	0xbb13da7f	-0.0022560654
127	0x3d6249fe	0.055246346
128	0x3b108708	0.002205314
129	0x3d2e6f33	0.042586517
130	0xbc17345e	-0.009228794
131	0x3d72c39f	0.05926859
132	0xbcc02e56	-0.023459595
133	0xbda2fe80	-0.07958698
134	0x3c98c59c	0.018648915
135	0xbb7ddd37	-0.003873659
136	0x3d8bc016	0.06823747
137	0x3d26c5eb	0.040716093
138	0xbd02febf	-0.031981226
139	0x3c67a0d8	0.014137469
140	0x3d7d2a02	0.06180764
141	0xbdce2ad7	-0.10066765
142	0xbc7bf78a	-0.015378842
143	0xbdbb6e9e	-0.09151958
144	0xbd29756c	-0.041371748
145	0x3da05787	0.078291945
146	0x3d9279ad	0.07152114
147	0x3da2feb2	0.079587355
148	0x39b73a7d	0.00034948057
149	0xbced86a4	-0.028994866
150	0xbd38a9bd	-0.04508375
151	0xbca776f6	-0.020442467
152	0xbaafa83a	-0.0013401576
153	0x3d084d69	0.03327695
154	0x3d5825a2	0.052770264
155	0xbdb0b830	-0.08628881
156	0xbd719845	-0.058983106
157	0xbdd2eca8	-0.10299045
158	0x3d6e9ee5	0.058257002
159	0x3dba0257	0.090824775
160	0x3bf5657b	0.007488904
161	0xbd088aa4	-0.033335343
162	0x3db91998	0.09038085
163	0x3d0e7aeb	0.034785192
164	0xbd9e1d1b	-0.07720395
165	0xbb5dbb46	-0.0033833547
166	0x3d04ccaf	0.032421764
167	0xbdd17e19	-0.10229129
168	0xbd69d5c0	-0.057088614
169	0x3b81f875	0.003966386
170	0xbdb52549	-0.08845002
171	0x3dc4c019	0.09606952
172	0xbdd95b69	-0.10613138
173	0xbd67b436	-0.056568347
174	0xbdd56e86	-0.10421471
175	0x3c9dc76d	0.019260133
176	0x3db21b72	0.08696641
177	0xbd381c9d	-0.044949163
178	0xbd9b10e1	-0.07571579
179	0x3d5dd90c	0.05416207
180	0x3d385498	0.04500255
181	0xbca3ac5c	-0.019979648
182	0xbdbc47cf	-0.09193384
183	0x3db71e88	0.0894137
184	0xbc1a2773	-0.0094088195
185	0xbcaf9c8b	-0.02143695
186	0x3c4f40fd	0.012649772
187	0x3d672ff6	0.056442223
188	0x3d976899	0.07392997
189	0xbdb00c44	-0.085960895
190	0xbc1d8784	-0.009614829
191	0xbce504ec	-0.027956448
192	0xbdc41687	-0.09574609
193	0xbd5e2648	-0.054235727
194	0x3c930ec5	0.017951379
195	0x3da573d5	0.08078734
196	0x3d212ac7	0.039347436
197	0x3987bf8a	0.00025891914
198	0xbc52eea4	-0.012874279
199	0x3dad4d91	0.0846206
200	0x3d5c2228	0.05374351
201	0xbb4be4c5	-0.00311117
202	0xbc24b8a2	-0.0100537855
203	0xbd1ceacb	-0.038309854
204	0x3d81be9c	0.06335184
205	0x3d8f1b49	0.06987626
206	0xbc5df2ec	-0.013546687
207	0x3d45ffd9	0.0483397
208	0x3dab1c32	0.08354987
209	0xbd57f62f	-0.052725013
210	0x3d836b36	0.06416933
211	0xbdaf9939	-0.08574147
212	0xbdda553f	-0.10660791
213	0x3d8b3752	0.06797661
214	0xbbe72b92	-0.0070547545
215	0xbd5c18b9	-0.053734515
216	0xbd98627b	-0.07440659
217	0xbdb903e4	-0.09033945
218	0xbdcd1230	-0.100132346
219	0xbd0da286	-0.034578823
220	0xbdb313a1	-0.08743978
221	0xbdca6765	-0.09883002
222	0x3d378a17	0.044809427
223	0xbd04da88	-0.03243497
224	0xbcee47d8	-0.029086992
225	0xbda0cfe0	-0.07852149
226	0xbcff5f29	-0.031173306
227	0xbd511ce9	-0.05105296
228	0x3c08c6f2	0.0083482135
229	0xbce52f52	-0.027976666
230	0xbd1425d0	-0.036168873
231	0x3be9cee1	0.0071352576
232	0x3d5580ca	0.052124776
233	0x3ce298e1	0.027660789
234	0xbd03f3c6	-0.032214902
235	0xbce55966	-0.02799673
236	0x3d61bbca	0.05511073
237	0x3c270592	0.010194199
238	0x3daf1138	0.08548206
239	0xbdc22290	-0.094792485
240	0xbcf372b9	-0.02971779
241	0xbd961a57	-0.07329243
242	0x3d67abdb	0.05656038
243	0xbd378f45	-0.044814367
244	0x3b7d9165	0.0038691398
245	0x3b262832	0.0025353548
246	0x3dbbf9c4	0.091784984
247	0xbdc2044c	-0.09473476
248	0x3d36de41	0.04464555
249	0xbda5db9b	-0.08098527
250	0xbbf4510c	-0.0074559506
251	0xbcbb9f82	-0.022903208
252	0xbd4e8e13	-0.05042846
253	0xbdbefeb1	-0.09325922
254	0x3cca50ca	0.024696726
255	0x3da8657e	0.08222483

encoder.4.bias f4 [64]
0	0xbd3224cf	-0.043492135
1	0xbdc6c5d2	-0.097057
2	0xbc35df41	-0.011100591
3	0xbd4cfac8	-0.05004385
4	0xbda17659	-0.07883901
5	0xbc839609	-0.016062753
6	0xbd106d07	-0.035260227
7	0xbcebc16f	-0.02877876
8	0xbd716fcb	-0.058944505
9	0xbd71d6f9	-0.059042905
10	0xbdbaa900	-0.091142654
11	0x3dc3b486	0.095559165
12	0x3d3b24a8	0.045689255
13	0xbd12aa27	-0.0358068
14	0xbcd2f9a7	-0.02575381
15	0xbccad7f9	-0.024761187
16	0x3bad0d3c	0.0052811187
17	0xbd1cfce2	-0.038327105
18	0xbca890d4	-0.020576872
19	0x3c15ac1b	0.009135271
20	0x3d0f994d	0.03505831
21	0x3dbb479c	0.09144518
22	0x3cb234bc	0.021753661
23	0xbd87c644	-0.06629613
24	0xbb90dfda	-0.0044212164
25	0xbd243dd0	-0.04009801
26	0xbdc047f4	-0.09388724
27	0xbd57a431	-0.05264682
28	0x3bf95927	0.0076095047
29	0xbd86d22b	-0.06583055
30	0x3d2e699e	0.042581193
31	0x3d9de728	0.07710105
32	0xbdb627ae	-0.08894287
33	0x3db4cf2c	0.088285774
34	0x3cd03ce1	0.025419654
35	0xbd31e3ee	-0.04343026
36	0x3d129a70	0.035791814
37	0x3d8ac4e3	0.067758344
38	0xbc22af8c	-0.009929549
39	0xbd33d334	-0.04390259
40	0x3940d77f	0.00018390825
41	0xbced1c09	-0.028944032
42	0x3d7679d7	0.06017479
43	0x3cf56d3e	0.029959317
44	0x3c868044	0.016418584
45	0x3d4c9bd3	0.049953293
46	0xbc746019	-0.01491549
47	0xbcaa77b5	-0.020809034
48	0xbc4a8f7d	-0.012363312
49	0x3d96a464	0.07355574
50	0xbafd955a	-0.0019346878
51	0x3d83d1e2	0.06436516
52	0xbd64a337	-0.055819716
53	0x3d959c11	0.07305158
54	0xb8bc6276	-8.982878e-05
55	0x3b9baad5	0.0047505894
56	0xbc953c5a	-0.018217254
57	0xbd6cde47	-0.057829168
58	0x3c908070	0.017639369
59	0xbca4caf5	-0.020116309
60	0xbc378215	-0.011200448
61	0xbd49c144	-0.049256578
62	0xbd6702ed	-0.056399275
63	0x3c1f6c28	0.009730376

encoder.6.weight f4 [128, 64, 3, 1]
0	0x3c2b86c9	0.010469147
1	0xbd1a785d	-0.037712444
2	0xbc459643	-0.012059751
3	0xbd94b360	-0.072607756
4	0x3ceb2a4c	0.028706692
5	0xbc302012	-0.010749834
6	0x3cbf3f50	0.02334562
7	0x3c1159c3	0.0088714985
8	0xbd14fea9	-0.036375675
9	0xbcdd5d50	-0.027022034
10	0x3cf7196f	0.030163495
11	0xbc9c6d40	-0.019095063
12	0x3d339fca	0.04385356
13	0xba7b6530	-0.0009589968
14	0x3d132ba2	0.035930283
15	0xbd96c4e0	-0.0736177
16	0x3b547741	0.0032419714
17	0xbbf6635d	-0.0075191692
18	0xbd691f78	-0.056914777
19	0x3d87d8cd	0.06633148
20	0xbcb009b7	-0.021489007
21	0x3d1d128b	0.038347762
22	0x3c8ca3a3	0.017167872
23	0xbd8e5c9b	-0.06951257
24	0xbb7e23f7	-0.003877876
25	0x3d76b023	0.06022657
26	0xbb0482f6	-0.002021966
27	0x3d17cb6f	0.037059244
28	0x3cb348a0	0.021885216
29	0x3d3afffa	0.045654275
30	0xbd809404	-0.06278232
31	0x3b5765d1	0.0032867084
32	0xbc607ab6	-0.013701132
33	0xbb313e40	-0.002704516
34	0xbd5bba75	-0.053644616
35	0xbd84411a	-0.0645773
36	0x3c287ba8	0.010283388
37	0xbd991e76	-0.07476513
38	0x3c9a1d75	0.018812874
39	0x3cc2a9f4	0.02376268
40	0x3c94758d	0.018122459
41	0xbd5d6d62	-0.054059394
42	0xbd68b1af	-0.056810077
43	0xbcc91a9d	-0.024548823
44	0xbd241bf6	-0.040065728
45	0x3a61b0fb	0.0008609441
46	0xbd066a61	-0.032816295
47	0x3ced90e4	0.028999753
48	0xbc32a2ee	-0.010903103
49	0x3d26e448	0.04074505
50	0x3d42ed77	0.047589745
51	0x3cdafc77	0.026731713
52	0xbd3d3911	-0.046197
53	0x3d1d98b5	0.03847571
54	0x3cc43b71	0.023954125
55	0x3d07d7d2	0.033164807
56	0x3d51a7ee	0.05118554
57	0xbd9e2507	-0.07721906
58	0xbc6c51e0	-0.014423817
59	0xbc3e2741	-0.011606039
60	0xbd2cad7b	-0.04215763
61	0x3c9fde30	0.019515127
62	0xbc5c69f0	-0.013452992
63	0xbd019666	-0.03163757
64	0x3c60ba7f	0.013716339
65	0x3c847adc	0.016171865
66	0xbd4779fb	-0.048700314
67	0xbce21e56	-0.027602356
68	0x3cee1b4f	0.029065756
69	0xbd0d451b	-0.034489732
70	0x3c6f6a51	0.01461275
71	0xbd24f462	-0.040272124
72	0x3d44c9af	0.048043903
73	0xbd969186	-0.07351975
74	0x3b8e199d	0.0043365494
75	0xbd5c375e	-0.05376374
76	0xbc37671b	-0.011194016
77	0x3d047337	0.03233644
78	0x3cc7638d	0.024339462
79	0x3afb9a2e	0.0019195729
80	0xbd89c7df	-0.067275755
81	0x3907d8d0	0.00012955372
82	0x3d85d16d	0.065340854
83	0x3d306a68	0.043070227
84	0x3d784a10	0.060617507
85	0xbd2a7ab4	-0.041620925
86	0xbc385775	-0.01125132
87	0x3d2a2657	0.04154047
88	0x3a83c713	0.0010053836
89	0xbbed660b	-0.0072448305
90	0xbd002917	-0.031289186
91	0x3cb181e7	0.021668388
92	0xbd1f9cbd	-0.038967837
93	0xbd658151	-0.05603153
94	0xbd8147fa	-0.063125566
95	0x3d50195d	0.05080544
96	0xbce18b55	-0.027532259
97	0xbd499358	-0.049212784
98	0x3c763465	0.01502714
99	0xbd86f454	-0.06589571
100	0xbd189ef4	-0.037260965
101	0x3ca463dc	0.020067148
102	0xbd926e90	-0.071499944
103	0x3c8729e7	0.016499473
104	0x3c42a5d6	0.011880359
105	0xbd2098b1	-0.039208118
106	0x3d237742	0.039908655
107	0x3d9d050d	0.07666979
108	0x3b3d2176	0.0028859056
109	0x3c16441a	0.00917151
110	0xbd0028d0	-0.03128892
111	0xbd442407	-0.04788592
112	0xbc8083c2	-0.015687827
113	0xbd7eb49f	-0.062183972
114	0xbd48b664	-0.049002066
115	0xbb713f00	-0.0036811233
116	0xbd8ccfbf	-0.06875562
117	0x3b24cc0a	0.002514603
118	0xbd71f01a	-0.05906687
119	0xbcde7898	-0.027157113
120	0x3a189373	0.00058203115
121	0xbb1a87a0	-0.0023579374
122	0x3bde40ed	0.006782642
123	0xbd27a378	-0.04092738
124	0x3c9341bf	0.017975686
125	0x3d444d43	0.047925245
126	0xbbfdc6a8	-0.007744629
127	0xbc53ba04	-0.012922768
128	0xbd7fc967	-0.06244793
129	0xbbb6f192	-0.0055829966
130	0xbac8621c	-0.0015288028
131	0x390b15d6	0.00013264208
132	0x3d114e5c	0.03547512
133	0x3d331a43	0.043726217
134	0xbd69bd8e	-0.05706554
135	0xbcbba907	-0.022907747
136	0x3d7cebe3	0.061748397
137	0x3d6d6a47	0.057962682
138	0x3c3f158f	0.011662855
139	0x3b701214	0.003663187
140	0x3d1b0267	0.037844088
141	0x3b4309bc	0.002976044
142	0x39deca52	0.0004249388
143	0xbd5e5bff	-0.054286953
144	0x3d22a970	0.03971237
145	0xbcbdfbcc	-0.023191355
146	0xbd228370	-0.03967613
147	0xbc9d5426	-0.019205164
148	0xbc1bd7a0	-0.009511858
149	0x3d011e7b	0.03152321
150	0x3d68d413	0.056842875
151	0xbd71d95c	-0.05904518
152	0xbcf00673	-0.02929995
153	0x3d535f80	0.051604748
154	0xbbf700e4	-0.007537948
155	0x3d1130b2	0.03544683
156	0x3d7c10b3	0.061539363
157	0xbd3b9512	-0.04579646
158	0xbcaf2d05	-0.021383772
159	0x3c533f7c	0.012893554
160	0x3d113bc2	0.03545738
161	0x3d08eaa6	0.033426903
162	0xbd9604c9	-0.073251314
163	0x3b22a269	0.0024816042
164	0x3d716ae8	0.058939844
165	0x3c80a70d	0.015704656
166	0x3d75a900	0.059975624
167	0xbd973303	-0.073827766
168	0xbc27d632	-0.010243939
169	0x37c1446b	2.3039252e-05
170	0x3b4c2ab3	0.003115338
171	0x3bd6f84b	0.0065603605
172	0x3cab56ee	0.020915475
173	0xbcbd557b	-0.02311205
174	0xbcaf448e	-0.021394994
175	0x3cceeb64	0.025258727
176	0x3d4441d3	0.047914337
177	0xbbf59607	-0.0074946913
178	0xbc930b7a	-0.017949808
179	0xbd7359b8	-0.059411734
180	0x3c06e854	0.008234102
181	0xbd104b44	-0.03522803
182	0xbc19a09f	-0.009376674
183	0xbc87e756	-0.016589802
184	0x3c66d9be	0.01409
185	0xbd17f5ac	-0.037099525
186	0xba94f457	-0.0011364323
187	0xbcd0a2e9	-0.025468307
188	0x3d1ebbeb	0.03875343
189	0x3d303d80	0.0430274
190	0xbd338d2e	-0.04383581
191	0xbd842afa	-0.0645351
192	0x3d1bf92c	0.038079426
193	0xbd1ebd19	-0.038754556
194	0x3d434951	0.04767734
195	0x3d58edea	0.052961268
196	0xbc4bce27	-0.012439287
197	0xba43394e	-0.0007447199
198	0xbc3334e1	-0.0109379
199	0x3bbada49	0.005702291
200	0x3d80bf50	0.0628649
201	0x3c0a72dc	0.008450236
202	0x3c3ba6a1	0.011453302
203	0xbcba522c	-0.02274426
204	0xbd2ed363	-0.042682063
205	0xbb19fe25	-0.002349743
206	0x3c56d931	0.013113306
207	0xbd1d9cd9	-0.03847966
208	0x3d871974	0.06596652
209	0xbd113fa3	-0.03546108
210	0xbd7a31b8	-0.06108257
211	0xbd029d22	-0.031888135
212	0xbcbba9aa	-0.02290805
213	0x3d4fcf1b	0.05073462
214	0x3d6ccf33	0.057814788
215	0xbcb4e86e	-0.022083487
216	0x3d5e2edc	0.054243907
217	0xbcb83609	-0.022486703
218	0x3c261266	0.0101362225
219	0x3cd76edb	0.026297977
220	0xbd3c6565	-0.045995135
221	0xbd4cf54f	-0.050038632
222	0x3d176790	0.036964
223	0x3d1df8ca	0.038567342
224	0x3ccd4598	0.025057599
225	0x3d02d37f	0.03193998
226	0x3d01455a	0.03156028
227	0xbd85b881	-0.06529332
228	0xbc6d9cf5	-0.0145027535
229	0xbd74f089	-0.059799705
230	0x3d2cee60	0.04221952
231	0xbcb24bba	-0.021764625
232	0x3da266a2	0.07929732
233	0x3d6b0466	0.05737724
234	0x3cfa2503	0.030535227
235	0xbcdd4b0e	-0.027013328
236	0x3d63d76b	0.05562536
237	0xbd171f39	-0.03689501
238	0xbb10d0e8	-0.0022097174
239	0x3cb24d7a	0.02176546
240	0xbb1d9578	-0.002404539
241	0xbd287861	-0.041130427
242	0xbd14cba2	-0.036327012
243	0x3cd986ef	0.0265536
244	0x3b0ade3c	0.002118959
245	0xbcd2cdbe	-0.025732871
246	0x3d86dee3	0.06585481
247	0x3d5545b9	0.052068446
248	0x3d85ed6e	0.06539427
249	0x3d17e79f	0.037086125
250	0x3d22357d	0.03960179
251	0xbd761119	-0.0600749
252	0xbc04151f	-0.008061676
253	0xbd39d92f	-0.045373138
254	0xbd7616ec	-0.060080454
255	0x3d383e7f	0.044981476

encoder.6.bias f4 [128]
0	0x3ce0f483	0.027460342
1	0xbd644ceb	-0.055737417
2	0xbc23c539	-0.009995752
3	0x3bc6e28a	0.006069486
4	0x3d369145	0.044572134
5	0xbbbf8f32	-0.0058459276
6	0x3d73a945	0.0594876
7	0xbb9d5e11	-0.0048024734
8	0xbd1bef56	-0.038070045
9	0xbd25bd17	-0.040463533
10	0xbd19ca77	-0.0375466
11	0xbaccf21e	-0.0015636121
12	0x3d6866e3	0.056738745
13	0x3d4ce7f7	0.050025906
14	0x3c8066e7	0.015674068
15	0x3d172c67	0.03690758
16	0xbb8b2601	-0.004246474
17	0xbd1a372b	-0.03765027
18	0x3d8299b1	0.063769706
19	0x3d8f9f62	0.07012822
20	0x3ca4258d	0.020037437
21	0xbc8c63a4	-0.017137356
22	0xbc327a07	-0.010893351
23	0x3d7ac2d8	0.061220974
24	0x3d51bf70	0.05120796
25	0xbd0c5f73	-0.034270715
26	0x3c881f2b	0.016616425
27	0x3d7f198c	0.062280223
28	0x3d22f30f	0.03978258
29	0x3d81032b	0.06299432
30	0x3d2127f0	0.039344728
31	0xbd8e75a6	-0.069560334
32	0x3d28f958	0.041253418
33	0x3d6c1b08	0.057642967
34	0xbcb39e49	-0.021926062
35	0x3d733fec	0.059387133
36	0xbcc155a4	-0.023600407
37	0xbd9d9438	-0.07694286
38	0x3c4a4cfa	0.012347454
39	0xbc4d00d2	-0.012512403
40	0x3c3a86be	0.011384664
41	0x3cc0e257	0.023545427
42	0xbc53344c	-0.0128908865
43	0x3d6052a8	0.054766327
44	0xbca337e1	-0.019924106
45	0xbd1b8529	-0.03796879
46	0x3d91e7de	0.07124303
47	0xbd4dd5b5	-0.050252635
48	0x3d3b35c5	0.045705575
49	0x3cd15d5f	0.025557218
50	0xbd610aa8	-0.054941803
51	0x3d14d73f	0.036338087
52	0xbc35dfc5	-0.011100714
53	0xbbb2737f	-0.005445897
54	0x3cb37389	0.021905677
55	0x3d597ac8	0.05309561
56	0xbd6c919f	-0.057756063
57	0x3ad16771	0.0015976263
58	0x3d968a71	0.07350624
59	0xbc85518a	-0.016274232
60	0x3c9677c9	0.018367665
61	0xbd1cb776	-0.0382609
62	0x3ccb0470	0.02478239
63	0x3cbd6ac8	0.023122206
64	0xbd8ebc9d	-0.06969569
65	0x3d4fb79e	0.05071222
66	0x3cfa3929	0.030544834
67	0x3d1260da	0.035736896
68	0xbc378cb8	-0.011202984
69	0xbd167960	-0.036736846
70	0xbc5868bc	-0.013208564
71	0xbcf5a890	-0.029987603
72	0xbbbfc3b6	-0.005852188
73	0xbc82b1a7	-0.015953852
74	0x3d25dd72	0.04049439
75	0xbc538554	-0.012910206
76	0xbd0f1e08	-0.03494075
77	0xbd15c199	-0.036561582
78	0xbccfd7a3	-0.025371378
79	0xba52fb5b	-0.0008048319
80	0x3cedd1b8	0.029030666
81	0x3d3c3acc	0.04595451
82	0x3bac7624	0.005263107
83	0xbd6a594b	-0.057214063
84	0xbb05c16b	-0.0020409476
85	0xbd8b6914	-0.068071514
86	0xbcc9efa0	-0.024650395
87	0x3d802ca2	0.06258513
88	0xbb1bb22a	-0.0023757317
89	0xbbf99138	-0.0076161884
90	0x3ce5f1db	0.028069427
91	0x3d3a34cb	0.045460504
92	0x3c560228	0.0130620375
93	0xbc92a083	-0.017898804
94	0x3c2e68a6	0.010645067
95	0x3c32910b	0.010898839
96	0x3caa6ff2	0.020805333
97	0xbc416a9e	-0.011805205
98	0x3cddc576	0.027071696
99	0xbd96aed7	-0.07357567
100	0xbcdb446f	-0.02676603
101	0x3be479d4	0.006972531
102	0x3d798ad9	0.06092343
103	0x3d6d0312	0.057864256
104	0x3d606042	0.0547793
105	0x3d5d4074	0.054016545
106	0xbca83c9c	-0.020536713
107	0xbcc72abf	-0.024312375
108	0xb99ef868	-0.00030321185
109	0x3d40a9de	0.047036998
110	0xbc93663d	-0.017993087
111	0xbb9618ed	-0.004580608
112	0xbcbe81cb	-0.02325525
113	0x3c552638	0.0130096
114	0xbcdbfd3a	-0.026854146
115	0xbd695428	-0.056965023
116	0x3d23629a	0.039888956
117	0xbb268434	-0.002540839
118	0x3c83fff2	0.016113255
119	0x3bedd5ee	0.0072581684
120	0xbc2f27f8	-0.010690682
121	0x3cfc6c82	0.03081346
122	0xbcd7cb57	-0.026342077
123	0x3d3ef80c	0.046623275
124	0x3bb8b782	0.00563711
125	0x3d3f0706	0.046637557
126	0x3cc997d6	0.024608534
127	0xbc37b997	-0.011213682

encoder.8.weight f4 [256, 128, 3, 1]
0	0xbcbb4d99	-0.02286415
1	0xbbcbe946	-0.0062228767
2	0xbbc5b1cf	-0.0060331593
3	0xbc823ec7	-0.015899075
4	0x3af9231f	0.0019007659
5	0x3ce05779	0.02738546
6	0x3d48feb8	0.049071044
7	0xbd247e0c	-0.04015927
8	0x3d2f30c8	0.04277113
9	0x3d06ec4a	0.032940187
10	0x3b79c138	0.0038109552
11	0x3d28106a	0.04103128
12	0xbced56f4	-0.028972127
13	0xbcfcc59e	-0.03085595
14	0xbb96bd63	-0.0046002134
15	0x3cf964f8	0.030443653
16	0x3c8d84c8	0.01727523
17	0x3be09496	0.0068536503
18	0xbc4f7a60	-0.012663454
19	0xbcf000aa	-0.029297192
20	0xbd26c5dc	-0.040716037
21	0x3b0158c4	0.0019736746
22	0xba16f2d0	-0.0005758228
23	0x397f87ef	0.00024369334
24	0x3d2ce7b2	0.04221315
25	0x3d1533bc	0.03642629
26	0xbb834aaa	-0.0040067034
27	0x3d36e1b9	0.04464886
28	0xbc1a305f	-0.009410947
29	0xbd4f0cdb	-0.05054937
30	0x3bbe43b7	0.005806412
31	0xbb786dae	-0.003790717
32	0xbb05de6e	-0.0020426768
33	0x3c30d845	0.01079375
34	0xbae1bdee	-0.0017222741
35	0x3a9b7cf4	0.00118628
36	0x3c2f5f41	0.010703863
37	0xbcc33e8e	-0.02383354
38	0xbc87bd1b	-0.016569665
39	0x3c7918d6	0.015203675
40	0x3cef1301	0.029183866
41	0xbcb5a658	-0.022174045
42	0x3d198676	0.037481748
43	0x3c7edc6d	0.015555483
44	0xb9a26912	-0.0003097733
45	0xbd2265a4	-0.039647713
46	0x3b367a09	0.0027843735
47	0x3d3d637d	0.046237458
48	0xbcc0eba0	-0.023549855
49	0xbc0f61fa	-0.008751387
50	0x3c3a2245	0.01136071
51	0x3aa3cf19	0.0012497633
52	0x3d182e63	0.037153613
53	0x3cee4c70	0.029089183
54	0xbd2f7493	-0.042835783
55	0x3d4edc8a	0.05050329
56	0xbd0e3d96	-0.0347267
57	0xbce9a05c	-0.028518848
58	0x3beffea6	0.0073240576
59	0xbb186f68	-0.0023259763
60	0x3c040d30	0.008059785
61	0x3cd73249	0.026269095
62	0x3c6828e3	0.014169904
63	0xba7e2949	-0.0009695483
64	0x3a9897b9	0.0011641897
65	0x3c97b787	0.01852013
66	0x3c8f5b9e	0.017499741
67	0x3d225cd4	0.03963931
68	0xbce1d7b3	-0.027568674
69	0xbbd47e16	-0.006484757
70	0xbd0a3226	-0.03373923
71	0xbd29e1ba	-0.041475035
72	0xbc955be2	-0.01823229
73	0x3d3f91d6	0.04676994
74	0x3cf1f5cc	0.02953615
75	0xb8197d85	-3.659494e-05
76	0x3c56bf6a	0.01310716
77	0xbbb70746	-0.005585584
78	0x3d104e48	0.035230905
79	0xbd3aed81	-0.045636658
80	0x3cf67281	0.030083897
81	0xbd3b2cfa	-0.04569719
82	0x3d26e3d7	0.04074463
83	0xbd24d5b8	-0.04024288
84	0xbcb3160a	-0.021861095
85	0xbcb14fb0	-0.021644443
86	0x3d61f5bb	0.055165987
87	0x3cc0cdc2	0.023535613
88	0x3b5c121d	0.0033580132
89	0xbcec27ed	-0.028827632
90	0x3cfb75c9	0.030695813
91	0x3cb4fe9d	0.022094065
92	0xbc0bf8bb	-0.008543189
93	0xbd4ef07b	-0.05052231
94	0xbd1fdf40	-0.039031267
95	0xbc861f1a	-0.016372252
96	0x3d3f883b	0.04676078
97	0x3ccad258	0.024758503
98	0xbb3936a4	-0.0028261328
99	0xbc19c4f6	-0.009385338
100	0xbc5058f9	-0.012716525
101	0x3cc2aa5f	0.02376288
102	0x38d26c7e	0.000100337886
103	0xbb6bedb8	-0.0035999846
104	0x3c3a8fe3	0.011386844
105	0xbd2caad4	-0.042155102
106	0xbc3e7246	-0.011623925
107	0x3d185499	0.037190054
108	0xbc00ba54	-0.007856924
109	0xbaab343a	-0.0013061829
110	0xbb035f7d	-0.002004593
111	0x3ac2b6a9	0.0014855462
112	0xbd09b2d4	-0.03361781
113	0x3d470b9c	0.048595056
114	0xbd1d4bd7	-0.038402405
115	0xbc04f184	-0.008114222
116	0x3c5bd9c2	0.013418617
117	0x3d1729ea	0.036905207
118	0x3d58f4a7	0.052967694
119	0x3bbde229	0.0057947827
120	0x3cae9f10	0.021316081
121	0xbca288c4	-0.019840606
122	0xbcd77166	-0.02629919
123	0xbd3a9264	-0.045549765
124	0x3d25b4e2	0.040455706
125	0x3d08bb84	0.033381954
126	0x3d2dd797	0.04244193
127	0x3bdae0ed	0.0066796453
128	0x3b30a7d0	0.0026955493
129	0xbc7f4e1c	-0.015582588
130	0x3c0c63d4	0.008568723
131	0x3b2d8abd	0.00264804
132	0x3c814707	0.015780939
133	0xbba3c88c	-0.0049982723
134	0x3ccc1256	0.024911087
135	0x3b9e4902	0.0048304806
136	0x3ae0ac52	0.0017141199
137	0x3cd9729f	0.026543913
138	0x3ba2716d	0.004957369
139	0x39ba1eb1	0.0003549955
140	0xbb845f0f	-0.004039652
141	0xbc27ff3b	-0.010253723
142	0x3d0e93a0	0.034808755
143	0xbc16dbb2	-0.009207653
144	0x3cda41e0	0.02664274
145	0x3cbd1673	0.023081994
146	0xbd3560ab	-0.044281643
147	0x3d4b8ef9	0.049696896
148	0xbbf7cac7	-0.0075620147
149	0xbcbc6c75	-0.023000935
150	0x3d1bea97	0.03806552
151	0x3d3e98e4	0.046532527
152	0xbd300211	-0.04297072
153	0x3c6380fe	0.013885735
154	0x3d173da0	0.036924005
155	0x3d4e05fb	0.050298672
156	0x3c6c2e21	0.014415295
157	0xbc4e2cf1	-0.012583957
158	0x3cfb9c4e	0.03071418
159	0x3d4aea68	0.049539953
160	0xbc6c6d2a	-0.014430324
161	0x3cb05f44	0.021529801
162	0xbd1793a8	-0.03700605
163	0x3bde12ce	0.006777144
164	0xbcad1b9c	-0.02113133
165	0xbc777180	-0.015102744
166	0xbce11233	-0.027474498
167	0xbbaf0f41	-0.0053423946
168	0x3ce9478b	0.028476497
169	0x3ccdca61	0.025120916
170	0xbcdc658f	-0.026903896
171	0x3c860cd8	0.016363546
172	0x3d3a6401	0.045505527
173	0x3c043520	0.008069307
174	0xbc08a83b	-0.0083408905
175	0x3d2769c2	0.040872343
176	0x3d49deae	0.04928463
177	0xbbd54c32	-0.0065093273
178	0x3c2034d0	0.0097782165
179	0xb7dfe044	-2.6688103e-05
180	0x3cbc9907	0.023022188
181	0x3c8932ac	0.016747795
182	0xbd4a6496	-0.049412332
183	0x3c25647e	0.01009476
184	0x3d7c371a	0.061575986
185	0xbb8b5764	-0.004252361
186	0x3d5a618e	0.05331569
187	0x3d10451e	0.035222165
188	0x3c31df2f	0.010856434
189	0x3d4a16ad	0.04933803
190	0x3c9eaede	0.019370493
191	0x3d0c058d	0.03418498
192	0xbbf74a5c	-0.007546706
193	0xbcea65cf	-0.028613
194	0xbc53826c	-0.012909513
195	0x3cc78c1e	0.024358805
196	0xbbdba1a6	-0.0067026196
197	0x3d172715	0.036902506
198	0xbc279d93	-0.01023044
199	0xbcb2cb6c	-0.021825515
200	0x3b6fee6c	0.0036610616
201	0xbb2774e5	-0.0025551852
202	0x3d07b94d	0.0331357
203	0x3d241558	0.040059417
204	0x3acd2a15	0.00156528
205	0xb9a14804	-0.0003076197
206	0xbb2d37bc	-0.0026430925
207	0x3cdc2bf8	0.026876435
208	0xbc997bcd	-0.01873579
209	0xba9f028d	-0.0012131497
210	0x3ab1064c	0.0013505905
211	0x3b1a3768	0.002353156
212	0x39d861aa	0.00041271496
213	0x3c685037	0.014179281
214	0xbc6a4519	-0.014298701
215	0xbd02658a	-0.031835116
216	0x3d3bca30	0.045847118
217	0x3c4b1bc4	0.012396757
218	0xbb933d88	-0.004493419
219	0x3c0ada3d	0.008474884
220	0x3ce448ad	0.027866686
221	0xbd187c20	-0.03722775
222	0x3b9c2930	0.004765652
223	0x3d071e72	0.03298802
224	0x3c7fd9c4	0.015615884
225	0xbae4b7f3	-0.0017449841
226	0x3c25d12b	0.01012067
227	0x3cec2e67	0.02883072
228	0xbc2c7b26	-0.010527408
229	0xbd013b98	-0.031550974
230	0xbc8a204a	-0.0168611
231	0xbc1052cc	-0.008808803
232	0x3c359c52	0.011084633
233	0x3bf5b507	0.007498387
234	0xbc68df63	-0.014213416
235	0x3d33741f	0.043811914
236	0xbbfc7eb2	-0.007705533
237	0xbd50ffa7	-0.05102506
238	0x3d1b8028	0.037964016
239	0x3c3f8359	0.011689031
240	0xbc698ba2	-0.014254482
241	0xbd3b9bc2	-0.04580284
242	0x3d584b0a	0.052805938
243	0x3d1fcd54	0.039014176
244	0x3d49380f	0.049125727
245	0x3d56215b	0.052277904
246	0x3c9d4e91	0.019202502
247	0xbc838dbf	-0.0160588
248	0xbd392ec7	-0.045210626
249	0x3c58e1d5	0.013237436
250	0xbc9c6cec	-0.019094907
251	0x3bbeaa01	0.005818606
252	0xbb79868a	-0.0038074576
253	0xba29bfa7	-0.0006475397
254	0x3b04733a	0.0020210282
255	0x3c0fd55e	0.008778898

encoder.8.bias f4 [256]
0	0x3c1b3230	0.009472415
1	0xbc61ba01	-0.013777257
2	0xbc93aa6f	-0.018025605
3	0x3ba5b733	0.0050572394
4	0x3cc897ca	0.024486441
5	0x3d09cf9e	0.033645265
6	0xbbe9356f	-0.0071169655
7	0xbbacdc5b	-0.005275292
8	0xbd5c7e27	-0.053831246
9	0x3d12269c	0.035681352
10	0xbc90cb45	-0.017675051
11	0x3c1504d3	0.009095388
12	0x3c80b1e2	0.015709821
13	0xbc015eb7	-0.007896117
14	0xbd42fced	-0.04760449
15	0xbd12185b	-0.03566776
16	0x3d3710b6	0.04469367
17	0x3d3a42d9	0.045473907
18	0xbd29fb52	-0.041499443
19	0x3d0592c9	0.03261069
20	0x3d4ee241	0.05050874
21	0xbc4995ef	-0.012303813
22	0x3ca3e6f5	0.02000759
23	0xbcaed6dd	-0.02134269
24	0xbb21e8c4	-0.002470539
25	0x3cad3ff7	0.021148665
26	0x3ba36974	0.004986936
27	0x3d0d2558	0.034459442
28	0xbd166436	-0.036716662
29	0x3ced063e	0.02893364
30	0x3d24e7f9	0.04026029
31	0x3d31b41c	0.043384656
32	0x3c5f6d6e	0.01363693
33	0x3ae94bb8	0.0017799055
34	0x3d32a638	0.04361555
35	0xbc364e41	-0.011127056
36	0xbcfc6012	-0.030807529
37	0xbd1ed17b	-0.038773995
38	0xbd4fb793	-0.05071218
39	0xbcee264e	-0.029071
40	0x3d0cb59f	0.034352895
41	0x3d02f34b	0.031970304
42	0xbafd5e7e	-0.0019330529
43	0xbc18a50a	-0.009316692
44	0x3d00dfc1	0.03146339
45	0xbbb6cbfa	-0.005578515
46	0x3d2168f8	0.039406747
47	0xbd3ebb11	-0.04656512
48	0x3c80f3df	0.015741287
49	0xbb7da548	-0.0038703252
50	0x3d1ebe1e	0.03875553
51	0xbc4fa376	-0.0126732495
52	0x3ae796a5	0.0017668797
53	0x3d1219d5	0.035669167
54	0x3c5ffc59	0.013671004
55	0x3d347846	0.044060014
56	0xbbf51c6d	-0.0074801953
57	0xbcd08dec	-0.025458299
58	0x3d10fffb	0.035400372
59	0xbbfabbdd	-0.0076517896
60	0x3c276c93	0.010218757
61	0xbcf03356	-0.029321354
62	0xbcada126	-0.021195006
63	0xbc2a2e10	-0.010386959
64	0x3ca56191	0.020188125
65	0x3cee0e2f	0.029059498
66	0x3d1a3ad5	0.037653763
67	0x3d1fd3e5	0.039020438
68	0xbc32a421	-0.010903389
69	0x3cb98d88	0.022650495
70	0x3d1a93b3	0.037738513
71	0x3cb89d5e	0.022535976
72	0xbd129719	-0.03578863
73	0xbbd0af0d	-0.006368524
74	0x3d2de444	0.04245402
75	0xbc6afa7f	-0.0143419495
76	0x3d243177	0.040086236
77	0x3d0a07eb	0.033698957
78	0xbd2bff66	-0.041991614
79	0x39a45a9c	0.00031348027
80	0x3d13748d	0.035999823
81	0x3b34d014	0.0027589845
82	0x3d2a3f1f	0.041564103
83	0x3c96c4a5	0.018404314
84	0x3cf25541	0.029581668
85	0xbc00269a	-0.007821703
86	0x3d5381b7	0.051637378
87	0x3c41cbea	0.011828402
88	0xbcdf3d14	-0.027250804
89	0x3c2ee527	0.010674751
90	0x3bf796c6	0.0075558154
91	0xbcf91228	-0.030404165
92	0x3c8968b7	0.016773565
93	0xbb9ce2db	-0.0047877855
94	0xbbaae8b8	-0.0052157305
95	0x3ccd0020	0.025024474
96	0x3d10a429	0.035312805
97	0x3a20647b	0.00061184884
98	0xbc6febba	-0.014643604
99	0x3ca63fa8	0.020294026
100	0x3d373bc1	0.04473472
101	0x3c16e027	0.0092087155
102	0x3cc07bf4	0.023496605
103	0x3cd207c6	0.025638472
104	0xbb9b5ba7	-0.0047411504
105	0xbc0ed6a5	-0.008718167
106	0xbb899275	-0.0041983672
107	0x3cf896e8	0.030345395
108	0xbc3604df	-0.01110956
109	0x3d0e2f2f	0.034712967
110	0xbc1dcbb5	-0.009631087
111	0x3c41367f	0.011792778
112	0x3d412d9a	0.04716263
113	0x3d08b8b9	0.03337929
114	0xbc5f8d63	-0.013644549
115	0x3d156c90	0.036480486
116	0xbc054c32	-0.008135842
117	0x3d149189	0.036271606
118	0xbd353074	-0.04423566
119	0x3d301bfe	0.042995445
120	0xbcd1c5d8	-0.025607035
121	0x3d461cbf	0.04836726
122	0x3d2a0ed5	0.04151805
123	0xba5220cc	-0.00080157514
124	0x3d1e0f42	0.03858877
125	0xbb13a2cb	-0.0022527452
126	0xbbf66f94	-0.0075206254
127	0x3a0da4c2	0.0005403274
128	0x3b7d6699	0.003866589
129	0xbd5c6b3c	-0.053813204
130	0x3d1fc778	0.039008588
131	0xbb51bdca	-0.0032003992
132	0x3ba0f5dc	0.004912121
133	0xbbabbd60	-0.005241081
134	0x3cd9eaf0	0.026601285
135	0x3ccbe730	0.024890512
136	0x3d0ff5f6	0.035146676
137	0xbc88165b	-0.016612222
138	0xbc582bce	-0.013194038
139	0x3a4a625c	0.0007720345
140	0x3d3a5fa1	0.045501355
141	0xbc451dac	-0.012031
142	0x3c61ca0f	0.013781085
143	0xbd16f78e	-0.03685718
144	0xbae1e201	-0.0017233492
145	0xbc00294b	-0.007822345
146	0x3d2fea5c	0.042948112
147	0xbce6e21d	-0.028183991
148	0x3cb96f26	0.022636008
149	0x3d12bb98	0.035823435
150	0xbc6da2a4	-0.014504109
151	0xbd44cdee	-0.048047952
152	0xbc10d7e6	-0.008840537
153	0xbaa2b76f	-0.0012414287
154	0xbb2957cc	-0.0025839685
155	0x3d1003b7	0.035159793
156	0x3c993880	0.0187037
157	0xbc8bc537	-0.017061813
158	0xbb53cd20	-0.003231831
159	0xbccf8f7f	-0.025336979
160	0xbca145b6	-0.019686561
161	0x3cd7de2f	0.026351063
162	0x3c6fef0a	0.014644394
163	0xbc2fcb72	-0.0107296575
164	0xbc61bba9	-0.013777652
165	0xbc718f8f	-0.0147437
166	0xbb6fb12e	-0.0036574113
167	0x3b6132ef	0.0034362634
168	0xbd2bfa3d	-0.041986693
169	0xbcb12bc5	-0.021627316
170	0xbcab89c2	-0.020939711
171	0xbd2c5532	-0.042073436
172	0x3c914412	0.017732654
173	0x3ce4094c	0.027836464
174	0x3b8a90c6	0.004228684
175	0xbd2753aa	-0.040851273
176	0x3cc9e4eb	0.02464529
177	0x3cb86344	0.022508271
178	0xbcf42d81	-0.029806854
179	0x3cd9d683	0.026591545
180	0x3b13e443	0.0022566475
181	0x3cf285ad	0.029604757
182	0x3d2a8eeb	0.041640203
183	0x3cc22952	0.023701344
184	0x3d153e20	0.0364362
185	0x3ce0db7f	0.027448414
186	0xbc8056dc	-0.015666418
187	0xbd51cd68	-0.05122128
188	0x3b1ba38d	0.0023748607
189	0xbcca45de	-0.024691518
190	0xbd402a58	-0.046915382
191	0xbce601d6	-0.028077047
192	0xbc73fd8e	-0.014891995
193	0x3ccf6a8e	0.025319364
194	0x3bdc41e8	0.006721724
195	0x3d0b4cff	0.034008976
196	0x3d30c5cd	0.043157388
197	0xbc742d7a	-0.014903421
198	0xbbc69b9d	-0.006061031
199	0xbc231779	-0.009954327
200	0xbd1cbf2a	-0.038268246
201	0xbd2cb447	-0.042164113
202	0xbca39ad2	-0.019971285
203	0xbcb87907	-0.022518648
204	0x3c18e3aa	0.009331623
205	0xbc50d57a	-0.012746209
206	0xbccc00d3	-0.024902737
207	0x3c519706	0.012792354
208	0x3c90adf9	0.017661082
209	0x3d10821b	0.03528033
210	0xbd42b6be	-0.047537558
211	0x3d04b7ae	0.032401733
212	0x3c7669c7	0.015039868
213	0x3c3b991c	0.011450078
214	0xbc778304	-0.01510692
215	0xbd688bee	-0.056774072
216	0xbce2e0a9	-0.027695017
217	0xbc7e70d9	-0.015529835
218	0xbc7ebc16	-0.015547773
219	0x3cbe1ed8	0.023208067
220	0x3c448442	0.011994423
221	0xbc1ae3af	-0.009453698
222	0xbb7d522a	-0.003865371
223	0x3c57ca04	0.013170723
224	0xbb2046e2	-0.0024456312
225	0xbc10a5f9	-0.008828633
226	0xbc093d87	-0.008376486
227	0xbd4db17b	-0.050218087
228	0xbcdee512	-0.027208839
229	0xbc15c635	-0.0091414945
230	0xbd2b4699	-0.041815374
231	0x3d129a04	0.035791412
232	0x3bfc5078	0.0077000223
233	0xbcdb1988	-0.026745573
234	0xbb317bb9	-0.00270818
235	0xbc50ce48	-0.012744494
236	0xbc4ece99	-0.012622499
237	0xbd0404bb	-0.032231074
238	0xbc0a8996	-0.008455655
239	0xba2a07c2	-0.00064861414
240	0xbaa63967	-0.0012681902
241	0x3ca1e6e5	0.01976342
242	0xbc6d5469	-0.014485457
243	0xbbd76ab3	-0.006573999
244	0x3c734c9a	0.014849806
245	0xbc3050a8	-0.010761417
246	0xbc124c7a	-0.008929366
247	0xbc31720d	-0.0108304145
248	0xbd0e224e	-0.034700684
249	0x3ca55848	0.020183697
250	0x3d33398c	0.043756053
251	0x3a4f383e	0.0007904804
252	0xbd2d79c0	-0.042352438
253	0xbc22e008	-0.0099411085
254	0xbce65701	-0.028117659
255	0x3c839795	0.01606349
