VAE-LSTM-anomaly–detection/experiments/NAB/machine_temp/NAB-machine_temp-win48-seq24-codesize20/checkpoint/lstm/lstm_best_model.pth (torch, 495820 bytes, 18 tensors)

lstm.weight_ih_l0 f4 [256, 20]
00000000: cafd ac3d 45fb 253d ea77 113d ed57 293d
00000010: 21e3 9e3d 9297 b03c 345a f2bd 3fee 5fbd
00000020: be34 d9bc b09c b23d 09d8 aa3d 415f 21bd
00000030: a5e3 a6bc 016f d73d 58c1 51bd f57c ae3d
00000040: 194c 7d3d aa3e edbd 9f30 4f3c bb3f 80bb
00000050: b16d a9bd 0906 62bd 96bc 01be 482e a5bd
00000060: 6703 493d 8c00 723d 72a8 c5bd 03dd 133d
00000070: 4025 9bbd 62fb 1dbc 2266 e53d fd48 b2bd
00000080: 2cd0 873d 953f 9e3d f9b2 ad3d 5bdc 4ebd
00000090: 7e47 16bd 4ca8 903d 78ea 01bd c9d2 72bd
000000a0: 53e8 30bc 69e2 9fbd ade3 cdbd a090 8ebd
000000b0: 5ef4 bebd a370 f23d 649b aa3c c247 2dbd
000000c0: cd43 c13d 081f 65bd 878d 9d3d d931 e43d
000000d0: b011 bf3d 29b9 03bd 8e30 d2bd 7f90 af3d
000000e0: 102d 8a3d 765d 4f3d 6bd6 f4bd c811 6fbd
000000f0: 2209 e73d ac1e 7ebd 931c f83d 9bed 723d
00000100: 53c2 63bd 8fcd 01be 78cf 103d 60b9 21bd
00000110: 1d52 4dbb 4e77 f53d a449 e5bd aae8 803c
00000120: 9841 7e3b 3c4d 95bd 1669 b63d 3bae 6cbd
00000130: 6c65 a83d 2987 e03c 8b2d f93d c728 673c
00000140: b26d 04bd f91d ca3d eacb f0bd 4a01 073d
00000150: edc3 db3d 4096 ae3d 2990 0fbd cbee dfbc
00000160: 5263 ce3d 62eb c0bd 6b0d d9bd 24b4 bb3d
00000170: 5596 c9bd a1a1 0f3c 78a7 a0bd 5d12 81bd
00000180: c840 32bd b992 153d 5117 7b3c 7527 d3bd
00000190: 07b1 ef3d acd1 8ebc 643e f5bc f341 76bc
000001a0: 5960 c6bc c9f7 8dbd 47d1 6f3d 4da5 78bd
000001b0: ef8d e23c 1f6a 543d 7005 ff3d e418 f73d
000001c0: 7b23 503d 51de 1b3b 2a70 ddbd 63fb a93d
000001d0: d472 c6bd d491 33bd a10e 8f3d 9774 3b3d
000001e0: 3f1b fbbd fd5c 2dbd 1866 d9bd 5f52 c4bd
000001f0: 56c9 f03d 0a76 b73d e1df 3dbd 972a d2bd
00000200: 29ef f1bd ba85 e73d 450b 24bd bd0e ee3d
00000210: b8e5 fd3d 7715 283d b695 ed3d e066 0ebd
00000220: 8bea eebd 87e9 4cbd ade5 d23d 0d23 e93c
00000230: c958 543d f9e6 973d 5fd5 76bc 79c3 34bd
00000240: 657c e3bd f725 863c dcdf 7c3d f03b 913d
00000250: f86c 29bd ba3c f43d 8167 303d d7a3 c9bd
00000260: ed3a 76bd dc21 a13d 6b02 22bb e60a b73d
00000270: 0c3f da3d 758e f0bd 1cb4 01be 4dca b83d
00000280: 2c45 6a3c c288 eebd aad4 7c3d f614 5cbd
00000290: b4ad b83d 3665 8eb9 f686 9bbd 606a bdbd
000002a0: e229 533d b32d 7abd acbd d53d e103 d53d
000002b0: 569b 823d 7602 2abc 67a1 db3d 3345 28bd
000002c0: bf85 023c ebc6 df3d ce43 c5bd 7cb2 c73c
000002d0: 46b6 c73d edd8 493d 2222 bc3d ac23 58bd
000002e0: 1281 d73d 7dca e73d 24d3 8d3d bda4 0bbd
000002f0: 89b1 d43c 92a7 35bb be8c d93c 6404 cbbd
00000300: f649 85bc 657d bebd d163 f23d 45a5 6a3d
00000310: 8932 e8bd 7cbb d13d 21a2 893d bcd3 d2bd
00000320: 3fc2 993d 25f4 b33d f5d6 0d3c 835b c53d
00000330: e561 e9bd 86dc ecbd 6a75 dc3c a2d0 cd3c
00000340: 55a6 c73d 7b16 8d3d e5a2 e4bd 3045 11bd
00000350: 687e a3bd 5fbd bebd ecb2 5c3d bf21 76bd
00000360: 0420 ab3d 2c48 a03d 822a 81bd 605f 6bbd
00000370: 0062 77bd 5322 84bb 8ad0 79bc 24bc a03d
00000380: 7d6d a9bd 46ca 64bc 5ce9 e3bd 2cdb acbd
00000390: 9f75 963d 44aa eebd 3463 253d 2140 553d
000003a0: f682 933d 0144 ee3d 3897 d7bc 6bb7 583d
000003b0: 28db dabc b791 21bc a2ab 77bd 49dc d93b
000003c0: 5392 563d 8717 e8bd 5d32 43bd fd44 cfbd
000003d0: aeb0 61bd 7af6 a6bd 0d1d da3d 0440 4a3d
000003e0: 6f76 893b 1be9 9e3b fa97 b4bd 8ed9 d7bd
000003f0: 1fcd bdbd feb1 ce3d 4191 453d 13dd 153c
0.08446844 0.040522832 0.03551475 0.04134362 0.07758165 0.02155665 -0.11833611 -0.05467057
-0.026514407 0.08721292 0.08341987 -0.03939748 -0.020372221 0.10519219 -0.051209778 0.085199274
0.06184015 -0.11584218 0.0126458695 -0.0039138473 -0.08272875 -0.055181537 -0.12669596 -0.08065468
0.04907551 0.059082553 -0.09651269 0.036099445 -0.07575464 -0.009642454 0.11201121 -0.08705328
0.066315025 0.07726971 0.08481402 -0.050503116 -0.036689274 0.0706335 -0.031717747 -0.05928305
-0.010797578 -0.07806856 -0.10053191 -0.06961179 -0.09323953 0.1183789 0.02082605 -0.04230476
0.0943676 -0.055937797 0.0769301 0.1114232 0.093295455 -0.032159004 -0.10263167 0.08572482
0.06746876 0.05062624 -0.119549595 -0.058366567 0.11281039 -0.06204097 0.12114825 0.05930863
-0.055605244 -0.1267607 0.035354108 -0.039483428 -0.003132946 0.11985646 -0.111956865 0.015735943
0.003879642 -0.07290122 0.08906762 -0.057783347 0.0822247 0.0274082 0.1216689 0.014108843
-0.032331176 0.09868998 -0.117576435 0.032960214 0.10730729 0.08524752 -0.03504959 -0.027335545
0.100775376 -0.09419896 -0.105982624 0.091652185 -0.09843127 0.008766563 -0.07844442 -0.06302331
-0.04351881 0.03651688 0.015325383 -0.1031026 0.11703687 -0.017433964 -0.029936977 -0.015030372
-0.024215864 -0.06932027 0.05854919 -0.060704518 0.02765557 0.051859017 0.12452209 0.120652944
0.050815087 0.0023783634 -0.10812409 0.08299901 -0.096898705 -0.043840244 0.06985212 0.045765486
-0.12261056 -0.04232501 -0.10615176 -0.095860235 0.11757152 0.08958061 -0.046356086 -0.102620296
-0.11813194 0.11304803 -0.04004981 0.11623905 0.12397331 0.041036095 0.11600821 -0.034766078
-0.11665829 -0.050027397 0.102977134 0.028459096 0.051842485 0.074171014 -0.01506552 -0.04413173
-0.11107711 0.016375525 0.061736926 0.0709151 -0.041363686 0.11925645 0.04306746 -0.09845703
-0.06011479 0.07867786 -0.002472068 0.089376256 0.106565565 -0.117459215 -0.12666363 0.09022961
0.014298718 -0.11647178 0.06172625 -0.053730927 0.09017506 -0.0002715976 -0.07594101 -0.09248805
0.051553614 -0.06107874 0.10436568 0.104011305 0.06377284 -0.010376563 0.107241444 -0.04108162
0.007966458 0.109266125 -0.09632073 0.0243771 0.09751563 0.049279142 0.09186198 -0.052768394
0.10522665 0.113179184 0.069250375 -0.034092654 0.025963562 -0.0027718288 0.026556369 -0.09912947
-0.016270619 -0.09301261 0.11835445 0.05728652 -0.11337764 0.10240838 0.06720377 -0.102942914
0.075077526 0.08786801 0.008657207 0.09636595 -0.11395625 -0.11565499 0.026911456 0.025123898
0.09748522 0.068890534 -0.11163882 -0.035466373 -0.079830945 -0.093134634 0.05388157 -0.060090777
0.08355716 0.07826266 -0.06306936 -0.057464004 -0.060396194 -0.004032412 -0.0152474735 0.07848385
-0.08272836 -0.013964241 -0.11128494 -0.08440241 0.07346653 -0.11653569 0.04037781 0.05206311
0.07202713 0.116340645 -0.026317224 0.052909296 -0.02671583 -0.009861401 -0.060466416 0.0066485745
0.05238564 -0.113326125 -0.047655452 -0.1012058 -0.055100136 -0.081524804 0.10650072 0.049377456
0.0041950266 0.0048495657 -0.0881805 -0.10539542 -0.09267639 0.10092543 0.048234228 0.0091469465

lstm.weight_hh_l0 f4 [256, 64]
00000000: 0767 5c3a 2379 893d 69a9 b7bd fba9 b53d
00000010: 4009 64bd 34e7 65bd 43d1 e93c 5e84 90bd
00000020: 5a2f e6bd 426b e7bd 71c4 9fbd 2a70 e53d
00000030: 653d ca3d dd8c 9dbc a58b 1abd ce4f 34bd
00000040: c0a9 703d bfde d1bc 7005 d5bd 2581 80bd
00000050: 8ef0 c6bc d9ba 6b3b 5280 183d 5679 b8bd
00000060: 43c5 1f3d 3090 dd3d a3a7 c43d 6327 843d
00000070: 099b b23c 1115 c3bd b476 e3bd 84d1 673d
00000080: 443a 33bc 5fe7 aa3b 71af 92bd 7307 1b3c
00000090: 7adb 203c c6b3 283d 8389 51bd 2aec b03c
000000a0: 2dc3 2cbd b2a2 ff3c 5944 1cbc 49a2 8c3d
000000b0: 3197 ae3d 5890 e63d c31c b3bc f48a 2dbd
000000c0: cf8d cb3d 9efe 833d 4996 863d 172a 83bd
000000d0: 8e12 063d fd03 5e3d 83e9 d13d 9820 2e3c
000000e0: 979e 9dbd ecee fe3d 225d c63d acf1 f03d
000000f0: bad1 cf3d 5a0a e43d ed6b e4bc 9969 8e3d
00000100: eaac 67bb 8e9d 81bd c3f9 96bd a51a 9ebd
00000110: 09c5 303c 045e f53d 8df3 9abd e580 983d
00000120: 0c1d 013e 7970 9f3d b5e3 82bc 0b15 913d
00000130: 99f9 2e3d d860 573d d6ff b7bd 81dc 3b3c
00000140: 26e6 923d 97a1 f93d e364 8fbc 5063 9b3d
00000150: ceb7 ca3d 89ca ebbc 5d81 b03d e982 b2bd
00000160: 2438 b53a c674 8dbd 7770 3d3d 3dae 3b3a
00000170: 4704 aa3c 1f5b 9abd 4365 34bd 4852 a83d
00000180: 5d6b 4bbd bb49 82bd 19fa 7c3d dd48 013e
00000190: 95a5 f43d fe85 79bd 4535 bdbd 75ce fd3c
000001a0: f8c4 c6bc 742f 62bc baf3 f93c 7862 75bd
000001b0: 2080 7fbd 8159 03bd 300a b4bd b15f 963c
000001c0: b1a5 32bd 8f3b 683c 9f2b 153c cbbf 1bbd
000001d0: f188 cf3d 66c5 15bb cf7f c1bd e887 d2bd
000001e0: 7fff 043d 422e 7a3c e82c 613d 6616 e43d
000001f0: e433 78bd 7289 4a3d 77be 833d 53fb 9cbd
00000200: d196 94bd 454f c83d 68ad 82bd 7a16 673d
00000210: a27d 9ebd 9055 d5bc 8888 bcbc bf8e bbbd
00000220: 2dab 2d3d 3ae8 573d e055 a2bd a2df b5bd
00000230: ba3d fbbd c9c8 92bd c53c dabd 1ed7 cb3d
00000240: 09ba a63d b4c6 b3bd c66e f4bd 53b2 383d
00000250: 0e9c 80bd d427 a63d b533 55bd 43a7 c1bd
00000260: ee8d 9cbd 71d2 db3d 34f7 6f3d 115a e83d
00000270: 19e5 82bd 173e cabc 7776 2fbd e0d5 973d
00000280: 0b31 a13d fab7 dc3d 4b38 a53d 5731 cabd
00000290: 3a53 aa3d 3507 0d3d d1c3 febc fcbe e93d
000002a0: 8a5e 3dbd 6c75 d7bd 8b07 af3d 2351 6e3c
000002b0: 20ae 7abc aa93 f73d 1afb e1bd a526 65bb
000002c0: 3b3b 0dbd 384a 9dbb 913a 293c dc4a 17bd
000002d0: c5e9 3a3d 9264 263d 68c5 ab3d 2ff6 c73d
000002e0: 536d 14bd e91c ecbc 3319 d03d 885f ac3b
000002f0: a368 913d e7cf ebbd 563e e9bd 2dd3 c6bd
00000300: 8c7b 4a3c b0bf 373d e346 553d f806 c33d
00000310: d17a e83c 9cb6 e0bd 8c92 fbbd a4de db3d
00000320: 12be b9bd debd cdbd edbc 33bc 7d7b e0bc
00000330: a914 e138 0ec9 47bd 4ad2 d7bd 31b0 9ebd
00000340: a702 f0bd 16fb e3bd ddde 8a3d bf6d b73c
00000350: 3e00 843d 2a45 44bc 4028 d3bd 1a79 db3d
00000360: 67f6 ffbd e02a 0c3d af32 0b3d 9ed4 8a3c
00000370: 713d 633d 60ef 3c3d 4da0 c4bd ff42 02be
00000380: d55c d03d 8e58 b8bd 599f 44bd 96c8 bfbd
00000390: 7856 9abd 422f e2bd a2c9 a43d 06f2 f2bc
000003a0: ab9a d53d 6081 b7bc 688c df3c 46d5 113c
000003b0: 7310 c23d ea02 3fbd 8279 38bd 5c42 00be
000003c0: f26e afbd e6e2 ecbd ab72 723c 0d05 b2bd
000003d0: a394 953d 5b09 e93c d44f 5e3d d508 ec3d
000003e0: 5059 cc3d 975f de3c bd8b c83d b510 8ebd
000003f0: 7ee4 a3bd ee11 ea3b 12e3 a0bd fe70 4abc
0.0008407686 0.06712558 -0.08967859 0.08870312 -0.055672884 -0.056128696 0.028542167 -0.07056497
-0.112395 -0.11299755 -0.0780114 0.11203034 0.09874991 -0.019232208 -0.03773083 -0.04402142
0.058755636 -0.025618909 -0.10401428 -0.06274632 -0.024284627 0.0035969524 0.03723175 -0.09007518
0.039006483 0.10818517 0.09602287 0.06452825 0.021802442 -0.095255025 -0.11106625 0.056596294
-0.010939185 0.00521557 -0.07162369 0.009462225 0.009817952 0.04118707 -0.051156532 0.021596987
-0.04217832 0.031205509 -0.00953778 0.06866891 0.08524931 0.11258 -0.0218643 -0.042368844
0.09939157 0.06445049 0.06571633 -0.064045124 0.03273254 0.054203022 0.10249617 0.010627888
-0.07696264 0.124479145 0.096857324 0.11764845 0.10147424 0.11134787 -0.027883494 0.06953735
-0.0035350868 -0.06328879 -0.07371857 -0.07719926 0.010789164 0.11980823 -0.07565985 0.0744646
0.12608737 0.07785124 -0.01597772 0.07084092 0.042718504 0.05258259 -0.08984344 0.011466146
0.071728036 0.12189024 -0.017504161 0.07587302 0.09898339 -0.0287831 0.08618424 -0.087163754
0.0013825935 -0.069070384 0.046249833 0.00071594474 0.020753993 -0.07536911 -0.044041883 0.08218819
-0.049662936 -0.06361719 0.06176195 0.12625451 0.11945645 -0.0609188 -0.09238676 0.030982235
-0.024263844 -0.013805259 0.030511726 -0.05990836 -0.06237805 -0.03206778 -0.087910056 0.018356176
-0.043615047 0.014174356 0.009104638 -0.038024705 0.101335414 -0.0022853254 -0.09448206 -0.10279828
0.032470223 0.015269818 0.054974467 0.11137085 -0.06059636 0.049447484 0.06432813 -0.07665124
-0.072553284 0.097807445 -0.06380731 0.05641792 -0.07738806 -0.026041776 -0.023014322 -0.09158086
0.042399574 0.052711703 -0.079265356 -0.08880545 -0.12267633 -0.07167203 -0.10656122 0.0995314
0.08140952 -0.08778134 -0.11935191 0.04509194 -0.06279765 0.08113065 -0.052051265 -0.09455731
-0.076442584 0.10733498 0.05858536 0.11345304 -0.06391353 -0.02468781 -0.042837586 0.0741384
0.07870682 0.10777278 0.08067378 -0.09872692 0.083166555 0.0344307 -0.031099232 0.114133805
-0.046232738 -0.10520443 0.085463606 0.014545712 -0.015300304 0.120887116 -0.11034222 -0.003496566
-0.034480315 -0.0048001073 0.010328905 -0.036936626 0.045633096 0.040623255 0.08387262 0.09763753
-0.036237072 -0.02882238 0.10161056 0.0052604116 0.07100036 -0.115142636 -0.11388843 -0.09708247
0.012358557 0.04486054 0.052069556 0.095228136 0.028378876 -0.1097233 -0.12283811 0.10735825
-0.09069456 -0.1004598 -0.010970336 -0.027402634 0.00010732684 -0.048775725 -0.10538156 -0.077484496
-0.11719256 -0.11131875 0.06780789 0.022391198 0.06445359 -0.011979381 -0.103104115 0.10716458
-0.124981694 0.034220576 0.033983883 0.016947087 0.055478517 0.046126723 -0.096008874 -0.1272087
0.10173956 -0.090012655 -0.04800353 -0.093644306 -0.07536024 -0.1104417 0.08046271 -0.029656421
0.10429891 -0.022400558 0.02728863 0.008900946 0.09475794 -0.04663364 -0.045037754 -0.12525314
-0.08566083 -0.11566715 0.014797847 -0.086923696 0.07303741 0.028446844 0.05427535 0.11525122
0.099779725 0.02714519 0.09792278 -0.0693678 -0.08002566 0.0071432507 -0.0785581 -0.012356041

lstm.bias_ih_l0 f4 [256]
00000000: ceed 823d 3bbe 87bd ea1b 8abd 0815 b6bc
00000010: 6279 fe3d a958 abbb a185 98bd dc91 73bd
00000020: 06e6 f63c f2a4 b43d 4ea5 babd 2d17 e83c
00000030: af2d 8f3d 84b5 c4bd 4029 43bb 6d71 e5bd
00000040: dc6a 8dbd 0781 bdbd d1c8 da3d 4553 aa3c
00000050: 4811 6b3d 80fd 0a3c c139 093d 5906 cdbc
00000060: 9ca2 393d 36a8 e43d 6fc3 55bd d741 793d
00000070: 5211 9c3c e2ce 063e 1a85 f63d ab49 a03d
00000080: 3393 cbbb 55f0 d2bd c374 9abd 58c9 c23c
00000090: db44 bebd 4cd8 03be 3248 ba3d 14ef bbbd
000000a0: 06ba febc ec5c 653d 1857 53bd f735 37bd
000000b0: cdd1 903d 8535 a43c 1ce0 b5bd 7560 b03d
000000c0: e5b6 87bb c058 683d 120e 97bd df21 c0bd
000000d0: e6fd 8d3d bb66 1cbb d562 803d 883f c0bd
000000e0: 696a 19bd c805 913d 9a76 7f3d 3a5e e5bc
000000f0: a9b9 b83d 24df 943d 0823 3bbd 15c1 173d
00000100: ed8b f63d 372e 88bb 3450 e6bd d886 82bd
00000110: 778c e53c 89fd 863d 6861 853d de1d 023e
00000120: 168b f63d 4311 54bd 376c f73c 7c26 793d
00000130: 63ef 333d 7b29 833d c691 c0bd b600 97bb
00000140: d509 d53c bd14 a6bb 987b 1fbd 07f9 0c3c
00000150: 01a5 a43c 6c9a 003e 2566 4bbd 73f6 21bd
00000160: e46e 87bd 006b 973d f07b 693d efc2 4ebd
00000170: 99ce 103d b45c e8bd 2fb7 b9bd e46a 213d
00000180: 0cb3 b7bd 6e68 4bbd 759a dbbc a468 b43d
00000190: 3c2a c4bc 4605 c4bd 0103 a03d f122 513c
000001a0: 51af ea3d 4875 333a f294 62bd 8608 003d
000001b0: 9161 123d ea5f f33c e8e4 acbd ff5c b5bd
000001c0: 04ec 373d a1f5 c2bd 4940 093e 0ded bdbd
000001d0: e394 dc3d 772d dd3d b70d bbbd 03bb b83d
000001e0: 79b2 03bd 72dc 20bd 7641 46bd 324b 343c
000001f0: c5c0 c9bd 0891 5f3d 4403 e4bc 64d7 dbbd
00000200: a657 ad3d 5d87 d5bd f4b7 64ba bb11 6c3d
00000210: 81e1 953c e43d 02be bb8b 833c 37c8 4b3d
00000220: 7687 8a3c 34af c2bd 3ef5 04be 4006 04bd
00000230: 4c60 003e 43c5 bbbc 1478 eb3d d288 06bc
00000240: 7bbf 1fbd 77e8 853d 299a 7c3c 7454 423c
00000250: f79b f6bd 1765 92bc d808 7e3d 5484 02be
00000260: 8325 473d 4b7e bfbd 2a82 ccbd 27a5 9bbd
00000270: a8d7 7a3c 8a6a 59bb 57bc aa3d c8e8 093e
00000280: b08a 613d 0064 7f3d 3172 5037 9b84 95bc
00000290: 3d29 bfbd e64e e4bd e84b ac3d 1957 d9bd
000002a0: 06b2 b3bd 6fbb 263d b132 893d 0fad 02bd
000002b0: aeaa 993d 4eea 83bc 3171 66bd 2bed 783c
000002c0: 1740 88bd 2522 7dbd 337e 3b3c 873c 76bd
000002d0: 88c5 223d 9d48 74bd 26f7 f63c 8b3d 8ebc
000002e0: 8be0 59bd 7082 173d e962 313d d5b1 4abd
000002f0: f8b4 d43d f793 2abc f36e 603c 0081 a13d
00000300: c330 e0bd 4e92 dbbd 2b4a 97bd e513 983c
00000310: 7fff b4bc 1005 963d 6779 053e f2c9 523c
00000320: f98f b4bc 1f64 ed3d 4221 943c 0ce5 b6bd
00000330: 581f f03d 71c7 dfbd 91a1 603d 3248 083c
00000340: de4f 6abb dff8 b43d b96b 89bc 6298 053e
00000350: d84d 033e 7516 053d 4670 e6bc 3626 95bd
00000360: 5517 8abd 0795 d43b f982 ef3d b8fc f4bd
00000370: f88a ebbb 245f 3c3d 5414 5dbd e579 9d3d
00000380: 62e0 8a3d a483 f83d 5e12 f43d c093 d03d
00000390: b272 683d ec7e ffbb b783 2bbd f64c 863d
000003a0: 8485 27bd 72f0 f53d 77bd ebbd e0c3 f73d
000003b0: 0ee5 c53d d1c6 103d e3ab dbbd 4649 e53c
000003c0: bec7 62bd f3da e6bd 88cf e8bd db48 3b3d
000003d0: 0c40 fc3d f603 d83c 9944 6abd e6b3 75bd
000003e0: a2cc cd3d 8dcb 973d aa85 053e dcbc d6bc
000003f0: 36e8 853c 27f5 dabc 1108 a13b e010 a23d
0.06393014 -0.066280805 -0.067436054 -0.022226825 0.12425496 -0.005229075 -0.07447363 -0.059465274
0.03013898 0.08820523 -0.091135606 0.028331364 0.06991135 -0.09604934 -0.0029779226 -0.11203275
-0.069051474 -0.09253126 0.10682834 0.02079166 0.057389528 0.008483291 0.033502344 -0.02502744
0.045321092 0.11164896 -0.052188333 0.060853805 0.019051228 0.13164857 0.12037106 0.07826551
-0.006212616 -0.10299746 -0.07541802 0.023777649 -0.09290477 -0.1287548 0.090958014 -0.0917646
-0.031094562 0.05599682 -0.05159673 -0.0447292 0.07071266 0.020045051 -0.08880636 0.08612148
-0.004141676 0.056725264 -0.073757306 -0.093814604 0.06933193 -0.0023864943 0.06268851 -0.093871176
-0.037454996 0.07081181 0.062368967 -0.027999032 0.09019787 0.07269123 -0.045687705 0.03704937
0.120384075 -0.0041559 -0.11245766 -0.06373376 0.02802108 0.06591327 0.065127194 0.12706706
0.12038247 -0.051774275 0.030202968 0.060827717 0.04392947 0.06404396 -0.09402804 -0.004608239
0.026005665 -0.00506839 -0.038936228 0.008604295 0.020098211 0.12558907 -0.04965796 -0.039541673
-0.066129476 0.073934555 0.05700296 -0.050478872 0.035353277 -0.11345807 -0.090681426 0.03940858
-0.08969697 -0.04966014 -0.02680705 0.08809021 -0.02394592 -0.09571318 0.07813073 0.012764678
0.1145922 0.00068457844 -0.055317827 0.03125813 0.035737578 0.029708821 -0.08442098 -0.08855628
0.044902816 -0.09519506 0.13403429 -0.092737295 0.107705854 0.10799687 -0.09133475 0.09020045
-0.032152627 -0.039272733 -0.048402272 0.011004256 -0.09851221 0.054581672 -0.027833588 -0.10734442
0.08463983 -0.10426209 -0.0008724921 0.057634097 0.018296005 -0.12718922 0.01605784 0.049751487
0.016910296 -0.095060736 -0.12984177 -0.032232523 0.12536734 -0.02292121 0.114975125 -0.008211331
-0.03900097 0.0653848 0.015417614 0.0118609555 -0.12041467 -0.017870469 0.062020153 -0.12745792
0.04861976 -0.0935026 -0.09985764 -0.0759986 0.0153102055 -0.0033175074 0.08336704 0.13467705
0.055063903 0.062351227 1.2424353e-05 -0.018251708 -0.093340375 -0.11147861 0.084129155 -0.10612316
-0.0877419 0.040706094 0.06699122 -0.031903323 0.07503258 -0.016102936 -0.05626029 0.015193264
-0.06652849 -0.06180014 0.011443662 -0.060116317 0.03973916 -0.059639562 0.030147146 -0.01736333
-0.053192656 0.03698963 0.04330722 -0.049486 0.103860795 -0.010411254 0.013698327 0.07885933
-0.109468006 -0.10721265 -0.07387193 0.018564174 -0.022094486 0.07325184 0.13034593 0.01286553
-0.022041308 0.11591362 0.018082265 -0.08930406 0.11724728 -0.10926712 0.05484158 0.008317994
-0.003575317 0.08836531 -0.016774999 0.1304641 0.12822664 0.03249212 -0.028129708 -0.07282679
-0.067427315 0.006487492 0.11694903 -0.11962265 -0.007188197 0.04598917 -0.053974465 0.07689265
0.06781079 0.121344835 0.11917566 0.10184431 0.056750007 -0.0077971127 -0.04187366 0.06557648
-0.040898815 0.12008752 -0.11510747 0.12097907 0.09662829 0.035345856 -0.10726144 0.027989041
-0.05536627 -0.1127223 -0.113677084 0.045723777 0.123169035 0.026369076 -0.057194326 -0.059986018
0.10048796 0.07411871 0.1303927 -0.026213102 0.016346078 -0.026728226 0.0049142917 0.07913375

lstm.bias_hh_l0 f4 [256]
00000000: 4c2f 5c3c 1847 e13c c281 a63d 2087 163c
00000010: 4cac a3bd 758a a53d 018a b83d 4856 773d
00000020: 62c0 96bd 1cd2 86bd d492 e8bd 2a97 ac3c
00000030: 83d2 9cbb 067d b43d 7166 7b3c 6bc9 8c3d
00000040: a667 a03d c307 32bd eab3 6a3d 4a24 cd3d
00000050: 64ed 54bc e7f0 b33d be0b b2bd 54a9 493d
00000060: 084e 5fbd a64e 83bd f1d7 483d 4b15 fb3d
00000070: 2394 39bd db06 2fbd 73de 8d3b e503 a3bd
00000080: f294 4f3d 15db 6b3d 98ee 963c ff4b 7a3d
00000090: 21c3 0e3d 7123 e13c a2c8 033e 8b58 1bbd
000000a0: 22d9 debb c4ff 273d cb4d aa3d e0ab 973c
000000b0: 795e febc 09f3 a1bc 70fb 27bd 3b14 513d
000000c0: 0453 dcbd e4c8 4d3d 8c2c 2b3c b9c1 933d
000000d0: a4d1 a2bd be4c 083d d112 e53d 76ff ec3d
000000e0: 267d f33d c2c3 6cbd de5a d23d ef1f 70bd
000000f0: 9a04 1d3c 9510 033e a8c7 00bd d393 d73c
00000100: a9a5 d43c 9b12 933d 5196 56bd 59e2 69bd
00000110: 2d20 de3d d1c0 abbc 2487 a2bd 1d20 003e
00000120: 4237 883d c9e2 373d 0fa1 41bd 453e 02be
00000130: bd8e 4dbd 402a 673d 7660 9f3d e379 013d
00000140: cf58 ebbb c51f 3a3d 5ee4 ed3d e78c d0bd
00000150: e0c5 b5bd 8982 efbd 16ce 9ebd d88f 8cbd
00000160: 940a b0bc 60bf dabd e862 2f3d f322 74bd
00000170: f3fc 3f3c edd6 833c 415a 3bbd b3c7 a6bd
00000180: c469 813d 97ae 99bd 0006 2cbd e876 dfbd
00000190: 2be3 65bd 979e f63c 1b3c e4bd b6fb 12bc
000001a0: 153b 8f3b 04e3 a43d 66d5 453d 422d cbbc
000001b0: 1555 0e3b 4857 c93d f579 f9bb 0bba c3bd
000001c0: 2bdd 8dbd 97ad 95bd 0dcc 043e 4d1b 5d3d
000001d0: 62a2 b43c abcd 463d da2d 713d 2e9a 3a3d
000001e0: e6be 4b3c bf5b c13d bc25 da3d 167c 083e
000001f0: 3f57 263d a5ef 113d a9cd c33d feb5 113c
00000200: fe30 d0bc 6dca f8bd 0a23 c93d 49f6 aebd
00000210: d53d b4bb 3fb0 d53d 099a e53c 3205 edbc
00000220: 4523 c83d 7239 e2bd d4ee b3bd f300 ebbd
00000230: dd38 44bd 6e81 1fbd 648f d3bd 1987 f5bd
00000240: 0df4 8dbd 389d bdbd 7fd9 9dbd 6e31 a93d
00000250: cbf4 d5bd 817b b83d d89c 4a3d 6312 483d
00000260: 9164 50bd e13e d2bd d5d0 47ba 8321 90bd
00000270: 1dec 3c3d c876 973d b59b dabd e42f 813d
00000280: 01ab 983d 893b f03d 0a83 b3bd bc0f ba3d
00000290: 2baf c43d 1ace d03d 8eaf 033d 9a87 043d
000002a0: 010b 303d adfb d13c 3259 f03d e1b4 c0bc
000002b0: 3a39 a0bd 5135 f5bc 070f 343d 0b96 623c
000002c0: f118 c8bd 6b2e 613d 2dcd ac3d 5547 c23c
000002d0: 4a94 913b 5bac e3ba b112 aabd 2bbf 63bc
000002e0: c337 00bd ccb9 d33d 9fb3 e53c 133d 9dbd
000002f0: ca62 c839 d729 0b3d fd74 04bd d65d bcbd
00000300: 9a56 34bd a4ec 053e 8508 7d3d dbd0 eebc
00000310: 9727 bfbc 6a3a fb3d 59a5 e4bd d50b 653d
00000320: 77de 8d3c e39c b9bd 74c1 3bbd 1092 e13d
00000330: 9cc8 a6bd 7f95 053e a3d2 4fbd 3edc 873d
00000340: e2ae 84bc edc4 abbb f2fb 743d 7383 c43d
00000350: 9232 0d3d c7d5 1cbc 6724 cebd 9590 47bd
00000360: 1b67 a23d 8869 e23d 576e 80bd fd17 c4bc
00000370: 3c84 7d3d f0a9 fe3d da40 73bd 2ee3 823d
00000380: 301b f83d 3716 46bb 18d5 cb3d 7f98 e53c
00000390: 0876 083c bd92 efbd 8a5f 903d e86e 03bd
000003a0: 3164 b6bd ee8d fd3c 6e3d ccbc bcd7 db3d
000003b0: 73a2 3fbd 1d79 f53d 82bb 163c 154e 8c3d
000003c0: 9a4b e8bd ef70 ec3d e6fb fe3d 71a7 81bd
000003d0: d41a f33d 8d33 353b 234f fabd d180 87bd
000003e0: ded8 ad3d 9713 3bbc 76b6 023e 77de 693d
000003f0: 92b6 bdbd 7cab 2abd 2692 cabd e75f 67bd
0.013439011 0.02749972 0.08130218 0.00918749 -0.079918474 0.08083049 0.09010697 0.06038502
-0.07360913 -0.06583044 -0.1135613 0.021068174 -0.004785837 0.08812909 0.015344248 0.06874355
0.07832269 -0.043464433 0.057300486 0.10016687 -0.012996051 0.08786183 -0.08693646 0.04923375
-0.054517776 -0.064114854 0.049034063 0.12259921 -0.04530729 -0.042731147 0.0043294965 -0.07959727
0.050679155 0.05758198 0.018424317 0.06110763 0.03485406 0.02748272 0.12869504 -0.037926238
-0.0068007866 0.0410154 0.08315619 0.018514574 -0.031050907 -0.019769209 -0.041011274 0.051044684
-0.107580215 0.050240412 0.0104476325 0.07214684 -0.07950142 0.033276312 0.111852296 0.11572163
0.118891045 -0.057803877 0.10271238 -0.058624204 0.009583617 0.12799294 -0.031440407 0.026315605
0.0259579 0.07181283 -0.052389447 -0.057100628 0.10845981 -0.020965965 -0.07935932 0.1251225
0.066511646 0.044894014 -0.047272738 -0.12719066 -0.050184954 0.056436777 0.0778207 0.03161038
-0.0071822177 0.045440454 0.11615823 -0.10183125 -0.08875632 -0.116948195 -0.077541515 -0.068633735
-0.021489419 -0.10681033 0.042818934 -0.059603643 0.011718023 0.016093696 -0.04574037 -0.08143558
0.06319001 -0.075040035 -0.04199791 -0.109113514 -0.056124847 0.030104918 -0.11144277 -0.008971145
0.004371057 0.08051112 0.048299216 -0.024801854 0.0021718193 0.09831101 -0.0076134154 -0.09556969
-0.0692695 -0.073085 0.12968464 0.053981114 0.022050086 0.048535984 0.058881618 0.045557193
0.01243565 0.09441327 0.106517285 0.13328585 0.040610548 0.035628933 0.09560711 0.008893488
-0.025413986 -0.12147985 0.09821136 -0.08543069 -0.005500535 0.10434007 0.028027551 -0.028933141
0.09772352 -0.11046113 -0.08785787 -0.114747904 -0.04790579 -0.038941793 -0.10330084 -0.119886585
-0.069313146 -0.09258503 -0.077075 0.08261381 -0.10447081 0.090079315 0.049465984 0.04884566
-0.050877158 -0.102658994 -0.0007622366 -0.07037642 0.046123613 0.073957026 -0.1067423 0.063079625
0.074544914 0.117301054 -0.08765228 0.09085032 0.09603723 0.10195561 0.032149844 0.032355882
0.042979244 0.025632704 0.11735763 -0.02352375 -0.07823415 -0.02993265 0.043959644 0.013829718
-0.09770382 0.05497591 0.08437572 0.023715654 0.0044427263 -0.0017370092 -0.08304346 -0.013900558
-0.03130318 0.10338172 0.028039752 -0.076776646 0.00038220576 0.03397545 -0.03233813 -0.09197585
-0.044027902 0.13078552 0.061775703 -0.029152324 -0.023334308 0.12267001 -0.1116435 0.055919487
0.017317994 -0.09063127 -0.04583879 0.11014187 -0.08143732 0.1304531 -0.05073799 0.06633805
-0.016196672 -0.0052419812 0.059810586 0.095953844 0.034472056 -0.009572453 -0.10065537 -0.04872187
0.07929822 0.11055285 -0.06271046 -0.02393722 0.061893687 0.12434757 -0.05938802 0.06390987
0.121145606 -0.0030225643 0.09952754 0.028026817 0.008328922 -0.1169791 0.07049473 -0.03208819
-0.08905829 0.030951466 -0.024931636 0.107345074 -0.046785783 0.11985991 0.009199979 0.068508305
-0.11342545 0.11544978 0.124503896 -0.06330765 0.118703514 0.0027649135 -0.122221254 -0.06616367
0.0848863 -0.011418245 0.12764916 0.057096925 -0.09263338 -0.041667446 -0.09891157 -0.056487944

lstm.weight_ih_l1 f4 [256, 64]
00000000: bf7b 593d f305 5f3d 38bc 253d 0724 d03d
00000010: 354f 683d eea4 df3d 5bd2 e7bd d434 35bd
00000020: 0ceb 0ebd 2188 19bb 4c82 4f3d 9791 d7bd
00000030: 66fe bf3d 262c dc3d 941b 1cbd f0b2 333d
00000040: 013a ab3d 1067 d43c 93fd ecbc 9ba9 a53d
00000050: 8d42 d73d 2d19 083e 5a00 74bd 21ae 98bd
00000060: 317e d4bc 3726 04be a77d e13d 6f8a 183d
00000070: f95f da3d fba9 cd3d bba9 3f3d 7165 573d
00000080: e3c4 db3d 40b5 f93d 0080 9dbc 7bba 4c3d
00000090: 4bc6 fbbd 85eb d6bd ced4 823d cc30 8cbd
000000a0: cbe3 95bd 7bf8 fe3d ff33 67bd e87a deb9
000000b0: 3ef3 8cbd 992b b23a 3a9f efbd f3be e43b
000000c0: 3a08 04be dee0 56bd c362 813d 9018 833d
000000d0: 973d 10bd deff 1cbc e581 a63d 0465 e1bd
000000e0: 10c3 c4bd cd8a debd 8a47 a63b 2735 603d
000000f0: 0f25 d1bc 2e32 943d 9e76 44bd 92ac b6bd
00000100: 1349 fd3d 410d 9bbc 5572 35bd b940 b2bd
00000110: 88a7 9abd 745c c2bd 6a00 bb3d 6fdf dfbd
00000120: 10b2 5ebd 4192 8f3c 2531 163d e543 e33d
00000130: d3f3 c13d 6895 94bd e6e2 79bd d2bc 76bd
00000140: 2439 fbbd 62fa b13d 0f4e 06be b60f c7bc
00000150: 37fc 06be db61 62bc bb85 55bd 4f73 04be
00000160: a460 d6bd cd0d e2bd eef4 c93c 41d4 b1bd
00000170: 9662 43bd bbad 9e3d 92a7 cfbc 5aa6 c53d
00000180: 3590 1c3b 785f fcbc cfcc 0e3d a4a0 de3c
00000190: 3d9e 883d 8899 6c3d 2115 10bd 436c 7fbb
000001a0: c880 c73d 6850 f2bd bacc b9bd d768 c4bd
000001b0: ac0b 6ebd 8ee9 fbbc 73a7 043d b199 503d
000001c0: a2da 8d3d 3918 eb3c c1ec c8bc c670 5dbd
000001d0: 151d 483d 2d54 97bd f060 d2bd bde2 8f3d
000001e0: fada da3c 0d65 7fbd 8b5e 8f3d b922 bc3d
000001f0: 21e1 e83d 23aa debd 6d02 b2bb d1a4 083b
00000200: 2333 053d c86a 31bd 5de4 8dbd 797c 9bbd
00000210: 3e69 e9bd df7d e23c 4794 643d d5ba 683d
00000220: 0c07 f3bd 2c7d 013e 8e03 10bd cd92 90bd
00000230: 1c50 0ebd b173 edbc 1564 9bbb 5e68 82bc
00000240: 4012 22bd 3993 e03c 6356 27bd 6b34 0e3d
00000250: 33bd d43b 8562 05bc 980b a6bd 1e1f 4fbd
00000260: 53a5 7abd 6b29 85bd 8135 a7bd d976 a7bd
00000270: b958 d73d 52b9 cabd 454f c93d b27e debd
00000280: fa48 d7bd 2de9 223d 2341 573c d7e4 9f3d
00000290: a528 a3bd 57e7 b73d 6409 efbd b1c8 91bd
000002a0: beb9 babd 2b19 d8bd 6000 18bd 84d3 683d
000002b0: f6cf 4d3c eb61 5f3d b220 07bd 8dd3 26bc
000002c0: a3c8 7f3d 2728 d33d 6be1 a33d 8255 04bd
000002d0: f8b8 96bd 84a6 ab3c e367 20bc 2449 e4bd
000002e0: 3fcf d43d 6a55 a2bd 9c1e d7bc 1b4f 4ebd
000002f0: a6e5 e0bd df26 8d3d 9e36 a23d 25d4 7bbd
00000300: 7a3b 8b3d f1ea 28bd 1de9 a3bb 0397 d3bb
00000310: a7e9 acbd 625c 91bd 7541 a6bd ae34 c73d
00000320: f8c4 bebc ef60 2cbc 83be f3bd 4bb1 0d3d
00000330: 3524 85bd 62bb 203c cad6 003e ad1c d5bd
00000340: 1ae6 1dbc be48 863d fac2 f73b 03d4 763d
00000350: 5651 28bd 3cc4 bebd 4de7 9dbd 0844 75bd
00000360: bf45 893d 15ce 3fbd 2e22 d23d cb7a 5dbd
00000370: 4964 8c3d a825 b83a e33c 053d db92 a73d
00000380: d70c e93d d54b 51bd 5407 ed3d 5e15 d2bd
00000390: 9ffd c9bc b833 523d a88a 343d 2d0a 51bc
000003a0: 0491 9d3d 2de3 3e3d bf3b cebc 4396 d1bd
000003b0: 526a f0bd 32d6 433c 8afe 8ebd 55e5 e43d
000003c0: 7daf 903c 6e5e c13c 055b cfbd 6d4c a43c
000003d0: 9026 f63c 7cbb 17bc ae3e 123d 125b 8c3d
000003e0: b245 bcbd ca01 583d 542f b5bd 5743 57bd
000003f0: 85ca d8ba 5678 d5bd 16c4 e23d 375e b13b
0.05309653 0.054449033 0.040462703 0.10163122 0.056716163 0.1092013 -0.11319419 -0.044239834
-0.034892127 -0.0023427086 0.05066137 -0.10525816 0.093746945 0.10750608 -0.038112238 0.04387182
0.08360673 0.02592805 -0.028929507 0.0808899 0.105107404 0.13290854 -0.059570648 -0.074550875
-0.025939079 -0.12905203 0.110102944 0.037241396 0.106628366 0.10042187 0.046792727 0.052586976
0.107309125 0.12192774 -0.019226074 0.04998253 -0.12293681 -0.104941405 0.063882455 -0.06845245
-0.07318839 0.12449738 -0.05644607 -0.00042434712 -0.06882332 0.0013593315 -0.11700292 0.0069807707
-0.12893763 -0.052460544 0.063176654 0.06401169 -0.035214987 -0.009582488 0.08130244 -0.11005595
-0.09607518 -0.10866318 0.005074446 0.05473819 -0.025530366 0.072361335 -0.047964685 -0.08919634
0.123674534 -0.018927218 -0.04429849 -0.08703751 -0.07551485 -0.0949029 0.09130938 -0.109312885
-0.054369032 0.017525794 0.03666796 0.11096934 0.09470334 -0.072550595 -0.061007403 -0.060238667
-0.12266758 0.08690335 -0.13115714 -0.024299484 -0.1318215 -0.013817276 -0.05212949 -0.12934612
-0.104676515 -0.110377885 0.024652924 -0.08683062 -0.04770144 0.0774798 -0.025348458 0.0965087
0.0023889665 -0.030807242 0.03486329 0.027176209 0.066708066 0.057763606 -0.0351764 -0.003897444
0.0974136 -0.118317425 -0.090722516 -0.09590309 -0.0581166 -0.030751016 0.032386255 0.05092782
0.069264665 0.028698074 -0.024526956 -0.054062627 0.04885586 -0.07389102 -0.102723956 0.07025669
0.026715744 -0.06235223 0.070004545 0.0918631 0.11371065 -0.10872295 -0.005432418 0.0020850191
0.03251947 -0.043314725 -0.069283225 -0.07592101 -0.113970265 0.02764791 0.05580547 0.056818802
-0.118665785 0.12645406 -0.03515964 -0.0705925 -0.034744367 -0.02898583 -0.0047421553 -0.015918907
-0.039568186 0.027413951 -0.04085387 0.03471796 0.006492281 -0.008141165 -0.0810768 -0.050566785
-0.06119282 -0.065020405 -0.08164502 -0.08176965 0.105149694 -0.09898628 0.098295726 -0.10864009
-0.10511966 0.039773155 0.013138088 0.078073196 -0.07966737 0.089796714 -0.11671713 -0.07118357
-0.09117459 -0.105516754 -0.037109733 0.056842342 0.012561789 0.05453674 -0.032990165 -0.010182274
0.0624472 0.10310393 0.080019794 -0.03230811 -0.07359499 0.020953424 -0.0097903935 -0.11146763
0.103910916 -0.07926448 -0.026259713 -0.05036841 -0.10981302 0.0689218 0.07920574 -0.061481614
0.06798454 -0.041239683 -0.0050021545 -0.006457211 -0.08443003 -0.07097699 -0.08117954 0.09726845
-0.023287281 -0.010521158 -0.119015716 0.034592908 -0.065010466 0.009810301 0.12581936 -0.1040586
-0.00963738 0.06556843 0.007561085 0.060260784 -0.041093193 -0.093147725 -0.07710133 -0.059879333
0.06702756 -0.046827395 0.102604255 -0.054072183 0.068550654 0.0014049308 0.03252877 0.08182307
0.11379402 -0.05109771 0.11573663 -0.10257982 -0.024657069 0.051318854 0.044077545 -0.012758774
0.07693675 0.04660337 -0.025174974 -0.10233738 -0.11739029 0.011952924 -0.06982143 0.11176554
0.017661804 0.023604598 -0.101247825 0.020055974 0.030047685 -0.009261008 0.035704307 0.06853308
-0.09192981 0.05273608 -0.08846918 -0.052554455 -0.0016539848 -0.10423343 0.11072557 0.0054128426

lstm.weight_hh_l1 f4 [256, 64]
00000000: d0a2 1ebc ba5d cebc a4ce 253c ee01 b13d
00000010: a5e2 e6bc aaff 8f3d dec9 1a3d 0e7e 973b
00000020: c1bf bb3d e926 aa3d e293 26bd e976 d63d
00000030: f1b1 bcbd 5d11 3a3d ada6 93bc 359e bb3b
00000040: 5b39 73bc 546e d0bd c541 21bd 3694 bdbc
00000050: 6635 b43c a974 e8bd a06b 8abd ce88 adbd
00000060: b214 e63d 1284 04bd cd43 523c f091 963d
00000070: afa4 703c 07f1 17bd 361f babd 6337 943d
00000080: 98d7 b33b e15b e93d 52f7 713d 9b90 47bd
00000090: 3911 643d c8d1 c03d cb10 fb3c 1863 e63d
000000a0: 295f ac3d a457 c23d 6054 debd 7e48 a8bd
000000b0: 6a0f 91bc e676 4fbd 8c2d 9bbd 3b78 d2bd
000000c0: c29b 793d 7bb7 1d3d 4c36 513d 19af a2bd
000000d0: a964 ccbd 1bde 993d a522 203d 89a9 ae3c
000000e0: c2fc 253d 255e dfbd 049d 82bd 6ebd db3d
000000f0: 674e a93d fef7 363d e4ec a63d 8ab2 013d
00000100: bb24 edbd f45d c53d 89cc 253d f123 f5bd
00000110: 8cfb 363d d97f a03d 6079 793d 38d1 aabc
00000120: 070f bf3d 2bc8 873b 297b 003c 184a a33d
00000130: c4e2 1dbd e0a1 f7bd 3b99 c1ba 231b d13d
00000140: 0aaa e8bd b157 4f3d f5a3 cf3c ac55 e53d
00000150: 64fd 263d 58be b03d 085d b2bd a14f 64bd
00000160: 1ea0 9ebc 7bd5 a2bd 792d af3c 9db3 63bc
00000170: 0ef8 cc3a 7686 113c ce97 f2bd 3e11 d3bd
00000180: b8f2 4e3d 3ca7 853d 7930 eabc 18c2 543c
00000190: 7be2 e4bd 1be3 f83d 9666 dbbc c708 2dbc
000001a0: 0b1b ebbc ab19 86bd 95e5 8e3d 678f ff3d
000001b0: ba72 9c3c 7da2 003c 8805 003c 17d2 5e3d
000001c0: ee2a 63bd 9efe b6bd 7909 653d 894e 28bc
000001d0: c402 6ebc bce9 6bbd 1ea6 6bbd 5709 f3bd
000001e0: 4e7a bfbd f83e 6e3d 9ffc 063d 9a1e 523d
000001f0: 2f29 adbc a9ab b83d b77f 54bd 1757 723d
00000200: aeb5 98bd 312c d03d 983e 1b3d bac2 cabc
00000210: 0ed0 843d 37ec 2e3d 78ee cebc 3729 dd3d
00000220: dbdd ea3d e822 1bbd e86e 98bd 5c64 84bd
00000230: 9e5e 313d 7554 2dbd 8fa8 113c 4c72 913d
00000240: dfde bd3d ef25 aa3d c8ca 97bd 50dd f73d
00000250: 3155 d03c ceb4 103d 0686 b5bd 5a0b e1bd
00000260: ce83 da3c a7e8 3b3d ecd1 ecbd 3080 a43c
00000270: bca6 eb3c c967 94bd 8425 e2bd 299e e7bd
00000280: 35d4 1fbd 0335 b53d 8847 afbd be6e abbb
00000290: c29e cabd 2080 2dbd 5518 ac3d 910f 813d
000002a0: c0dc b6bd 41e9 3ebd e100 1f3d 41dd bbbb
000002b0: 8c97 b8bd af80 cfbd 3c7d 4b3c f944 bc3c
000002c0: 2123 b4bc c58e 22bd a3d7 ff3d 7f3d 1e3d
000002d0: 87dc 923d 2545 e53d cb8f 513d 9c4c f23d
000002e0: 1bde 4dbd 7342 643c ca3f 323c edcc 4dbd
000002f0: bb1d aabc e2ff d73d 9122 d13d 3753 043d
00000300: adfe 1abd a5f2 da3d 35be b1bd 06ce a5bd
00000310: d0ad aabc 8845 603c 5248 6e3c 0297 b6bd
00000320: bb1a eabd 0b8c d33d 0ddf e53d 47a3 cb3d
00000330: d8b5 cdbd 44f8 6b3d 96d7 1fbd 237d a13c
00000340: 7600 4cbd 7087 113d 5d56 2ebc 5a9b abbd
00000350: 8d37 c63d 6b95 a8bd 3c91 763c f7c2 ebbd
00000360: 8121 2fbc 4fee ba3d b099 113c a985 5fbd
00000370: cd87 1b3c b21f f7bd 4df0 d2bd 13b2 3d3d
00000380: f7da 613d 976b 2c3b 57b8 c83d 6856 e7bd
00000390: 1c64 bebc 2487 cebd 9514 3f3c b4ce 6abb
000003a0: ebaa 9b3d 3e4f a7bd d989 8ebd 7399 653c
000003b0: 104b cbbb 6d50 cd3d 889a d23d 82a4 8cbd
000003c0: 8b3e bf3d dcb0 86bd 6647 9a3d 76e1 b6bc
000003d0: 09fd 33bd e0ec 8f3c f4ee f3bd 5a91 6dbd
000003e0: a78d 093d 1d3a c7bd 52d7 c03d 4775 303c
000003f0: 9390 89bd de4f 1a3b f78d 983d 4648 ccbd
-0.009682372 -0.025191177 0.010120068 0.08642946 -0.028184244 0.07031186 0.03779017 0.004623181
0.091674335 0.08308203 -0.040668376 0.10471899 -0.09213627 0.045426715 -0.018023813 0.005725647
-0.014845218 -0.101772934 -0.039369363 -0.023141962 0.021998119 -0.11350376 -0.06758809 -0.08473359
0.11234416 -0.032352515 0.012833548 0.07352054 0.014687701 -0.037095096 -0.09087984 0.07237127
0.0054883473 0.11394478 0.059073754 -0.04872189 0.055680487 0.094150126 0.030647656 0.112493694
0.08416588 0.094893724 -0.10855937 -0.08216952 -0.017707545 -0.0506505 -0.07577047 -0.102768384
0.060939558 0.03850506 0.051077172 -0.079435535 -0.09980137 0.075130664 0.03909554 0.021321075
0.04052425 -0.109066285 -0.063776046 0.1072949 0.08266907 0.044670098 0.08150652 0.03166441
-0.115792714 0.09637061 0.040478263 -0.11969746 0.044673488 0.07836885 0.060906768 -0.020851716
0.09329038 0.004143735 0.007841864 0.07973117 -0.03854634 -0.12091422 -0.0014770398 0.10210254
-0.113605574 0.05062074 0.025346735 0.11197981 0.040768996 0.08630055 -0.087091506 -0.055740003
-0.01936346 -0.079508744 0.021383988 -0.013897804 0.0015637891 0.008882156 -0.11845361 -0.10306023
0.050524443 0.06526038 -0.028587567 0.012985729 -0.1117601 0.12152692 -0.026782315 -0.010561175
-0.028699419 -0.065478645 0.06977383 0.12478524 0.019097675 0.00785124 0.007813819 0.054399576
-0.055460863 -0.08935283 0.055917237 -0.0102726305 -0.014527027 -0.057595953 -0.05753147 -0.11867016
-0.093495 0.05816552 0.032955762 0.051298715 -0.021137802 0.090171166 -0.05187961 0.059165087
-0.07456528 0.10164679 0.03790149 -0.024751056 0.06484996 0.04270574 -0.025260195 0.10798877
0.11468097 -0.037875086 -0.07443029 -0.064644545 0.043303125 -0.042316873 0.008890285 0.071018785
0.09271025 0.083080165 -0.07411724 0.12102759 0.025431247 0.03532868 -0.088634536 -0.10988493
0.026674177 0.04587617 -0.11563477 0.020080656 0.028766029 -0.07246358 -0.11042312 -0.113094635
-0.039020736 0.08848002 -0.085585654 -0.0052317074 -0.09893562 -0.042358518 0.084030785 0.06301797
-0.089288235 -0.046609167 0.038819198 -0.0057331626 -0.0901328 -0.10131966 0.012419995 0.022982107
-0.021989407 -0.039686937 0.12492301 0.038632866 0.071709685 0.11194829 0.051162522 0.11831018
-0.050260644 0.013931858 0.010879466 -0.05024426 -0.02076613 0.10546853 0.10211671 0.032305922
-0.037840534 0.10690812 -0.08678857 -0.080959365 -0.020834833 0.013688453 0.01454361 -0.08915521
-0.1143088 0.103294455 0.11224184 0.09943252 -0.100444496 0.05760981 -0.03902396 0.01971299
-0.049805127 0.035529554 -0.010640708 -0.0837924 0.09678564 -0.08231624 0.015049275 -0.11511796
-0.01068914 0.09127485 0.00888674 -0.054570828 0.009492827 -0.12066592 -0.1029974 0.046312403
0.05514046 0.0026309246 0.09800785 -0.112957776 -0.023241095 -0.1008437 0.011662622 -0.003582877
0.076009594 -0.08169411 -0.06959886 0.014013636 -0.0062040165 0.100251056 0.10283381 -0.06867315
0.09338101 -0.06576702 0.075331494 -0.022324305 -0.043942485 0.017569005 -0.11910811 -0.057999946
0.033582356 -0.09727881 0.09416069 0.010770149 -0.067170285 0.002354614 0.07448953 -0.099747226

lstm.bias_ih_l1 f4 [256]
00000000: d83b 2bbc c609 013d f764 1cbd 2f07 11bb
00000010: 8f94 27bd ce1d f03d 7755 f3bd ac15 68bd
00000020: 568b 9c3c b9b7 39bd aa14 8abd 8286 cebc
00000030: ed17 b3bd f725 c43c 1c47 c8bc 7a0e c73d
00000040: b36b 513d 1673 8e3d 535e 043d 063f 083e
00000050: 4568 fdbc 833d 913b da85 d83d 64c6 adbd
00000060: 473a a3bd eaea bdbc 34e0 883d d804 d5bb
00000070: f968 c33d 65e0 98ba b1e0 50bc ac2e 4e3d
00000080: c54e e5bd ba3c 833c 0a39 023e 2f5f d03d
00000090: fb2e 543d 315c b43c d5fc 1a3b 1411 4c3d
000000a0: 3495 3f3d a6e3 99bd b6c0 653d 3b38 a23d
000000b0: 8ed5 da3d 8859 e23d 6931 5a3d 69f1 23bd
000000c0: 791d e93d c0bd fd3d cc20 b9bd ddde fa3d
000000d0: 220a 893d e181 8c3d 3370 9fbd 7f62 b33c
000000e0: 8a7d 1c3d f27f 82bd 3fe1 19bd 9e72 bebd
000000f0: 9f3f bbbc 9a81 213b 901c 353c 654a b6bd
00000100: d249 f4bc 3403 d5bd c7c6 9e3d 2c03 bc3d
00000110: 8d21 00be 125b b6bd d765 8cbd bb12 adbd
00000120: 909e 9abd a4bc d9bc 10ed ccbd ecab 673d
00000130: 11f2 81bd bb47 f73c 19dc 933d 87c4 94bc
00000140: 85bd c83d 11bf 903d 71b5 ef3d fd11 aa3d
00000150: cee1 b8bd b04f e33d 2075 d1bd 2f13 54bd
00000160: ca24 1e3d 9a19 d33d b1db c13d 0036 76bd
00000170: ab49 8f3d e5d2 bf3d 4c1a 72bd 4e95 e33d
00000180: f7fb a43c 90fc 653d 59a6 9cbd c3af 8abd
00000190: 9b40 e4bd 1797 a93d 3a58 d63d 1104 163c
000001a0: d839 a9bd 4e0c 543d c485 773c d186 993c
000001b0: e34d 1cbd a824 8a3d 3f58 a43d 4285 e33d
000001c0: 9cee e6bd 2748 e33d 804d edbd b6fe 15bd
000001d0: 2336 dcbd a3d3 c4bb 0e60 ffbd c29f 013e
000001e0: 354e 543d 9eb4 973d 20d0 a43c 76db 6ebd
000001f0: 75bc 9a3d c463 093e cb0b d6bd 95ce d13d
00000200: db0f dabd a2bd e9bd 45a3 adbd a28e e2bd
00000210: 6a3e c23d f3d7 003e 489d b5bd 9a0c f93d
00000220: 71ac 7abd 2b69 5d3c b0b6 82bc 8fcb 033e
00000230: a491 a63c 97a2 92bd 44f0 d33b 0019 8a3d
00000240: 6cb3 a63d 71a1 c1bc 6522 f1bd cb43 14bd
00000250: cf78 a43c ce05 67bc e0da d5bc 3409 85bd
00000260: 8d05 c5bd 1b4a 043e c2af 073d b44e cebd
00000270: c8fe f53d 382a 32bd f38f 2cbd 466e 813d
00000280: 5cf7 84ba 2f3c dc3d 1819 b7bd 8154 763d
00000290: 7ea7 4c3d 6493 e63d d3c5 bb3d 6dfb 043e
000002a0: db61 38bd 4685 dfbd ed3a 78bd 8687 9f3d
000002b0: ec54 ad3d 4749 b43d fee5 8fbc 35f8 573d
000002c0: 1692 cc3d 8f7d 99bd a2b4 a9bd 45be d2bd
000002d0: 8504 e2bd 44aa 98bd 2272 a33c 388b fd3c
000002e0: 1898 6d3c 884e ad3d 6be6 303c 9ad4 4bbd
000002f0: 6403 5b3c 17df d0bd eca1 bdbd 595d c83d
00000300: 0507 2fbd 93b1 e13c 7e8b 323d fcef d53d
00000310: bdc8 fa3d b862 d7bd 18b6 203c 5ad2 2abd
00000320: bd97 6ebd 8ffd c23d 6320 6ebc 757f 2bbd
00000330: 9635 f0bd a340 96bd ad93 053e 50d5 043e
00000340: cf13 03be 3bed db3d 3184 95bd 8bb7 e23d
00000350: 8b3f 473d b9f5 033d 2290 083d f009 8ebd
00000360: eea4 b8bd d6c5 ddbd d0c0 d7bd 3029 733d
00000370: 90f8 d13d 3f08 46bc 224e edbb c06a 973d
00000380: 0272 c73d 8796 dbbd 4ffb e03d a833 573d
00000390: 9195 e93d 7e0f b8bd 1086 073e 2419 e43d
000003a0: 2579 c8bd 5758 f83b ac5f f53d f6de 83bd
000003b0: a5aa 7cbc bd33 713d 933b a7bd c426 433d
000003c0: d207 013d e0e1 ac3b 6ff0 0b3d 3742 c03d
000003d0: 476c d63d a3e5 5f3d b71b b0bb 9236 b33d
000003e0: e35e c33d 1a3a b1bb dcd9 28bd bb2f 3cbc
000003f0: 0b9c b7bd 2a26 f13c a440 d63d 0b4b 84ba
-0.01045128 0.03150346 -0.038182225 -0.0022129526 -0.04091316 0.11724435 -0.118815355 -0.056661293
0.01910941 -0.045341227 -0.067422226 -0.025210623 -0.08744798 0.023943884 -0.02444797 0.09719558
0.0511281 0.06955545 0.032316517 0.13305292 -0.030933509 0.0044323816 0.10572405 -0.08485106
-0.079701 -0.023183305 0.06683388 -0.0065008216 0.09541506 -0.0011663554 -0.012748883 0.05033748
-0.11196665 0.016020168 0.12717071 0.10174405 0.051802617 0.022016617 0.0023649235 0.049820974
0.04677315 -0.075141236 0.056091987 0.07920881 0.106852636 0.11052233 0.053269777 -0.04002515
0.113825746 0.123897076 -0.09039459 0.12249539 0.06691386 0.0686071 -0.07785072 0.021897553
0.03820566 -0.0637206 -0.037568327 -0.09299205 -0.022857485 0.00246439 0.011054173 -0.089009084
-0.029820357 -0.104010016 0.077527575 0.091802925 -0.12512799 -0.08904089 -0.06855362 -0.08450838
-0.07549775 -0.026579209 -0.100061536 0.05656044 -0.06344999 0.030185571 0.07219715 -0.018160118
0.09801773 0.07067693 0.11704529 0.08304212 -0.09027444 0.110991836 -0.10227418 -0.051776107
0.038609304 0.103076175 0.09465731 -0.060110092 0.06996473 0.09366397 -0.05910711 0.11112462
0.020139677 0.056149065 -0.07648916 -0.06771805 -0.11145135 0.08280771 0.10466047 0.009156243
-0.08262986 0.051769547 0.015107576 0.018741043 -0.038160216 0.06745273 0.08024644 0.11109401
-0.1127598 0.11097746 -0.115870476 -0.036619864 -0.10752513 -0.0060066744 -0.12469493 0.12658599
0.051832397 0.07407497 0.020118773 -0.058314763 0.075554766 0.13416964 -0.10451468 0.102444805
-0.106475554 -0.11413123 -0.08478407 -0.11062361 0.09484561 0.12582378 -0.0886789 0.12160607
-0.06119961 0.0135138435 -0.015956253 0.1287062 0.020333119 -0.07159918 0.006467851 0.067430496
0.08139691 -0.023636552 -0.11774138 -0.036197465 0.020077137 -0.014100505 -0.026105344 -0.06495896
-0.09620199 0.12918894 0.0331266 -0.10073605 0.12011486 -0.043497294 -0.04212947 0.06319861
-0.001014452 0.107536666 -0.08940333 0.060139183 0.04996442 0.11258581 0.09168591 0.12986536
-0.045015197 -0.10914092 -0.06060307 0.07789521 0.08463463 0.08803039 -0.017565724 0.052726943
0.09988801 -0.074946515 -0.08286406 -0.10290197 -0.11036018 -0.074543506 0.019951884 0.030950174
0.014501594 0.08462244 0.010797123 -0.0497633 0.013367508 -0.10198801 -0.092594 0.0978343
-0.042731304 0.027550494 0.04359006 0.10446164 0.12245319 -0.10516876 0.0098090395 -0.041704513
-0.058250178 0.09521019 -0.014534089 -0.0418696 -0.11728971 -0.07336547 0.13044615 0.12971997
-0.12800525 0.107386075 -0.07300604 0.11070164 0.048644584 0.03221676 0.03334058 -0.06935489
-0.09015833 -0.1082875 -0.10534823 0.05936545 0.10252488 -0.012086927 -0.00724198 0.07393408
0.09738542 -0.1072207 0.10985433 0.052539498 0.11405481 -0.0898733 0.13234735 0.11137608
-0.097887315 0.0075788903 0.119811386 -0.06439011 -0.015421544 0.058887232 -0.0816566 0.04764439
0.0315016 0.00527595 0.034164842 0.093876295 0.10469871 0.054662358 -0.0053743976 0.08750643
0.095395826 -0.0054085376 -0.041223392 -0.011485989 -0.0896531 0.029437143 0.10461548 -0.0010093165
