VAE-LSTM-anomaly–detection/experiments/Collected_data/nosein_noseout_9-grid_search-0414/Collected_data-nosein_noseout_9-win_len400-look_back2-codesize20-VAEunits256-LSTMunits128/checkpoint/vae_best_model.pth (torch, 704594 bytes, 24 tensors)

encoder.0.weight f4 [16, 3, 3, 1]
000000 72 2a 86 be e4 87 2a 3d 5e 04 f2 bd 5b 61 44 be
       -0.26204258 0.0416335 -0.11817239 -0.19177763
000010 52 29 36 3d 8f 0f a2 be 00 80 8b 3e 23 5e 5b 3c
       0.044473 -0.31652495 0.27246094 0.013389143
000020 79 6d 88 be 68 a8 16 be 38 27 71 3d c2 ff 30 bd
       -0.2664602 -0.1471268 0.058875293 -0.04321266
000030 7e 60 47 bd ca 9b 00 be 54 7f a5 be 98 ad 63 3e
       -0.048676006 -0.12559429 -0.32323706 0.2223419
000040 b6 62 43 be 96 5e 2d be 3d 67 a9 be 8d ff c0 3d
       -0.19080624 -0.16930613 -0.33086577 0.094237424
000050 f0 82 ec bc 06 9b d1 3b b8 b8 11 3e 34 9c cc 3c
       -0.02887103 0.006396654 0.14230621 0.024976827
000060 11 f5 67 3d fb 58 8d 3e 87 49 d1 bd a2 77 90 3e
       0.056630198 0.2760695 -0.10219102 0.28216273
000070 5a d0 89 bd 97 21 54 bc 43 3c 00 be b9 e4 6c be
       -0.06729193 -0.012947462 -0.12522988 -0.23134126
000080 57 ed 84 be 26 b0 30 be 79 85 6b be 37 7f 99 be
       -0.25962326 -0.17254695 -0.23000135 -0.2997987
000090 80 93 a5 bd c9 bd 47 3e cd 57 df bd 79 fb 43 3c
       -0.08084774 0.19505991 -0.109054185 0.011961811
0000a0 22 f2 98 3e 03 6f f1 bd 1f c1 26 be 0a 60 34 3e
       0.29872233 -0.11788752 -0.16284607 0.17614761
0000b0 9d 4f 31 3e 7e 9e 58 3e b8 07 ac 3d 73 a9 81 3e
       0.17315526 0.2115421 0.0839991 0.25324592
0000c0 c6 d8 87 3e 77 01 86 3e bb 63 76 be 4a c3 63 be
       0.26532573 0.26172993 -0.24061482 -0.22242466
0000d0 4d 0e 94 bd 66 fd 01 3e d1 4d cb 3c c6 1e 48 3e
       -0.0722929 0.1269432 0.02481738 0.19542989
0000e0 23 af 16 be 06 82 c6 bd 19 fd 8e 3e 9f ff 3c be
       -0.14715247 -0.09692769 0.27927473 -0.18456887
0000f0 f0 46 06 3c 1b 1a 24 3e c6 63 5c 3e b4 db 85 be
       0.008195624 0.16025583 0.21522436 -0.26144183
000100 16 8c 9c 3e c1 7a 03 be e6 98 39 3e 76 a5 c1 3c
       0.30575627 -0.12839796 0.18124732 0.023638468
000110 cd ae 4d be e8 21 81 bc 6b b5 85 be 6d 1e c0 bc
       -0.20086212 -0.015763238 -0.26114973 -0.023452008
000120 b9 d2 32 be 0c 39 f1 bc 9d 93 97 3b a1 7d 39 3d
       -0.17463197 -0.029446147 0.004625751 0.045285825
000130 5c 66 a4 3e 4d 02 00 bd 4d 8d ad be 8d bb 48 3e
       0.32109344 -0.031252194 -0.33896866 0.19602795
000140 42 ba 9b 3e 88 61 81 3e 83 38 3b be 61 7e c7 bd
       0.3041554 0.25269723 -0.18283276 -0.09740902
000150 11 84 ef 3d 2f 06 80 be b4 84 05 3e 01 5f 70 bd
       0.116951115 -0.25004718 0.13038903 -0.058684353
000160 f9 23 2c be 3d f9 34 be e7 bb f7 3d ed 44 9e 3e
       -0.16810597 -0.17673202 0.120963864 0.3091196
000170 f1 ad 01 bc 36 de 1c 3e 45 65 1d 3e 8a 87 83 be
       -0.007915006 0.15319142 0.15370663 -0.25689346
000180 39 16 82 3e 59 dd f5 bd 9e cd 87 be e8 af 15 be
       0.2540758 -0.12005109 -0.2652406 -0.14617884
000190 9f 2e 80 be d6 aa 0b 3d ea 6f b2 bd 18 38 5b 3e
       -0.2503557 0.03409847 -0.08712752 0.21408117
0001a0 5f 27 23 3e 54 45 9d 3d ef 65 29 bd d2 14 5c be
       0.15932988 0.07679239 -0.041356977 -0.21492317
0001b0 e0 68 18 3e b6 e6 a6 3d 99 1f 84 3e 9b 42 99 be
       0.14883757 0.08149473 0.25805357 -0.29933628
0001c0 05 c7 96 bd 1e cd 13 3e 09 6a 18 3e 9a bf 55 3e
       -0.07362179 0.14433715 0.14884199 0.20873871
0001d0 d3 25 9b be 86 91 ec 3d fe 34 a7 be 64 b9 95 3e
       -0.30302295 0.11551194 -0.32657617 0.29243004
0001e0 c9 5d 76 3e 96 97 6d 3e 53 a6 5d be 4b 48 a7 bd
       0.24059214 0.23202357 -0.21645479 -0.08168086
0001f0 8c 94 ee bd 0a b6 a3 3e 3b b6 42 3d 06 20 84 be
       -0.11649427 0.31974822 0.04753707 -0.25805682
000200 01 d1 4d 3e 27 6e 72 3e 80 1a f2 bd 7d ca 61 bd
       0.2009926 0.23674832 -0.11821461 -0.05512475
000210 4a a1 72 3d 34 af 4d 3e cc 77 ef 3d 62 e8 12 3e
       0.05923585 0.20086366 0.11692771 0.1434646
000220 a2 06 69 3e a8 0d 0c 3e f8 79 8c 3e 8a 4a d7 3d
       0.22756436 0.13677084 0.27436805 0.10512264
000230 3b ce 86 3d 94 d9 6d 3e e8 be b4 bd 3a 53 54 be
       0.06582304 0.2322753 -0.08825475 -0.20734873

encoder.0.bias f4 [16]
000000 27 93 73 3e 1a 7f 97 3c bf 07 97 be 38 cf c4 3d
       0.23786603 0.018493224 -0.29498097 0.09609836
000010 2f 7e 2b 3e 61 a7 aa 3b 13 af 17 bd 11 b9 8c be
       0.16747354 0.0052079414 -0.0370322 -0.27484944
000020 50 30 a4 be 58 4a b9 bd fe 56 5d 3e e8 10 26 bd
       -0.3206811 -0.09047383 0.21615216 -0.040543467
000030 5d d7 66 3e 09 60 ed bc 60 d6 17 be fb d4 88 be
       0.22543092 -0.028976457 -0.14827871 -0.2672499

encoder.2.weight f4 [32, 16, 3, 1]
000000 b8 44 0a 3e 1c 95 91 bd 36 c1 be 3d d3 35 b4 3d
       0.13502777 -0.071085185 0.09314196 0.08799329
000010 82 58 04 be 36 32 b2 3c 7c c4 d4 3d 91 15 7c bd
       -0.12924388 0.021752458 0.10389039 -0.061544005
000020 63 5d a8 3d 16 51 25 3d 41 c3 bc 3d 0c d9 ee 3d
       0.08220937 0.040360533 0.09216929 0.11662492
000030 d4 aa c6 3d f4 5b 37 bd 2a ec dc 3d ed 2e ce bd
       0.09700552 -0.044765428 0.10787232 -0.10067544
000040 ef f2 d7 3c a2 4a 0b bd bf c5 ba 3c 88 d2 a6 3d
       0.026360957 -0.034006722 0.02279937 0.081456244
000050 e8 ea a8 3d 0e d7 cb bd 37 2c f6 3d 25 9e 8c bc
       0.0824793 -0.09953128 0.12020152 -0.017165253
000060 81 ba 07 be 5c 8b 41 3d 1c 9a 80 3d f4 1f fb 3d
       -0.1325474 0.047252044 0.06279394 0.12261954
000070 b5 3d e7 bd c9 6a b3 3d ce 3d b8 bd ac c3 c1 3c
       -0.112910666 0.08760602 -0.08996163 0.023652874
000080 f5 79 0d 3d bd 45 8d bd 43 0b 4d 3d 73 aa b0 bc
       0.034540135 -0.06898067 0.050059568 -0.021565652
000090 c7 a6 09 bd e6 17 02 be 65 85 9a bd e6 74 09 3e
       -0.033606317 -0.12704429 -0.07544974 0.134235
0000a0 81 a6 53 bd ed 39 a1 3d a3 bc 9a 3c 97 e6 d9 3c
       -0.051672462 0.078723766 0.018888777 0.026599212
0000b0 74 16 4c bd 0f d6 e0 3d c3 b8 28 bd 05 40 80 bd
       -0.0498261 0.109783284 -0.041191828 -0.06262211
0000c0 44 71 f3 bd fa 34 b6 bd fb cc 9d 3d a8 24 1b bc
       -0.11886838 -0.08896823 0.077051125 -0.009469189
0000d0 b0 ee a2 ba 8c eb 8b 3d e1 ac 55 3d 1e 1c c7 3d
       -0.0012430754 0.068320364 0.052166823 0.0972216
0000e0 7d 20 be 3b eb 2f 8c bd dc 17 87 bd fc 9b c8 bd
       0.0058022127 -0.06845077 -0.06596348 -0.09795377
0000f0 b7 67 a6 3d e4 66 02 bd 13 d8 c0 bd 49 c4 b9 bd
       0.08125251 -0.031836405 -0.09416213 -0.090706415
000100 b4 a6 81 bd 8a 5e 40 3c 0e 1d cf 3d 86 64 1a be
       -0.06330624 0.01174129 0.101129636 -0.15077409
000110 7b 1b 96 3d 3e a9 e0 3b 41 8a 9a 33 77 45 84 bd
       0.0732946 0.0068561127 7.196332e-08 -0.06458562
000120 8a 5e ca 3d 3b f8 36 bd 4c 9d 98 bd 53 33 15 b9
       0.09881313 -0.044670325 -0.07451877 -0.00014228867
000130 bc d3 a4 b9 c8 80 c7 bd 00 f7 0a be ee d0 2e bd
       -0.00031438272 -0.0974136 -0.13570786 -0.04267972
000140 47 9f 23 bd e7 f4 18 bc ad 61 1f bc 0f 5e f0 bd
       -0.03994682 -0.009335733 -0.009727878 -0.1173669
000150 8c b8 e9 bd ab 52 bc bd 5a 1a 49 3c 1c 8d fb bd
       -0.11412153 -0.09195455 0.012274349 -0.12282774
000160 b3 6d d5 3b 3d ff 0f 3b be f4 25 3d 86 96 1e bd
       0.0065133213 0.0021972202 0.040516607 -0.03871777
000170 7d dd 9e bd c6 04 dd bd 04 79 33 3d 54 ca a6 3d
       -0.07757089 -0.10791926 0.04381658 0.0814406
000180 c2 8d a1 3c 09 4e f0 bd 01 b4 43 3d 4e a6 23 3a
       0.019720916 -0.11733634 0.047779087 0.0006242738
000190 aa 15 34 3d a7 6c a4 bd f0 3e 04 bd 76 17 12 bd
       0.043965973 -0.08028536 -0.032286584 -0.035666905
0001a0 2c 7c 96 3d 72 d6 9e bd ab c9 df 3d 9e ea d5 3c
       0.07347903 -0.07755746 0.10927137 0.02611285
0001b0 30 2c cb 3d 68 21 47 bc ca f8 11 be 1e f1 bc 3d
       0.099205375 -0.012153961 -0.14255062 0.09225677
0001c0 92 b1 ca 3d d2 01 32 3b 18 9d 1e be 87 5c 1d bd
       0.0989715 0.002716173 -0.15489614 -0.03841832
0001d0 37 4e 0b be 04 a0 a8 3d 9a 31 9d bb 93 18 c2 3d
       -0.13604055 0.082336456 -0.0047971727 0.094773434
0001e0 d7 8b 1b be 89 db 8a bc 07 07 ed bd 60 9d 92 3c
       -0.15190063 -0.016950386 -0.11573606 0.017897308
0001f0 c4 c5 f7 3c 97 f0 95 bd 40 aa 25 bd ea 0a 15 be
       0.03024567 -0.073212795 -0.040445566 -0.14554945
000200 bd 30 ac ba 3f 8c f1 bd 1c 7d 09 3d 93 3a b4 bd
       -0.0013137084 -0.11794328 0.03356658 -0.08800235
000210 ef 9c f4 ba 95 06 ec 3d 1c 73 03 bd 5c 09 ff 3d
       -0.0018662493 0.11524693 -0.0320922 0.12452957
000220 51 27 be 3d ba fd da bd 2e 8b 88 bd 20 fd bf bd
       0.09284843 -0.10692926 -0.066671714 -0.09374452
000230 81 d6 72 bd 33 06 f4 3d bf e8 83 bd d7 78 34 3d
       -0.059286598 0.11915245 -0.06440877 0.044060554
000240 27 09 ed bd 3f c0 5c bd ed c7 76 3d 93 e6 5d bd
       -0.11574011 -0.053894278 0.060249258 -0.05417497
000250 28 4c b5 3d 27 fa 6f bd d8 ee b8 bd 05 23 64 3d
       0.08852416 -0.058588173 -0.09029931 0.05569746
000260 82 3f 02 3d 41 47 03 bd 51 08 c8 3c 5b 38 9f ba
       0.031798847 -0.032050375 0.024418028 -0.0012147533
000270 a9 25 09 bd ff 5c fd bd 6e d1 8a 3d c8 9f d7 3c
       -0.03348318 -0.12371253 0.06778227 0.026321307
000280 2f e7 b1 3c 02 c0 b9 3d 11 1a 97 3d ac 55 fc 3d
       0.021716682 0.09069826 0.07378019 0.12321028
000290 cf 74 5e bd af ab e8 a5 d2 36 21 3c 7a f2 a9 3a
       -0.054310616 -4.0361922e-16 0.00983973 0.001296594
0002a0 19 7e cf bc 11 00 8e bd 55 d0 ec 3c a0 66 fe bd
       -0.025328683 -0.069336064 0.028907934 -0.12421918
0002b0 cb 41 11 be 02 cf 4a 3d 8c 07 91 3c 6b f9 81 3d
       -0.14185254 0.049513824 0.017703794 0.06346401
0002c0 b0 d0 eb bd c0 e8 f0 3c b3 07 c6 bd f9 22 48 bd
       -0.11514413 0.029407859 -0.09669437 -0.048861478
0002d0 2d 6f ef 3c 87 9c db bd 9d 5e a5 3c 80 20 a9 bd
       0.029227817 -0.107232146 0.020186717 -0.08258152
0002e0 f2 d0 14 be 82 48 ef 3c 27 d9 e1 3d 8b 84 09 3e
       -0.14532831 0.02920938 0.11027747 0.13429467
0002f0 4d 89 58 bd ba 76 dc 3d e0 89 81 3d da 48 05 3e
       -0.052865315 0.10764833 0.06325126 0.13016072
000300 c9 c4 ea bd e7 03 c2 bd be ef 6b bd fe 6b f7 3d
       -0.11463315 -0.094734006 -0.057601683 0.12081145
000310 91 2d 7c bd 01 56 fd 3c e8 88 12 be 5d 20 3e 39
       -0.061566893 0.030924799 -0.14310038 0.00018131868
000320 e0 3e 37 bc b5 4b c5 bd 68 be a5 bd b3 29 23 3d
       -0.011184424 -0.096335806 -0.08092958 0.03983469
000330 0f a4 b4 bb 7b 59 a9 3c ed aa a6 bd f8 8e 87 3c
       -0.0055127214 0.02067255 -0.0813807 0.016547665
000340 c3 69 f7 3d 1f d4 5c bd b1 80 e9 bd b9 73 5f bd
       0.12080719 -0.053913232 -0.11401499 -0.05455372
000350 89 fd f0 3d 80 ee 79 3d b9 ac e8 bd de 09 f5 3d
       0.11767108 0.061018467 -0.11361069 0.11964773
000360 bf 69 00 3e c6 53 b0 3a f8 e7 d5 bc 1b c9 13 be
       0.12540339 0.0013452701 -0.026111588 -0.14432184
000370 9b 0b a8 bd 66 ac d4 3d ec 69 dc 3c f3 85 f2 bb
       -0.082053386 0.10384445 0.026905976 -0.007401222
000380 4e b6 db 3c 8c c1 e3 3d 20 d9 f1 bd f5 77 b6 3d
       0.026820328 0.111209005 -0.118089914 0.08909599
000390 41 e6 02 be 30 f3 6e bc 1f 07 d4 3c ec ee 85 bd
       -0.12783147 -0.014584348 0.025882302 -0.06539711
0003a0 46 f3 ff 3d d3 cc cc bd cd a0 d8 bd a7 cd f8 3d
       0.124975726 -0.100000046 -0.10577545 0.121486
0003b0 88 85 6e bd 8a 32 88 3d 26 02 0f bd 03 58 8d bd
       -0.058232814 0.066502646 -0.03491416 -0.069015525
0003c0 03 01 a1 bd e2 dd c5 3d 15 35 18 be 0a d6 17 be
       -0.07861521 0.096614614 -0.14863999 -0.14827743
0003d0 4a 46 9b bd 60 34 8c bd 6a ed cf bd 89 4c 16 be
       -0.07581766 -0.06845927 -0.10152705 -0.14677633
0003e0 6f ac e3 bc 32 d7 dc bd a6 0f 47 3c eb aa 01 be
       -0.027792184 -0.10783233 0.012149727 -0.12662856
0003f0 5e 83 d6 bc 5e 49 2b bd 86 dd 92 bc 94 0d a1 3d
       -0.026185688 -0.041818015 -0.017927896 0.07863918

encoder.2.bias f4 [32]
000000 1d 38 09 be b6 11 42 3d f5 27 d8 3d 99 0b 36 bd
       -0.13400312 0.04738017 0.10554496 -0.044444654
000010 4d bf 61 bc 89 a9 b1 3d 80 11 46 3d dc 2e f1 bd
       -0.01377852 0.086749144 0.048356533 -0.11776516
000020 5a b7 78 bc e2 c8 bd bc bd 65 20 3d 72 e6 d4 3d
       -0.015180433 -0.023167077 0.039159525 0.103955165
000030 99 ff a0 bd e8 ac bd bd be a7 80 bc 20 ed 0f bd
       -0.078612514 -0.09261495 -0.015704986 -0.03513825
000040 cb 02 dc bd fe 11 29 bc 57 68 34 bd 34 71 e6 bb
       -0.1074272 -0.010319231 -0.04404482 -0.007032538
000050 92 25 02 3d 0e aa 99 bd b2 55 0d be fc 86 c7 3d
       0.03177411 -0.075031385 -0.13802221 0.09742543
000060 0a 78 db bb fe f6 85 3d 02 1d 3c 3d 3d 14 f6 bd
       -0.0066976594 0.06541251 0.0459261 -0.12015579
000070 21 5f 39 bc 93 cc ec bd 99 18 b5 3d d1 33 09 3e
       -0.011314184 -0.11562457 0.08842582 0.13398673

encoder.4.weight f4 [64, 32, 3, 1]
000000 d7 a6 a4 bd 76 d9 87 3c 3a 34 4d bd f8 e7 94 3d
       -0.08039635 0.016583186 -0.050098635 0.07270807
000010 6b 17 90 3c 2f d4 31 3d 40 1c a7 3d 4b 1d 84 3d
       0.017589292 0.043415245 0.08159685 0.064509
000020 57 27 4d bd a1 b8 b2 bd 1b 46 9f bd fb df 81 bb
       -0.050086346 -0.087266214 -0.077770434 -0.003963468
000030 18 b4 8c 3c d0 97 d8 bc 82 7a 9f bd 8b f2 af 3d
       0.01717572 -0.026439577 -0.077870384 0.08591183
000040 03 46 51 3d 34 d0 33 bd 91 5a 35 bd 1d d6 b4 3d
       0.05109216 -0.04389973 -0.044275824 0.08829901
000050 b4 4b 91 3c 01 87 65 3d f8 65 0a bd 24 f2 4e bd
       0.017736293 0.056036953 -0.03378865 -0.050523892
000060 65 2f be bd 94 6e f7 bc ef c2 9d bd 78 80 33 bc
       -0.092863835 -0.030204095 -0.07703196 -0.010955922
000070 83 86 8b 3d 91 af 8d bd 67 18 80 3d 6b 29 7a bd
       0.068127654 -0.06918252 0.062546544 -0.061074656
000080 06 ce ad 3a 9f 62 49 3d c6 8e f0 3b 2c b8 e9 3b
       0.0013260252 0.049166318 0.0073412387 0.0071325507
000090 1c dc fb bc 51 27 8f 3c 6a 8f d9 3c 67 88 15 3d
       -0.030744605 0.017474802 0.026557643 0.036507037
0000a0 93 bc d4 bc 0f 08 64 3d e8 f8 31 bd 3b ac d1 bd
       -0.025968825 0.055671748 -0.043450266 -0.102379285
0000b0 b7 4d 87 3d 32 6d 4f 3b f4 5e 9d 3d 65 e3 ec ba
       0.0660662 0.003165078 0.076841265 -0.001807314
0000c0 c5 da 1b 3c ed d6 c5 bb e5 57 13 bc 55 c5 c1 3d
       0.009512608 -0.006037584 -0.008993124 0.09461466
0000d0 57 e7 c3 bd 98 80 93 bb c8 97 6d 3d 91 9e 86 bd
       -0.09565609 -0.0045014136 0.058006078 -0.06573213
0000e0 0d 16 47 3d 9a 66 99 bd 49 c8 97 bd 50 87 ff 3c
       0.048605014 -0.07490273 -0.07411248 0.031192452
0000f0 f8 f8 1b 3c 25 f4 87 bc 56 6d 22 bd ab e7 a9 3a
       0.009519808 -0.01659591 -0.039655052 0.0012962719
000100 38 64 28 3d 69 30 57 bb a8 c6 05 b7 81 4a 48 bb
       0.0411112 -0.0032835251 -7.973671e-06 -0.0030561986
000110 88 95 71 3c 54 34 6f bd 40 f6 4a bd 4e 62 c7 3c
       0.014745124 -0.058399513 -0.04955125 0.024338868
000120 48 c1 89 3c c9 97 c6 3c 3d 2d c4 3d 3b fc 41 3d
       0.016815796 0.024242299 0.09578941 0.047359686
000130 9f 2a 8c bd 2d 0c 55 bd aa 2f c7 bd 89 0e a8 3c
       -0.06844067 -0.052013565 -0.09725888 0.020514743
000140 8d 08 bf bd 2e c3 9a bc 0f ad 00 bd d3 eb 5e 3c
       -0.09327803 -0.018891897 -0.03141504 0.01360603
000150 f2 ee 12 3c 3e dc fa bc a4 f6 42 bd 20 72 e1 bc
       0.008968102 -0.030622598 -0.047598496 -0.02752024
000160 eb 30 1c bc 1c a1 bf bd 03 66 06 bc e3 cc 43 3c
       -0.009533147 -0.09356901 -0.008203032 0.011950704
000170 93 9d 10 bd ef 18 55 3d 72 6a cb bc 79 7b bd bd
       -0.035306524 0.05202573 -0.02483103 -0.09252066
000180 fd 62 13 3d 9a 86 ad 3d 01 ce 82 bc 37 89 3e 3d
       0.035983074 0.08472939 -0.015967371 0.046517577
000190 f8 5c b7 3d d7 81 90 3d e0 5b 53 bd 03 86 ed bc
       0.08953279 0.07056015 -0.05160129 -0.028994566
0001a0 87 a3 7f 3b 25 0a 9c bd 31 2a a6 bd 45 3e 29 bd
       0.0039007382 -0.076191224 -0.08113516 -0.04131915
0001b0 a2 e2 2b bd 50 e3 9e 3d 50 d2 83 3c 84 15 9e 3d
       -0.04196418 0.077582 0.016091496 0.077189475
0001c0 c8 4c 87 bb 82 67 a2 3d 89 c1 99 3a bd c9 be bd
       -0.004129026 0.07929899 0.0011730652 -0.09315822
0001d0 2e 96 24 bd 2d eb f9 bc 37 5d ba 3d 6b e2 bd 3d
       -0.040182285 -0.030507648 0.090998106 0.092717014
0001e0 97 6b bb 3d 29 0b 1a bd df 17 86 3d a0 62 84 3d
       0.091513805 -0.0376083 0.06547522 0.06464124
0001f0 ee 73 04 3d 55 49 1b bd 3b 55 0d 3d b9 29 d0 3c
       0.03233712 -0.03791173 0.03450511 0.02541052
000200 0e 4c 29 3d d9 b0 9f 3d e9 f7 04 bd 8e 95 78 bd
       0.041332297 0.07797403 -0.032462988 -0.0606895
000210 1a 6a 42 3d f2 9b 35 bc 81 6e 86 3d bf bc 52 3d
       0.047464468 -0.011084544 0.06564046 0.051449534
000220 b7 6a 19 3d a9 8d 16 bd 82 fe ba bd ad 78 6a bd
       0.037455287 -0.03675619 -0.09130575 -0.05724399
000230 f5 7d cc 3b 3d 82 13 3d b0 57 35 3c 51 19 aa bd
       0.006240601 0.036012877 0.01106827 -0.0830561
000240 04 06 84 bd 23 f5 95 3c b0 2c 38 bc 55 f5 09 3d
       -0.0644646 0.018305367 -0.011241123 0.033681232
000250 79 73 7b 3d d6 59 41 3d 8f 51 a2 bc 9e b4 4e 3d
       0.06138942 0.047204815 -0.01981428 0.05046522
000260 95 01 9d 3d a0 7c 21 3d 1f 6b 9a 3d 5a d3 14 bd
       0.076663174 0.039425492 0.07539963 -0.036334373
000270 61 d8 0d bd eb b6 8c bb 10 b9 52 bd 7d 3a be 3d
       -0.034630183 -0.0042942665 -0.05144602 0.092884995
000280 7c 3e b2 3d 34 df 3b bd 4b 6e 97 3d 55 fb c9 bc
       0.08703324 -0.04586716 0.073940836 -0.024655977
000290 5a 9c 98 3c ed 6f 09 bd 4f 82 59 3d c5 b0 30 bd
       0.018629242 -0.033554006 0.053102788 -0.04313733
0002a0 d5 4e 18 bd c0 35 06 bd 7b 4b bd 3d d5 bd 36 bd
       -0.037184555 -0.032766104 0.092429124 -0.04461463
0002b0 48 75 8e bc 9c fa 24 bd 2b 36 4a 3d 16 76 a5 bd
       -0.017389908 -0.040278062 0.049368065 -0.08079164
0002c0 2e fd 81 bd 58 63 26 bc 07 59 1d 3d a2 b0 a9 3d
       -0.06347118 -0.010155521 0.03841498 0.08285643
0002d0 74 2c 4d 3d 48 01 72 3d b1 39 fd 3c c0 28 b5 bd
       0.050091222 0.059083253 0.030911298 -0.08845663
0002e0 11 7f bb bb 48 65 c3 bc 75 74 06 3d 73 94 04 bc
       -0.0057219346 -0.023852006 0.032825906 -0.008092034
0002f0 bf 74 08 3c bb 84 ed bb 7e 9c ca 3d 92 76 6c bd
       0.008328616 -0.0072484887 0.0989313 -0.057730265
000300 58 4b b8 bd e8 66 54 bd 86 2d a1 3c 0b c4 84 3d
       -0.08998746 -0.05185595 0.019675028 0.06482705
000310 8d 4a 0b bd 95 b9 27 3d 46 2c c4 3d 4e ee 8f 3d
       -0.034006644 0.04094847 0.09578757 0.07027875
000320 80 70 62 bd 11 e6 f7 b9 74 e6 45 3d be 8a 1b 3d
       -0.05528307 -0.00047282924 0.04831548 0.03797411
000330 ef 4e 9a bd 39 9f 16 3c dd dd a2 3c 97 06 59 3d
       -0.07534587 0.009193235 0.019881183 0.0529848
000340 7b 4a 8d bd a6 90 b8 3d 52 94 e7 3c 69 f9 9f 3d
       -0.06898972 0.090119645 0.028268967 0.07811243
000350 83 90 6b 3c 32 3a 9a 3d f3 e1 93 bd ad d8 bf bd
       0.014377716 0.07530631 -0.07220831 -0.093674995
000360 36 9b b3 bc b6 22 19 bd 56 ab 57 3d cb 37 5e bd
       -0.021924596 -0.03738662 0.052653633 -0.054252427
000370 22 dc c8 bd 48 4d 35 3b 63 8b df bc 00 6d 4a bd
       -0.09807612 0.0027664471 -0.027288144 -0.049420357
000380 79 df 1e 3d 2c 29 9b 3c 20 3a 63 bd e8 c6 c0 3c
       0.03878734 0.01894053 -0.055475354 0.023532346
000390 e7 c0 b2 bc 09 0c 52 3d 44 40 bf 3c 37 43 4f bc
       -0.021820499 0.05128101 0.023346074 -0.012650303
0003a0 4a 17 03 3b 2e c3 b2 3b b1 bb 93 bd a7 6c a7 3c
       0.0020002895 0.005455396 -0.07213534 0.020437552
0003b0 cb d1 46 bd 05 1d 81 3a 98 72 c5 3d ea 73 af 3d
       -0.048539918 0.0009850567 0.09640998 0.08567031
0003c0 f8 24 8f 2e b2 f7 01 3c d4 dc aa bb 17 6b 06 bc
       6.509454e-11 0.00793259 -0.005214313 -0.008204243
0003d0 5d 20 bf bd 4e ed a4 bd 5a 74 42 bb 8f 62 4c bc
       -0.09332345 -0.08053075 -0.0029671402 -0.01247467
0003e0 f4 44 ac bd 5d 29 e5 bc fd a0 59 bc 96 a8 ce 3c
       -0.08411589 -0.027973825 -0.0132830115 0.025226872
0003f0 c7 ef 37 bc 7b 87 b6 3d 55 f0 75 bd ba e5 36 bc
       -0.011226601 0.089125596 -0.06004365 -0.0111631695

encoder.4.bias f4 [64]
000000 5e 12 4a 3b 4e ed af 3d 74 3f 90 bb 44 3d 76 3d
       0.0030833702 0.08590184 -0.0044020955 0.06011702
000010 74 d8 0e 3d f0 9f 78 bc 5d 77 18 bc 32 92 2d bd
       0.034874395 -0.015174851 -0.009305802 -0.04237575
000020 2c 52 86 3d ee a3 93 bc 89 59 fc bc b9 f0 4b 3d
       0.06558642 -0.018022504 -0.030804412 0.049790118
000030 b9 9b 42 bd 81 47 12 3d 50 9a 1d 3d 27 3f 41 bd
       -0.04751179 0.035712723 0.038477242 -0.047179367
000040 e2 13 81 3c 19 75 1e 3d ec 00 41 3d 4f 64 3d bd
       0.015756551 0.03868589 0.04712002 -0.04623824
000050 ff 79 62 bb db ab 73 3d a3 d1 24 3d cf e9 44 3d
       -0.0034557579 0.059490066 0.040238988 0.04807454
000060 fd 7a 40 bd 84 9f 3d bd d0 cd 24 3c 50 eb a9 bd
       -0.04699229 -0.046294704 0.010058835 -0.082968354
000070 a9 9d 51 3c ac 0c 5f bd 9e 33 2f bc 99 98 fa ba
       0.012793937 -0.054455444 -0.010693459 -0.0019118964
000080 8a db 54 3d af c6 8b 3d 8c c7 cf bd e6 d2 88 3d
       0.05196718 0.06825005 -0.101454824 0.06680851
000090 ad fd 4c 3d 5c 2a af bd 76 a1 71 bc 55 7e eb bc
       0.05004661 -0.08553001 -0.014747968 -0.028746763
0000a0 99 5a 5c bc 6d a8 36 3d 0e 31 6b 3d f4 ff a6 bd
       -0.013449335 0.044594217 0.05741983 -0.08154288
0000b0 df eb 6b 3b b9 75 c2 bd 43 ca de bb 81 f1 92 bd
       0.0035998744 -0.0949511 -0.006799014 -0.071749695
0000c0 4f de 98 bb 41 25 8d 3d e3 e6 8b bd 04 46 41 3d
       -0.004665173 0.06891871 -0.068311475 0.047185913
0000d0 38 aa 96 3d 68 c1 b2 3d 84 3f c1 bd b9 3e 87 3d
       0.073566854 0.087282956 -0.09435943 0.0660376
0000e0 a6 26 b5 3d 20 a6 76 3d d5 7c 8c bd 94 1c c7 bd
       0.08845262 0.060217023 -0.06859747 -0.09722248
0000f0 a7 41 3b 3d 61 16 27 bd 04 9a a8 bd 9f 49 36 3d
       0.045716908 -0.040792827 -0.08232501 0.044503804

encoder.6.weight f4 [128, 64, 3, 1]
000000 01 fb 4f bd f7 56 c9 bb 91 a3 22 3c 95 7b a7 bc
       -0.050776485 -0.0061444 0.009926693 -0.02044467
000010 f7 85 e6 3c 7d d3 89 3d 58 8b 07 3d d6 d3 64 bd
       0.028140051 0.06729791 0.033091873 -0.055866085
000020 9d e1 86 3b e4 c2 8f 3d 1c b3 04 3d 1c 84 15 3c
       0.0041162507 0.07019594 0.032397375 0.009125736
000030 80 02 2b bb f5 85 d2 3a 00 e7 38 bc 6a 94 0a 3d
       -0.002609402 0.0016061651 -0.011285543 0.033832945
000040 b2 3f df bc f6 03 e4 bc 2d ac 82 38 eb 14 cc bc
       -0.027252052 -0.02783392 6.230953e-05 -0.024912318
000050 50 b1 58 3d 14 0f 99 3c 24 80 06 bd 3a 3d f2 3b
       0.052903473 0.018683948 -0.03283705 0.0073925527
000060 e5 84 b3 3c 3a 31 59 bc d6 5a ed bc 65 5a 6c bd
       0.021913955 -0.013256365 -0.028973978 -0.057703394
000070 69 2f 92 bd d2 56 d3 bc 3a e4 79 bd 5e 37 cd bb
       -0.07137949 -0.025798235 -0.06100867 -0.006262704
000080 6d 15 cc bc 24 04 09 3d 4c d6 f8 bc ba d1 74 3c
       -0.02491256 0.033451214 -0.030375622 0.014942581
000090 c1 7d aa bc e0 3b 44 3c 59 88 2b bc 6e f0 3a bd
       -0.020811917 0.011977166 -0.0104695195 -0.045639448
0000a0 8d 47 7f bd 44 25 0c 3d 13 e5 7b bd 40 70 82 3d
       -0.062324096 0.034215227 -0.06149776 0.06369066
0000b0 c4 42 b1 bc dc f9 25 b9 80 a2 43 3a 42 15 bd b8
       -0.021638282 -0.00015828706 0.0007462874 -9.016182e-05
0000c0 0e 28 19 3b cd 3a 2d bd a3 36 09 3d df 2c 28 3d
       0.0023369822 -0.042292405 0.03349937 0.041058417
0000d0 d8 c3 89 bd ac d9 8a bd b8 9f 01 bd 2d 48 45 bd
       -0.06726807 -0.06779799 -0.03164646 -0.048164535
0000e0 ef 4f 50 bd a5 12 61 3d 90 bb f0 3c da f0 70 3d
       -0.05085748 0.05494942 0.029386312 0.058823444
0000f0 68 c8 30 bd b3 76 1a bd 57 66 50 bd 46 48 d4 3c
       -0.043159872 -0.037710857 -0.05087885 0.025913369
000100 a8 8e 49 3d 92 42 08 bd 04 1e 79 bd ce eb ba 3c
       0.049208313 -0.03326661 -0.06081964 0.022817519
000110 32 54 1a 3d d8 69 8c bd bd 46 ac bb c8 4b 7b bd
       0.03767795 -0.068561256 -0.005257456 -0.061351568
000120 c9 99 a2 3c 04 d6 1c bc 0e d4 97 3c 76 ba 3f 3c
       0.019848721 -0.00957251 0.018533733 0.011702171
000130 7f 6b 1f bd fb 89 99 bb f7 04 05 3c bc 60 08 3d
       -0.038920876 -0.004685638 0.0081188595 0.033295378
000140 47 ab 10 bd 74 e3 f6 3c be 47 82 3d 55 b7 dd 3c
       -0.035319593 0.030137755 0.0636134 0.027064959
000150 c4 37 0a 3c 77 30 4f bd c0 dd 13 bd 41 11 3a bd
       0.008436147 -0.05058333 -0.03610015 -0.04542661
000160 21 e5 48 3d d5 74 2b bd 1a 88 74 a7 b0 0c 9e 26
       0.04904664 -0.041859467 -3.3935583e-15 1.0966891e-15
000170 8b 26 81 2a a7 12 58 bd 0c cb 8d bb 15 49 a9 bc
       2.2941748e-13 -0.052752163 -0.0043271836 -0.020664731
000180 dd 52 3d 3d c4 08 23 3d 79 e7 fb bc 20 88 65 bd
       0.046221603 0.03980328 -0.030750023 -0.056038022
000190 96 79 ab bc d3 3b c5 bc 26 f2 61 3d b1 24 4e bb
       -0.020932 -0.024076378 0.05516257 -0.0031454975
0001a0 07 d7 cf 3c 1b 35 6f bd 1c e1 2e 3d cb aa e8 bb
       0.025371088 -0.058400255 0.04269515 -0.0071004382
0001b0 3c 12 5a bd f6 ef 34 3d 12 a9 03 bd 31 5a 7e 3c
       -0.053240046 0.044174157 -0.03214366 0.015524433
0001c0 d2 cb df bc f5 13 61 3c 85 80 bb bc 83 ca 8d 3d
       -0.027318869 0.013737668 -0.022888431 0.06923392
0001d0 11 73 04 3d 3e ba 0f bc 82 57 6c bc 41 ea 8e bc
       0.0323363 -0.008772431 -0.01442516 -0.017445685
0001e0 59 c7 2e 3d f6 2c 86 bd 16 a9 a0 bc 3e c0 39 bc
       0.04267058 -0.06551544 -0.019611876 -0.011337338
0001f0 dc d5 c1 3b e8 54 6e bb 62 c2 e3 bc ce b9 3b 3c
       0.0059153866 -0.0036366526 -0.02780265 0.0114578735
000200 92 8b 91 bd 72 b6 3e bd 31 f7 8e bd 2d d1 7c bd
       -0.07106699 -0.046560712 -0.06980742 -0.061722923
000210 9f 2e 8d bc 47 3f 37 bd a8 f0 27 bc 17 90 d5 b7
       -0.017234145 -0.04473808 -0.010250248 -2.5458676e-05
000220 36 6c d6 36 cb ec 19 37 72 71 18 3d e3 71 b0 bc
       6.3902944e-06 9.174643e-06 0.037217565 -0.02153868
000230 df 46 0d bd 34 23 8e 3d 69 24 26 bd 95 2b 42 bd
       -0.034491416 0.06940308 -0.040562067 -0.047404844
000240 4c 8c 83 3c 3e 77 81 3b 5c d6 78 bd 17 ff cf bc
       0.01605811 0.0039509824 -0.060751304 -0.025390191
000250 1d ce 00 3d 7c 6a 16 bd e2 23 4b 3d a7 27 4b 3d
       0.031446565 -0.036722645 0.049594767 0.049598362
000260 47 69 3d 3d 2b b9 13 39 09 7d 79 bd 9a 8a 85 3d
       0.04624298 0.00014087993 -0.06091026 0.06520577
000270 6d b5 6f bd 1f 98 88 bb 8a 8f 0a 3c fc 6b 87 bd
       -0.05852263 -0.004168525 0.008457074 -0.06612393
000280 d1 77 b1 bc ed e6 86 bd a0 00 42 3d 45 84 41 bd
       -0.021663578 -0.06587014 0.047363877 -0.047245283
000290 f1 ea 55 bd 1c 34 88 3c a0 96 86 bc 63 46 a3 bc
       -0.05222601 0.01662641 -0.016429245 -0.019931024
0002a0 68 c2 87 3d 19 39 4e bc 43 96 ef 3c e7 99 f2 3c
       0.06628877 -0.012586855 0.029246455 0.029614402
0002b0 43 21 7e bd b9 6e 3f bc 17 95 08 3c 8f b8 bf bc
       -0.06204344 -0.011684113 0.008336327 -0.023403434
0002c0 bb 7c 2c 3d cc 83 05 bd 9f 61 e1 bc 21 1a 1c 3d
       0.04211114 -0.032596394 -0.02751237 0.038110856
0002d0 01 e6 da bc d4 f2 83 bd 2d 69 91 bc 3e a8 29 3d
       -0.026721003 -0.064428 -0.017750347 0.041420214
0002e0 6f c2 36 3d 17 01 52 bd 72 7c 12 bd 1e 0c 06 bb
       0.04461902 -0.05127057 -0.03576321 -0.0020454
0002f0 a7 73 63 3d 2a 01 53 bc 09 cd 09 bd e0 8b 6a bd
       0.055530217 -0.0128786955 -0.033642802 -0.0572623
000300 af 08 af 28 20 10 c3 28 f2 c7 8c a7 7d dc 1c ac
       1.9432669e-14 2.1656342e-14 -3.9074587e-15 -2.229133e-12
000310 e5 b1 ec ab 16 64 2a ac 7f 96 b0 a7 c7 6c 45 27
       -1.6818184e-12 -2.4214012e-12 -4.901298e-15 2.739821e-15
000320 5b 25 3d a7 88 11 57 2b 02 43 17 ab d0 3f 0e aa
       -2.624927e-15 7.6407674e-13 -5.373897e-13 -1.2634273e-13
000330 16 3b 29 ab dc a0 c2 2b 80 18 62 ab e2 60 f8 a7
       -6.012286e-13 1.3829177e-12 -8.032533e-13 -6.893887e-15
000340 7d bd a3 a8 1f c9 1d 27 a8 e9 af a8 fe f1 06 a9
       -1.8178813e-14 2.1897155e-15 -1.9530235e-14 -2.9963872e-14
000350 d0 26 b7 a9 8e 51 0d a4 92 66 bb 24 d6 d2 d3 23
       -8.1335654e-14 -3.064358e-17 8.1272083e-17 2.2965958e-17
000360 34 10 ca ab 1d 40 bb 2b be d7 d3 ab a2 a9 2e 2b
       -1.435746e-12 1.3304944e-12 -1.5052332e-12 6.205263e-13
000370 de 51 35 2b b7 b0 57 ab e3 17 c1 a5 b9 dd 48 25
       6.441773e-13 -7.6628585e-13 -3.349635e-16 1.7422357e-16
000380 bc 99 37 a5 e2 d0 a5 2b 58 9d b7 ab c5 05 08 ab
       -1.5924807e-16 1.1781932e-12 -1.3046604e-12 -4.8324913e-13
000390 e5 d5 63 a9 14 34 2b 28 7f cc e2 28 95 58 77 ab
       -5.058965e-14 9.5036995e-15 2.5179726e-14 -8.787496e-13
0003a0 a2 c4 f5 2a a4 1a a9 2b c0 5d 1f ab 70 e6 7d 29
       4.3657184e-13 1.2015566e-12 -5.661825e-13 5.6377158e-14
0003b0 be f2 3f 2b 42 6a 02 a3 c4 36 93 a2 1a 86 31 a0
       6.8193704e-13 -7.069815e-18 -3.9902415e-18 -1.5036854e-19
0003c0 9a 64 28 2b 5f 4a 5f 2a 63 29 c0 aa f0 76 04 2b
       5.98252e-13 1.9832181e-13 -3.413477e-13 4.706088e-13
0003d0 e5 1f 6c ab f5 89 9e 2b 45 66 2a aa 81 a5 75 2a
       -8.3888305e-13 1.1264866e-12 -1.5134515e-13 2.1817792e-13
0003e0 3d fa 81 29 34 d9 34 27 6e c7 b4 25 1e be bd 23
       5.77216e-14 2.5097764e-15 3.1360161e-16 2.0571939e-17
0003f0 cc b8 11 27 0b f9 0b a7 b4 dd 50 27 0c d2 96 2b
       2.022297e-15 -1.9425132e-15 2.8985984e-15 1.0716441e-12

encoder.6.bias f4 [128]
000000 3b 32 66 3d a4 24 04 b9 ec 04 99 bb 1a da 10 bd
       0.056200247 -0.0001260215 -0.004669776 -0.035364248
000010 42 1b 5f 3d e0 62 5e bc ce c0 0a 3d 41 af 27 bc
       0.054469354 -0.013573378 0.03387528 -0.010234655
000020 f4 66 15 3d 58 f6 97 bd 06 22 43 3a cb 31 37 3d
       0.036475137 -0.07420033 0.00074437296 0.04472522
000030 eb e5 50 3d 83 1c 31 bc 98 8f 80 3d 25 f2 da bb
       0.051000517 -0.01081002 0.06277388 -0.006681698
000040 97 fc 55 bc 64 2c 64 3d 73 e0 da 3c 97 ea 23 39
       -0.01306071 0.055706397 0.026718354 0.00015632283
000050 70 e2 f1 3c 06 1b 94 bc 9b b8 66 3d 34 f7 00 bd
       0.02952692 -0.018079292 0.056328397 -0.03148575
000060 b0 2c 47 3d b3 17 5a 3d 56 f4 3e 3d 07 0f 54 bc
       0.0486266 0.053245258 0.046619736 -0.012943036
000070 be eb 28 3d bd 10 66 3d 2b 2f 4c 3d 70 79 46 3d
       0.041240446 0.056168307 0.04984967 0.048455656
000080 db 1f 57 bd bd 7a 91 3c 93 7f 5a 3d ea 3a bc bc
       -0.052520614 0.017758721 0.05334432 -0.022977311
000090 31 39 89 3d eb b9 17 3a 40 98 2d bd e6 d9 bf bc
       0.067003615 0.0005787897 -0.042381525 -0.023419332
0000a0 70 2f 00 b7 48 ed b2 bc 3c 43 77 bc 41 b2 46 bd
       -7.640439e-06 -0.02184166 -0.0150917135 -0.04850984
0000b0 52 e9 80 bd a1 e6 fb 3c a0 08 63 3d e9 78 e0 bb
       -0.06294502 0.03074962 0.055428147 -0.006850351
0000c0 2e 65 cd 3b 15 56 f4 3a 11 51 6d 3d 86 96 58 3c
       0.006268165 0.0018641377 0.05793864 0.013219481
0000d0 49 fb bd bb f9 81 b7 3c ca 66 15 bc 55 be 8e bd
       -0.005797778 0.022400843 -0.009118745 -0.06969897
0000e0 0b 5d 89 3c 95 a0 61 3d 6d 47 62 bd a3 f7 06 bd
       0.016768 0.055084784 -0.0552439 -0.03295101
0000f0 cd 17 61 bb aa 7d 64 b3 33 37 8a 3b 20 9f d5 3c
       -0.0034346462 -5.3199678e-08 0.004218006 0.026076853
000100 87 3b 62 3d de 2c 9b bb f0 77 86 bd 71 60 d6 3b
       0.05523255 -0.004735573 -0.06565845 0.0065422584
000110 49 df 26 3d ce 35 75 bd 1b 4c 79 bc d5 13 77 bd
       0.040740285 -0.059865765 -0.015215899 -0.060321648
000120 7d 39 bb 3c 99 1e 11 bc d4 a5 1c bd d5 5d 0c bd
       0.022854561 -0.008857393 -0.038244084 -0.034269173
000130 1c 26 09 3d 75 32 8c bc 89 06 de 3c e9 01 ac b9
       0.03348361 -0.017113904 0.027102726 -0.0003280782
000140 51 d4 30 3d c7 cd 25 3d 7f 23 07 bd 68 a9 e5 3c
       0.04317123 0.040479448 -0.032992836 0.02803488
000150 4b c8 31 3d 8b 87 20 3d b6 7d 2e 3d ff 29 bd 3c
       0.043403905 0.039191764 0.042600356 0.023091314
000160 f4 97 0c bc 5c e9 1f bd 8e f9 03 bd d9 6b 35 bd
       -0.00858115 -0.03904091 -0.032220416 -0.044292305
000170 d4 4e 03 bc 14 a2 d4 bc 5f 03 81 bd f4 e8 3a b9
       -0.0080144 -0.025956191 -0.06299471 -0.00017825124
000180 81 6b 6b 3d ea 8e 55 bd 2b b1 9c 3c d9 17 11 3d
       0.05747557 -0.052138247 0.019127449 0.035423134
000190 43 e1 e8 3c 5f 85 ff 3b 1d 84 39 3d f2 45 66 bc
       0.028427726 0.0077978815 0.04529201 -0.014054762
0001a0 9c 96 37 bc ed 98 20 bd c3 1e 29 bd 6f d1 3f bd
       -0.011205342 -0.03920834 -0.041289102 -0.04683059
0001b0 6d 88 6f 3d 75 97 8b bc a8 77 4e 3d b6 9b d4 bb
       0.058479715 -0.017039994 0.05040708 -0.0064882888
0001c0 ad 5e 2d 3d 85 d1 1c bb b0 58 53 3c 5f 3a c4 bc
       0.042326618 -0.0023928594 0.012899563 -0.023953615
0001d0 50 e1 0a bd d3 e5 29 3c 54 ed 8e bb 53 8b 0d bd
       -0.03390628 0.010369736 -0.004361788 -0.034556698
0001e0 4c 48 81 3d 79 30 dc 3c 75 6d b3 3c b3 91 13 3d
       0.06312618 0.026878582 0.02190278 0.03602762
0001f0 42 e1 97 bd 81 d7 5c 3d f0 e2 1e bd 77 79 99 3b
       -0.074160114 0.053916458 -0.038790643 0.004683669

encoder.8.weight f4 [256, 128, 3, 1]
000000 30 cd da 3c 22 8f 0c bc 75 32 bd bc 96 dc 7e 21
       0.02670917 -0.008579047 -0.023095349 8.635049e-19
000010 ec f0 bf a0 b0 56 79 1f 86 31 1d a1 d6 46 79 a1
       -3.2516087e-19 5.2799507e-20 -5.3259213e-19 -8.445823e-19
000020 db de fc 20 b0 93 db bb fc 3e 22 bc 06 ac 8b bc
       4.2837934e-19 -0.0067009553 -0.009902712 -0.0170498
000030 53 49 81 3b 86 27 df bc eb a2 09 bd a4 1d e3 21
       0.0039455085 -0.027240526 -0.033602636 1.5389964e-18
000040 91 81 8e 9f d0 f4 c1 21 0d da ee 3c fa c9 29 bc
       -6.035369e-20 1.314299e-18 0.02915671 -0.010363096
000050 c9 76 44 bd e0 df 34 a1 4f e5 8c 9f f5 03 70 20
       -0.047964845 -6.128267e-19 -5.9671666e-20 2.03301e-19
000060 e8 08 42 bb a5 93 a5 3c 9b 04 55 3c 8c 71 4a bc
       -0.002960736 0.020212004 0.013001586 -0.012356173
000070 8c 04 8b bb 42 ed f0 3b 3a e5 27 3d 6a 15 9d bc
       -0.0042424854 0.007352502 0.04099009 -0.01917525
000080 60 a1 9f 3c be 45 70 bc e3 3b 0d bb 1f a5 e5 bb
       0.01948613 -0.014665065 -0.0021550588 -0.0070082094
000090 32 c4 11 3d 1d 73 a6 bb 05 1c 47 3c 8a a5 b6 bb
       0.035587497 -0.0050796405 0.0121526765 -0.005573933
0000a0 0b 5a ff ba 7d 46 39 3b 11 54 10 bc f5 f9 5a bc
       -0.0019481791 0.0028270774 -0.0088091055 -0.013365258
0000b0 6b ea e0 3b ec b4 58 21 24 33 dc 20 62 a8 66 21
       0.0068638823 7.3423095e-19 3.7303292e-19 7.8149884e-19
0000c0 ec ad 41 3c 1f 51 d9 3c 90 fa e8 ba 70 fd 2b 3c
       0.011821251 0.02652794 -0.0017774869 0.010497436
0000d0 19 0f 1b 3d db e7 0c 3d 63 92 f3 bc be 00 43 bb
       0.037856195 0.034400802 -0.029732889 -0.002975508
0000e0 66 21 1e bc a1 e2 84 bb 4b 75 01 3d 77 d5 d5 bc
       -0.0096515175 -0.0040553366 0.031606 -0.026102765
0000f0 91 2c 45 bd 05 2b 91 3b 31 99 4d 3c 97 49 51 9f
       -0.048138205 0.004430177 0.012548731 -4.4318344e-20
000100 6f 8c 89 2b 9b 9c d6 a8 d2 19 3f 3d d9 06 c8 bc
       9.773414e-13 -2.382669e-14 0.046655484 -0.024417328
000110 44 e7 e6 3c c1 c7 d0 a1 6d 9b 4a a2 5c 6b b6 24
       0.028186448 -1.4147503e-18 -2.7458387e-18 7.911179e-17
000120 58 ea 03 3d e6 24 36 3d eb af d7 3c a3 ed a9 bc
       0.03220591 0.044468783 0.026329001 -0.020743197
000130 11 0e d9 bc 1b 60 13 bd 92 f5 30 bd 1d f7 0d 3b
       -0.026495965 -0.035980325 -0.043202944 0.0021662184
000140 f6 75 84 3c 79 37 c8 3c 1c 1f a5 bc ba d9 07 3d
       0.01616953 0.024440514 -0.020156436 0.033166625
000150 dd 10 37 ba fb 28 f6 3c f0 bf 07 bd 94 92 a7 3c
       -0.0006983409 0.030048838 -0.03314203 0.020455636
000160 9c 70 d6 3c 13 46 ed 3c b1 e8 12 bd aa b5 34 bd
       0.026176743 0.028964078 -0.035866443 -0.04411856
000170 96 c1 7d 3c 69 db 94 3c b0 70 05 bd 98 72 91 bb
       0.015488049 0.01817103 -0.03257817 -0.0044387095
000180 ae f2 ef a1 8f d6 37 22 4b 45 fe 20 53 52 0f 3d
       -1.6259507e-18 2.4914711e-18 4.3075128e-19 0.03499062
000190 f2 52 53 bd a0 b5 fb bb e4 80 83 bc b9 83 c7 bc
       -0.051592775 -0.0076815635 -0.01605267 -0.024354802
0001a0 79 49 83 3b 89 9d ee a1 8d be da a0 01 43 c3 a0
       0.0040065614 -1.6169207e-18 -3.7056732e-19 -3.3078624e-19
0001b0 75 b8 dc 3c f3 a0 40 bd cb fb 14 3d de 3b 11 3b
       0.026943425 -0.047028493 0.03637294 0.0022160928
0001c0 e9 2b 8e 3b ab db 40 bc a2 cc 23 bd 9c 15 ed bc
       0.0043387306 -0.011771123 -0.039990075 -0.028940968
0001d0 82 ea ad 3c e8 eb 02 bd 75 ef 00 bd 76 8f b1 bc
       0.021229986 -0.03196326 -0.031478364 -0.021674853
0001e0 5e 4c 79 21 24 c8 59 20 aa c6 78 9f 6b d9 3c 3b
       8.4465553e-19 1.8446836e-19 -5.2680374e-20 0.0028816115
0001f0 a3 45 0c bd 7b 9d 00 3d a8 1e f1 bc 75 99 86 3b
       -0.0342461 0.031400185 -0.029433563 0.004107649
000200 77 44 a7 bc 22 fb 52 a4 c5 69 4e ad 41 89 e4 aa
       -0.020418389 -4.574921e-17 -1.173323e-11 -4.0596175e-13
000210 25 18 60 20 e4 af 3d 22 0c d5 6b a2 4e 41 d3 3c
       1.8981527e-19 2.5707392e-18 -3.1961225e-18 0.025787976
000220 af c2 87 bc d8 fc cf 3b 32 95 02 bb 4d b6 3f 3c
       -0.016572325 0.00634728 -0.0019925353 0.011701179
000230 c7 8e a1 bc 7f 5f ef 3c 06 1e 01 3d cf a1 40 bc
       -0.019721402 0.02922034 0.031522773 -0.011757328
000240 69 94 c4 bc 20 30 4f 3c 36 a8 b6 bc 28 d3 b6 21
       -0.023996549 0.012645751 -0.022297006 1.2388692e-18
000250 f0 fa cd a1 d4 e8 3a 21 2f 3a 3b 3d 6d 6c 17 3d
       -1.3957763e-18 6.3327397e-19 0.045709785 0.036968637
000260 45 83 52 bd ad 65 1e 39 79 b7 40 bc ab d9 9a 3c
       -0.05139472 0.00015105931 -0.011762493 0.01890262
000270 84 dd d6 a1 2e 47 65 21 37 f1 17 21 74 51 9f bb
       -1.4559839e-18 7.7682424e-19 5.1480035e-19 -0.004862005
000280 af df 5b 3c d6 3e 06 3d fe d3 33 1e a1 c6 3f a2
       0.01342003 0.03277477 9.52002e-21 -2.599048e-18
000290 85 4d 23 a2 b8 85 e4 20 8c ae b5 a1 06 1b aa a0
       -2.2131658e-18 3.871319e-19 -1.2311239e-18 -2.8817003e-19
0002a0 af 00 0c bc 1e dc 82 bb d2 64 ac 3b ec 7f 49 bd
       -0.008545085 -0.003993525 0.005261042 -0.04919426
0002b0 ee 13 49 bd b0 69 12 3c 55 6a 9d 3c d6 9c fd bc
       -0.049091272 0.008936331 0.019215742 -0.030958574
0002c0 19 3d 86 3c 43 83 5b 3b 2e a8 1b 3c 86 5b 2f bd
       0.016386556 0.0033494986 0.009500546 -0.042811893
0002d0 a6 6a c9 21 71 20 11 a2 db 05 bc a1 16 16 37 21
       1.3648519e-18 -1.9668339e-18 -1.2740925e-18 6.203204e-19
0002e0 16 6d cd 1f d9 38 30 a2 18 4b 07 3b c2 cc 9a bc
       8.7001345e-20 -2.3882543e-18 0.0020644125 -0.018896464
0002f0 bb c0 6a 3c 21 74 b1 3c da 9d 2d bd c1 77 da 3c
       0.014328177 0.02166182 -0.042386867 0.026668431
000300 a5 19 d1 3a 33 9d 26 bc 03 3b 48 bd 68 cc 53 20
       0.0015953077 -0.010169315 -0.048884403 1.7940028e-19
000310 db 43 89 a2 6f 82 8b 1e 16 ab 4e bd 3c 17 d5 bc
       -3.720577e-18 1.4771144e-20 -0.05045613 -0.026012056
000320 2c a3 28 bd c6 3a 3a 3c 49 af f4 bc 60 14 83 ba
       -0.041171238 0.011366552 -0.029868739 -0.0010000579
000330 a9 82 4f bd 00 d0 1d 3c ec 99 d8 bc f5 13 a3 bb
       -0.050661717 0.009632111 -0.026440583 -0.0049767443
000340 40 af 1a ba f8 43 24 3c 19 b8 c2 3c ab de 4a 3c
       -0.0005900748 0.010025971 0.023769425 0.01238219
000350 59 c8 0b 3c a2 71 49 bc 80 3e 74 bc 82 8b a9 3c
       0.008531653 -0.012295159 -0.014907479 0.020696405
000360 63 85 35 bd 1b 64 16 bd 19 bd 25 bb 25 43 4a a2
       -0.04431666 -0.03671656 -0.0025289713 -2.741165e-18
000370 1e f9 8d 20 4d 8f b8 a3 7e d9 b4 3c 4e e2 e6 bc
       2.405118e-19 -2.001001e-17 0.022076365 -0.028184082
000380 b6 dd d8 3b 6f 1d 26 bd f8 78 e7 3c 8d 53 01 3d
       0.006618227 -0.040555414 0.028255925 0.03157382
000390 fb 33 74 bc 39 7f 3c bc 9a 17 2b bc 54 07 80 a0
       -0.014904971 -0.011504942 -0.010442639 -2.1688893e-19
0003a0 8c 62 9c 1f da 31 ae 21 91 88 37 bd 5b 76 f8 3c
       6.62316e-20 1.1803894e-18 -0.044807974 0.030329874
0003b0 02 88 fb 3c c0 ca 85 3b ea 53 c5 bc d2 06 42 bd
       0.030704502 0.0040830076 -0.024087865 -0.047369786
0003c0 d7 cb 07 3d 45 ae b1 bc 8a 9a 23 3d 10 7f ee 3c
       0.03315338 -0.021689544 0.0399423 0.029113322
0003d0 ae 4e 03 bc b1 98 49 bd 5b f4 d2 3c 75 f5 06 bc
       -0.008014364 -0.049217883 0.025751283 -0.008237232
0003e0 43 de 60 bd 4c e6 c4 bc cc 01 f9 bc 59 bb ca 3c
       -0.054899465 -0.024035595 -0.030396365 0.024747537
0003f0 a9 ee bf bc 92 d3 fa bc 9d 26 f5 3c 38 c3 0a 3d
       -0.023429232 -0.030618463 0.029925639 0.03387758

encoder.8.bias f4 [256]
000000 aa 99 ff 38 4f 7c 7b bc 97 c2 0d 3c 16 8c 0a bd
       0.0001218797 -0.015349462 0.008652351 -0.033825003
000010 4c 2c 12 bd c9 3d a0 3c e2 ae 87 3c 5c c8 c1 bc
       -0.035686776 0.019560711 0.016562883 -0.02365511
000020 aa cf 09 3c 5b 02 4f 3c 99 29 50 bb 56 36 14 b9
       0.008411327 0.012634839 -0.0031763075 -0.00014134622
000030 2a 67 76 3c 89 34 77 3c 59 73 b5 bb 03 35 50 ba
       0.015039245 0.015088209 -0.005537432 -0.00079424697
000040 c2 46 df 3a 15 d1 e6 bb c5 f0 e4 bb 16 4a 69 3c
       0.0017034637 -0.0070439675 -0.00698671 0.014238855
000050 9b ca 2f 3d a9 92 69 bb ff 0b 69 bc 23 60 a6 bc
       0.04291783 -0.0035640395 -0.0142240515 -0.020309513
000060 d7 66 47 3a 90 70 8c 3c 04 bf 5a bb f3 77 04 3d
       0.0007606572 0.017143518 -0.0033378014 0.032340955
000070 53 9d 03 3d a1 c5 3e 3b 81 cf 6b bb 95 4f a8 3c
       0.032132458 0.0029109495 -0.0035981836 0.02054576
000080 1b 30 31 3d 3a 45 ba 3c 74 69 ec 3c ad 0b bc 3c
       0.043258768 0.022738088 0.028858878 0.022954786
000090 39 0c 1f 3c ab bb 1a bc 73 60 9a 3b 3e 66 17 3d
       0.009707504 -0.009444158 0.0047112047 0.03696274
0000a0 b1 3a 21 3d f6 3b 28 bd 9e 04 c6 3c ba df 9a bb
       0.039362613 -0.04107281 0.024172124 -0.0047263773
0000b0 32 2b fe bc ce 4e 0d 3b 36 60 fc 3c 5a 6e a0 3c
       -0.031026457 0.0021561864 0.030807596 0.01958387
0000c0 5b 5a 22 3d 9c bb 9d 3c a5 d6 65 bc e9 f0 3e bc
       0.03963695 0.019254498 -0.014028226 -0.011654117
0000d0 d2 af 2a b8 3b b3 f4 3c db 5e d5 3c f1 05 10 3d
       -4.0694904e-05 0.02987062 0.026046207 0.035161916
0000e0 a7 8b 32 bb 71 ac 6c 3b 28 fc 34 bc a4 77 bc bc
       -0.0027243884 0.0036113525 -0.011046447 -0.023006268
0000f0 a0 e4 0f 3d 3b ef f3 bb 6b 30 30 bc 40 e1 9f b9
       0.035130143 -0.00744429 -0.010753731 -0.00030494668
000100 c3 f3 03 3c e1 76 7d 3c b1 d9 09 bd 18 86 c8 bb
       0.008053723 0.0154702375 -0.033654872 -0.006119501
000110 73 1d e4 3c 02 8c 80 bc dc 98 07 bd 0d 4f 0d 3d
       0.027846074 -0.01569176 -0.033104762 0.034499217
000120 9b 41 cc 3c d8 54 10 bc f5 83 8a 3b ba 64 12 3c
       0.024933627 -0.008809291 0.0042271563 0.008935148
000130 3c 15 1c bc f2 a2 fa ba 0d 2b 43 b8 e1 4c 04 bc
       -0.009526547 -0.0019122048 -4.6531717e-05 -0.00807497
000140 ad 96 e7 bc 90 00 70 b8 d7 d3 3f bc 88 fc be bb
       -0.02827009 -5.7220983e-05 -0.011708221 -0.005828444
000150 f7 c3 5d bb 17 a6 b2 bc ca 02 2d 3d 5a 9b 0f bc
       -0.0033838728 -0.021807713 0.042238988 -0.008765066
000160 18 d1 01 3d 52 e3 93 bc 9a a3 a4 3c d9 ff 36 bc
       0.031693548 -0.01805273 0.020097543 -0.011169397
000170 8c 2d 24 3d a9 d2 2e 3d 3c 3e f2 3c 70 72 46 bc
       0.0400825 0.04268137 0.029570691 -0.012112245
000180 23 8c 8b bc 03 ae ad 3c 1b 21 74 3c 95 00 01 bd
       -0.017034596 0.02120114 0.014900471 -0.031494696
000190 9a ef 56 b1 aa 5f b7 3c 31 68 28 3c 39 36 4a bc
       -3.1277296e-09 0.022384483 0.010278747 -0.012342029
0001a0 0e 03 55 bc 17 86 91 b8 6c 04 fe 3c 1c 45 a5 bc
       -0.013001217 -6.939115e-05 0.031007968 -0.020174555
0001b0 d2 55 2d bd b1 01 1c 3c c1 dc 16 bc 2f ba d0 3c
       -0.042318173 0.009521888 -0.009207905 0.025479404
0001c0 73 08 45 bc 80 7e 28 bb 27 a1 f9 bc dc a2 4f bc
       -0.01202594 -0.0025710166 -0.030472351 -0.012673106
0001d0 71 74 ab bc 39 bb f4 ba 49 6d f5 3c 37 16 3b bb
       -0.020929547 -0.0018671519 0.029959338 -0.0028547177
0001e0 89 04 cd bc 09 78 fe bc 03 97 e3 bc d7 04 4b bb
       -0.025026577 -0.031063097 -0.027781969 -0.0030978227
0001f0 88 a0 01 bc 09 ab b8 ba c5 02 03 bc 51 82 6f 39
       -0.007911809 -0.0014089058 -0.007996266 0.00022841363
000200 10 58 9c 3b 71 e1 51 3c 2a e3 23 bd 1c 40 59 bc
       0.00477124 0.012810097 -0.040011562 -0.013259914
000210 4f fc 93 bc 75 e8 c3 bc 98 51 00 b5 af 63 32 3d
       -0.018064646 -0.023914555 -4.780245e-07 0.043552097
000220 1c c9 38 3c 54 0a ab 3a 72 49 0c 3d b8 27 cf 3b
       0.011278417 0.0013049343 0.03424973 0.0063218735
000230 7b ac e2 bb 27 f2 34 3d aa 3b b0 3c 40 9a d4 bb
       -0.006917534 0.044176247 0.021512825 -0.0064881146
000240 88 f2 e5 bc e8 55 a1 3c 86 e5 83 3a 2b c3 5c 3b
       -0.02806975 0.019694284 0.001006291 0.0033685665
000250 10 47 85 bc 6e f7 7c b6 b6 65 2e 3d 2c 34 b2 bb
       -0.016269237 -3.769495e-06 0.042577468 -0.0054383483
000260 ed d2 c4 3c b6 74 89 bc c7 41 4c 3c b3 48 22 ba
       0.024026359 -0.016779285 0.012466854 -0.00061906426
000270 42 f4 1c 3d 66 78 97 3c f1 62 41 bd d4 4c e5 3c
       0.03831888 0.018490028 -0.0472135 0.027990736
000280 60 f4 5c bc a9 ac 3d bd b6 d7 82 3c b5 02 82 bc
       -0.013485998 -0.04630724 0.015972 -0.015870431
000290 10 84 e7 bc 73 dd 7a b9 09 55 c1 3c 36 9a eb bc
       -0.028261214 -0.00023924354 0.023600118 -0.028760057
0002a0 79 c3 13 3d 0e ee 40 bc 66 48 ad bc be cd 8e 3c
       0.03607509 -0.011775507 -0.021152686 0.01743209
0002b0 74 e7 f9 bb 53 99 c5 3c 3d c6 71 bc 04 ea 70 3c
       -0.0076264683 0.024120962 -0.014756736 0.014704231
0002c0 75 05 2c 3d 5a 65 13 bc cf b1 14 3d d1 01 39 3c
       0.04199739 -0.008996332 0.036302384 0.011291937
0002d0 4a ad cd 3c 1d 3f c3 3c 49 63 d4 bc 38 84 a0 bb
       0.025107045 0.023833806 -0.02592625 -0.004898574
0002e0 06 58 93 bc 50 73 d4 bc 7c 42 00 bb e7 ad 89 bb
       -0.017986309 -0.025933892 -0.0019570878 -0.004201639
0002f0 47 40 10 3d 5c 91 e0 bb 51 01 21 3d 10 2a a3 3b
       0.03521755 -0.0068532657 0.039307896 0.0049793795
000300 1c db df 3c 1a a2 5d 3c a2 79 c8 3c ad 97 30 bc
       0.02732616 0.013527418 0.024472062 -0.01077835
000310 47 66 17 bd 4a 03 8e bb c5 67 d1 3c 36 e4 4b bc
       -0.036962774 -0.004333888 0.025562176 -0.012444546
000320 0e f6 95 bb cc 1c e4 3c 62 a2 ff bb 3b 5a ef bc
       -0.004576451 0.027845763 -0.00780134 -0.02921783
000330 cc bd 55 ba 1b a8 b9 bc 2a b7 f9 ba bd 4d a2 39
       -0.0008153587 -0.022663167 -0.001905178 0.00030956967
000340 df 30 3e bc db e8 28 3d 16 99 b5 3c 45 67 c8 bb
       -0.011608331 0.041237693 0.022167724 -0.0061158263
000350 b2 3b 10 3b 1c a0 28 bb 17 9d f7 3c 5e 9b 71 bc
       0.0022008237 -0.0025730198 0.030226273 -0.014746515
000360 d2 54 05 3d 9b fb 78 bc 63 fb 1a bd 43 87 d3 3c
       0.032551594 -0.015196706 -0.037837397 0.025821334
000370 a4 e8 76 3c 35 42 08 3c f5 51 1c bc 09 42 09 bc
       0.015070114 0.008316566 -0.009541024 -0.00837756
000380 cf e4 08 bc 6b 3b da 3c 30 59 f9 3b 8e 87 93 b2
       -0.0083553335 0.02663966 0.007609509 -1.7174695e-08
000390 53 a9 f4 3b 39 32 1c bb 9a 82 f3 bc a9 82 c4 3b
       0.007466474 -0.0023833646 -0.029725362 0.005997021
0003a0 37 0d c7 bc 15 98 57 bd 1a c7 90 3a d3 3c 4f bb
       -0.024298294 -0.05263527 0.0011045665 -0.0031621947
0003b0 7b 7f b9 3c 76 45 1f 3d c9 9d a6 bb 24 cf bc 3c
       0.022643795 0.038884602 -0.0050847274 0.023047991
0003c0 b6 7a c7 3c 71 a9 8a bb 73 a8 1e bc 7d 4b 00 3d
       0.024350505 -0.004231625 -0.009683716 0.03132199
0003d0 80 35 2e bc 2a 1c 02 3d f0 cc 30 3c eb b7 1e 3d
       -0.010632873 0.03176514 0.010791048 0.038749617
0003e0 1a 52 cf b9 fa 06 20 bd dd 30 34 3d e2 e2 38 bc
       -0.00039543287 -0.039069153 0.043991912 -0.011284562
0003f0 64 19 3a bc 01 81 a0 3c b4 4e 8f bc 4e 4e 3c 3c
       -0.011358593 0.019592764 -0.017493583 0.011493279
