pure_LSTM_prediction/checkpoints/PureLSTM_WTH_ts24_hs64_ln4_in11_out1_lr0.0005_bs64_ep1000/checkpoint.pth (torch, 481577 bytes, 17 tensors)

lstm.weight_ih_l0 f4 [256, 11]
00000000: 41bf c7bd 3e35 2cbd 4135 e23d bddd 473e
00000010: 6dc5 eabc 6571 043c 1646 013e f408 29bd
00000020: 6d8b 743e e897 bcb9 abf4 60bd f533 9e3d
00000030: dfea 463d f312 c1bc 15fe 093e e4a0 ec3d
00000040: 0a43 e23d ffef 913e 7204 323d 46b9 cfbc
00000050: 98d0 033d 6ea8 803d d5c9 03be 6d52 213d
00000060: b9d7 a2bd 8320 04ba 93ce 25be 2f1d ffbc
00000070: f205 76bb 6bce 61bd bbb3 a4bd 0a18 a7bd
00000080: 8949 49bd a527 19bd 08cc f53d 01ab 323d
00000090: 2371 053e 150a 653d 96b6 353e 6afe 843d
000000a0: 8195 403d eb70 e6bc c9ef e93c 6b43 eebd
000000b0: c529 7bbd 6557 ebbc 465f 8ebd b6bb c6bc
000000c0: 4477 f7bd 45a2 f1bc dac8 bf3d 2130 a5bc
000000d0: 2330 a8bd 78ea 4cbe 3b17 36be 0a9a d83d
000000e0: 5ccd 903e 77d1 033e 8c51 423e 5bc8 263e
000000f0: 28f8 503d 7d8d a73d 4f64 27be 0c57 b7bd
00000100: fad6 ec3c 4bae 403d b417 143e 9145 0dbd
00000110: 5766 0f3e ab18 193e d53b 3abc aa3c 2a3e
00000120: 4b8f 0b3e 3a4c 8f3b 7b41 92bc 9af2 403c
00000130: 06a3 b53d b09c a53d e8b3 c9bd d8de 1fbe
00000140: bb5e 653e 4137 c53d a35a 133d 3b58 ba3e
00000150: 7b19 bebd 1ef3 053e b0e3 073e 1048 413d
00000160: 09dc bb3c 59b6 02be 9fdd 1bbd ec9a 1bbd
00000170: d7d2 133e e2aa 04bd a24e bc3d 23f2 c4bd
00000180: 7496 353d b4a5 1abd 8560 44bd fee1 9dbd
00000190: afd4 a13d b9a1 3c3e 51ff 233e e04e fb3d
000001a0: 4d84 d03d b41e 66be 8125 293e 0c27 903b
000001b0: 48b9 90bd 4ef2 cd3d 1d2d 42be 7998 1abc
000001c0: b400 9abd 0455 a8be f86f 85bd cd73 733c
000001d0: 579e 703e d2ee babc e6bd 923d f178 1ebd
000001e0: 3933 913d 81cf fe3c da43 0d3e a0c6 963d
000001f0: 5dcd 2a3d feec 193e 088a 8e3d 3a62 5fbe
00000200: 9dd1 703e 2080 c33e 69da f13d eba0 233d
00000210: 0588 d23d acce 37bc 8a99 c33d e02e 353d
00000220: fd1e ccbc 9ae3 693d d859 23bd 8e28 033d
00000230: 82f5 973d 1378 12bd eb64 5c3d 3e11 173e
00000240: ef2b b1bc 9f0c 44bd 9121 be3d 9178 233e
00000250: 0f1c a13c 3db4 243e 094b 48bd bcda 23be
00000260: 7d92 fb3d fb5d 5ebd 0c58 fb3c e1af 803c
00000270: 7a47 19bc e0cb afbb 1841 973c a5bb 453c
00000280: 0c6c 333e 8bff 67bd 96c1 df3c 9f81 f4bc
00000290: f482 8d3c 199c cc3c b2e6 f13d 45ac f83d
000002a0: 6ee9 fe3d c8e4 bd3d 2e91 fc3d cf72 46be
000002b0: cbdd 953c b83c 283d e9e5 9d3d 8b2a 99bd
000002c0: eb7b e93d 16c0 dc3d c715 ef3d 2d36 cd3d
000002d0: 9f07 843e 2929 bc3e cc98 4a3e 31a7 fe3c
000002e0: 5bc6 2abe d669 87bc 70dc 4e3c c3c5 29be
000002f0: 578c 7ebd b60f 3c3b 5307 49be c633 4f3e
00000300: 49c9 d03b 7612 8cbd 1993 2fbd 8783 08be
00000310: 9666 07bd 44ad da3c e796 32bd bd60 8d3b
00000320: bd96 643d 2161 453d 4607 40be c429 72bd
00000330: cdb7 5d3e 0d70 aabd 50b2 f7bc b998 993e
00000340: 4271 5d3d e346 fd3c a70e 0dbe f0ec 22be
00000350: 6347 2dbe 487a 89be dcd3 84be 8020 823c
00000360: aaa1 62bc ade7 783c e783 8fbd d43f 97bc
00000370: 6b87 9e3d f501 603c 19f3 79bd 4a65 4d3e
00000380: 6f85 55bd 8a4b ccbd 74a8 973d 91dd 24be
00000390: 5d30 dbbd 4350 48bd 5e51 213c 9fa0 a0ba
000003a0: 68e8 01be f44f f4bd 1279 7b3d 0ad1 99bd
000003b0: fd1a 563d b467 f6bd 5bf8 333d 5b63 3b3e
000003c0: 8b9d 00bd 0079 30be 0d5b b93c 1df6 a1bd
000003d0: 47ad 863b 9c74 d23d 89c5 fcbd dcbf 753d
000003e0: 03b4 463d 4a72 10bd 510d b7ba 89f9 cabd
000003f0: dd67 763d bb1e 11bd 5d7f bc3d 42cf d2ba
-0.09753276 -0.042042963 0.110453136 0.1951818 -0.028658593 0.008083676 0.12624392 -0.041268304
0.23881312 -0.00035971333 -0.054920834 0.07724754 0.048563834 -0.023568606 0.13475831 0.11554125
0.11047943 0.28503415 0.04346127 -0.0253569 0.032181352 0.062821254 -0.12869962 0.039385248
-0.07951302 -0.0005040245 -0.16192083 -0.031141846 -0.0037540165 -0.055128496 -0.08042093 -0.08158882
-0.049142394 -0.037391324 0.120018065 0.043620113 0.1303144 0.055917818 0.17745432 0.06493838
0.047017578 -0.028130015 0.028556721 -0.11633953 -0.06131913 -0.028728196 -0.06951766 -0.02425943
-0.12083295 -0.029496321 0.09364481 -0.020164551 -0.08212306 -0.20011318 -0.17782299 0.105762556
0.28281677 0.12872873 0.1897642 0.16287367 0.05101791 0.081812836 -0.16346858 -0.0895215
0.028911103 0.04704122 0.14462167 -0.03449017 0.14003883 0.14950816 -0.011366804 0.16624704
0.1362888 0.0043731006 -0.01785349 0.011776591 0.08868985 0.080865264 -0.098487675 -0.15612352
0.22399418 0.096296795 0.03597511 0.3639544 -0.09282204 0.13081023 0.1327045 0.047187865
0.02293207 -0.12764873 -0.03805315 -0.037989542 0.14435898 -0.03238953 0.091946855 -0.096164964
0.044332936 -0.037755683 -0.04794361 -0.0770912 0.07901894 0.18421067 0.16015364 0.122709036
0.10181484 -0.2247265 0.16518213 0.004399186 -0.070665896 0.100559816 -0.18962522 -0.009435766
-0.07519665 -0.32877362 -0.06515497 0.014859152 0.23497902 -0.022818957 0.071651265 -0.038689557
0.07089848 0.031104805 0.13795415 0.073621035 0.041699756 0.15031812 0.06959921 -0.21814814
0.23517461 0.3818369 0.118092366 0.039948385 0.1027985 -0.011218708 0.095507696 0.044234157
-0.02491712 0.057101823 -0.039880604 0.032021098 0.07419874 -0.035759043 0.05380718 0.14752671
-0.021627394 -0.0478636 0.09283746 0.15963961 0.0196667 0.1608438 -0.048899684 -0.1600141
0.122838 -0.054288846 0.030681632 0.015708866 -0.00935542 -0.00536488 0.018463656 0.012068664
0.17521685 -0.05664019 0.027313989 -0.029846964 0.017274357 0.024976777 0.1181158 0.12142233
0.12446867 0.09272152 0.12332378 -0.19379734 0.018294236 0.04107353 0.077098675 -0.074788176
0.114005886 0.10778825 0.116740756 0.10020099 0.25787064 0.36750153 0.1978485 0.031085582
-0.16677229 -0.016529959 0.012625799 -0.16579346 -0.062145557 0.0028695888 -0.196317 0.20234594
0.0063716513 -0.06839459 -0.042864893 -0.13331424 -0.033056818 0.026693948 -0.043600943 0.0043145106
0.055807818 0.048188332 -0.18752775 -0.059121862 0.21652146 -0.08322153 -0.030236393 0.2999933
0.05406309 0.03091759 -0.1377512 -0.15910697 -0.16921763 -0.26851106 -0.25942886 0.015884638
-0.013832489 0.015191955 -0.0700758 -0.018463053 0.07740673 0.013672342 -0.06102285 0.2005817
-0.052129205 -0.099753454 0.07405177 -0.16100146 -0.10702584 -0.04890467 0.00984606 -0.00122549
-0.12686312 -0.11929312 0.06139476 -0.07510574 0.05227183 -0.120314986 0.043938022 0.1829962
-0.031400245 -0.17233658 0.022626424 -0.079082705 0.0041100117 0.10276148 -0.12342364 0.059997424
0.048511516 -0.035265245 -0.0013965761 -0.09910876 0.060157645 -0.035429697 0.0920398 -0.0016083496

lstm.weight_hh_l0 f4 [256, 64]
00000000: 52ed a4bd 4575 0c3e e7fe a0bd 8c71 28bc
00000010: bab0 043e ee2a 69be 6237 09be 61b1 53bc
00000020: e1d0 8abd 80b3 143e 03e9 efbc c7ed 36bc
00000030: 9540 2dbd 27c4 3c3d 2e38 3b3e f5b0 3f3e
00000040: aba1 723b 922a 59bd 6256 633d b630 2ebe
00000050: e2ef f0bd 900e f43d 2583 d3bb 8fa4 05be
00000060: c067 4ebd 934f f4ba 11d4 c7bd 06a5 2e3e
00000070: 7670 d43d cfed 6abd 0085 233e aed2 fd3d
00000080: 3f93 f1ba 787b 5c3d d9b4 5cbd 0d45 5f3e
00000090: 8cd5 81bc d0e0 82bc 1703 c7bb b4cb 5d3d
000000a0: 7443 b33c abd3 3c3e f69c 6f3d f820 92bd
000000b0: d2a9 acbd 4a59 9c3d 7f2f 0d3d 15b2 debd
000000c0: 9ef6 69bd 297f 4c3e a2e0 653e 5b77 7b3d
000000d0: 1bc3 863d 5c31 013d 3798 263e f509 e6bd
000000e0: bc0d 4bbd 20d7 843d a550 b63d fd10 b93a
000000f0: 5ae3 d8bb 044f 23be af85 48be ec37 a0bc
00000100: 8af6 26bd d765 02be 0200 18bb 73ce 16bc
00000110: 04f7 c43d c2c2 d53d f053 8c3c b654 c83d
00000120: e05f 583d 156d c3bd b5f0 3d3e 7117 c6bd
00000130: b6cb 17be aa04 01bd 6fee 573d 0832 133d
00000140: 1b30 2fbd 6cc1 86bd da93 92bd a3dc e1bd
00000150: daa3 82bd b726 1a3d 05c2 a23b 9759 fc3d
00000160: 0534 aabd 8d35 c4bd 6d1e d1bd 4d75 adbd
00000170: 0bb3 5a3e 7343 463e 7ce4 333e 1773 823c
00000180: 6c54 7ebd 0795 0b3e b820 6e3d 98bb ba3d
00000190: b4e0 b8bd ad06 673d aa61 593d 0860 d23d
000001a0: 4e29 80bd e8d3 a73d 272e 2abd 7105 cd3b
000001b0: 1ae8 8f3d ee7c a9bd e666 773d 34ad 46bd
000001c0: dd05 973d 1b38 1a3e 3ec9 b33c 6afa 90bd
000001d0: 9781 afbc 1e46 f8bd 5a08 dfbb 9482 7c3d
000001e0: 6fd9 663d 50af d53d cd71 df3d 8bec 2ebd
000001f0: 4f44 43bd aa72 6dbe f33e 6dbe 07fe e73b
00000200: de25 bb3d 0e1e 543c 0dd0 04be 6bf5 863d
00000210: be74 e6bd 7aef 8c3d 6398 8bbc dc3a e2bd
00000220: fc58 e53d 496f 5bbd 9dc3 dabd c3bd b1bd
00000230: 8647 d0bd 8066 29bd a11a 98bd 7a24 b6bd
00000240: d43e 123d 9121 773c 5766 aebc 4b65 97bd
00000250: eadd f3bd c481 953d 3310 e63d e787 c9bd
00000260: 8d99 bcbd 869d 1d3e 702c 7e3d 294f 54bd
00000270: e734 bebd 77c9 9abd 6768 9dbd 12ae 303d
00000280: 06c9 91bd ea2c 2c3c 02a6 5a3d 1f4f 373d
00000290: 17b0 5b3d 2712 b83d 85e8 15bd fc5c d4bc
000002a0: 6817 873d c011 bf3d 57d2 94bd dfdf 5d3c
000002b0: af2e 043c 4a07 d5bd 0ad9 42bd b375 95bc
000002c0: 652a 963d 7553 c1bd 97e7 85bd df28 65bd
000002d0: 298d 1a3e 1363 0a3e 9daf cbbd 25c7 88bc
000002e0: 82bc 623d d5c7 f0bd d7a4 27bd 4ee2 b1bc
000002f0: b175 b33d 66ec 3f3c f65d 923d 4d84 08be
00000300: 7a0c fbbc 90d6 6a3c 2df3 57bd 7b77 023d
00000310: 01eb 123e e364 a93d fb28 3fbd c4d8 50bd
00000320: 9bad d73d f99f 7abd 098a c63c cc80 12bd
00000330: c7e5 353d 8f45 42bd 69fe 8f3d 418d b13d
00000340: 0225 be3d e3af 34be 5f83 253d 0f88 a6be
00000350: 345f b93d 0d71 c63d 7904 b0bc 3309 79bc
00000360: f9bd 3fbd 7ec1 273d ee38 163c 681f bf3b
00000370: ec6e a1bd aacb b53d 753d ef3c 1f83 d2bc
00000380: bb19 babd 0641 f4bc b06b aebd 645d c03c
00000390: 23e5 473d dd75 e23c cea2 be3d 07dc ce3d
000003a0: 0c46 193d ca43 0d3d 3823 e33d e302 0bbe
000003b0: 65e0 03be 6944 7cbd a77f 5fbe 2d3b ffbd
000003c0: bf1e 4dbd 7b71 b8bc 96ad 9d3d 64c7 4abd
000003d0: 092c 303d 4b84 90bd 2e99 873d 6987 693d
000003e0: f449 a2bd 195c bf3b 0bf7 383d 9fdd dcbc
000003f0: b7d4 f43d 8a6a 0e3d 87c5 14be 14b3 ddbd
-0.08053078 0.1371661 -0.07861119 -0.010280978 0.12958041 -0.22770283 -0.13400033 -0.012920708
-0.06778122 0.14521599 -0.029285913 -0.011165089 -0.04229792 0.046085503 0.1828315 0.18719848
0.003702263 -0.053019114 0.055502303 -0.17010769 -0.11764504 0.1191684 -0.0064548426 -0.13051055
-0.050391912 -0.0018639438 -0.09757245 0.17055139 0.10373013 -0.0573557 0.15968704 0.123936996
-0.0018430724 0.053828686 -0.053883407 0.21803685 -0.015848897 -0.01597634 -0.0060733664 0.054149345
0.02188275 0.1844012 0.0584993 -0.071351945 -0.08430828 0.07634218 0.034469124 -0.1087381
-0.057119958 0.19970383 0.22448972 0.061393123 0.06580182 0.031541213 0.16269003 -0.11232368
-0.049573645 0.06486344 0.089021005 0.0014119443 -0.0066188993 -0.15948111 -0.19582246 -0.019557916
-0.04076246 -0.12734161 -0.0023193364 -0.009204495 0.09617427 0.10437538 0.017129868 0.09781782
0.05282581 -0.0954229 0.18548854 -0.0967244 -0.14823803 -0.03149859 0.052717622 0.035936385
-0.042770486 -0.06579861 -0.07157107 -0.11028411 -0.063789085 0.037634578 0.0049669766 0.123217754
-0.08310703 -0.095805265 -0.102108814 -0.08469639 0.21357362 0.19361667 0.17567629 0.01592402
-0.06209223 0.13631068 0.05813667 0.09117812 -0.09027234 0.05640285 0.053071655 0.10272223
-0.06257878 0.08194715 -0.04154792 0.006256752 0.07026692 -0.082757816 0.060400866 -0.048505023
0.07374165 0.15060465 0.021946546 -0.07079013 -0.021424098 -0.12122749 -0.0068064155 0.061647967
0.056359705 0.10433829 0.10910378 -0.042706054 -0.047672566 -0.23188272 -0.23168544 0.007079843
0.09138082 0.012946619 -0.1296999 0.065897785 -0.112527356 0.06881614 -0.017040437 -0.11046383
0.11198613 -0.053572927 -0.106818415 -0.08678772 -0.10169892 -0.041357517 -0.07426954 -0.08893676
0.03570445 0.015083686 -0.021289034 -0.07392367 -0.11907561 0.073001415 0.112335585 -0.098403744
-0.09208975 0.15392122 0.062054098 -0.051833306 -0.09287434 -0.075579576 -0.07685929 0.043134756
-0.0711842 0.010508755 0.053380974 0.04475319 0.05363473 0.08987837 -0.0365987 -0.025923245
0.06596261 0.093295574 -0.07266682 0.013542145 0.008067771 -0.10401781 -0.047570266 -0.0182446
0.07332305 -0.09439746 -0.06538313 -0.05594718 0.15092911 0.13514356 -0.09945605 -0.016696522
0.055355556 -0.11756865 -0.040928688 -0.021714356 0.08762682 0.011714077 0.07146828 -0.13331719
-0.030645598 0.014333382 -0.052722145 0.031852227 0.1434746 0.08271196 -0.04666994 -0.050987974
0.105311595 -0.061187718 0.024235742 -0.03576736 0.044408586 -0.047429617 0.07030947 0.0866952
0.092844024 -0.1764522 0.04040849 -0.3252568 0.09051362 0.096895315 -0.021486508 -0.015199947
-0.04681203 0.040956013 0.0091688465 0.0058326013 -0.07882485 0.088767365 0.02920411 -0.025697289
-0.09086939 -0.029816162 -0.085166335 0.023482032 0.048802506 0.027644092 0.09308396 0.10100561
0.037420318 0.034488477 0.11090702 -0.1357532 -0.12878568 -0.06158868 -0.21826039 -0.12462459
-0.05007815 -0.02251505 0.076991245 -0.04950656 0.043010745 -0.07056483 0.066210136 0.057013903
-0.07924262 0.0058398363 0.045157474 -0.026961146 0.11954635 0.034769572 -0.14528476 -0.10825172

lstm.bias_ih_l0 f4 [256]
00000000: 4e4c 233d ef05 943d e081 143c b14a d0bd
00000010: 059c bb3d 4b79 063d 3bef 103e 0ac7 0d3e
00000020: ebe7 f03d b31a 6bbd 5443 aa3d b6d4 05be
00000030: c8f1 0abc 1ce7 acbd 2472 d2bd 7bdd 11be
00000040: 5fc1 fd3d 11c8 123c 624c fcbc 2a31 96bb
00000050: 44a5 773d 80e2 0e3d 6cbe 1dbd 4164 3cbd
00000060: 7841 98bd ce15 edbd a638 e6bd 4ac5 fcbd
00000070: 7f34 7a3e 601d 543e bac7 6cbd 8859 87bc
00000080: 69db a7bd 39b3 c43d be66 013e 3061 ff3a
00000090: dfe1 e93d 3780 cb3d aa78 0ebd c3e5 b1ba
000000a0: 32d4 a33d 3fa5 2bbe 201b 4fbd 3cc0 95bd
000000b0: 4cf6 8abd 5627 4c3d eb04 4dbd d692 45bd
000000c0: 0c06 a3bd b0d2 9cbd 1d65 abbd ae6e dd3b
000000d0: 4edf 8c3c aa95 a13c c08f bbbd 1671 a9bd
000000e0: 49a9 ab3d e68c 053e 4044 f5bd 3544 483d
000000f0: 5f0b 213d 12c7 463d f6f6 9f3d 0f7c 93bd
00000100: c630 e93d 48fc afbc bfcf 8abd 8cea 37bc
00000110: ae2c e6bb 2e7d b4bc 3d29 cd3d d7e9 4cbd
00000120: a0eb b23d 63cb c0bd 2002 e1bd e6ad 033e
00000130: e353 20be 5ea9 c1bd c4bc 3fbd 46ad a6bd
00000140: 3e79 ab3d 7362 ecbd 1b55 8b3d 273c 17bd
00000150: 0431 da3d 0d51 263c 75a1 f2bd 19af a93d
00000160: 676f fa3b ed05 c43d de12 35bd 8371 843c
00000170: 1ce1 c5ba 81aa 763d e07f 00be c742 003e
00000180: b284 e43d 4e46 1b3e 185c f23d 3520 12be
00000190: 1ec3 04be 25b6 eebd 6264 123e c669 023e
000001a0: 6e41 a5bd 2782 413d 1357 be3d 8074 083d
000001b0: 4ac1 cd3d 80c9 f63d 0be9 febc 106b efbd
000001c0: 5753 7f3d f7d4 7e3c 61a7 423c 79c5 113d
000001d0: 07c4 fe3b 9e07 eabd 03a9 b83c d948 9bbd
000001e0: 29f5 283b 858c 6b3c 0577 d73b ec88 e0bc
000001f0: 6442 d8bd 541f b93c 9e3c 99bc c2ea d6bb
00000200: 396f d83d 0b1a 3e3d 0364 693d c3d4 cb3c
00000210: 47f4 503d bfb1 49bc 5d63 cd3c 8a11 f3bc
00000220: 0283 90bd b718 dc3d 5546 afbd 0b41 8b3d
00000230: 750e a0bd 58f5 bd3d 9521 293d b507 b4bd
00000240: 6097 48bd 3120 22bd efec 803d fea6 c7bd
00000250: 216f d43d 82c1 39bd 0209 a1ba c943 cebd
00000260: ba95 a6bd 10e0 703c 5d74 f63c e3d2 063d
00000270: 76bd ca3d 66c9 193d 64f3 953c 2b5b bebd
00000280: 37dc cbbc 49e9 0abd 9ccb f0bd ed3f c43d
00000290: 06a6 8cbd 3cb4 2fba 85cd 853c e154 573c
000002a0: 8768 233d e165 473d 0c7d a63d 2c49 c0bd
000002b0: 6a32 afbc 81fa ca3d 2641 8ebd 11b0 2c3d
000002c0: e5cd 163d 61aa e53d 0865 a4bd 19e0 803d
000002d0: 5bcd 85bd 0481 4b3d a7f7 883d 9dac c8bb
000002e0: 6287 81bc fdf1 c6bd a2a6 5abc dd42 e03d
000002f0: 1dbc a5bd b902 133a 4d53 39bd cc2f b1bc
00000300: 98f5 733c d0d5 b3bd 5b3d 673d 5fe4 58bd
00000310: 4ddc 67bc 7888 79bc aac3 dc3d bc49 8c3d
00000320: 48c2 1a3e 5149 2a3d cad6 3bbc 9706 8f3d
00000330: dfe4 18be 2002 f6bc 88d7 563c a432 393c
00000340: 1a3e 70bd 7c15 133d a4bb fc3d 8a83 a53d
00000350: 079c 773c fe1f 4cbe 7dca d33c e0e8 573d
00000360: 955c 47bc b2d7 333d 32e4 bb3d d180 4bbc
00000370: a8f0 2e3e 42dc 413e c579 bd3d 3bac 58bd
00000380: 9463 afbd 0dfc d73d ad06 d63d 6cc3 763d
00000390: bf79 7c3d fce6 c23d 1563 173e 5e89 47bc
000003a0: 08b1 3b3d 1f5b 0fbe 882d 25bd 6e54 b8bd
000003b0: dfd5 133e 3bfe bb3c 5b5b a13d 7aca a53d
000003c0: 9cba 7dbd b3eb 53bd 3dfd bdbd 1fe5 803c
000003d0: 51f9 b9bd 891a 29bd 0615 20be 9345 143d
000003e0: feb7 6c3d 424b 893d 3581 0abe aae4 d53d
000003f0: 32eb 0c3e 659b 56bd 6712 eebc cf15 973d
0.03986769 0.07227694 0.009064168 -0.10170496 0.09160618 0.032830518 0.14153759 0.13845459
0.11762985 -0.05739851 0.08313623 -0.13069424 -0.008480497 -0.08442518 -0.10275677 -0.14244644
0.12390398 0.008958832 -0.03079814 -0.0045834975 0.060460344 0.034883976 -0.03851168 -0.045994047
-0.07434362 -0.115764245 -0.112412736 -0.123423174 0.24434088 0.2071433 -0.05780766 -0.016522184
-0.08196146 0.096044965 0.1263685 0.001948392 0.114200346 0.099365644 -0.034783043 -0.0013572503
0.079994574 -0.16762255 -0.050562978 -0.073120564 -0.06785259 0.0498422 -0.05005352 -0.048235737
-0.07960138 -0.07657373 -0.08368895 0.006757579 0.017196324 0.019724686 -0.091582775 -0.082735226
0.08381898 0.1304203 -0.11975908 0.048893172 0.039317485 0.048529692 0.07810776 -0.07201397
0.11386256 -0.021482602 -0.06777906 -0.011225354 -0.007024369 -0.022032347 0.10017631 -0.050027695
0.08736348 -0.09413793 -0.109867334 0.12859306 -0.15657 -0.09456132 -0.04681088 -0.08138518
0.083727345 -0.11542215 0.06803342 -0.0369226 0.1065388 0.01015116 -0.11847202 0.0828535
0.0076426747 0.09571443 -0.044207446 0.016167408 -0.0015096995 0.0602212 -0.1254878 0.12525474
0.11158122 0.15163538 0.11833972 -0.14270099 -0.12965056 -0.11655835 0.14296106 0.12735662
-0.0806912 0.047243264 0.09293952 0.033314228 0.100466326 0.12050152 -0.031116983 -0.116903424
0.06233534 0.015553704 0.011880727 0.035588715 0.007774833 -0.11427234 0.022541529 -0.07582254
0.0025780892 0.014376764 0.0065754675 -0.02740904 -0.10559538 0.022597946 -0.018705662 -0.006558747
0.10568089 0.046411555 0.056980144 0.024881726 0.05101421 -0.012310444 0.025071794 -0.02967145
-0.07056238 0.107469015 -0.08558337 0.06799515 -0.078152575 0.09275311 0.041291792 -0.087905325
-0.048972487 -0.03958148 0.062951915 -0.09748648 0.10372759 -0.04535056 -0.001228601 -0.10071523
-0.08134027 0.014701858 0.030084783 0.03291596 0.09899418 0.037545584 0.018304534 -0.09294733
-0.02488528 -0.033913884 -0.117575854 0.095825054 -0.06867604 -0.0006702577 0.01633335 0.013142795
0.039894607 0.048681144 0.081293195 -0.093889564 -0.021386344 0.09911061 -0.0694602 0.042160098
0.03681745 0.11214138 -0.08027083 0.06292743 -0.06533309 0.049683586 0.06687861 -0.0061240927
-0.015811626 -0.09714124 -0.013345392 0.10950253 -0.080925204 0.00056080107 -0.045245457 -0.021629237
0.014890097 -0.08781016 0.056454998 -0.052952167 -0.014151645 -0.015230291 0.107795075 0.06850001
0.15113175 0.041573826 -0.011464784 0.06983679 -0.14931057 -0.03003031 0.01311291 0.011303578
-0.058652975 0.03590916 0.12340477 0.0808173 0.015112883 -0.19934079 0.02585339 0.05271232
-0.012168069 0.043906875 0.09174384 -0.012420849 0.1708399 0.18931678 0.09251741 -0.052898627
-0.08563915 0.10546122 0.10450492 0.060244963 0.061639544 0.09516713 0.1478389 -0.012178747
0.045823127 -0.13999604 -0.040326625 -0.09000479 0.14437054 0.022948375 0.07878753 0.0809526
-0.061945543 -0.051738452 -0.09276817 0.015734253 -0.090807565 -0.04128507 -0.1563302 0.036199164
0.057792656 0.067038074 -0.13525851 0.10444005 0.13761595 -0.05239429 -0.02906151 0.073772065

lstm.bias_hh_l0 f4 [256]
00000000: 2dda 6dbd fd78 873d 3fef 0abd 95cd f53d
00000010: b696 0dbe c443 023e 1d10 b83c 36ee aebd
00000020: 6438 0a3e feb1 55bd c084 36bd 14f2 e2bd
00000030: 0c63 b8bd 01f6 a8bc dab4 ab3d 598e b83c
00000040: 05e2 96bb f186 f2bd d718 4b3e e419 22bd
00000050: 416a ae3b 9cc7 abbd 7ebe b0bd db8b fcbc
00000060: 79c7 22bc 431d a1bc d594 99bd b869 a63d
00000070: dfc9 713d 0038 e23d 3f2b 18bd e447 d33d
00000080: 97f8 a1bd 7b3e 59bd 7a59 8b3d d8bf d4bd
00000090: 82c4 63bd 007d 23bd 582a 133e c575 823d
000000a0: fc88 3b3e ce87 b5bc 52de 553c f011 2ebd
000000b0: 40f4 0a3d 2497 333e c769 5e3d ca8d 933c
000000c0: a523 1abe 1cbe 133d 6436 44bd 5806 c93d
000000d0: bf98 483d 881f 98bd 30ce 31be c26a a93d
000000e0: c412 aa3d 6ed9 623e 6cf7 933d e073 dcbd
000000f0: 136a 3e3d fbdd 563b 5c02 133e 7702 99bd
00000100: a315 c43b c6c8 483d 8314 c9bc bdeb 07be
00000110: 6f5a 053d f667 ccbd 0d3d 0abe 81fd 0cbe
00000120: 3c0b 44bd 6de4 d5bc ebdd 1cbd 4c5f 64b9
00000130: 00e2 35bd 4374 603d 3e3f 99bd 605e 99bc
00000140: f2a2 9cbd b8ad 2d3d eb2d f5bd e2c0 153e
00000150: 4aa1 b33d ad40 1dbe a5f4 da3d d252 56bd
00000160: 9288 8b3d d7ea 4ebd 18eb 8e3d 21a9 a7bd
00000170: 25da e93a b9a1 8c3c 2cb3 bc3c c6e5 113b
00000180: 9a17 d7bd 6aa3 553a 612a d63d 0417 0bbe
00000190: 8426 5abc d0dd ccbd 42ac fa3c d21a cb3d
000001a0: f62c 413d 503a 30bc 2fd2 413d c2bc ebbd
000001b0: 485f dc3d 4b21 17bc 0fdc d1bd 658c 6e3c
000001c0: 1067 c7bb f727 a43d 83bf 3d3d 4506 d23c
000001d0: bf6e a53d 9641 a13d bd11 a2bd 09e3 4fbc
000001e0: becc 42bd e380 453e f2ad 843d 6e5d 0fbd
000001f0: 40b8 b93d a6c6 1ebd b2fc 8dbd d1c9 223e
00000200: 4530 a13d 7ae1 8b3d 3beb b13d 46a8 6ebc
00000210: 7e99 233d a94d 89bd 0631 e63d 54b8 bf3d
00000220: 6430 27bc 892d c3bb 65b3 c43d ac57 943d
00000230: 4435 9b3d d660 dfbc 73d2 3c3c 0fb3 ae3d
00000240: d76c 4e3d 8351 c43d 8ffd d4bd db76 8dbc
00000250: 29e2 c2bd 4882 b2bd d51c c0bd 8791 4b3d
00000260: ad4d 183d f475 b9bd 7c5c 5fbd 76d1 68bc
00000270: 9797 48bd 3469 b43d eb44 d0ba 9b36 ccbb
00000280: 91a5 97bd f639 e4bd 1d50 433d d2b3 413d
00000290: a53c 433c aca6 4cbd 8156 5dbd 2c47 f2bd
000002a0: 2f30 ac3d cab6 89bd 80d3 d9bd f7c3 64bd
000002b0: 8e41 c43c e0ae 0abe fb03 a23c cc22 343d
000002c0: fabb 8d3d dd51 873d 8a4b 8c3d 2a70 923c
000002d0: af61 273d 99e0 d63d 30b3 203d 205b e93d
000002e0: 4a25 623d 9781 00ba f64a a83d ea14 513d
000002f0: 70b1 8f3d 86ff f7bc f35f f13d 1f72 8a3d
00000300: afe6 4bbd 7624 873d 3b68 b7bd c8ba 80bd
00000310: b338 eebd 5da8 48bd 4050 10bd 3881 e33d
00000320: 2b3a a43d 0166 ba3d ddea b0bc ad86 8cbd
00000330: 7684 88bd 4b04 0e3e 8bd5 a9bd a7a0 ac3d
00000340: 6d41 f2bd c15d b53c adca 0a3e 55fc 94bd
00000350: d4de 533d 427f 61bc 43e3 13bb 67e9 c83d
00000360: dcc2 af3d 3be1 d53c 4e1c b23d 58d0 9f3d
00000370: b33d 0f3e 6b1e 7e3d ff23 aa3c 750e 90bd
00000380: 3c7e c53d 944c 353d 26e3 eabd 7cd8 b33d
00000390: 86b0 c13d 04d4 953d 74b5 b43d 6906 373d
000003a0: e8fa 7b3c 5473 4ebe 1a86 c0bc 5294 ae3d
000003b0: 6e87 b03c b52c c23d 1a63 afbd 2eb5 a53d
000003c0: 7435 b2bd b70d 93bd 9349 073c ee70 1abe
000003d0: 29ba a13d cc8a babc f008 a7bc 455c c4bd
000003e0: c921 e8bd 6374 553d 9b50 b13d 90ff e03d
000003f0: 638a 923c cdbb 19bd 1dfb 3d3e 0a51 393c
-0.058069397 0.066148736 -0.03391957 0.12002102 -0.13827023 0.12721163 0.02246862 -0.08541529
0.13498074 -0.0521717 -0.044560194 -0.11081329 -0.09003267 -0.020625116 0.08384104 0.022528814
-0.0046045803 -0.11842144 0.19833694 -0.039575472 0.005322725 -0.08387682 -0.086300835 -0.030828407
-0.009935253 -0.019667273 -0.074990906 0.08125633 0.05903041 0.110458374 -0.037150618 0.103164464
-0.07908743 -0.0530381 0.06804176 -0.10388154 -0.055607326 -0.03991413 0.14371622 0.06370119
0.18313974 -0.022159483 0.013053494 -0.042497575 0.03392434 0.17538124 0.054300096 0.018011946
-0.1505266 0.036069974 -0.047903433 0.09815663 0.048973795 -0.07427889 -0.1736381 0.082723156
0.083043605 0.22153255 0.07224926 -0.10764289 0.04648788 0.003278612 0.14356369 -0.07471173
0.0059840246 0.049019597 -0.024545914 -0.13273521 0.032556947 -0.099807665 -0.13499852 -0.13768579
-0.047862276 -0.026109898 -0.038297575 -0.00021779275 -0.044404984 0.054798376 -0.074827656 -0.01872176
-0.07648267 0.042402 -0.11971649 0.1462436 0.08770998 -0.15356703 0.106911935 -0.052325077
0.06813158 -0.05051693 0.06978434 -0.08186556 0.0017841501 0.01716696 0.023034655 0.00222622
-0.105025485 0.0008149656 0.10457302 -0.13582999 -0.013314847 -0.10003245 0.030599717 0.09917225
0.04716202 -0.01075609 0.047319587 -0.11510612 0.10760361 -0.009224246 -0.10247051 0.01455984
-0.006085284 0.08015435 0.046325218 0.025637755 0.08077764 0.07873838 -0.079135396 -0.012688407
-0.04755854 0.19287448 0.0647849 -0.03500121 0.09068346 -0.038763665 -0.069329634 0.158973
0.07870535 0.068301156 0.08687445 -0.014566487 0.039941303 -0.067042656 0.11239819 0.0936133
-0.010204408 -0.005956356 0.09604529 0.072432846 0.07578519 -0.027267855 0.011524784 0.085302465
0.050396767 0.095858596 -0.10399925 -0.017268589 -0.09515793 -0.087162554 -0.09380499 0.049699333
0.037183452 -0.09055701 -0.05453156 -0.014210096 -0.048972692 0.088091284 -0.001588968 -0.0062320954
-0.07404626 -0.11143868 0.047683824 0.04729063 0.011916314 -0.04996364 -0.054037575 -0.11829981
0.08407628 -0.06724317 -0.106360435 -0.05585095 0.02395704 -0.13543272 0.019777289 0.043978497
0.06920619 0.06607411 0.068503454 0.01787575 0.040864643 0.10492057 0.039233387 0.11394334
0.055211343 -0.0004902123 0.08217423 0.051045336 0.070162654 -0.03027321 0.11785879 0.06760048
-0.049780544 0.06598751 -0.08955427 -0.06285626 -0.11631908 -0.04898869 -0.035232782 0.11108631
0.08018907 0.09101487 -0.021596367 -0.06861625 -0.0666589 0.13868825 -0.08292683 0.084290795
-0.11828885 0.022139432 0.13553877 -0.07274691 0.051726177 -0.013763251 -0.0022565878 0.09810143
0.08582088 0.026108375 0.08696805 0.0780341 0.1398838 0.062040728 0.020769117 -0.070340075
0.09643218 0.044262484 -0.114691064 0.087815255 0.09457497 0.073158294 0.08823672 0.044683848
0.015379645 -0.20161182 -0.023501445 0.085243836 0.021548953 0.094811834 -0.08563824 0.08091198
-0.087016016 -0.0718035 0.008257288 -0.15082142 0.07896835 -0.022771262 -0.020390004 -0.095879115
-0.11334569 0.05211295 0.086579524 0.10986245 0.017888254 -0.037532616 0.18552823 0.011310825

lstm.weight_ih_l1 f4 [256, 64]
00000000: 3979 573e 8397 943d a9c5 ec3d 48e2 e5bd
00000010: 6fe6 9f3d 8336 843c d56b 203e 6af5 4fbe
00000020: 5efc 56be c064 8d3c 97e3 2a3d 4201 c03b
00000030: 45a5 98bd 528a 19be 9bda 533d 1d30 163d
00000040: a57f 08be 43b5 8dbd bdf9 abbe ebc4 a1bd
00000050: a49b 1c3e b09a 483e bfb9 17bd 1bb5 e0bc
00000060: 1052 a13e fdbd 243e c7e6 e5bc c8f7 6cbe
00000070: d1bb 613d 0acd 933d ce49 3ebd 7271 9ebd
00000080: 983a 863d cd3c e63d 4eb8 72bd 2849 83be
00000090: 4e39 1bbd e5a0 9f3d 3606 413c f6d5 aabd
000000a0: 2c2b 8abd ae6b 793c 4a06 29be f5b4 53be
000000b0: ea3e 43bd 1de7 acbe 07c8 8cbe 5668 2c3e
000000c0: 4c8b 023d 89c5 763e 6748 f3bd 5456 9e3d
000000d0: 2682 5a3b a1f5 9dbe 018e 653e 8c9c 9b3b
000000e0: b2c7 ebbd fd43 e63d bb93 f8bd 6e7b 503e
000000f0: abfc 36bc daea 3abe 3d2f 25be 039f d13d
00000100: f5dc 163e 4510 2bbc 4c9b b13d 0dcf 083d
00000110: b6f7 373e 38bc ef3d 6adc e53d b413 393b
00000120: 12f0 d5bb 59a5 e1bd af77 29be 1802 67bc
00000130: be62 303e 77b2 4b3d c0b9 0abe 2856 4ebe
00000140: 4e1a 123e 1051 253d 57cf 1eb8 494e efbc
00000150: 9cf2 003e 2833 2e3d 4243 1cbd 4091 1f3d
00000160: 740a a6bc c9dc 363e 5ece 7b3e 766a 20bd
00000170: ccba 6abe becc 1f3b a275 663c aec0 a4bc
00000180: 90d3 e53c bfaa c8bd 1156 653e a8d1 05be
00000190: da08 1d3e 5219 09bd 99c8 d5bd 76bd 47bc
000001a0: c260 c8bd e376 cabd 001b ecbc b29c 253c
000001b0: a4d1 c93c 1060 eebd 3eda a13c 2242 9dbc
000001c0: 406c 1b3e a656 31be f350 7ebd 4499 17bc
000001d0: f5a5 afbd 8798 11bd 2093 3d3e 0907 44bd
000001e0: 749f 083d 4ff9 5ebe 98ab d3bd d36c 20bd
000001f0: 31b7 b4bc 5f58 103e 8288 1e3e 31c9 eb3c
00000200: 80a5 1a3d 2990 073e d68f 8b3c 2264 12be
00000210: dc9f f2bd ca13 e53d 1a68 14be cf47 2dbe
00000220: 4c47 54bc 402f 56bd c331 75bc 1a26 96bd
00000230: ed48 e83c f0bf 55bd f88d aabc b8ea 033e
00000240: 3014 abbd 1e4b 913c 3e20 0abc 041b 06bd
00000250: ba0b 0e3e 6ec1 00be e674 893d f6f8 39bd
00000260: 26b3 9cbd edb4 07bd fb98 073e 5957 71bd
00000270: 341c 32be a146 13bd 73e7 39bd 4d99 56bd
00000280: 51a5 12bd 16de 6bbd 3caa 5abd 0117 f93c
00000290: 5c5f 073e dec7 2b3d 316c 5bbd 4176 a33d
000002a0: a0dd d53c 3c0c 74bd daf5 69bc 93b4 20bb
000002b0: 1d5c 81bd 18b6 9b3d f4ae 94bd 5d29 083e
000002c0: 315d dcbc f3b2 073e 44b5 fd3d 6b7f 053d
000002d0: 060b 9e3c ce55 ef3d ba94 e93d 1feb 7cbb
000002e0: 60e9 e6bd cfec 64bd 22e6 6ebd 5dc5 3cbc
000002f0: 1607 e2bd b686 2c3d 73fb d83c 788c 46bd
00000300: f5ce fd3d 65ca 343d 97b0 9d3d d1bd a53a
00000310: 226e c93d 9910 6fbd 02f4 adbd b55c 0c3e
00000320: aef2 dbbc 2c8d bb3c 0044 5dbd 04cd f63c
00000330: 6c98 833d 914c 1bbe 13d5 293d 8f19 cd3d
00000340: 5b55 1f3b 8e50 f83d 7d2a bfbc 1d39 653d
00000350: 42ed ef3d af3f 8abd 01b8 9d3d 143f f83d
00000360: 4705 e8bb eb5c fe3c 86aa dbbc 1b2d 74bd
00000370: 9b58 d13d 4d9d 55bc fa4a 5d3e 4e09 17bd
00000380: 6664 a5bd 3b21 2d3e 5de5 8b3d 1bdc 1abc
00000390: 598b 05bd 1b7a 82bd 98c5 dcbc c691 03be
000003a0: 81fa 0abb acba c13d 6b0b 853b 2087 c83d
000003b0: 32d0 bf3c 1505 9dbd 6f5c 1cbe 39d3 ebbc
000003c0: 0ae1 7a3c c157 143e 4115 1cbe 7133 9fbd
000003d0: 4808 ff3d 4b09 febc add7 91bd e7c7 293d
000003e0: cf33 d23d 5056 ee3c 56e0 c33d 6428 133c
000003f0: 0ae6 773d f1dd c738 9e57 b7bd 4a66 cabb
0.21042337 0.07255461 0.11561138 -0.112248 0.078076236 0.016139274 0.15666135 -0.20308462
-0.20994708 0.017259955 0.041720953 0.005859525 -0.07453398 -0.14994171 0.05172215 0.03666698
-0.13329943 -0.069193386 -0.33588973 -0.07898887 0.15293747 0.19590259 -0.037042376 -0.027430108
0.3150792 0.160881 -0.028064145 -0.23141396 0.055110756 0.072168425 -0.046457104 -0.07736482
0.065541446 0.112420656 -0.059257798 -0.2564175 -0.037896447 0.0779436 0.011781266 -0.08341591
-0.06746516 0.015223427 -0.16506305 -0.20674498 -0.04766742 -0.33770075 -0.2749636 0.16836676
0.031871125 0.24098791 -0.11879044 0.077313095 0.0033341735 -0.30851462 0.22417451 0.0047488865
-0.11512698 0.112434365 -0.12137552 0.20359585 -0.011168639 -0.18253651 -0.16131301 0.10235407
0.14732726 -0.010440891 0.08672199 0.033400584 0.17965588 0.11705822 0.11223681 0.0028240504
-0.0065288628 -0.11017866 -0.16549562 -0.01409962 0.17225167 0.049730744 -0.1354742 -0.20150054
0.14267847 0.04036051 -3.7863236e-05 -0.029212134 0.12592548 0.042529255 -0.03815008 0.03895688
-0.020268656 0.1785766 0.24590442 -0.03916403 -0.2292282 0.002438351 0.014066132 -0.020111408
0.028054982 -0.09798192 0.22396113 -0.13068259 0.15335408 -0.033471413 -0.104386516 -0.012191167
-0.0978408 -0.09885957 -0.028821468 0.01010816 0.024636097 -0.11639416 0.019757386 -0.019196574
0.15178013 -0.1731821 -0.062088918 -0.00925285 -0.08576576 -0.035545852 0.18513155 -0.04785827
0.03335519 -0.21774791 -0.10335463 -0.039166283 -0.022060009 0.14096211 0.15481761 0.028782459
0.03775549 0.13238586 0.01703636 -0.1429601 -0.11846897 0.11185415 -0.14492837 -0.16921924
-0.012956452 -0.052291155 -0.014965477 -0.07331486 0.028355086 -0.052185 -0.02081965 0.12882507
-0.0835346 0.017736014 -0.008430539 -0.032740608 0.13871661 -0.12573788 0.0671175 -0.045403443
-0.07651357 -0.03313153 0.13241951 -0.05892119 -0.17393571 -0.03595603 -0.045386743 -0.052392293
-0.03580219 -0.057584845 -0.053385004 0.030406477 0.1321997 0.041938655 -0.053569976 0.079815395
0.026106656 -0.05958198 -0.014279807 -0.0024521693 -0.06316397 0.07603091 -0.07259932 0.13297029
-0.026899906 0.13251857 0.12388089 0.03259222 0.019292366 0.11686288 0.114053205 -0.0038592292
-0.112749815 -0.0558899 -0.05832494 -0.011521664 -0.11036508 0.042120658 0.026487088 -0.048473805
0.123929895 0.04413833 0.076996975 0.0012645071 0.09835459 -0.058365438 -0.084938064 0.1370724
-0.026849117 0.022894464 -0.054019928 0.030127056 0.064255565 -0.15165927 0.04146297 0.100146405
0.002431235 0.121247396 -0.02333569 0.05596267 0.11715175 -0.06750428 0.077011116 0.12121406
-0.0070807072 0.031050166 -0.02681471 -0.05961333 0.10221978 -0.013037992 0.21610633 -0.036874108
-0.0807579 0.16907208 0.06830857 -0.009451891 -0.032603595 -0.06370946 -0.026949689 -0.12848577
-0.002120644 0.09459433 0.004060199 0.09791398 0.023414705 -0.07666985 -0.15269636 -0.028787242
0.015312443 0.144866 -0.15242483 -0.077734835 0.124527514 -0.03101029 -0.07121215 0.041450407
0.10263788 0.029093891 0.09564273 0.008981798 0.060522117 9.530399e-05 -0.089522585 -0.0061767446

lstm.weight_hh_l1 f4 [256, 64]
00000000: 047f adbc c317 5bbd 18ff 5bbe dd53 5ebe
00000010: 3ec4 1a3e 677b 2fbd e359 d4bb 20d7 51bc
00000020: 25b5 2fbd 5fc0 14bd 62bf 0c3c 11c8 a53d
00000030: 1ce9 9c3b 5fce a4bd 5a4f 0bbc 453a 423c
00000040: a2f2 5b3e 8c18 233b 5ef0 363c 5722 0f3e
00000050: c3ad bf3d b016 83bd 1368 15ba 99c6 243d
00000060: 7830 e5bd 2df7 933d 4b27 553c 9cc0 3bbe
00000070: 2421 21be 18cd d83c 3a83 83bc 1045 cd3c
00000080: 8407 b03d 725c d0bc 5ebf ca3d 2d08 1fbe
00000090: 7b40 ccbd 1101 093e 5d97 d2bb aac1 88bc
000000a0: a220 d03d 4b08 8abc 5b52 40be 8644 703d
000000b0: acc6 633d 67c1 94bd 4d64 303e 5a8d a73d
000000c0: e864 aebd 8e08 13be eb50 363d c068 0e3d
000000d0: ba9d 02be 9e46 c73d 7e90 273d b494 57bd
000000e0: 4382 61bd b0fb c13d 11d1 843d 8658 993d
000000f0: 83cb 07be 3f31 973d 5c27 563d 2da4 ef3d
00000100: c65e 563d 016c 1cbd c9db 7dbd e7e8 a33d
00000110: 412d ac3d 02a5 0c3e 42e2 d8bc 6a66 14be
00000120: 227a d13d 1aab cfbc 16ca a9bc 62d0 ca3b
00000130: 7923 01bd 72ae c3bd c0ec a9bd 8aec 2a3d
00000140: 79b5 f3bd 5a80 0d3e a412 583d a89f 503d
00000150: 1a56 0e3e ad12 a6bd 73c3 e3bb 61bd d2ba
00000160: 3f86 f63d 8212 35be 3f66 05bb 62e4 d83d
00000170: 117c e63d 883d d43b 1671 febd b873 173e
00000180: a26d 24bd 61ec 17be 6ee3 cabc 0088 0ebe
00000190: 7d8b 5fbd 60e2 d13c fea7 2cbe 9f3f 86bd
000001a0: 001f 40bd e8b1 f73d 9b00 1bbd 0587 56bc
000001b0: cf7a 1ebd f13e 1a3d ac6c b7bd 5641 dc3d
000001c0: 83fe 2e3e 8e06 04bb 505d afbd a47f 013e
000001d0: 92ff c1bd 18fe 853d 7b7c 853d 2f92 acbc
000001e0: db3d 323e 25a7 5bbc 0734 48bb 4ef8 98bd
000001f0: b211 bf3c 11c0 393d b8c1 6f3d 1651 f13c
00000200: 01fb 063e d026 38bd a92f 073e 4aef 903d
00000210: d101 b63c 3a15 993d 8992 e3bc 7bd8 c0bc
00000220: 5b4b 5a3c 75c5 2abd 0d28 613d 9303 a93c
00000230: fe0d fbbd 8c0a cabd 8f29 89bd 8002 abbc
00000240: c443 c63d 4a2c ad3d 914d 9e3d a745 823d
00000250: 271e f03d 954f f4bd 74b0 833d 76c8 c0bc
00000260: ec9a f2bd 6375 8ebd 54b4 cd3d f45f 3fbd
00000270: 0e0b 4b3d 4e31 c3bd 2b39 b73d db49 10be
00000280: e211 123e 130e 01bd 7f91 b8bc 786e eabd
00000290: facd 03bd 774b c63d 95aa d1bd 56c5 843d
000002a0: d21a bd3c e2d6 c4bd 35ae 373e 2bbf 8fbb
000002b0: d869 0dbd d6d2 aa3c 5aa5 0abd 0670 f4bd
000002c0: aabb 9c3d 4253 bc3d 859e af3d 337a 84bd
000002d0: f480 0bbe 22c2 143d 8ff0 813d d1d7 47bd
000002e0: 32b9 463d 0726 0cbd d4a9 913d 2f14 3bbd
000002f0: e624 80bd d56c 66bd d6c1 c2bc 4d6c bebd
00000300: 3681 2ebd 63e5 eabd a1eb e3bd f13b cabd
00000310: af05 f0bd 7d5c 3fbd d9d9 bf3d 4f0b 06bd
00000320: 8de1 cb3a 3495 003e ff80 ae3d 7d3f c5bd
00000330: 6578 08be 8b47 d73d 5d33 eb3d cbc2 07bc
00000340: 5144 aa3d c1c0 05be 467e 293d 75ad bc3d
00000350: 83bd 0c3e 5cb1 b73d 0f5d 143d b77e da3d
00000360: cc58 fc3d c1d0 4ebe 6c3f 36bd ae6f e23d
00000370: d49b 6b3d a643 17be b854 043e 7a24 e93d
00000380: 321a ed3c d2b5 57bd a5a9 a1bd 1d59 f1bd
00000390: e4bc 0ebe f08d f23c 33e8 2fbd 4598 953c
000003a0: c61b c53c fb27 85bd 8b6e 8e3d 05ec 2f3d
000003b0: a64b a2bd b235 1c3d 76d1 e1bd 3fad 19be
000003c0: 3ef3 41bd bfdb 73bd 8e17 ee3d d153 2e3d
000003d0: 7972 b13c 764a c73d 0e94 d7bd 6582 a1bd
000003e0: 1cea 8dbd 982c 11bd 6202 d73c ac03 76bd
000003f0: fafc d2bc 52fa 7e3d 908a 1b3d 36b4 553d
-0.02117873 -0.053489458 -0.2148403 -0.21711679 0.15113923 -0.042842295 -0.006480442 -0.012807637
-0.042897362 -0.036316272 0.008590551 0.080948 0.004788531 -0.08047175 -0.008502806 0.011854713
0.21479276 0.0024886457 0.011165706 0.13977943 0.09359314 -0.06400812 -0.0005699407 0.04022846
-0.11190885 0.072248794 0.013009856 -0.18335193 -0.15735298 0.026464984 -0.016053785 0.025057346
0.085951835 -0.025434706 0.09899782 -0.15530463 -0.09973236 0.13379313 -0.0064267353 -0.016693909
0.10162474 -0.016849658 -0.18781416 0.0586591 0.05560939 -0.07263451 0.17225762 0.081812575
-0.0851534 -0.14358732 0.044510763 0.034767866 -0.1275548 0.09730266 0.040909283 -0.05263205
-0.055055868 0.09471834 0.06485189 0.07487588 -0.13261227 0.0738244 0.05228363 0.11701236
0.052336477 -0.038188938 -0.06197718 0.08003407 0.08407069 0.1373482 -0.026475076 -0.14492193
0.10228373 -0.025350142 -0.020726245 0.006189392 -0.03152797 -0.09554757 -0.082971096 0.041729487
-0.118998475 0.13818493 0.052752152 0.05093351 0.13900033 -0.08109031 -0.0069507896 -0.0016078168
0.12037324 -0.17682841 -0.0020355133 0.105904356 0.112541325 0.0064770617 -0.12423913 0.14790237
-0.040143616 -0.14836265 -0.02476665 -0.13919067 -0.054576386 0.02562064 -0.16860959 -0.065551035
-0.046904564 0.1209448 -0.037842374 -0.013093715 -0.03869134 0.03765768 -0.089562744 0.10754649
0.17089276 -0.0020145508 -0.0856272 0.12646347 -0.09472574 0.06542605 0.065178834 -0.0210658
0.17406408 -0.01340655 -0.003054859 -0.07469235 0.023323867 0.045349184 0.058534354 0.02945761
0.13181688 -0.04495889 0.13201775 0.07076891 0.022217663 0.07474752 -0.027779834 -0.023540726
0.01332363 -0.041692216 0.054969836 0.020631587 -0.12258528 -0.09865293 -0.0669738 -0.020875216
0.09680894 0.08455713 0.07729638 0.063609414 0.11724501 -0.119292416 0.0643014 -0.023533087
-0.11845955 -0.069559835 0.100441605 -0.046722367 0.04957109 -0.095308885 0.08946451 -0.14090674
0.14264634 -0.031507563 -0.022530315 -0.114468515 -0.032178856 0.096823625 -0.10237614 0.06482951
0.023084078 -0.09611298 0.17937548 -0.0043868027 -0.03452477 0.020852488 -0.033849098 -0.11935429
0.076529816 0.09195568 0.08575157 -0.0646862 -0.1362341 0.036317952 0.06344711 -0.048789803
0.04851646 -0.034215953 0.0711247 -0.045673545 -0.06257038 -0.056256134 -0.023774069 -0.092980005
-0.042603694 -0.11469533 -0.11128927 -0.09874714 -0.11719834 -0.046719063 0.09367723 -0.03272563
0.001555489 0.12556916 0.08520698 -0.0963125 -0.13327177 0.105116926 0.11484406 -0.008286188
0.083138116 -0.13061811 0.04138019 0.09212772 0.13744168 0.089693755 0.03622156 0.106687
0.12321624 -0.20196821 -0.044494078 0.110564575 0.057521656 -0.147719 0.12922943 0.113839105
0.028943155 -0.05266363 -0.07893685 -0.11784575 -0.13939244 0.029608697 -0.04294605 0.018261084
0.024061095 -0.06501766 0.06954678 0.042949695 -0.07924585 0.038137145 -0.1102628 -0.15007494
-0.047351114 -0.059535738 0.116255865 0.042560402 0.02166103 0.09730999 -0.10526286 -0.07886199
-0.069294184 -0.03544292 0.026246253 -0.060062096 -0.025755394 0.062250443 0.03797394 0.052173816

lstm.bias_ih_l1 f4 [256]
00000000: da77 d33d f549 4cbb 8660 f7bd 94f6 69bd
00000010: bd3d eabd 5d52 053d 9423 de3d 0195 b33d
00000020: 61d9 b83d 80e1 b2bc ce87 ae3e b960 543e
00000030: 2452 b1bd f78b b73e e57f 573c 6ac6 313e
00000040: cd79 91bc 61c6 773e d479 9e3d 30d7 0a3e
00000050: ddfe e03c 68d2 c93c 989a 8bbd 7205 c23d
00000060: 2f77 f23d 4d15 f0bb 5a93 933d 02f9 893d
00000070: 1437 db3d 2fd6 f03d 349f d9bc db95 d33d
00000080: e410 81bd d1f9 a63d b04b 1ebe c68f ac3e
00000090: ffe9 ef3c 896b e53b b72a 93bb 3364 043e
000000a0: caa4 d53d d3b8 66bd 9085 203e 531a 57bd
000000b0: 0ec2 c43d 3398 01be 47a8 d7bd 956a f53d
000000c0: 17e8 ec3d 2a32 273d c018 143e 4930 8b3d
000000d0: b033 af3e efcf dabb 9baa 00bc 8eb5 ab3d
000000e0: 4e92 213d fc62 d93d 5951 673d 4ebf 883d
000000f0: 854d 923e 916c 8ebd 3e44 56bd bab9 efbd
00000100: 9351 b5bd 4aee f2bd 30ac 09bd 5ef5 c93d
00000110: dcf2 e4bd 7ce9 813d 0d70 cdbd cffa a3bd
00000120: 9042 47bc ade8 903d 43ee a8bd 8770 f2bc
00000130: 27dd 1fbd 708a 1e3d 591e 8a3c 08d8 68bd
00000140: 176b 2abb db9d 8ebd c66b fdbc 1a57 013d
00000150: ba01 f0bd db91 9bbc 5c61 06be 5529 223e
00000160: 7143 8bbd 29fd 09be 3970 c4bd fe69 77bd
00000170: 0686 833d e340 1cbd 92d7 283d 83ed dd3b
00000180: 229a b8bd 75f8 5a3d b468 603c a4e7 043e
00000190: 3cde afbd da75 adbc 5c6d 2abd dd5e bdbd
000001a0: 9658 bbbd e7e2 c93d 0f43 a53d 5b0c edbd
000001b0: 7563 bfbd a805 0ebd efa7 08be ba7e 5e3e
000001c0: 8396 03be 3b70 3d3d 8cb8 f0bd 8433 513d
000001d0: 3fe1 c0bd 4667 d33d ed21 4cbb dded 29bd
000001e0: 3293 9ebd 4589 c6bd 3d47 bf3d 65c8 2e3d
000001f0: 4157 0d3d 8c45 8cbd 3a0d c3bd 6ba0 903d
00000200: f703 d23d 4328 9ebc ba8e 5f3b d872 c33d
00000210: cb56 ddbd 3ecc a5bd 70d3 9a3d 4537 a23c
00000220: 7048 713d 2f4e 37bd 97fb 143b c103 a63d
00000230: d1a7 d9bd 4204 16bc 469f 863d 42d9 55bd
00000240: 4bbe 8a3d 0957 89bd 6ad6 603d f71a fabc
00000250: 4725 913d 3bb0 dabd bb9a 63bd 9e14 0dbd
00000260: e1c3 df3d c26a de3d 4461 5a3d 137b 3c3d
00000270: 2a9e 8fbd ea8d 9fbd 11c5 f33c 4821 cfbd
00000280: 8bd0 d2bd 5b22 83bb a14c 8f3d 820f 17bd
00000290: 5d10 173d ccb1 80bc 1462 c6bd bbfb e73d
000002a0: 83c9 453d 0592 dfbc 7b0a 113d abed d5bb
000002b0: fb4c be3c 872f 3a3d 7567 5d3d b3e6 b0bd
000002c0: c54c 253d 27e6 3c3d e813 99bb 46a2 923d
000002d0: fbd2 d73d 7293 4a3d d7a2 0f3b a004 b9bd
000002e0: 759f 063d f726 c23d b4c6 e63d 2fec c23d
000002f0: b2de 9c3d 0698 1b3d 7697 f23d 18cd 8d3d
00000300: 83c6 1a3e d0c5 12be ddba 133d a256 373e
00000310: 8007 583c 30f3 8e3d f39f b2bd 1cd8 b7bc
00000320: 59ae 913d 18bf 723c 849b 2a3e ed9c 393e
00000330: 6d0f 893c bef2 413e f18a 37bd 0679 0d3e
00000340: bc47 72bd 90f8 1c3e 9b8e fcbb 69b3 583e
00000350: 073d 993d 4019 99bc 35ee e6bd e8b8 633e
00000360: 9403 3bbd 0a4d e13d dcf5 763d 9731 78ba
00000370: 98a8 cf3d f53f 603d 5008 9a3c d0cf 883e
00000380: 76ab 633c 079d b0bd c455 63bd 7b6a c33e
00000390: 125e aebd cfcb 953d 2c4c 003c c6bb 2f3e
000003a0: ee91 8d3b fbe0 6f3b 2223 69bd 3a1b da3c
000003b0: 20a7 e0bd d3e9 cc3d d521 743d 8069 023e
000003c0: 13de 373d 7928 10bc c8f5 af3e c484 e93d
000003d0: 89bb 5b3e c4de ddbd 33c9 8e3c 0a31 a3bc
000003e0: 7c59 1a3e 2dc3 1b3d 5020 8b3c de57 233e
000003f0: 709a 953e ba5f 94bd b4bb 9bbd 45ba 52bd
0.10325594 -0.0031172012 -0.12078957 -0.05711992 -0.11437557 0.03254925 0.1084663 0.087686546
0.09025837 -0.021836042 0.34087986 0.20740022 -0.08658245 0.35848972 0.013153051 0.17360845
-0.017758274 0.2419677 0.077380806 0.1355865 0.027465278 0.024636462 -0.06816596 0.09473695
0.11839139 -0.007326758 0.072058395 0.067369476 0.10703865 0.11759602 -0.026565172 0.10331317
-0.0630205 0.081531174 -0.1545856 0.3370344 0.029286383 0.0070013446 -0.004491176 0.12928848
0.10431822 -0.056328606 0.1567595 -0.05251534 0.096073255 -0.12655716 -0.10530143 0.119832195
0.11567705 0.040819325 0.14462566 0.06796319 0.34219122 -0.0066776196 -0.0078531755 0.08384238
0.039446168 0.10614583 0.056474064 0.066771135 0.28574768 -0.06954301 -0.052311175 -0.117053464
-0.0885345 -0.11861856 -0.033611476 0.09861253 -0.11179134 0.06343362 -0.100311376 -0.08006822
-0.012161866 0.070756294 -0.0824857 -0.029594673 -0.039029267 0.038706243 0.016860174 -0.05684665
-0.0026003772 -0.06963702 -0.03093518 0.031577207 -0.11719079 -0.018990448 -0.13123077 0.1583608
-0.06799973 -0.13475479 -0.09591717 -0.060403816 0.06422047 -0.03814782 0.04122121 0.0067726984
-0.090137735 0.053459603 0.013696838 0.12978989 -0.0858731 -0.02117436 -0.0416082 -0.09246609
-0.09147756 0.09857731 0.08069431 -0.11574622 -0.09345142 -0.034673363 -0.13345312 0.2172803
-0.12850384 0.04624961 -0.117539495 0.05107452 -0.09417962 0.10322432 -0.003114815 -0.04148661
-0.07742919 -0.09694151 0.093397595 0.04267158 0.03450704 -0.068492025 -0.09524007 0.07061847
0.102546625 -0.019306308 0.0034112171 0.09543389 -0.1080757 -0.08095597 0.0755986 0.019801745
0.058906972 -0.044752296 0.0022732967 0.08106185 -0.106277116 -0.009156289 0.06573348 -0.052209146
0.06774577 -0.06706054 0.05489198 -0.030530436 0.07087188 -0.106781445 -0.055567484 -0.03444349
0.10926033 0.10860206 0.053315416 0.04601581 -0.07012589 -0.0779074 0.029757055 -0.1011377
-0.10293683 -0.004001898 0.06997038 -0.036880024 0.03688084 -0.01570978 -0.09686676 0.11327311
0.04828788 -0.027291307 0.035410386 -0.0065285764 0.023230067 0.04545548 0.054053742 -0.086377524
0.040356416 0.046117928 -0.0046715625 0.071598575 0.10538288 0.04945702 0.0021917128 -0.09034085
0.032866914 0.09480088 0.11268368 0.09517705 0.07659663 0.037986778 0.11845295 0.06923884
0.15114789 -0.14333272 0.03606688 0.17904142 0.013185382 0.06979978 -0.08721914 -0.022441916
0.07113332 0.014816068 0.16660887 0.18126269 0.016730988 0.18940255 -0.04481024 0.13815698
-0.059150442 0.15329194 -0.0077074296 0.2116219 0.07482343 -0.018688798 -0.11275903 0.22238505
-0.04565771 0.11001022 0.060293064 -0.00094678387 0.101395786 0.054748494 0.018802792 0.26721048
0.01389586 -0.086237006 -0.055501714 0.38167176 -0.08514036 0.07314264 0.007830661 0.17161474
0.0043203747 0.0036602605 -0.05691827 0.02662431 -0.109693766 0.10005536 0.059602577 0.12735558
0.04488952 -0.008798712 0.34367204 0.11402276 0.21458258 -0.10833505 0.017429924 -0.019920845
0.15073198 0.03802793 0.016983181 0.15951487 0.2921939 -0.07244821 -0.07604161 -0.05144717

lstm.bias_hh_l1 f4 [256]
00000000: d302 343e d932 bc3c 95b6 ebbd 25c4 debb
00000010: 2a67 a9bd cbbf 13bd b696 ca3d eb65 42bb
00000020: a83b 063e f92e dcbd 5f3a 053e d527 283d
00000030: 22ba 80bd cdb7 b43e 96e2 2b3d de58 b4bc
00000040: a1e9 123d db01 343e 44a6 cbbd c278 cb3d
00000050: 8d03 afbc 83af a9bd fc34 683d 0ec1 3f3e
00000060: 33f3 61bd 6d9d c7bd 394a 193e 518e 0c3c
00000070: f944 14bd 93e4 a6bb 4248 5bbd d5ae 6d3e
00000080: 41d0 60bc 2731 8f3d 647b 91bd 10c3 413e
00000090: f5d6 c33c 118b e3bd 2837 4e3d ff46 79bc
000000a0: fb0a a73d 5f03 69bd 3839 bb3d eed7 34bd
000000b0: c80e 6c3d ce38 3a3d be97 30bc 68e0 003e
000000c0: c0af a9bc 9070 b0bd 5421 5e3e aff9 c8bd
000000d0: 29f5 763e 6028 c1bd 771f 173e 1b1b 0b3d
000000e0: fa6b 9c3a 83d3 ae3d 85ba 213d d054 723d
000000f0: 0c0b 8a3e 72f7 043d d82f 063e ea7e 983d
00000100: efc7 c1bd e166 06be 252b 163e 8ea0 373e
00000110: 30fa 84bd af54 02be 27d6 f5bd 1646 05be
00000120: e78b b6bc 227d 9dbd c8c4 e7bd 5187 21be
00000130: d8cb b3bd 89fe 48bb 9cbd b13c 1ed1 cc3d
00000140: e855 d0bd 0087 adbd 76b7 063e 38c7 1abd
00000150: e71f 4c3d 90cb cd3d e719 f0bc 1acf 963d
00000160: 45f0 5dbd f764 bb3d 9343 48bd 04b1 61bd
00000170: ba9e f03c 5bbb 4fbd fbc5 2fbd c9fa 1ebe
00000180: dd71 333c 6c5a f3bd b8c6 983d 3192 143e
00000190: 691f 723d 6933 793d 4246 893d 478c c9bd
000001a0: b652 d1bd 6c35 f83d 9ca8 283d 9f7e 3d3d
000001b0: ee84 29be 9fb3 3ebd 406b 903d ec5b d93d
000001c0: be43 733d e48c 7fbd 2802 95bd ea00 f53c
000001d0: 099e 86bc c317 2ebc 7e23 843b ac13 99bd
000001e0: c0b3 493d cbc4 07be b516 82bd a70e 103d
000001f0: 6069 583c d903 723d 59b2 5e3d 3511 7ebd
00000200: e841 bf3d 9771 723d 672e 823c 2666 fa3b
00000210: faf8 a03b d2cb 6f3d 7324 58bd 98e7 45bd
00000220: c56b fcbc b95e d13c 15e2 863c eda7 8bbd
00000230: dc96 adbd b256 a33c a559 f93c 8803 c03d
00000240: 5104 853b 9db2 a4bc d412 17bd e56d 34bd
00000250: 31bc db3d cc11 473d ef3b c8bc 2ea7 c83c
00000260: e1f0 eabd e7e9 0f3c 40e3 84bc edad ae3c
00000270: 6fba 6c3d f234 82bd 23c8 f63d 221e c13d
00000280: 923c da3c 9750 ccbd 3d24 93bd 88f6 b93d
00000290: 66ba 91bc 9720 82bd 8132 683d ef91 45bd
000002a0: b86a 613d 6b8a ef3d 114c aabc 48a6 a7bc
000002b0: 2a33 853d e103 c5bd 90cd 793d 9124 23bc
000002c0: 7e58 93bd fd18 5cbd 5cf5 cf3d 1c8b 1abd
000002d0: f007 42bd e010 923d 6d7a 7e3d 5d8c 1d3c
000002e0: f4f3 5ebd ae5f 2b3d 3703 91bd 9ce2 953d
000002f0: fc09 cabd 17ea ae3d 8ea4 94bd f582 eabc
00000300: a46e 003c 2982 0d3d 32d3 51bd 27e5 5c3d
00000310: e504 a43d e6ca b43c d26c 81bd dc63 e8bc
00000320: 407d 7dbd 8ea1 dfbc 8f37 303e 2301 4d3e
00000330: be8d ebbd 81a7 953e 299e f7bd 81dc 70bd
00000340: 49db 8abd 925f 643e 1524 923d 57fd 6f3e
00000350: f71a fcbc 6e08 30bc 094f bdbb 9233 7b3e
00000360: a016 0fbd 9c2a a53c 7be9 173d 7d81 413d
00000370: 0b6f e9bc 37fb f93d f4db d33c 24c2 233e
00000380: 99ca fd3d c73d a2bc 2b8c 21be bd49 9d3e
00000390: 7dd2 61bd 5357 b2bc aa83 933d b4be 053e
000003a0: e79d e23c 30da c93b 8344 103d f33f d2bd
000003b0: 5bbd b73d 2b67 ec3d 8c80 8f3d bf3f 863d
000003c0: 7084 ac3d b76d e93d 4ec1 8c3e 8d3c 54bd
000003d0: 2376 543e e062 55bd 6d18 f23d 511a 86bb
000003e0: 5882 8dbd 3b22 ba3b d211 b43c c932 db3d
000003f0: 8571 773e ff66 9e3d 2056 153e f068 fa3d
0.17579202 0.022973465 -0.11509434 -0.0067982846 -0.0827163 -0.03607158 0.09892027 -0.0029662799
0.13108695 -0.10751147 0.13010548 0.04105361 -0.06285502 0.3529648 0.041964136 -0.022015031
0.035867337 0.17578833 -0.09943822 0.09935142 -0.021363998 -0.08285429 0.056691155 0.18725988
-0.055163573 -0.097468235 0.1496972 0.008578853 -0.03619859 -0.005093166 -0.053535707 0.23211224
-0.013721527 0.06991797 -0.07103613 0.18922067 0.02390621 -0.11110509 0.05034557 -0.015214681
0.08156391 -0.05688798 0.09141773 -0.04415124 0.057631284 0.04546433 -0.010778366 0.12585604
-0.020713687 -0.086152196 0.21692401 -0.09813248 0.24116959 -0.09431529 0.14758097 0.033961397
0.0011934035 0.085364364 0.03948452 0.059162915 0.26961553 0.032462545 0.13104188 0.07446082
-0.094619624 -0.13125183 0.14664896 0.1793234 -0.06493032 -0.12727617 -0.12003737 -0.13015017
-0.022283508 -0.07689883 -0.1131683 -0.15774275 -0.087791145 -0.0030669293 0.021696858 0.100008234
-0.10172635 -0.08473015 0.13155922 -0.037787646 0.049835112 0.10048592 -0.029309226 0.0736372
-0.054184217 0.09150117 -0.04889257 -0.055100456 0.029372562 -0.050715785 -0.04291342 -0.15525354
0.01095244 -0.11882481 0.074597776 0.14508893 0.059111986 0.060840044 0.06702854 -0.09841209
-0.10220854 0.121195644 0.041176423 0.046263333 -0.16554615 -0.04655802 0.07051706 0.10613236
0.059390776 -0.062390223 -0.07275802 0.029907662 -0.016432779 -0.010625782 0.0040325513 -0.07474455
0.04924369 -0.13258664 -0.06351987 0.035170224 0.013208717 0.0590857 0.054369304 -0.06202813
0.093387425 0.05919036 0.015891267 0.0076415716 0.004912493 0.058543988 -0.052769136 -0.048316568
-0.030813107 0.025557863 0.016465226 -0.06819139 -0.0847604 0.0199388 0.030438254 0.093756735
0.0040593524 -0.0201047 -0.03688319 -0.044050116 0.10729254 0.048600957 -0.024442641 0.02449378
-0.11471725 0.008783794 -0.016221642 0.021323169 0.057794984 -0.06357755 0.12049892 0.094295755
0.02664021 -0.09976309 -0.07184646 0.09080225 -0.017789077 -0.06353872 0.05668879 -0.048234876
0.055033416 0.11696323 -0.020788224 -0.020465031 0.065038994 -0.096198805 0.060987055 -0.009957449
-0.07194613 -0.05373477 0.101542205 -0.03773032 -0.04737085 0.07132125 0.062128473 0.009615985
-0.05443187 0.041839294 -0.07080691 0.07318613 -0.098651856 0.08540743 -0.07257949 -0.028626898
0.007838879 0.03454796 -0.051226802 0.053929474 0.08008746 0.022069406 -0.06319584 -0.02836793
-0.061887026 -0.027298715 0.17208694 0.20019965 -0.115016446 0.29229358 -0.120907135 -0.05880404
-0.067801066 0.22302082 0.07135788 0.23436485 -0.030774577 -0.010744197 -0.005777244 0.24531391
-0.034933686 0.02016192 0.0370879 0.04724263 -0.028495332 0.122061186 0.025861718 0.15992028
0.12392158 -0.019804848 -0.15776126 0.3072032 -0.055132378 -0.021770155 0.07202847 0.13061029
0.027663184 0.006160043 0.035221588 -0.102661036 0.089716636 0.11543115 0.0700694 0.06555127
0.08423698 0.113978796 0.2749123 -0.05181556 0.2074819 -0.052096248 0.11821065 -0.0040924926
-0.06909627 0.00568035 0.021981154 0.10703046 0.24164398 0.07734489 0.14583635 0.122270465
