VAE-LSTM-anomaly–detection/experiments/NAB/nyc_taxi/NAB-nyc_taxi-win60-seq20-codesize8/checkpoint/lstm/lstm_best_model.pth (torch, 480396 bytes, 18 tensors)

lstm.weight_ih_l0 f4 [256, 8]
000000 d6 dc e7 3d 35 7b c2 3d 97 a2 f8 3d 15 27 b3 3b
       0.11321418 0.09496156 0.121403866 0.0054673054
000010 c3 64 96 bd fa 13 5a bc 31 4b 00 be af 49 cd bd
       -0.073434375 -0.013310427 -0.12528683 -0.1002382
000020 e6 26 65 3d 8a 8f 6a 3d b1 9a 43 bd 70 40 89 3c
       0.0559453 0.057265796 -0.047754947 0.016754359
000030 d3 ca ab bc 8c 34 82 3c 95 51 f8 3d 1c 03 2f bb
       -0.020970738 0.015894197 0.121249355 -0.0026704734
000040 99 50 95 3c 17 46 88 3d e3 58 2f bc 4b f7 6a 3d
       0.018226909 0.066539936 -0.010702345 0.057364743
000050 48 a7 42 3d f5 82 37 3d af 3a 76 3d a3 b4 0d bd
       0.047522813 0.044802625 0.06011456 -0.034596097
000060 7f 8a 74 3d ec 2e 2d 3d 08 8a 9c bd 28 eb 2c 3d
       0.059702393 0.042281076 -0.07643515 0.04221645
000070 d2 3c 9a 3d 63 6b 79 bc 90 5b 91 3d d7 f5 48 3d
       0.07531132 -0.015223357 0.07097542 0.049062576
000080 fb a5 bd bc 72 c8 23 bd f0 f2 fe 3c 63 02 52 3d
       -0.023150435 -0.03998608 0.031121701 0.051271807
000090 5c e9 07 bd e1 ea da bc ef 68 8c bd 22 eb f5 bb
       -0.033181533 -0.026723327 -0.06855952 -0.0075048367
0000a0 0d c2 80 bc 4d 85 62 bd 6c b5 77 3d 11 01 4c bd
       -0.01571753 -0.055302907 0.06047575 -0.049805705
0000b0 3d ab 21 3d 6d 19 b5 3d 1a 58 01 3d 28 f0 df 3d
       0.039469946 0.0884274 0.03157816 0.10934478
0000c0 c5 51 b9 bd 29 f0 c7 bd e0 30 66 bd 2a 50 4f 3d
       -0.090487994 -0.09762604 -0.056198955 0.05061356
0000d0 c3 41 d5 bd c0 9d de bc cf 2c ee 3d 6d e4 86 3d
       -0.10412934 -0.02717483 0.1162964 0.065865375
0000e0 f2 3f 33 bc b1 36 fe 3b 41 7a 5b bc 2f 12 e8 bd
       -0.010940539 0.0077579846 -0.013395847 -0.11331593
0000f0 22 0e 1b 3d 1d cf 81 3c 4f 86 d4 3d 62 da 64 3c
       0.037855275 0.01584583 0.1037718 0.013968082
000100 4c 81 f0 3d fe 1c eb bd e2 e7 1e 3d 6e 7f 9d 3d
       0.117434114 -0.11480139 0.03879536 0.07690321
000110 4e 09 b5 3c 88 f0 ce bd 42 ad 23 bd 22 54 f6 bd
       0.022099163 -0.101044714 -0.039960153 -0.12027766
000120 27 4e ec bd 62 51 b2 bb 8a aa 0b bc 99 a9 5e 3d
       -0.11538344 -0.0054418305 -0.008524546 0.05436096
000130 ac b1 94 3c 34 20 65 bd d1 6f 4c 3d ca 7f 27 bd
       0.018151127 -0.055938914 0.049911324 -0.040893354
000140 e3 e6 a5 bd ae 1f d4 bd da f9 bd 3c d7 52 ed bc
       -0.08100679 -0.10357605 0.023190428 -0.028970165
000150 4a 40 b4 bd e8 1e d7 bd 7f 97 e1 3d 7b 62 99 bc
       -0.08801325 -0.10503942 0.11015224 -0.018723717
000160 08 9e f1 bd 22 0b c5 bd 58 cf c6 3c e2 1a f0 3d
       -0.1179772 -0.09621264 0.024268791 0.117238775
000170 5d 05 f7 bd fe 82 b1 3d b2 47 c9 3d f4 cc ce bd
       -0.1206157 0.08667563 0.09828128 -0.100976855
000180 13 a6 e7 3d 58 30 b2 3d ef cb 40 3d 48 96 e8 bb
       0.11310973 0.08700627 0.047069486 -0.007097993
000190 93 34 f0 bc d6 a0 5a 3d 97 84 d5 bc cf 6c 81 bd
       -0.029321944 0.05337604 -0.0260642 -0.06319582
0001a0 2c 50 b2 3d 9a 28 e7 bd 48 da a8 3d 06 54 d0 bd
       0.08706698 -0.11287041 0.08244759 -0.10172276
0001b0 31 d9 d3 3d 26 9b 00 be 64 e3 23 bc f0 82 e3 3d
       0.1034416 -0.12559184 -0.010002945 0.11108959
0001c0 ae 8c a0 3d c5 a2 86 3d a0 e5 18 3d 7c ba 78 bd
       0.078393325 0.065740146 0.037328362 -0.06072472
0001d0 bf 8f 93 bd 7f e8 01 bc b8 9e 71 3d 8a c1 f1 bc
       -0.07205152 -0.007928967 0.058989257 -0.029511232
0001e0 6e 52 b2 bc 43 aa cc bc f3 9d f9 3d 64 55 14 3c
       -0.021767821 -0.02498353 0.121883295 0.009053562
0001f0 c8 bb 91 bd df cc e8 bd 4f b9 cf 3d ef e6 c9 3d
       -0.071158946 -0.11367201 0.10142767 0.098585
000200 6d bb a8 3d f1 e2 29 bd f4 a5 9e 3d ef eb ad 3d
       0.08238874 -0.041476194 0.07746497 0.084922664
000210 6b 2c 98 3d 64 e4 eb 3d 95 c7 e5 3d f6 99 90 3d
       0.07430347 0.115181714 0.11219708 0.07060616
000220 fc 58 f4 bd ae 7f 19 bd 2f 1c 7b 3d 30 b8 b5 3d
       -0.11931035 -0.03747528 0.061306175 0.088730216
000230 02 8a 7f bd 84 51 ff bd a0 31 ac bd f5 fb 50 3c
       -0.062387474 -0.1246672 -0.08407903 0.012755384
000240 af 7a e1 3d f3 db f3 bc 8c e8 ce bd 43 16 ae 3d
       0.11009728 -0.029767966 -0.101029485 0.0850034
000250 f5 07 2d bc d3 04 a9 bd 74 82 e7 3d 8a 40 d1 bd
       -0.010560979 -0.08252873 0.11304179 -0.10217388
000260 46 27 2d bd d1 2e dd bd 73 b4 f1 bd f3 03 a3 bc
       -0.042273782 -0.10799945 -0.11801996 -0.019899344
000270 3f 42 68 bd 71 ec eb 3d 34 2c fb bd bf 4f 4d 3d
       -0.056703802 0.11519707 -0.122642905 0.05012488
000280 9e b0 23 3c cb 7d 22 3d 74 52 d5 bd 9a 5a c8 3d
       0.009990839 0.039670747 -0.10416117 0.09782906
000290 97 0b 3c bc b0 e8 f8 bd ac 51 2f bc 44 2e db 3c
       -0.011477373 -0.121537566 -0.010700624 0.02675546
0002a0 2a 02 6e 3b 0b dd 20 3d 6e 70 ad bc d5 27 d4 3d
       0.0036317208 0.039273303 -0.021171775 0.1035916
0002b0 7b f5 e0 bd 3f 6b b1 bb 54 2a 5b bd d5 fb b6 bd
       -0.10984322 -0.005414396 -0.053507164 -0.08934752
0002c0 98 35 d8 3d 41 59 96 3d 51 1c 11 bd fd 00 8d 3d
       0.10557097 0.073412426 -0.035427395 0.06884954
0002d0 31 3a c0 bd a8 86 42 3c 84 d2 f1 bd 63 d5 f6 bd
       -0.09386099 0.011872925 -0.11807731 -0.12052419
0002e0 26 47 cb 3d 35 5a b3 bd 93 d0 bc bd 38 12 b0 3d
       0.0992568 -0.0875744 -0.0921947 0.08597225
0002f0 8a 62 0d bd 80 49 a8 bd 64 13 80 bd 85 ac 84 3d
       -0.034517802 -0.08217144 -0.062536985 0.06478218
000300 0c 09 1b 3d 2f 12 cf 3d 9f 3d 9c bd b0 57 a0 3d
       0.037850425 0.1011089 -0.07628941 0.07829225
000310 94 50 e7 bd 22 c2 85 bd 66 97 ab bd 51 35 f5 3d
       -0.11294666 -0.065311685 -0.08378486 0.1197306
000320 68 61 f4 bc ae 91 46 bd 7e 7d be 3d 5f 64 37 3b
       -0.029831603 -0.048478775 0.093012795 0.002798341
000330 be db bd 3b f2 52 54 bd eb 3b 96 bd 8c cd 63 3d
       0.0057940176 -0.051836915 -0.07335647 0.055615947
000340 0f fe 74 3d 75 5d 87 bd 75 52 bf bd ae 58 7c bd
       0.0598126 -0.066096224 -0.09341899 -0.06160801
000350 7d 1b e2 3d 4b 2e 3e 3c d3 f1 9b 3c eb 8f ae bd
       0.11040399 0.011607717 0.01903621 -0.08523544
000360 8b 7b fe bd 11 8d 37 bc a0 55 38 bd 80 02 86 3d
       -0.12425908 -0.011203066 -0.045003533 0.065434456
000370 56 f8 c3 bc 9c e8 d3 bc 86 ce d7 3d 35 ec 9f bd
       -0.023922127 -0.025867753 0.10537438 -0.07808725
000380 a8 4d f4 3d c6 94 1d 3d 8f 1d a9 bd 85 a0 bd bc
       0.11928874 0.03847196 -0.08257591 -0.02314783
000390 53 21 a6 bd 76 d4 8c bd 4a 34 75 bc 6e de 93 bd
       -0.08111825 -0.06876461 -0.01496608 -0.072201595
0003a0 83 96 b5 bd af 1d 59 3c bf e8 82 bd 66 d3 cc 3c
       -0.088665985 0.013251706 -0.06392049 0.025003146
0003b0 cc 58 9d 3d d6 be 3e 3d 0d 8c e8 bd 17 7f 74 3d
       0.07682952 0.046568714 -0.113548376 0.059691515
0003c0 d8 f3 3c 3d a7 21 9a bd ec 5b 90 3d 86 d9 db bd
       0.046130985 -0.0752595 0.07048783 -0.10734849
0003d0 fa 61 e0 3d 31 01 ac 3c b9 d0 f1 3d 1d e0 92 3d
       0.109561875 0.020996662 0.11807389 0.071716525
0003e0 01 d2 84 bd d8 b0 40 bd c3 c2 ca bd ee 51 d6 3d
       -0.064853676 -0.04704365 -0.09900429 0.104648456
0003f0 3c 5a 69 bc 2f ad 19 3b 29 60 81 bd 67 9d 68 bd
       -0.014242705 0.0023449173 -0.06317169 -0.056790736

lstm.weight_hh_l0 f4 [256, 64]
000000 0f bd c3 3d ae 92 56 bd 65 df 18 bd 2e 62 f1 3d
       0.095575444 -0.05238598 -0.03732242 0.117863044
000010 96 71 c8 3c 26 f6 55 bc 9c d7 1e 3a 89 78 d9 3d
       0.024468224 -0.013059175 0.000605935 0.106186934
000020 84 3b ed 3d d0 ee 41 3d a1 91 9e 3d a2 39 c9 bc
       0.11583617 0.04734689 0.0774262 -0.024563614
000030 3d d0 7d 3d cb 79 ca bb 3a 01 0b 3d 5e cb f1 bd
       0.06196617 -0.0061790696 0.033936717 -0.11806367
000040 e7 63 e5 bd 25 9a b4 bd 36 6a c0 bd 70 e6 c1 3d
       -0.112006955 -0.08818463 -0.09395258 0.094677806
000050 30 ce 84 3d 9c c2 be 3d 64 73 6d bc 41 3b a3 3d
       0.0648464 0.093144625 -0.014492843 0.07970286
000060 c0 85 cf 3d cc 9d e3 3d 7f b5 e4 bc 47 dd bf bd
       0.10132933 0.11114082 -0.027918575 -0.09368377
000070 5b f1 df bc c2 78 6c bd 81 61 52 3d f0 56 79 bd
       -0.027336767 -0.05773235 0.05136252 -0.060873926
000080 15 79 c1 3d b6 e8 87 3d cc 7e 81 3d 6e 6c 6e 3d
       0.09446923 0.06636183 0.06323013 0.058208875
000090 f8 a2 c8 3d 68 bb 27 bd b5 e4 6b 3d 06 a7 90 3d
       0.09796709 -0.04095021 0.05759116 0.07063107
0000a0 1b 7c f5 bb 3b d4 a4 3d 69 f1 a8 bd 82 8a f1 bd
       -0.007491601 0.08048292 -0.0824917 -0.117939964
0000b0 c4 2d 3f bd d1 b3 63 3d c2 10 d0 bd fa 1e af bd
       -0.046674505 0.05559141 -0.10159446 -0.0855083
0000c0 f9 73 c5 3b de 3b 45 3c 3e 28 f3 bd 1f b1 2b bd
       0.006025788 0.012038199 -0.1187291 -0.041916963
0000d0 f7 9f cc 3d d8 cb 9d bc a3 4a d1 3d ff ab 8b 3d
       0.099914484 -0.01926224 0.10219314 0.06819915
0000e0 3a 79 a8 3c fd b2 57 bd 92 c5 d9 3c 06 3b f2 3d
       0.020565618 -0.05266093 0.026583467 0.11827664
0000f0 42 58 fb bd 0c 5c 35 bd ec ad c6 bc f5 1f b4 3b
       -0.12272693 -0.044277236 -0.024252854 0.0054969736
000100 4f d1 ae 3d 2b 39 d5 bc d9 94 d7 3b 39 7e d4 bb
       0.08536016 -0.026028236 0.0065790233 -0.0064847735
000110 92 3b bf 3c 87 9e bb 3d 5f ea 29 bd 1e 5e 78 3d
       0.023343835 0.09161096 -0.04148328 0.060636632
000120 21 f0 a4 3d 3b b3 80 bd 3b 2f 55 3d 44 98 db 3d
       0.080536135 -0.062841855 0.052046996 0.10722402
000130 b5 7a 84 3b df f0 bc bc 02 a6 5e 3d a9 d2 04 3d
       0.004042948 -0.023064075 0.054357536 0.032427464
000140 cd 3f cd bd b9 50 2a 3d 77 da 07 bd ba ef bd bd
       -0.10021935 0.04158089 -0.03316733 -0.0927424
000150 81 a5 c7 3d 87 f0 00 be 89 5e 65 3c a0 e3 6e 3d
       0.09748364 -0.12591754 0.01399959 0.05832255
000160 de da 57 3b 3e e1 dc bd 69 af 80 3d 1a 0f cf bd
       0.0032936851 -0.10785149 0.06283457 -0.10110302
000170 be 78 5d 3c 1d b5 75 3c 75 83 d7 bc f6 c6 b8 3d
       0.013517557 0.014996794 -0.0263078 0.09022324
000180 1b ed 3f 3c 0f 75 84 bd b9 1c bb bd 5b 77 ad bc
       0.011714245 -0.0646764 -0.09136338 -0.021175077
000190 ec f5 97 bd d7 46 2d 3d 3c b0 e4 3d 80 e1 11 bd
       -0.07419953 0.042303886 0.111664265 -0.035615444
0001a0 da 48 b7 3d 36 3b e8 3c c0 e5 ec 3c 9c 25 84 3d
       0.08949442 0.028348546 0.028918147 0.06452486
0001b0 e3 c4 8d bb 2e 71 39 bd 15 32 d8 bd 3e 1b 68 3a
       -0.0043264492 -0.045273952 -0.105564274 0.0008854157
0001c0 d4 02 19 3d 69 cb 78 bc 1a 21 f9 bd 9f 84 aa bd
       0.037356213 -0.0151852155 -0.12164517 -0.08326077
0001d0 70 ef 31 bd 00 20 e9 bb b5 a4 b6 3d 9c 4c 9c bd
       -0.043441236 -0.0071144104 0.08918134 -0.076317996
0001e0 23 bc 4b bc 0d ff 5a bc fe 0e 61 3c ea 4a bc 3d
       -0.012434992 -0.013366473 0.013736485 0.09193976
0001f0 c4 ab c0 bd 47 6c a8 bd 3a c5 ae bd 76 04 d8 3d
       -0.09407762 -0.08223777 -0.08533712 0.10547726
000200 05 32 02 3d ca 82 e9 bd e6 0d a1 bc b6 65 59 3d
       0.031785984 -0.11401899 -0.019659948 0.053075515
000210 e6 41 bf bd d9 af c3 bc 20 41 66 3d 10 33 80 3d
       -0.09338741 -0.023887562 0.05621445 0.062597394
000220 49 f6 fb bd 13 2f 0c 3d 60 80 a6 3a c7 c3 da bd
       -0.123028345 0.03422458 0.0012703054 -0.10681873
000230 50 a8 f5 bc 3d a4 36 3d 68 21 9b bc ce d4 94 3d
       -0.029987484 0.044590224 -0.018936828 0.07267152
000240 f5 59 a4 3d 28 52 0f bd e4 d6 9f 3d 02 8e 54 3d
       0.080249704 -0.03499046 0.07804659 0.05189324
000250 5f ba 76 bc eb 9a 97 3d dc 07 05 3e 7c f3 6c 3d
       -0.015059083 0.07402595 0.1299128 0.057849392
000260 36 9d b1 bc 5d 9c a9 bd 77 5b e2 bd 0a a3 d2 bd
       -0.02168141 -0.08281777 -0.11052602 -0.102850035
000270 f6 86 ae bb 24 a7 bd bc 15 90 84 3c 76 4d 3f 3d
       -0.005326147 -0.023150988 0.016181985 0.046704732
000280 6e ee c0 bd d2 ac 03 bc 6f 38 6f bd 76 da d7 3b
       -0.09420477 -0.008036809 -0.05840343 0.006587322
000290 81 21 01 3d de da 6e 3d 83 b8 ce 3d ba bf d4 bd
       0.031526092 0.058314197 0.100937866 -0.103881314
0002a0 5f 49 ab bc 33 89 35 3d c8 e9 68 3c 20 1c a2 bd
       -0.02090901 0.044320296 0.014215894 -0.07915521
0002b0 4c b1 76 bd 0e ae ee bd a7 35 b9 bd b0 0d f0 3d
       -0.060227677 -0.11654292 -0.090434365 0.11721361
0002c0 8a ac ab 3d df 49 82 3c 50 59 d3 bd da 06 d9 bd
       0.083825186 0.015904365 -0.103197694 -0.1059701
0002d0 e7 00 8b 3d cf dc d1 bd f6 2c fe 3d 40 4c 6b bc
       0.067872815 -0.10247194 0.12410919 -0.014361441
0002e0 bf e7 ca 3c fc 8d 74 3d 89 77 9c 3d 6e dd 4b bd
       0.024768708 0.05970572 0.07639987 -0.04977172
0002f0 2d 63 8f bd 4b 5c 9e 3d c7 17 85 bc 8b 9b 4e 3d
       -0.07001338 0.07732447 -0.01624669 0.050441306
000300 23 f4 2a bd 25 3c 86 3c 6d 33 e6 3d c5 08 82 bd
       -0.041736733 0.016386101 0.112402774 -0.06349329
000310 f0 8a c2 3d 15 de ae 3d 6b cd a2 bd 0c 37 db bd
       0.094991565 0.085384525 -0.079493366 -0.10703859
000320 63 3e 9f 3d 9e ef bc bd 02 4a 72 bd a5 bf 55 bd
       0.07775571 -0.09225391 -0.05915261 -0.05218472
000330 8e 43 02 be c0 6c 5f bd c6 50 f9 bd 1e 62 d1 bc
       -0.12721083 -0.05454707 -0.121736094 -0.025559481
000340 72 cf 12 3d 64 1c 82 3d 00 eb b2 bd c0 d5 62 3d
       0.035842367 0.06353071 -0.08736229 0.05537963
000350 0d e4 ab 3c 5d 29 03 3e 77 0a c7 3d a0 09 38 bc
       0.020982767 0.12808748 0.09718793 -0.0112327635
000360 89 8f ba bd f7 f6 46 3d e2 28 b3 bd 26 36 c7 3d
       -0.091094084 0.048575368 -0.08748032 0.09727125
000370 15 2e ca 3d 69 c2 d1 3d e8 e6 bc 3d 08 68 2a bd
       0.09872071 0.10242159 0.09223729 -0.04160312
000380 61 7c 65 bd b1 46 8d 3d 8d 74 dc bd 91 18 6b bd
       -0.05602682 0.06898249 -0.10764418 -0.057396475
000390 57 30 a0 3d f8 e2 06 3c ef 6c b6 3c de 7a be 3d
       0.0782172 0.0082328245 0.02226874 0.09300779
0003a0 07 fd e0 bc b7 32 09 3d 07 f8 96 bd 20 e7 ec 3c
       -0.027464403 0.03349563 -0.07371526 0.028918803
0003b0 4c 74 4b 3d 97 03 96 3d c7 97 ea bd ab 71 83 3d
       0.049671456 0.073249035 -0.114547305 0.06418165
0003c0 47 1a fd bc 73 01 a4 bd fa da c8 bd da 50 d6 bd
       -0.03089632 -0.08008089 -0.098073915 -0.1046464
0003d0 25 6c f3 bd 16 4a cc bd e8 53 f2 bd d8 01 60 3d
       -0.11885861 -0.09975068 -0.1183241 0.05468926
0003e0 1c d9 f8 bd fb 8a a2 3d 11 12 01 3e fb 8d ac 3d
       -0.12150785 0.07936665 0.12604548 0.08425518
0003f0 d9 b1 dc 3d e2 c8 8b 3d 7c aa c0 3d 32 8d b0 bd
       0.10776109 0.06825425 0.09407517 -0.08620681

lstm.bias_ih_l0 f4 [256]
000000 23 24 97 3d 93 06 59 bd 60 1f ef 3d 1d d2 ab bd
       0.073799394 -0.052984785 0.11675906 -0.08389685
000010 a4 20 48 bc e8 e5 9d bd fc 6a a3 3d a2 78 f0 bb
       -0.012214813 -0.07709867 0.0797939 -0.0073385993
000020 82 45 86 bd 7d 29 ec bc 48 6d 00 3e 2a 46 d7 bd
       -0.06556226 -0.028828377 0.12541687 -0.105114296
000030 52 c4 95 bc 3c 21 c3 bd 57 db d5 bd 2b 31 88 3d
       -0.01828209 -0.09527823 -0.104422264 0.06650003
000040 db 56 9c 3d dd aa c8 bd ac ea df 3d 95 db 57 bd
       0.07633754 -0.097982146 0.10933432 -0.052699644
000050 75 8f 66 3d bb 16 e2 bd ba f1 d1 bd fc a9 c2 3d
       0.056289155 -0.11039492 -0.10251184 0.09505078
000060 6f 72 fa bc 83 26 dd bd e9 ba 60 bd 6d ae 28 bd
       -0.030572144 -0.10798361 -0.05486575 -0.04118197
000070 f8 ee 8c bd 0f de c5 3d ea ef 48 3c 29 20 a7 3d
       -0.06881517 0.09661495 0.012264231 0.08160431
000080 20 40 a1 3c 6c 0a aa 3d 65 6f 8b bc 27 6b 9c bd
       0.019683897 0.08302769 -0.01702089 -0.07637625
000090 16 1c c2 3d 29 44 e6 3d 1c fd 9f bd cb c7 3d 3d
       0.09478013 0.11243469 -0.07811949 0.046333116
0000a0 d0 67 aa 3d 14 57 cc bd 5d 6f 43 3c 15 0c 40 bd
       0.08320582 -0.09977546 0.011928407 -0.046886522
0000b0 1c e2 30 3d 9b 1b d1 bc 36 a5 5f 3d e1 0e 7f bd
       0.043184385 -0.025525859 0.054600917 -0.06227005
0000c0 20 78 bc bd 8a 63 e6 bb 61 3b c3 3d 6e e0 7a 3d
       -0.092025995 -0.007030909 0.0953281 0.06124919
0000d0 14 1f 89 3c 73 9a ee bd 0d 64 d7 3d 55 92 ca bc
       0.016738452 -0.116505526 0.1051713 -0.02472798
0000e0 a7 9c dd bd 83 1a b8 bc dd 74 e6 bc f4 45 9a 3c
       -0.10820895 -0.02247358 -0.028131897 0.018832184
0000f0 e0 40 d6 bc 70 6b b8 bd 87 2b 95 bd 6e a0 e4 bc
       -0.026153982 -0.09004867 -0.07283693 -0.02790853
000100 df 37 a3 3d 5c ea 4b 3c ad 73 0a bd 68 94 f3 bd
       0.07969641 0.012446012 -0.033801723 -0.118935406
000110 3b 47 44 3d 00 04 1d 3c d1 40 88 3d 19 4e d4 3d
       0.047919493 0.009583473 0.06652988 0.103664584
000120 5c b4 e7 3d 6b 03 57 bd 80 93 ac 3d 1d 68 e3 bd
       0.11313698 -0.052493494 0.08426571 -0.111038424
000130 ad e0 45 bd 26 56 2a 3d ca ac b9 3d b9 21 73 bd
       -0.04830997 0.041586064 0.0906616 -0.059358332
000140 49 0b bf bc 0f 6f 71 bd d7 92 43 3d de 1f 8e bd
       -0.02332081 -0.058943804 0.04774746 -0.06939672
000150 48 05 6e bd e4 b6 97 3d 51 4b 9c 3d 70 8f cb bd
       -0.058110505 0.074079305 0.07631553 -0.09939468
000160 6a d7 18 bd 6e c4 f2 bd ec 7e 98 3d ae c4 57 bc
       -0.03731481 -0.11853872 0.074460834 -0.013169451
000170 89 df 6f 3d 6a 33 8f 3d 19 e7 1e 3d 5e 22 34 bd
       0.05856279 0.06992228 0.03879461 -0.043978088
000180 65 02 89 bd a7 02 9a bd 9b 98 00 bc cb 4d ee bd
       -0.0668991 -0.07520037 -0.007848884 -0.116359316
000190 f9 02 7c bd 1e d1 27 3d 65 25 4f 3d 9c 39 c2 3c
       -0.061526272 0.040970914 0.05057277 0.02370911
0001a0 da 33 cd 3d 34 68 07 bd 15 dc ac bd 38 a3 be 3d
       0.100196555 -0.03305836 -0.08440415 0.09308475
0001b0 11 ae 4d bc 80 7f 1e 3d 1d 59 c4 3c 55 06 5d bd
       -0.012553708 0.038695812 0.023968274 -0.053961117
0001c0 7e bb be bd 8c a3 d1 3d c0 45 ed 3d f0 ce 75 bd
       -0.09313105 0.10236272 0.115855694 -0.060011804
0001d0 3f aa 18 bd 57 1b 69 bb 7e 16 ca bd eb a1 6b 3d
       -0.037271734 -0.0035569274 -0.09867571 0.057527464
0001e0 0b cb 00 bb b7 70 ef 3d 1e 8d a8 3b 3e aa 7a 3d
       -0.0019652273 0.116914205 0.0051437756 0.06119751
0001f0 5e 0c d3 3c e0 85 da 3b 83 50 c2 bd f6 23 81 3d
       0.025762733 0.006668791 -0.09488013 0.06305687
000200 d3 ef d5 bd 1e 61 26 3d 5b 62 03 be 2c 4c c4 3d
       -0.104461335 0.040619962 -0.12830488 0.09584841
000210 23 19 c7 3d d1 70 3b bd b5 43 8f 3d b4 e1 80 3d
       0.09721591 -0.045761887 0.06995336 0.062930495
000220 40 6a cf bd 75 74 d2 bd bb c2 9a 3d 0f 00 b1 3c
       -0.101276875 -0.10276119 0.07556673 0.021606473
000230 b9 b3 ec 3c 1f 00 a9 3d 30 bc 45 bd 47 a8 75 bd
       0.028894292 0.08251976 -0.048275173 -0.059974935
000240 5f 22 a2 bb b8 9a b5 bd ef 3a 76 bd 65 14 1d 3c
       -0.004947945 -0.08867401 -0.060114797 0.009587382
000250 e1 49 1a bd 8a c4 a8 bd 7f b9 69 bd 01 ff a2 3d
       -0.037668113 -0.08240612 -0.05706167 0.079587944
000260 e3 8c 59 bd 20 14 ef bd d3 8f df 3d 16 fa ef 3c
       -0.053112876 -0.116737604 0.10916104 0.029294055
000270 b2 01 aa 3c b6 b6 5f 3d 6b e8 4a bd e4 93 ef bc
       0.020752762 0.054617606 -0.049538057 -0.029245324
000280 e4 e0 fc bc ec e0 ed bd be cc 71 bd 33 a8 dc 3d
       -0.030868955 -0.11615166 -0.059033148 0.10774269
000290 1e 6a 95 bd 54 c4 84 3c 57 d8 0b 3d a0 96 e7 bd
       -0.07295631 0.016206898 0.034141865 -0.11308026
0002a0 e9 b2 f0 bd 9a 95 a4 bc 2d f9 81 3d d2 ae b3 bd
       -0.117528744 -0.020090867 0.06346355 -0.08773579
0002b0 16 fc fb bd c9 8e ba bd 38 5f 69 bd d7 9c 4f bd
       -0.12303941 -0.09109265 -0.056975573 -0.050686684
0002c0 e9 ea a0 3d 10 c7 ae 3d 9e 90 da bb 83 ee f0 3d
       0.078573056 0.08534062 -0.0066700717 0.117642425
0002d0 7d 15 22 3d 72 b5 00 3e 04 15 c3 3d da a9 8b 3b
       0.039571274 0.12569216 0.09525493 0.0042621912
0002e0 f1 0e f6 3c fb fe 40 3d 9a 78 f2 3b 28 6c 69 bd
       0.030036421 0.04711817 0.0073996307 -0.05698791
0002f0 93 c8 6d bc 34 c1 4a 3d b6 4d 04 3d 74 db c6 3a
       -0.014513153 0.04950066 0.032300673 0.0015171603
000300 2f dd 0c 3d b1 48 f5 3d 92 e0 ec bc b4 69 a0 bd
       0.034390625 0.119767554 -0.028915677 -0.07832661
000310 34 a3 76 bd 74 5f 15 3c d9 42 af 3d dd e5 ea bc
       -0.060214236 0.009116996 0.08557672 -0.02867406
000320 3b c7 f7 bd 96 bd 11 bb 51 ff df 3d 84 84 75 bd
       -0.12098547 -0.0022238246 0.109373696 -0.05994083
000330 7d 2c 12 3b 08 ea 14 3d 31 52 c3 3d 7b 26 7a 3c
       0.002230435 0.036356002 0.09537161 0.0152679635
000340 74 84 58 bc 7e 57 a8 bd bd 71 a7 bd 18 c9 90 bd
       -0.013215173 -0.08219813 -0.08175991 -0.070696056
000350 67 45 82 bd ff 0a 6c bd b0 27 06 3d 1e 07 49 bc
       -0.06360894 -0.057627674 0.032752693 -0.012269763
000360 3e 1b b4 bd d9 74 cd bd d9 9c bc bd 83 33 89 bd
       -0.087942585 -0.100320525 -0.09209604 -0.06699278
000370 d2 17 d9 bd dc 30 17 bc 82 be c7 3b 40 2b 38 bd
       -0.106002465 -0.009227958 0.0060957083 -0.04496312
000380 9b e8 7f 3d aa be d3 3d ec d1 f8 3d e6 0b a1 3d
       0.06247769 0.10339101 0.121494144 0.078635976
000390 c6 27 b8 bd eb 88 29 bd 41 21 dd bc b3 2e e1 3d
       -0.08991961 -0.04139034 -0.026993396 0.10995235
0003a0 6b 49 a8 3b 99 b5 de 3d 65 6e ec bd 35 6c 93 3d
       0.005135705 0.10874481 -0.115444936 0.07198373
0003b0 e0 d3 90 bc 72 80 f5 bc ca 39 f0 3d 1e 36 d7 bc
       -0.017679155 -0.029968474 0.117297724 -0.026270922
0003c0 2d ca aa 3c db b0 d5 3d 80 50 8e 3c 8c fc 8a bd
       0.020848358 0.10434123 0.01737237 -0.06786451
0003d0 f3 69 a0 3d ce 66 a9 3d 65 a6 df bd 68 24 6f bc
       0.07832708 0.082715616 -0.10920409 -0.014596082
0003e0 d1 46 ca bd dd 15 0b bd 7e 25 3c bd 83 66 8b bd
       -0.098767884 -0.033956397 -0.045934193 -0.06806662
0003f0 65 d4 ed bd d2 dd 4c 3d f9 8c ee 3d eb eb 62 3c
       -0.11612777 0.05001623 0.11647982 0.013850193

lstm.bias_hh_l0 f4 [256]
000000 75 ea c6 3d 89 c6 37 3d 65 76 b2 bc 8c 3f 9f bc
       0.09712688 0.044867072 -0.02178497 -0.019439481
000010 a4 4d ca bd 7d 07 4d bd 17 53 41 b8 1d a7 b4 3c
       -0.0987809 -0.05005597 -4.609217e-05 0.022052342
000020 4e 85 aa bb c9 94 8c bb ee 86 cf bd af 25 7f bb
       -0.0052038794 -0.0042901975 -0.10133158 -0.0038932373
000030 8c 60 80 3d 92 6d f3 3c 8c f8 11 3d 6b 3b 92 bd
       0.06268415 0.029715333 0.035637423 -0.07140239
000040 49 da f5 3d f5 2e 34 3d ec db ad 3d 3d 70 60 bd
       0.12004525 0.043990094 0.084892124 -0.05479454
000050 f7 be 87 bd 57 4b c3 3d 4b e4 9d 3b 1a b8 88 3d
       -0.066282205 0.09535854 0.0048184744 0.066757396
000060 2d 27 2a bd 42 8e 3a 3d 79 3c 8e 3d c6 10 d5 3c
       -0.041541267 0.045545824 0.06945128 0.026008975
000070 4c 5a e7 bd d5 15 ce 3d a2 d7 9c bd 9d 5b f0 bd
       -0.1129652 0.10062758 -0.07658316 -0.11736224
000080 b3 61 9c 3d a2 03 cf 3b 26 f0 f6 bb 49 a5 13 bd
       0.07635822 0.0063175717 -0.007535952 -0.0360463
000090 6e c7 92 bd ef 81 be 3d c6 28 b9 bc f8 f2 f8 bd
       -0.071669444 0.093021266 -0.02260245 -0.121557176
0000a0 04 f4 ac 3d 20 a1 02 3e df 1a b7 3d e6 c7 95 bd
       0.0844498 0.12756777 0.08940672 -0.07313518
0000b0 45 a9 f9 3c 5f c2 a7 bd d6 ac 44 3d 72 f5 35 3d
       0.030476222 -0.0819137 0.04801639 0.044423528
0000c0 34 6f e3 bd ce 3e 10 3d ee 82 01 bd 03 d0 e8 3d
       -0.11105195 0.035216145 -0.031619005 0.113678
0000d0 d0 5d ca bd c3 10 d8 bd 69 f7 8b 3d b1 55 c9 bd
       -0.098811746 -0.10550072 0.06834299 -0.098307975
0000e0 4a 9f 4e 3b f5 a6 ef bd 11 e0 c4 bd 72 53 1d bc
       0.003152805 -0.117017664 -0.0961305 -0.009602414
0000f0 ba c2 ba bd 25 04 78 3c 07 27 ac 3d bd 77 82 bd
       -0.091191724 0.015137707 0.084058814 -0.063704945
000100 35 f0 a1 3d 9f 21 7e 3d 91 c1 55 3c 74 67 d1 3b
       0.07907144 0.062043782 0.013046638 0.0063905064
000110 7f 31 62 3d 1e 5b 4c 3d 39 e0 a0 bd 3c 27 38 3d
       0.055222984 0.049891584 -0.07855267 0.04495929
000120 6a 13 8a 3d 71 f4 6d 3d 76 aa 67 bd 6d 19 d9 bd
       0.06741984 0.058094446 -0.05655905 -0.10600553
000130 89 00 63 bd a5 e9 d9 3d 30 ba c4 bd bb cc 53 3d
       -0.055420432 0.10640267 -0.09605825 0.051708918
000140 3f f0 ed bd 5b d0 69 bd cf a7 a5 3d ac 4c e9 bd
       -0.11618089 -0.05708347 0.080886476 -0.11391577
000150 1d d8 f7 3d bc 08 99 3c 09 b6 dc bd e0 9a d1 3d
       0.12101767 0.018680923 -0.10776908 0.10234618
000160 21 f6 d1 ba 45 fd 24 3d b0 6b c6 3d 42 f6 d6 3d
       -0.0016018787 0.0402806 0.096885085 0.10496189
000170 b6 77 f1 3d 20 db 74 bd a5 27 7a 3c d7 9f ca bc
       0.11790411 -0.059779286 0.015268241 -0.02473442
000180 3f 79 9f bd f3 a7 d2 3d 5f 3b 81 bd 77 7c f0 bd
       -0.07786798 0.1028594 -0.06310152 -0.1174249
000190 b6 c8 e9 bd 3a 69 5f bd 90 1d aa 3d dc 23 d1 bb
       -0.11415236 -0.05454371 0.0830642 -0.0063824486
0001a0 fb a0 a9 3c 5c 17 7d 3d 7e 38 35 3d 8a 3b b2 bd
       0.020706644 0.061789855 0.04424333 -0.087027624
0001b0 1c 6c 01 3e ce 74 a5 bd 37 e0 ae bd 5e 02 8c bd
       0.12638897 -0.08078919 -0.08538859 -0.06836389
0001c0 8c ea 92 3c 21 90 79 3d 3f 61 00 be 4c dd 32 3d
       0.017934106 0.060928468 -0.12537096 0.043668076
0001d0 8c 40 a0 bd 63 fa e2 bd 57 69 d9 3c 18 17 1c bd
       -0.07824811 -0.11082914 0.026539488 -0.03810796
0001e0 86 7c 27 bd 27 ca ba bc 2f b6 83 3d ab d2 8e 3c
       -0.04089024 -0.022801472 0.06431233 0.017434439
0001f0 a4 65 b8 bd aa 3c e1 3c cb 48 e3 3d 96 26 f7 3d
       -0.090037614 0.027494747 0.110978685 0.120679066
000200 75 75 bc 3d 5e 41 ba 3d 70 ff f4 bd c0 d8 0d 3a
       0.09202091 0.09094499 -0.11962783 0.00054110214
000210 75 0c e2 bd 95 49 68 bd 2f 83 66 bd c8 a5 79 bd
       -0.11037532 -0.0567108 -0.05627745 -0.060949117
000220 d7 58 7e 3d d9 30 a7 3d ac 98 54 3b 0e bf 1e 3d
       0.062096443 0.08163614 0.0032439632 0.038756423
000230 d5 fc 2f 3d dd d1 fc bb 24 93 a8 bd 65 9e ad 3b
       0.04296573 -0.0077154473 -0.0823119 0.005298423
000240 c1 05 71 3d 9c 88 84 3d 77 58 8e 3d 3b 27 69 bd
       0.058843378 0.06471369 0.06950467 -0.05692218
000250 65 12 87 3d fb 48 0d 3c c1 ec b4 3d 75 aa 6c 3b
       0.06595305 0.008623357 0.0883422 0.0036112342
000260 66 bd 3a bc fe af e4 bc 17 32 f1 3d ea 00 b2 bc
       -0.011397695 -0.02791595 0.11777132 -0.021728951
000270 f8 be b1 bd 0e b0 4c bd 89 23 57 3d 6a 98 af bb
       -0.086790025 -0.049972586 0.052524123 -0.0053587453
000280 94 f3 88 3c a8 d9 b5 bd fb 8c 04 be 1c dd 9f 3b
       0.01671771 -0.08879405 -0.12944405 0.004878653
000290 d4 e4 e7 3b 2e c0 00 bd f9 0f 68 bd ca 48 7e 3d
       0.007076839 -0.031433277 -0.056655858 0.062081136
0002a0 c9 31 17 3c c5 a6 d0 3b 3b 2f 03 3d 91 60 86 3c
       0.009228178 0.0063675367 0.032027464 0.016403468
0002b0 d0 85 07 bd a2 23 a0 ba 2c 80 2c bd f4 44 f6 bc
       -0.033086598 -0.0012217651 -0.04211442 -0.030062176
0002c0 ab 48 24 3c 92 65 b2 bd 2a 80 de bd 19 a6 96 bd
       0.010027091 -0.08710779 -0.10864289 -0.07355899
0002d0 75 57 41 3d 76 93 f6 3d 82 b1 82 3d 5d a1 e1 bd
       0.047202546 0.12039845 0.06381513 -0.11017106
0002e0 db dd 89 3d 5e b8 a7 bd b6 dd 48 bd b5 6d ec 3c
       0.06731769 -0.08189462 -0.049039565 0.028860906
0002f0 53 50 6f bc 2f f3 fb bd 0e f2 1f bd fc 4b 2b 3d
       -0.014606553 -0.12302243 -0.0390492 0.04182051
000300 03 95 e3 bb a7 90 d0 3d 51 c8 e8 3d 8f 39 38 3b
       -0.006945254 0.1018384 0.11366332 0.002811048
000310 df 4f 80 3d 7d 3d b9 bd 34 1f 4f bd 29 96 0b bd
       0.06265234 -0.09044931 -0.050566867 -0.03407875
000320 df 53 9a 3d a8 79 50 3d 41 bb 06 3d 78 ba 72 bd
       0.075355284 0.05089727 0.032893423 -0.05925986
000330 0d 86 a5 bd 8d 45 88 bb 00 87 2b bc 32 b3 b7 3b
       -0.08082209 -0.0041586817 -0.010469198 0.0056060785
000340 4b c2 0c 3d fc 23 b2 3d c3 8f ae bd fe 12 ad bd
       0.03436498 0.0869827 -0.08523514 -0.08450888
000350 df 97 ae 3d 84 cd dc 3c 7e 5b c1 bd 82 3a 01 be
       0.08525061 0.026953466 -0.09441279 -0.12619975
000360 70 6c 8d bd 3a 09 ac 3c 5a 55 90 3b 51 81 ca bd
       -0.069054484 0.021000493 0.004404706 -0.098879464
000370 aa d0 a4 bd 34 37 6f 3d 7e cc b4 3c 97 28 ca 3d
       -0.08047612 0.058402255 0.022070166 0.09871023
000380 7f 48 ba 3d 7c 7f 8c bd d2 89 9e 3d f1 04 41 bd
       0.09095859 -0.06860253 0.07741131 -0.047123853
000390 43 8c 60 bb 59 6b 3c 3d 93 28 04 bd 9f 7a a0 bd
       -0.003426329 0.046000812 -0.032265257 -0.07835888
0003a0 ab 08 9f 3d b3 a7 cb 3d 19 68 d8 bd b9 e6 a1 3d
       0.07765325 0.099440955 -0.1056673 0.07905335
0003b0 97 21 52 bd fc 1a da 3d 30 6d d8 bd f2 b9 aa bd
       -0.051301565 0.10649678 -0.10567701 -0.083362475
0003c0 4a a0 6a bd 10 9c d1 3c b7 55 c2 bd 52 10 ee 3c
       -0.05728177 0.025587112 -0.09489005 0.029060517
0003d0 97 7a dd 3d e9 31 75 3c ce 4f d7 bc 7f af c4 bd
       0.10814398 0.014965513 -0.026283171 -0.09603786
0003e0 13 30 82 3d 2b 7d 7c bd cb c5 f1 bd 8b 0b 24 3d
       0.06356826 -0.061642807 -0.11805304 0.04005007
0003f0 91 04 ae bd fe 7f 39 bc 3b 97 22 3d 8b 73 99 bd
       -0.08496965 -0.01132202 0.039695006 -0.07492741

lstm.weight_ih_l1 f4 [256, 64]
000000 f7 f3 b0 3d 30 0d 1c 3d 58 e0 82 3d d2 af 99 3d
       0.086402826 0.038098514 0.063904464 0.07504238
000010 bf 0c d9 bc 01 1d 60 bd ad 2e 50 bd 7d 8d b0 3d
       -0.026495336 -0.05471516 -0.050825763 0.08620737
000020 db 64 8a bd 65 a0 a7 bd 07 f1 cd bd 23 ec f1 bc
       -0.06757518 -0.0818489 -0.10055738 -0.029531544
000030 3a b0 d9 3d 16 69 bb 3c 61 e4 bc bb 7c 45 21 bc
       0.10629316 0.022877257 -0.0057645296 -0.0098432265
000040 08 05 48 bd 74 34 25 bd be 0b ba 3d 7c ac 44 3c
       -0.048832923 -0.040333226 0.09084271 0.012004014
000050 28 bc 8c 3d bf fa cc 3d 2a b2 8c 3d ab 1a 9e 3d
       0.068718255 0.100087635 0.068699196 0.0771993
000060 6d c0 e5 bd 67 f7 a1 3d ab 5c 88 bd 89 f0 97 bd
       -0.11218343 0.079085164 -0.066583 -0.07418925
000070 22 5f 54 3d 3d 49 8e bd b3 6a 16 3d 15 49 d6 3d
       0.05184854 -0.06947563 0.03672285 0.10463158
000080 61 3d 30 bd 15 f5 88 3d 40 8a d6 3d eb 0b f3 bd
       -0.043027285 0.06687371 0.10475588 -0.118675075
000090 17 70 8b 3d cf b9 f9 3d e1 a5 1b 3d 05 bf 4d 3c
       0.06808489 0.12193643 0.03799999 0.01255775
0000a0 05 5b 85 3d a8 76 81 bd 49 d8 25 3d 47 31 a5 3d
       0.06511501 -0.0632146 0.04048947 0.080660395
0000b0 4a d2 bc bd 46 db fc 3c 56 5e b4 bd f1 fc 65 bd
       -0.09219797 0.030866276 -0.08807056 -0.056149427
0000c0 f8 dd 91 3d 64 81 10 bd 76 0f f8 bc b0 18 ff 3b
       0.07122415 -0.035279647 -0.03028081 0.0077849254
0000d0 14 1d 35 bd fa cd 2a bd e5 35 de bd d8 6b b5 3d
       -0.044217184 -0.04170034 -0.10850123 0.0885846
0000e0 72 c8 72 3d 72 fa 05 bd db b8 98 3c 8e 34 58 3d
       0.05927319 -0.032709546 0.018642833 0.052784495
0000f0 71 0f 1d bc 52 cf d8 3d 68 e4 81 3d bb 36 60 3b
       -0.009586201 0.10586418 0.06342393 0.003421231
000100 16 b5 d1 bd 19 0e ca 3d 21 d4 26 3d ce ac ec 3d
       -0.102396175 0.0986597 0.040729646 0.115563974
000110 2f c0 aa bd 45 a2 d7 3d ba da c9 3d 66 b2 d2 bd
       -0.08337437 0.10528997 0.09856172 -0.10287933
000120 bf 72 d6 3d 04 b3 8d bd 6e 63 b8 bc be 28 ce 3d
       0.10471105 -0.0691891 -0.02250835 0.10066365
000130 e1 b5 9b bc 8f ef 8e 3d fc 24 ce 3d e3 d6 44 3b
       -0.019007625 0.06979286 0.10065648 0.003003531
000140 c5 58 46 bd f6 05 e9 bd 42 bc a1 bd 14 dd eb bc
       -0.0484245 -0.1137809 -0.078972355 -0.028791942
000150 64 ab a4 bd 06 87 ed 3d 04 da 9f 3d ff 14 9e bc
       -0.08040503 0.11598019 0.07805255 -0.019297121
000160 0a 64 33 bd fd 43 a6 bd 70 e9 db bd c2 05 1a 3d
       -0.043796577 -0.081184365 -0.10737884 0.037603147
000170 e8 03 b4 3c 3c 2d 3c 3d 4a 00 a9 bd f2 43 d5 39
       0.021974519 0.045941576 -0.08252008 0.0004067715
000180 46 78 41 bd 93 34 1f bd bb da a6 3d 64 38 07 bc
       -0.047233842 -0.038868498 0.08147188 -0.008253191
000190 cb 97 f9 3b 4b dd f3 bd ca 9a 0b bd 6c 94 92 bd
       0.007616972 -0.11907443 -0.034083165 -0.071572155
0001a0 8a bf c1 bc 09 80 87 3d 4a e6 c9 3d dd 69 fd 3d
       -0.023650903 0.06616218 0.09858377 0.123737074
0001b0 c8 eb b6 bd c7 29 a5 3d 1d b0 4a bc 17 4e e4 3c
       -0.089316905 0.08064609 -0.01237109 0.027869267
0001c0 31 24 83 bd 7d c7 e7 3d d5 8a 2a bd 5b ea f3 3d
       -0.06403387 0.11317346 -0.041636307 0.11909934
0001d0 cd 82 74 bd 0c b5 62 bc 46 db 98 bc 1c be c2 bd
       -0.059695054 -0.01383711 -0.018659245 -0.09508917
0001e0 b8 94 b1 bb ba 92 40 3d 39 1f 8a bd d9 2a fa 3c
       -0.00541934 0.04701493 -0.067442365 0.03053801
0001f0 df 63 28 3d e9 41 ab ba 74 80 ee bd 1b dd 90 bd
       0.04111087 -0.0013065907 -0.11645594 -0.070734225
000200 f5 a3 87 3d e9 da e7 ba ac ae c4 3d dd ce 61 bd
       0.06623069 -0.0017689142 0.096036285 -0.05512892
000210 41 03 ed bc 20 ef d9 3d 49 3b 85 3d 11 e0 c0 3c
       -0.028932216 0.106413126 0.06505448 0.023544343
000220 ec ba 74 3d 98 01 2c 3d d5 e6 ac 3d 49 b0 18 3c
       0.059748575 0.041993707 0.08442465 0.009319373
000230 c0 7f 5e bc 80 d0 c3 bd 7f 5e 95 bd 0c 07 cd 3d
       -0.013580263 -0.095612526 -0.07293414 0.1001111
000240 82 8d e1 3d 02 06 49 bd 5c 2f 39 bd dc 5e bf 3d
       0.110133186 -0.049077995 -0.04521118 0.09344265
000250 4c 14 e3 bd 7a 42 f9 bb 00 08 b1 3d 7e c2 7a 3d
       -0.11087856 -0.0076068016 0.08644104 0.06122064
000260 8c 06 4b bd 0f 1c cf 3d 4b f8 15 3d a2 22 1a bd
       -0.04956679 0.101127736 0.036613744 -0.037630685
000270 f0 3f 59 3d aa 4e ec 3c 18 cf c9 3d 1f a2 ab 3d
       0.05303949 0.028846104 0.09853953 0.083805315
000280 22 15 91 3d 72 6e fa bd e3 b8 22 3d 19 b8 ad bc
       0.07084109 -0.12228097 0.039727103 -0.021205949
000290 bc 6b bb bc f9 43 3e bd 68 f5 c0 bd 54 9c 77 ba
       -0.02287852 -0.046451543 -0.094218075 -0.0009445597
0002a0 de c8 e7 bd 4f cd ed 3d 5d 4d bd bc 99 76 7c 3d
       -0.11317609 0.11611425 -0.023108179 0.06163654
0002b0 08 46 3b bd fc 9b d5 3d 1d bd 6c bd a8 86 10 3d
       -0.045721084 0.10430142 -0.05779754 0.03528467
0002c0 60 01 73 bd 2e f8 ce 3c 86 75 32 bd 43 ab a4 3d
       -0.059327483 0.025264826 -0.04356911 0.08040478
0002d0 c4 0d 34 3c 26 89 df bb 73 43 9e bd 42 ad 83 3d
       0.01098961 -0.0068217693 -0.07727709 0.06429531
0002e0 bc 81 c0 bd ec 19 9c bd 4d 6c 69 bd a1 d2 8d bd
       -0.09399745 -0.07622132 -0.05698805 -0.0692494
0002f0 a8 44 6b bd c0 76 03 bb fc 3f 22 bd e5 6b d9 bd
       -0.057438523 -0.0020059794 -0.0396118 -0.106162824
000300 9d cc c0 bd fd e9 8e 3d 0a 83 72 bc 8d a5 14 bd
       -0.09414027 0.069782235 -0.01480175 -0.036290694
000310 17 ad bb bd bc b6 fc 3c 98 37 36 3d 90 10 08 bd
       -0.09163874 0.030848853 0.044486612 -0.03321892
000320 bb 29 e4 bd bc d7 06 3c 6c 7a e1 3d c6 05 ff bc
       -0.11140772 0.008230146 0.11009678 -0.031130683
000330 ff b8 c3 3c 5b bd 98 bd cf b6 a0 bd ae ee f3 3d
       0.023891924 -0.07457992 -0.07847368 0.11910759
000340 f1 2d f2 bc 6b e7 33 3c 87 94 01 3d d1 94 94 bd
       -0.029562922 0.010980467 0.031635787 -0.07254947
000350 8b 2e 59 bd e2 bb 9b 3a e9 d0 ea 3d 12 21 2e bd
       -0.053022902 0.0011881555 0.11465628 -0.042512007
000360 e3 3a 70 3d 3a ec de 3d c2 99 a8 3d 07 ba e2 bd
       0.05864991 0.108849004 0.08232452 -0.11070638
000370 17 01 e3 ba f3 82 be bd 68 21 9a ba 15 28 f5 bd
       -0.001731905 -0.0930232 -0.0011759223 -0.11970536
000380 d0 47 e5 3d 6e 27 d7 3d 6f ba ef bd e2 c4 ba 3d
       0.11195338 0.105055675 -0.11705481 0.09119584
000390 4f ae 2e bd 89 5f 91 bc 10 f6 5c 3d c1 43 d8 3c
       -0.042646702 -0.01774575 0.0539456 0.026399495
0003a0 89 91 f0 3d c0 9b d1 bc 3c 21 98 3c cd 11 24 bc
       0.11746509 -0.025586963 0.018570535 -0.01001401
0003b0 1c e3 dc 3d c5 b8 03 3d ab 39 a0 bc 5c b7 c2 bd
       0.10785505 0.03215863 -0.019558748 -0.09507629
0003c0 67 58 1e bd 7e da e4 3c 27 6a 6b bd 6a 51 aa 3d
       -0.038658526 0.027936216 -0.05747428 0.0831631
0003d0 43 46 7f 3d fe e4 9e 3d ab 4e e5 3c dc 6c d3 3d
       0.062322866 0.077585205 0.027991613 0.10323498
0003e0 37 52 f0 bb c1 6b dc ba 0e 8c cd bd f8 12 a8 bd
       -0.0073340195 -0.0016816781 -0.10036479 -0.08206743
0003f0 f5 d9 a2 3d 53 20 a8 3d b7 81 b3 3d 26 e5 46 3d
       0.07951728 0.0820929 0.087649755 0.048558377

lstm.weight_hh_l1 f4 [256, 64]
000000 8c 07 9c bd 1e 48 2c 3c d9 86 ec 3c 84 16 e8 bd
       -0.07618627 0.010515241 0.028872894 -0.113324195
000010 14 b2 01 3e 78 fa 8e bb b3 a3 bf 3d 78 40 a8 3d
       0.12665588 -0.0043633543 0.09357395 0.082154214
000020 12 14 c4 3d 05 98 aa 3c 6d a8 ec bd 13 39 3c 3d
       0.095741406 0.020824442 -0.11555562 0.045952868
000030 71 af 7c bd fa 06 fe bd d0 80 ab 3d 52 b1 ac 3c
       -0.06169075 -0.124036744 0.083741784 0.021080647
000040 4c e6 9f bd 10 08 92 3c b6 b3 89 3d 18 20 81 bd
       -0.078075975 0.01782611 0.0672373 -0.063049495
000050 88 0e 30 3d 6c 92 6d 3d eb 2d c1 3d 92 89 a9 3d
       0.042982608 0.058000967 0.09432586 0.082781926
000060 27 04 e7 3d d1 d4 ca bd 10 04 7b 3d 39 20 2b bd
       0.11280089 -0.09903873 0.06128317 -0.041778777
000070 f1 52 cd 3c 19 ad f6 3d 19 4a 95 bc 9c 29 ce 3d
       0.025063964 0.120447345 -0.01822381 0.1006653
000080 b7 c7 d9 bd 7b fd dc bd f6 1c ee bd 2b e4 ee bd
       -0.10633796 -0.10790535 -0.116266176 -0.11664613
000090 53 ae 7e bd c4 25 91 bd 6f 96 8b 3c 7d 7a 60 b9
       -0.062177967 -0.07087281 0.017039506 -0.00021407935
0000a0 02 f5 f5 3c 12 96 ab bd b4 d6 f8 3d b8 48 c1 bb
       0.030024055 -0.08378233 0.12150326 -0.0058985613
0000b0 09 44 84 3c 1d 33 ca 3d fc 7c 6c 3d bc d7 cf 3c
       0.016145723 0.0987303 0.057736382 0.025371425
0000c0 33 75 84 bd c8 37 55 bd 80 b5 e4 bd 0d 55 1a 3d
       -0.064676665 -0.05205515 -0.11167431 0.037678767
0000d0 67 fb 34 3d ee 11 a0 3b cb 85 2a bd 09 ee ef 3d
       0.04418507 0.00488495 -0.0416315 0.117153235
0000e0 c7 50 1c 3a 80 3f 97 bb 4f 27 e9 bd d5 4c 60 ba
       0.00059629645 -0.004615724 -0.11384451 -0.0008556371
0000f0 9b a7 0a 3c 34 08 31 3d c1 c3 41 bc ec 36 77 bd
       0.008462812 0.043220714 -0.0118264565 -0.060355112
000100 b4 22 44 3d 04 69 ee 3d 22 11 81 bd f2 20 f4 bd
       0.047884658 0.11641124 -0.06302096 -0.11920346
000110 3b e8 ae bc 94 7a 6f 3c 28 20 72 bd e9 b0 4d bd
       -0.02135097 0.014616627 -0.059112698 -0.050217543
000120 84 66 e0 bd bf 91 9f bc e0 4a b6 bc a4 ae af bc
       -0.10957053 -0.019478677 -0.0222525 -0.02144558
000130 a8 8b 02 bd 2f 2e 92 3d 4a e0 2d 3d 33 22 aa 3d
       -0.031871468 0.07137715 0.042450227 0.08307304
000140 9f f3 18 3d 9e 32 67 bd 9c 26 71 3c c1 be 64 3d
       0.03734171 -0.056444757 0.014718678 0.05584598
000150 76 70 b0 3d e9 b5 d7 3d be 1e 36 3d fd 04 92 bd
       0.086152 0.105327435 0.04446291 -0.07129858
000160 af c3 c3 bc bc b0 41 3b 30 ec 49 bd 76 bc dd 3c
       -0.02389702 0.0029554805 -0.04929751 0.027067404
000170 f9 7f b8 bd 8e 4f a6 bd 69 f7 e9 3b 6c 60 d0 bc
       -0.09008784 -0.081206426 0.0071400893 -0.025436603
000180 3c d5 b9 3d 24 05 69 bd d1 a4 76 bd 23 90 a0 bd
       0.09073874 -0.056889668 -0.060215775 -0.07839992
000190 34 21 e7 bd 99 02 64 bd 35 fe cb 3d bb 5d e7 3d
       -0.1128563 -0.05566654 0.099605955 0.112971745
0001a0 70 d3 ab 3d 0c 7b 00 3e 46 a6 80 3d 45 d2 99 bd
       0.08389938 0.12546939 0.06281714 -0.07510809
0001b0 17 4c 69 3c 3d e1 2e bc b3 d4 0b 3d b5 a3 a8 bd
       0.014239333 -0.010673818 0.034138393 -0.0823435
0001c0 0e 25 5b bd 66 d2 77 bd 11 ad d7 bd 20 a3 34 bd
       -0.053502135 -0.060503386 -0.10531057 -0.04410088
0001d0 a2 be cb 3d 9c 21 85 bd b9 a2 44 bd 96 8a 1c 3d
       0.0994847 -0.06500551 -0.048006747 0.038218103
0001e0 18 27 b6 3d 5d 10 98 bd c7 a0 82 bd 9d fc ee bd
       0.08894175 -0.07424996 -0.06378322 -0.11669276
0001f0 22 f1 d6 bb fa 86 a5 3c aa 21 a5 bd d0 4f b9 3c
       -0.006559507 0.020205963 -0.080630615 0.022621065
000200 cd 1e 8a 3c 0a 71 0f bd 88 3a ab bc 58 06 a5 3c
       0.01686039 -0.03501991 -0.020901933 0.020144626
000210 1f 62 91 bd bc 6d 80 bd 90 a3 ca bd be 0f e2 bd
       -0.07098793 -0.0627093 -0.09894478 -0.11038159
000220 51 7e 1e 3d b1 27 90 bd 14 61 96 3d 55 95 2f bb
       0.038694683 -0.070388205 0.07342735 -0.002679189
000230 be d5 0a 3d ad b3 f1 3d 3e 5c 85 bd bc 72 cf 3d
       0.033895247 0.118018486 -0.065117344 0.10129306
000240 55 09 61 bd 01 a5 e6 3c 92 d9 ac bd a0 75 fa 3d
       -0.05494054 0.028154852 -0.08439936 0.122294664
000250 21 c3 ea 3d 2c 33 5a 3d f0 ef a6 3c 50 6d cc bd
       0.11462999 0.053271458 0.020378083 -0.09981787
000260 ec 50 52 bb 61 81 22 bd 96 cd d4 bd cc b6 6d 3d
       -0.003209169 -0.039674167 -0.10390775 0.058035657
000270 4e 94 a7 3d 34 ac 80 3c 63 74 64 3d b3 34 57 3d
       0.08182584 0.015707113 0.055775058 0.052540492
000280 2e c4 2b 3d 5e 64 01 be e0 7f 59 3d 21 2d 9c 3d
       0.04193514 -0.12635943 0.053100467 0.07625795
000290 90 b3 43 3d c4 b1 bb bd b4 f3 17 3d bd 01 ad 3d
       0.047778666 -0.091647655 0.037097648 0.08447597
0002a0 56 d2 e4 bd ea 2c 00 bd d2 b4 c6 bb 2a 7e a7 bd
       -0.11172931 -0.031292833 -0.006064036 -0.08178361
0002b0 94 6d 9b bd 70 b1 82 bd d3 9f fd bb 92 1e 13 3d
       -0.0758926 -0.063815 -0.00774 0.035917826
0002c0 39 d7 6a 3c 25 23 79 bc 92 89 e0 3d 77 ac 6f bd
       0.01433354 -0.015206133 0.109637395 -0.058514085
0002d0 34 c0 a5 3d d9 8d 3f bd ae 16 47 bd b3 20 3b bd
       0.080933005 -0.046766136 -0.048605613 -0.04568548
0002e0 52 a3 d3 bd f4 94 f1 bd a0 eb dd 3d df bf 8d bb
       -0.10333885 -0.11795989 0.108359575 -0.0043258513
0002f0 98 3a 28 bd b4 70 5c bd 23 ea c8 bd 6f a4 44 bd
       -0.041071504 -0.05381842 -0.09810283 -0.04800838
000300 0c 3d 95 bd ab d2 d9 3d 2b 26 fb bd 04 2c cb 3d
       -0.072870344 0.10635885 -0.12263139 0.09920505
000310 5f f5 7a 3d 0f 55 a5 3d 71 76 74 bd 64 87 75 bd
       0.06126916 0.08072864 -0.059683267 -0.05994357
000320 b4 61 e1 3c ae e7 99 b9 bb c6 b7 bd 91 13 e9 bd
       0.027512409 -0.0002935505 -0.08973452 -0.11380685
000330 27 14 8a bd 11 07 d2 3c 2d 16 a7 3d a1 c9 8a bd
       -0.06742125 0.025638135 0.081585266 -0.06776739
000340 94 d4 47 bd 32 d6 f7 3d 69 11 02 3d 66 f0 c6 3d
       -0.048786715 0.121014014 0.031754885 0.09713821
000350 76 e8 9e 3d 86 e3 8b bd 57 8d db 3d bd c4 a1 3d
       0.07759182 -0.06830506 0.10720318 0.07898853
000360 12 bd 0a 3d 97 f9 b3 bd 49 83 a7 bb 90 83 af bd
       0.033871718 -0.0878784 -0.005112086 -0.085700154
000370 11 9e 83 3d 9b 51 e0 bd 95 05 1d 3d b6 c3 e0 bd
       0.06426633 -0.10953065 0.0383354 -0.10974829
000380 46 37 9d 3b f1 51 9c bd 6b ad d6 bd 9d 83 43 3d
       0.004797849 -0.076328166 -0.104822956 0.047732938
000390 d7 7f 7a bd fb 34 01 3e 03 53 e2 3d 03 a2 bc bd
       -0.061157074 0.12617867 0.110509895 -0.09210589
0003a0 bc 12 df 3c 2f 35 9e bd 7a 68 7b 3d a4 1d f6 3d
       0.027230613 -0.07724988 0.061378933 0.12017372
0003b0 a8 5b d7 3d fa ef c8 3d f5 da 19 bd 12 69 86 3c
       0.10515529 0.09811397 -0.03756233 0.016407523
0003c0 17 52 c4 3d be 5f 17 3d b8 6a b9 bd ab f6 f3 3c
       0.0958597 0.03695654 -0.09053558 0.029780706
0003d0 c0 e2 db bd 33 69 b9 3d ea 77 5a 3d c0 b5 e2 bd
       -0.107366085 0.09053268 0.053337015 -0.11069822
0003e0 50 ef 46 bd 27 94 8d 3d 6b f4 bd bd 71 66 ee bd
       -0.04856807 0.069130234 -0.09275135 -0.11640633
0003f0 63 3a f0 3d 28 0a 36 3c 2d 5a 28 3d a5 95 bd 3d
       0.117298864 0.01111082 0.041101623 0.09257058

lstm.bias_ih_l1 f4 [256]
000000 e8 92 e4 3c c3 6c f2 bc f0 29 22 3d c3 a2 ad bc
       0.027902082 -0.029592877 0.039590776 -0.021195775
000010 22 0c f4 3d da f9 41 bd 9f ef a6 3d 5f 46 be bd
       0.11916377 -0.047357418 0.08151173 -0.09290766
000020 5d 63 e0 3d b8 c7 be bd 10 c6 b1 3b 98 94 c6 3d
       0.10956452 -0.09315437 0.005425222 0.09696311
000030 b4 87 53 bc 0c 57 f8 3d 49 fc 0b 3d 81 be 41 bd
       -0.012910772 0.12125978 0.034176145 -0.04730082
000040 b0 6b 8c 3d 07 95 03 3e 34 38 9b bd 91 18 01 3c
       0.06856477 0.12849818 -0.07579079 0.007879392
000050 20 be cb bd dc e0 79 bd 7c b6 ee bc 95 dc df bc
       -0.09948373 -0.06100546 -0.02913975 -0.027326861
000060 b9 92 25 3c 3b d6 cd bd 75 2b bd 3c e4 57 c8 bd
       0.010105782 -0.10050627 0.023092011 -0.09782389
000070 c1 4b 8b 3d 0a a7 d5 3d 2d ff db bd 59 bc 06 3e
       0.06801558 0.10432251 -0.1074203 0.13157786
000080 e4 92 ca bd 57 be 41 bd 84 f3 83 3d 69 30 44 bd
       -0.098912984 -0.047300663 0.06442931 -0.04789773
000090 c6 c1 e8 3c 5e e4 8b 3d fb cb 3c 3c 9c 02 ce bd
       0.02841271 0.06830667 0.011523242 -0.100590914
0000a0 dc 64 8e 3c cd 0b 4b bd 72 54 57 bd f3 43 68 3c
       0.017382078 -0.0495718 -0.052570768 0.014176357
0000b0 95 22 f1 3d ff 2d 64 3a ed ab f9 3d 41 4d db 3c
       0.11774174 0.0008704364 0.12190995 0.026770236
0000c0 60 38 60 3d 82 d9 9c 3d b5 2c 26 3d 77 e6 0a 3d
       0.054741263 0.07658674 0.04056998 0.033911195
0000d0 2d 84 44 3d c2 2b 87 3a 35 80 f4 bd 55 45 fe bd
       0.047977615 0.0010312723 -0.11938516 -0.12415568
0000e0 d0 dd ea 3d 92 3b 9b bd 64 27 26 bd b5 44 a1 bd
       0.114680886 -0.075797215 -0.04056491 -0.07874433
0000f0 cd 00 ee 3d d7 68 01 3d 1f 9c f1 3d 87 b0 62 3d
       0.116212465 0.031594124 0.11797356 0.05534413
000100 49 76 da 3d ee 6e b3 3d e8 da d7 3d dc e5 60 3d
       0.10667092 0.087613925 0.105398 0.05490671
000110 29 6f a9 3d 54 06 ce bb 30 d4 79 3b f8 63 54 3d
       0.08273155 -0.0062873755 0.0038120858 0.05185315
000120 e4 70 4c 3c 48 41 c6 bd a2 8b ae bd 44 bd 88 bd
       0.012478087 -0.0968042 -0.085227266 -0.066767246
000130 4b f2 cf bd 49 47 b0 3c 7c cf f5 bc aa c2 2a bc
       -0.101536356 0.021518366 -0.030006163 -0.010422388
000140 c3 d2 5e bd 59 dd de bc bd 04 c0 3d 99 57 f9 bc
       -0.054400217 -0.027205156 0.09375904 -0.030437278
000150 4a 3f a0 3d 9c 4f 3a bc 0f 9e c0 3c a4 f4 49 bd
       0.078245714 -0.011371519 0.023512868 -0.049305573
000160 85 3d 0a 3c ac f2 c1 3d 72 ef b8 3d b4 39 74 bd
       0.008437519 0.09470114 0.090300456 -0.059625342
000170 78 bb c9 3d a0 ce a7 bd e6 5c ec bd 78 56 61 bd
       0.0985021 -0.081937075 -0.115411565 -0.055014104
000180 bd 3b 02 3d 14 40 4e 3d 75 25 14 bb b0 e0 e1 bd
       0.031795252 0.05035408 -0.0022605334 -0.11029184
000190 dd b1 cf bd 68 01 22 3d 02 ae f4 bd 42 a0 89 bc
       -0.101413466 0.039552122 -0.11947252 -0.01680005
0001a0 84 10 a6 3d b5 34 b3 3d 84 e5 ff 3d 1c 72 62 bd
       0.08108619 0.087502874 0.124949485 -0.055284604
0001b0 4b 78 05 ba 40 06 e7 3d 38 47 bf bd 0c 4b ac bd
       -0.00050914724 0.11280489 -0.09339756 -0.084127516
0001c0 78 a9 bd 3d 7f 22 50 bd 41 95 c5 bd 4e c0 b8 bd
       0.09260839 -0.050814148 -0.096476085 -0.09021054
0001d0 06 43 86 3d bc 7a 86 bd 54 07 8b bd f6 15 44 3d
       0.065557525 -0.065663785 -0.06788507 0.047872506
0001e0 a2 36 ca bd 70 2a 98 bd 7f 6e 77 3d 06 ea 76 bd
       -0.09873702 -0.07429969 0.06040811 -0.060281776
0001f0 41 32 f5 3d ad 38 a0 3c 72 c8 e8 bc 59 8e 3e bd
       0.11972476 0.019558275 -0.028415892 -0.046522472
000200 4f f8 a7 bc a3 18 39 3d a6 57 fe bc 5f df 35 3d
       -0.020504145 0.04518951 -0.031047653 0.044402476
000210 8e 57 34 bd 69 d7 fb bd c4 0a 77 bd b7 3a e6 bc
       -0.04402881 -0.122969456 -0.060313 -0.02810417
000220 18 03 c4 3d d5 83 06 bd ba 1a 00 bd bd 95 e1 bd
       0.095709026 -0.03284057 -0.03127549 -0.110148884
000230 8c 10 a0 3d 47 9d f8 3d 2c 2a 5f 3d 40 f7 93 bd
       0.07815656 0.12139373 0.054483578 -0.072248936
000240 bd 2d d7 3d 22 0a 21 bd c6 14 99 bd 41 ff bd bc
       0.10506771 -0.039316304 -0.07474665 -0.023193004
000250 2d bc bc 3d dc 33 d8 3d 60 1f 04 3e c1 04 f5 bd
       0.09215579 0.105567664 0.12902594 -0.11963797
000260 79 7c 2e 3c 74 3c b9 3c a2 d4 c1 3c 61 f8 93 bd
       0.010649794 0.022611834 0.023660962 -0.07225109
000270 04 a2 f2 3d 93 54 9c 3b 63 0b e2 3d 35 5d 89 bd
       0.11847308 0.004770824 0.11037328 -0.06707231
000280 36 22 0c 3d 82 29 f5 bc d6 1c c1 bd 17 4c c2 bb
       0.034212314 -0.029927019 -0.09429328 -0.005929481
000290 b4 5c 37 bd 6e e0 2c bd f8 a4 a6 bd 60 72 db 3d
       -0.044766143 -0.04220622 -0.08136934 0.10715175
0002a0 df f3 01 3e f9 c1 e2 bb 21 10 00 bc ef 53 03 3e
       0.12690686 -0.006920096 -0.007816345 0.12824987
0002b0 75 83 fa 3b 36 d3 a9 bd 2b 61 b7 3b 0a 4f 18 bc
       0.0076450654 -0.082922384 0.0055963 -0.009296188
0002c0 a0 a4 d4 bd a7 10 18 ba 86 54 73 bd 79 87 6a bd
       -0.10382962 -0.0005800821 -0.05940678 -0.057258103
0002d0 4b 9a 28 bd 0a ea bf 3c 88 77 62 3d 4c 3e be 3d
       -0.04116277 0.023427028 0.055289775 0.09289226
0002e0 c7 28 32 3d 66 2a 6c bb 26 30 54 bd 65 38 d4 3d
       0.04349592 -0.0036036014 -0.05180373 0.10362319
0002f0 ee 99 27 3d 43 e8 d9 bc 92 f6 94 3d 76 fc dd bb
       0.040918283 -0.026600009 0.07273592 -0.0067744805
000300 d7 6c 8e bd 3b e3 4c bb 92 d1 45 bc 36 b4 8d bd
       -0.06954353 -0.003126337 -0.012073891 -0.06919138
000310 f2 57 c5 bd fe 6e ae bd b5 86 bf 3d 58 28 73 3d
       -0.09635915 -0.08517264 0.09351865 0.059364647
000320 17 51 fd bd cb 1f c4 3d a1 9b 84 3c 19 5d c6 3d
       -0.12368982 0.095763765 0.01618749 0.09685726
000330 ea 21 81 bb 9e 57 a2 3d b7 41 cb 3c dc d4 e4 bd
       -0.0039408104 0.07926868 0.024811609 -0.11173412
000340 70 6d a8 3a e1 50 9a 3c 3f 51 f0 bd 21 32 27 3c
       0.0012849998 0.018837394 -0.117342465 0.010204823
000350 c7 8b d3 bd a8 7f 88 bd 30 62 92 bd f6 91 d6 3d
       -0.10329395 -0.066649735 -0.07147634 0.104770586
000360 b8 a8 12 bd 52 8a c9 bd 90 57 69 bc 08 97 be bc
       -0.035805434 -0.09840836 -0.014242068 -0.023265377
000370 58 f6 c3 3d 5d fd 3f 3c 6e 23 58 3d 77 d3 75 bd
       0.09568471 0.011718121 0.052768163 -0.06001612
000380 fb cf e6 3d a2 55 84 3c a5 70 96 3d 0f f1 24 39
       0.11270138 0.016154114 0.07345704 0.0001573006
000390 0b 6c e2 3c 47 6e 1b bd 59 c0 cc 3d d8 03 ad 3d
       0.02763941 -0.037946966 0.09997625 0.08447999
0003a0 17 7c fd 3d b6 0f b8 bd 33 46 1c bd ca 1a be 3b
       0.12377184 -0.089873716 -0.038152885 0.0058015333
0003b0 54 7b 77 bc 21 a6 f4 bd 55 f1 b2 bc 73 3a 03 3d
       -0.015105087 -0.11945749 -0.021843592 0.032038163
0003c0 66 fc ab 3d 82 d3 ed 3c b4 d3 d8 bc d5 f2 c7 3d
       0.083977506 0.029031519 -0.026468135 0.097631134
0003d0 8f d5 7c 3d c5 0c 9e 3d ca d5 65 bd 17 bc dc 3d
       0.061727103 0.07717279 -0.05611209 0.10778063
0003e0 ea 35 01 bd f7 36 89 3d e7 b9 11 3d 2c 5a 2e 3d
       -0.031545557 0.06699937 0.03557768 0.042566463
0003f0 b9 0a c0 3c 29 eb 8f 3c d9 54 e0 bd 5f 15 e5 bc
       0.023442613 0.017568188 -0.109536834 -0.027964292
