VAE-LSTM-anomaly–detection/experiments/Collected_data/nosein_noseout_9-grid_search-0414/Collected_data-nosein_noseout_9-win_len1800-look_back2-codesize20-VAEunits256-LSTMunits128/checkpoint/vae_best_model.pth (torch, 704594 bytes, 24 tensors)

encoder.0.weight f4 [16, 3, 3, 1]
00000000: f446 9abe c46e df3c 8eb5 703e bcbc 4f3e
00000010: ddb9 693e 95e7 36be 172a 46be e166 803e
00000020: f6e7 b0bd 5f10 95be 3acd ccbb 2956 013e
00000030: ca89 54be 13ee 06be f277 92be 8d1c b0bd
00000040: 27f4 9fbe 9e90 04be b1a7 5ebe f7a9 7e3e
00000050: 641c 4dbe f2cb 0b3d 3144 a63e cc9b e6bd
00000060: e30e 35be 0af9 64be 2a81 24be 6d29 543e
00000070: 8baf c0bd a008 993c 6337 92be d650 8ebd
00000080: 2152 e0bd aee3 c53d 91b8 74be b1f2 26bd
00000090: 7f69 5e3e c77e a0be a8ff 8d3e a286 90be
000000a0: bd4d 59be 1217 95bd f472 fe3d af57 5a3e
000000b0: 39aa 343e 5bfb 7ebe 7a04 9dbe 1593 343e
000000c0: 1b38 763c 4523 9a3e 7acd 0fbe 6f72 6a3e
000000d0: fec8 8a3d e0ef a03d 1759 10be 2d9a 95be
000000e0: a270 afbd 21da 77be 65c6 4fbe ad78 903e
000000f0: a010 dfbd 1974 843e 1e12 c93c 75bf 463e
00000100: ba75 8fbe e4bd 333e f16c 283e 1879 90bd
00000110: 8dee fbbc dbaa b73d d13d 9c3c 25a9 83bc
00000120: 7fe2 893e f4b0 41be 6340 b2bc 8e8c a53e
00000130: b9a7 bcbd f49f e13d f516 3dbe 5456 89be
00000140: 2d78 06be 82db 263e 3da0 0b3d 0cb3 95bd
00000150: 2028 cd3c 6c97 723d e038 8e3e ce75 0b3c
00000160: 15ce 5abd ade2 7ebe 265b 8a3d ebad 8c3e
00000170: 79ad 7cbe f979 863e 2f32 23be 025d 04be
00000180: 082d 7fbc 67a3 88be a7b8 143d 4ce8 94be
00000190: d748 7b3e 04c9 77be 3535 2abe 527a 533e
000001a0: 27a9 b5bd b599 0abe 8fb3 733e 25ad a03e
000001b0: b3ca 3b3d 8760 2b3e 9a25 80be 06ad 8b3c
000001c0: eea8 4fbe 4847 9d3e fe79 44be f196 85be
000001d0: a4d4 973e 4008 4a3d 9fe0 703e 36fb 923e
000001e0: e79c d8bd 4d23 99be 1437 18bc 6024 fb3d
000001f0: af3e 50be 8a19 a23e f37f 40be df9b 8b3e
00000200: bfa7 943e 609f 25be 16c7 86bd de6c 353e
00000210: 30fd c93a 3795 f43d d570 f4bd 1cb7 183e
00000220: 943f ab3c 05be 943e d311 0d3e 397e 843e
00000230: 0c2b 1ebe a0ff 29bd 0015 a6be a41f 3b3e
-0.30132258 0.027274497 0.23506758 0.2028684 0.22824807 -0.17861779 -0.19351994 0.2507849
-0.08637993 -0.29114053 -0.006250051 0.12630524 -0.20755687 -0.13176756 -0.28607136 -0.08599196
-0.3124096 -0.12945792 -0.21743657 0.24869524 -0.20030361 0.034130044 0.324739 -0.11260185
-0.1768146 -0.22360626 -0.16064897 0.20718928 -0.09408482 0.01868087 -0.28557882 -0.06949012
-0.10953165 0.09662567 -0.23898531 -0.040758792 0.21719931 -0.31346723 0.27734113 -0.28227717
-0.21221061 -0.07279791 0.12424269 0.21322511 0.1764306 -0.24900572 -0.30667478 0.17634232
0.015028025 0.30105034 -0.14043227 0.22895215 0.067766175 0.078582525 -0.14096485 -0.2921919
-0.08566405 -0.24204303 -0.20290525 0.28217068 -0.10891843 0.25869825 0.024544772 0.19408973
-0.28019506 0.17552906 0.16447808 -0.07054347 -0.030753398 0.08968135 0.019072445 -0.016071865
0.26930615 -0.18915159 -0.021759218 0.32333797 -0.09211678 0.11016837 -0.18465789 -0.26823676
-0.13131781 0.16294673 0.034088362 -0.07309541 0.025043547 0.05922644 0.27777767 0.008511974
-0.05341919 -0.24891157 0.067556664 0.2747644 -0.2467555 0.26264933 -0.15937112 -0.12926105
-0.015574701 -0.26687166 0.03630891 -0.29083478 0.24539505 -0.24197775 -0.1662186 0.2065213
-0.08870154 -0.13535197 0.23798965 0.313821 0.045847606 0.16736041 -0.25028688 0.017050277
-0.20279285 0.30718446 -0.19187161 -0.26091722 0.2965442 0.049324274 0.23523186 0.28707284
-0.10576802 -0.29909745 -0.009290475 0.12262797 -0.20336412 0.3166011 -0.18798809 0.27267358
0.2903423 -0.16174078 -0.065809414 0.17717311 0.0015410539 0.11942523 -0.119355835 0.149136
0.02090434 0.29051223 0.1377633 0.2587755 -0.15446109 -0.04150355 -0.32437897 0.18273789

encoder.0.bias f4 [16]
00000000: 927c b63d 91b5 20be 7d00 9f3e eefa 523e
00000010: 8ead 42be a6d4 4dbd fa37 9dbe b614 4b3e
00000020: 73cf 9dbd 5df8 dd3a 572c c8bd 387b 41be
00000030: 1852 153e c1ff cdbd 649d a33e 3047 7f3e
0.08910479 -0.15694262 0.3105506 0.20603535 -0.19011518 -0.050251625 -0.3070677 0.1983212
-0.077055834 0.001693498 -0.09774082 -0.1889466 0.14582098 -0.10058547 0.31956017 0.249295

encoder.2.weight f4 [32, 16, 3, 1]
00000000: 07ce dabb 35c5 093e 0163 8ebd 20ad ed3a
00000010: 7030 093d 817c bbbd 609d 033d 5e7d c4bd
00000020: 41a0 9dbd 6ce1 0bbe e0e8 69bb a8d3 d73c
00000030: e403 0cbc 75e4 84bd 4e2e c43d 5844 15be
00000040: 38f9 9d3d 5dcc 943d 44ba c9bd b13a f83d
00000050: 7a24 ab3d ee79 ee3d 8470 6abd 834d 8e3d
00000060: 0bc1 9ebd 19f8 ca3d 77ae 00be f406 6cbc
00000070: 48d1 a03d d66d ae3c baf1 e8bd fde1 94bd
00000080: ac4c 07be 6bae f43d 9314 a7bd da1c 013e
00000090: aa7a b3bd f733 3a3d 1b2b 07be 335b 343d
000000a0: 455c 2a3d 33e9 7c3d 8a77 ad3d 2c42 073e
000000b0: 5746 75bd c784 e5bc 9d02 d83d 9697 003e
000000c0: d314 eabd 0eb1 a0bd f162 e3bd cc5a 62ba
000000d0: 2983 873c 5db0 993d a003 353d 8c69 57bc
000000e0: ead1 3a3d 48e7 36bd 92fa e03d 1db5 a4bd
000000f0: 4e55 e5bc 4218 a93c 30f8 f7bd 1618 1a3e
00000100: 3421 163e 36c5 ecbd 254f 77bd de91 073d
00000110: 4b38 db3d 12f1 7c3d 3a02 fabd 5bfd 74bd
00000120: 829c e7bd edff 26bd 0c67 5d3d dada 893d
00000130: af7a e03d 3a4a 083b a152 9ebd f59c f4bd
00000140: 4527 0e3d 0918 e5bd 39f2 f03c 4c3f f03d
00000150: bad4 9e3d 04b2 7d3c 90bc d23d e470 e9bc
00000160: ecf0 f53c 7f48 37bd eac6 71bd 14ac 1e3d
00000170: be45 e93d a385 3d3c 7d66 f0bd 4b16 3abd
00000180: 1b98 83bd d6a6 103e c477 9c3d 7807 4b3d
00000190: 602a 56bd b31b 11bd b7b5 74bc 15c3 583d
000001a0: 5ee9 f33d 2559 f33d f8eb 0d3d 3ff8 ecbb
000001b0: 874f edbd bf37 fa3c fbea bfbb b6fa a2bd
000001c0: 6f40 cc3d c4cb babd 455a 683d 95f3 84bd
000001d0: 444b 653d b2f5 073e afd5 203d 4760 ca3d
000001e0: e4f8 8cbd 21e6 ed3d 004d ae3c f8c1 eebd
000001f0: 3a8a a63d 70ff cfbd 0928 debd 61ff e3bd
00000200: db44 9b3c 4d0e 073e 6eb4 9fbd dffc 123e
00000210: c608 89bd ef8b d93d 645f c93d 747b 00be
00000220: 6ab1 003e 1100 fabd f677 d73d 3577 303d
00000230: 09fd bbbc 6921 a93d 55e9 8a3d 4e69 c1bd
00000240: dfdb 983d 0fb4 cb3d dfc9 d0bd f0e7 c83c
00000250: ea07 d5ae 982e b731 4350 bcbd 1f18 fbbd
00000260: 4a78 c6bd cf5d cf3d b55a 71b8 d310 1abd
00000270: 1a47 13be 5b55 1cbd 452b 33bd 7dad 5a3c
00000280: 2c6f f03d a899 be3c 541d bdbd faa9 e6bd
00000290: 6bc8 d4bd d0a4 1cbd 5fe8 5abd 9476 603d
000002a0: 3543 7bb8 2a9d 132f ad70 abb3 98ba 2a3d
000002b0: 356c f8bc 5f5f 0dbe 37b7 99bd 7650 9cad
000002c0: 6f81 5c2d adc7 90bd ce23 0d3d 384a 81bd
000002d0: 964c ce3d d488 a2bd fdd6 ddbd e609 4f3c
000002e0: 9ff1 9f39 0256 793d 69c2 a3bd 8347 843c
000002f0: dc82 0e3c c799 19be e422 f8bd a111 06be
00000300: 5d20 443d a20d 3abc fc63 3f3c bdab c33d
00000310: 46c3 893c 74f4 b4bd 1d4e f23d 3ef9 983d
00000320: 8120 17be 65f7 7a3d d92f 0dbd cce8 06bd
00000330: b6f8 67bd d714 eebc 8480 e43d f087 25bd
00000340: 741c e83d 8b0c afbd dce6 1a3c 8d4f a93d
00000350: 0e4f 12be 3f92 83bc 7da0 9f3d 85f0 833d
00000360: 2f62 eabd bf70 86bd 2ad8 e2bd d363 99bd
00000370: 9e72 fe39 d057 8fbd ff77 a73b 81ea 053e
00000380: 4f41 36bd 5c96 a7bd acf3 0abd 89aa 65bd
00000390: a5b6 513d db97 0a3e 2330 8fbd ea5b 03bd
000003a0: a62e cd3d 8116 55bb ca3a 09be 8293 03be
000003b0: 95ec bebd bac3 09bd 1fbb 383d 4ad1 29bd
000003c0: 044c 843d b958 233b 35ba bebd 6dc6 15bd
000003d0: 7563 bd3c 4126 dd3d 9e52 873b 1768 30ba
000003e0: 1dc4 863d d8bd 8a3b 3460 e53c cf2c d4bc
000003f0: 83e2 0ebe 6223 963d 2e5e 7abd 8383 233c
-0.0066773924 0.13454135 -0.06952477 0.001813326 0.03349346 -0.091546066 0.032132506 -0.095942244
-0.07696582 -0.1366021 -0.0035691783 0.026346043 -0.0085458495 -0.06488887 0.095791444 -0.14576852
0.0771355 0.07265542 -0.098499805 0.121205695 0.08356567 0.1164435 -0.05723621 0.06948378
-0.07751664 0.09910602 -0.12566553 -0.014405955 0.07852417 0.021292608 -0.11374231 -0.07269666
-0.13212842 0.1194733 -0.08158221 0.12608662 -0.08763631 0.045459714 -0.13200037 0.044032287
0.0415919 0.061745834 0.08470066 0.13208836 -0.059881534 -0.028017415 0.105473734 0.12557825
-0.11429753 -0.078462705 -0.11102856 -0.00086347456 0.016542034 0.07504342 0.04419291 -0.013147723
0.045610346 -0.04465416 0.109852925 -0.08042357 -0.027994778 0.02064145 -0.12107885 0.1504825
0.14661103 -0.115610525 -0.060378212 0.033098094 0.107040964 0.06175334 -0.12207456 -0.05981193
-0.11309148 -0.040771414 0.05405335 0.06731196 0.109609 0.0020796196 -0.07730604 -0.11944
0.03470542 -0.11186225 0.029412376 0.11730823 0.07755418 0.015484337 0.10289872 -0.028496213
0.030022107 -0.044746872 -0.05902759 0.038738325 0.113902554 0.011567506 -0.11738298 -0.045431416
-0.06425496 0.14126143 0.07640031 0.04956767 -0.052286506 -0.035426807 -0.014935902 0.05292042
0.11909746 0.11882237 0.034648865 -0.0072317417 -0.11587434 0.03054416 -0.0058568693 -0.079579756
0.09973227 -0.091208965 0.056726713 -0.06491772 0.055979982 0.13277319 0.039266285 0.09881645
-0.068834096 0.11616159 0.02127695 -0.1165809 0.081318334 -0.10156143 -0.1084748 -0.11132694
0.018953731 0.13189049 -0.07798086 0.14354275 -0.066911265 0.10622393 0.098326474 -0.12547094
0.12567678 -0.12207044 0.105209276 0.043082435 -0.022947805 0.082583256 0.06782786 -0.094439134
0.07463812 0.09946453 -0.10194754 0.024524659 -9.6875244e-11 5.331298e-09 -0.09194996 -0.1226046
-0.09690912 0.101253144 -5.7543355e-05 -0.0376137 -0.14382592 -0.03816734 -0.043742437 0.013347027
0.11739954 0.023266628 -0.092341095 -0.11262889 -0.10389789 -0.038243115 -0.053444263 0.054800585
-5.9905655e-05 1.3425408e-10 -7.9833036e-08 0.041681856 -0.030325035 -0.13805912 -0.075056486 -1.7770879e-11
1.2534292e-11 -0.07069335 0.034457974 -0.06312984 0.10073201 -0.07936254 -0.108320214 0.012636637
0.00030506865 0.06087304 -0.07996065 0.01614738 0.0086981915 -0.15000068 -0.1211603 -0.13092662
0.047882427 -0.011355789 0.011681553 0.09554241 0.016816746 -0.08835688 0.11831305 0.07469414
-0.14758493 0.06127109 -0.03446946 -0.032936856 -0.056633674 -0.029062672 0.11157325 -0.040412843
0.11333552 -0.08547314 0.009454455 0.08267126 -0.1428797 -0.016060947 0.077942826 0.0644236
-0.11444508 -0.06564473 -0.11076386 -0.07489743 0.00048532052 -0.06999171 0.00511074 0.13077737
-0.044495877 -0.08182976 -0.03392379 -0.056070838 0.051199574 0.13534491 -0.06991603 -0.032070078
0.10018663 -0.0032514634 -0.13401332 -0.12849239 -0.09322468 -0.033633925 0.045100328 -0.04145936
0.06459811 0.002492471 -0.0931286 -0.036566187 0.023118714 0.10798312 0.004129722 -0.0006729378
0.065803744 0.004234057 0.027999975 -0.025900273 -0.13953595 0.073309675 -0.061124973 0.009980085

encoder.2.bias f4 [32]
00000000: 7371 a73d 95c4 eabd 0ebc c9bd dd7b 87bd
00000010: e146 2ebd 5679 273c 80a1 d2bd c615 f23d
00000020: 11a7 13be 5e65 44bc 2d0c 073e c903 b53d
00000030: 3289 b3bc fde1 abbd 3637 94bd db9b abbc
00000040: 1672 203b 6510 cc3d 1c59 bc3c bc3f cb3c
00000050: 7676 8c3d ae2d 46bd 6fcd 943d c613 b7bd
00000060: c49a d5bd 9375 34bc 755c c2bd 653a 7f3c
00000070: 00af ca3d 989d 503d 3eed b33d 8b16 f43b
0.081759356 -0.11463276 -0.09850322 -0.06615422 -0.042548064 0.0102218 -0.1028471 0.11820559
-0.144192 -0.011987058 0.13188238 0.088386126 -0.021916006 -0.08392713 -0.07237093 -0.020948341
0.0024482063 0.099640645 0.02299171 0.024810664 0.06858532 -0.048383407 0.07265746 -0.08939318
-0.1042991 -0.01101436 -0.09490291 0.015577887 0.0989666 0.050931543 0.08785485 0.0074489764

encoder.4.weight f4 [64, 32, 3, 1]
00000000: deca a33d 04b6 b3bc bcd7 54bd 74b4 bcbd
00000010: 828d 573d a674 99bd 3542 7ebd a52b 83bd
00000020: 4afd a13d cd16 06ba dde9 3dbc a69c 373d
00000030: 7adb e73c c68d e93c f619 2239 8dd7 b4bd
00000040: 1b5a 60bd 4cbc ed3c a77a 533d cb62 4d3d
00000050: 7768 d4bd 9d5c 2b3d cb2f 7e3b 2513 c9bd
00000060: 17e4 983c 6761 633d 2587 b1bc e9b1 ec3c
00000070: 44d3 b8bd 6a44 2dbd 9eef 5dbd 59ca 32bd
00000080: 9148 c9bd 05b4 7a3d e0e9 2a3d eb2c 1dbc
00000090: 630c 933d 420c bdbd 43bf 58bd bce5 d0bc
000000a0: 4911 ccbd add0 47bd 1a37 a83c b0fd afbd
000000b0: b0e6 a4bd 6204 873d 1d95 82bd 2fc8 7f3b
000000c0: 54e0 c4bd f54f ecbc fd8b 86bd 56a8 7dbd
000000d0: efac fd3b 9cea d5bd 82ab 713d 8fa4 693c
000000e0: ba76 7f3c 7fc3 96bd a9be 4abb 474a c23b
000000f0: 7958 833c 33d1 dd3c e0f2 aa3d 71c3 72bd
00000100: 6132 213d 6a71 54bd ff05 873d 8621 bfbd
00000110: cfab 853d 166f 88bd bf9d 8b3d 963d a4bd
00000120: 868b 68b2 bdd6 5fba f894 0034 b99d 153b
00000130: 07e8 813d c7d5 c03d ca32 233d 2be6 dabd
00000140: 777e 45bd 3c09 923d 6ed1 73bd f581 b13d
00000150: 60b0 b23d 73e9 42bd 646d c3bc 5b6b 2bbd
00000160: 50fc b3bd f32b 9dbd ef86 bcbd 1c66 393d
00000170: e46e 92bb c7e3 d6bb d085 98bd eac9 14bd
00000180: 68c1 a83d c522 df3c 17bf a33d 4d8b cc3d
00000190: 3d43 263d 7925 32bd 0330 cd3c 0db8 27bd
000001a0: c7ed 22bd 8a4b 33bb 7107 203d 4b94 0b3d
000001b0: c346 313d 9d0f b63c 00eb 663c f509 1dbd
000001c0: 2cb3 8ab9 bb73 d73c 2fb8 82bd b881 b2bd
000001d0: 1e14 80bc 1359 9dbd f823 94bd 7087 b0bc
000001e0: 853c d93c 9c29 6f3d 7437 cebd ec7c ac3a
000001f0: de0b 42bd 6399 18bd 5732 c8bc c682 9dbc
00000200: 1c92 6a3c 3792 69bd cc3f 133d 7e47 cf3d
00000210: 6974 82bd 1051 a43b 060f 66bd 1732 173c
00000220: 436c 0c3d dcd1 a63d a8f2 b23d 807c 8bbc
00000230: 627a b1bd 58b2 54bd 9464 c9bd 5c14 d93b
00000240: 0fcc 323c e8f8 623d bd79 61bd e532 94bd
00000250: 934a cf3d 4b16 26bd 5042 993c 3d3f 803d
00000260: 64c8 22bd 0259 80bd 0a9d abbd 6e49 babc
00000270: 5823 a6bb d872 69bc a28f 8a3c 23f8 643d
00000280: 45c0 7e3d ceca 8c3d 4f4b 63bd dd4f c9ba
00000290: 79fb d6bc d677 abbb 81cf f8bb ca5e 97bd
000002a0: dcde 27bc fe24 b23c 55de 4ebc 5259 40bb
000002b0: 50b5 cf3c 5562 47bd bc9a 4cbd 3766 1bbc
000002c0: c910 7abb 4ca6 453d 9659 b13d 61c0 283d
000002d0: e7bf ae3d ac3a b93d 01de 733d 8228 afbd
000002e0: b361 20bd 3161 a43d 618b f53c 6f32 29bd
000002f0: 5b30 9b3c 1511 bbbc c864 b3bc 7644 b43d
00000300: 9ee4 8d3d b93b 58bc 9545 383d b007 a03d
00000310: 6d99 91bd a946 a73d 3e2d 76bd 0027 b3bd
00000320: 0be5 48bd 2743 c63b 37f7 983d 15b0 ffbc
00000330: 2cc9 9cbd d46d 61bd 1da8 3ebd 83e1 80bc
00000340: 2187 c13d 8c2d 8a3d a70d a4bc c311 3c3d
00000350: 13cb a03c c791 b9bd 81ff 0dbd f679 d9bd
00000360: 88bd 083b fa77 713d f528 743d 4f59 e43a
00000370: a46b 673d 653f bdbd 615a 22bd c437 c1bd
00000380: ce10 7a3d 3238 67bc a51f e13c 6788 5fbc
00000390: 298c 69bd 23a1 ab3d fab0 7c3d 7955 8a3d
000003a0: 5cb2 8ebb 4a62 1fbd a10e fa3c 749f e0bc
000003b0: 532f 663d 5444 62bd a96b 2b3b c02a 81bd
000003c0: 9e93 98bd 53d5 ac3d f191 0bbd 703a c83a
000003d0: 902b 833d 9e0b 9c3d b3e6 9d3c 3750 0d3d
000003e0: 5416 193c 66b0 82bd eb99 903d 2e33 3d3d
000003f0: d7be 883c 4311 ae3d 2284 933d eea8 4cbb
0.07997678 -0.021937378 -0.051963553 -0.09214106 0.052625187 -0.07492952 -0.06207486 -0.06404809
0.07909639 -0.0005115092 -0.011591402 0.044827126 0.028302897 0.028509986 0.00015459195 -0.088301755
-0.05477343 0.029020451 0.051630642 0.050143044 -0.103714876 0.04183637 0.003878581 -0.09818105
0.01866345 0.055512812 -0.021670887 0.028893428 -0.09024671 -0.042301573 -0.054183595 -0.043650005
-0.09828294 0.061206836 0.041726947 -0.009593229 0.07180097 -0.092308536 -0.052916776 -0.02550017
-0.099642344 -0.048782993 0.020534087 -0.08593309 -0.08051813 0.06592633 -0.06376097 0.003902923
-0.096131 -0.02884672 -0.065696694 -0.061928116 0.0077415626 -0.10445139 0.059001453 0.014260425
0.015592271 -0.07361507 -0.0030936396 0.0059292647 0.016033398 0.027077293 0.08347106 -0.05926842
0.039354686 -0.051865973 0.065929405 -0.09332566 0.065269105 -0.06661813 0.06817197 -0.08019559
-1.3535901e-08 -0.00085387734 1.1975123e-07 0.0022829606 0.06343084 0.09415775 0.039843358 -0.10688432
-0.04821631 0.071306676 -0.0595259 0.086673655 0.08725047 -0.047585916 -0.023855872 -0.04185043
-0.08788359 -0.07674398 -0.09205424 0.045263395 -0.0044687856 -0.006557915 -0.07447398 -0.036325373
0.08240014 0.02723826 0.07995432 0.09987507 0.040591467 -0.043492768 0.025047308 -0.04094701
-0.039777543 -0.0027358257 0.039069597 0.03407697 0.043280374 0.022224242 0.014094114 -0.038339574
-0.00026454905 0.026300302 -0.063827865 -0.08716148 -0.015634593 -0.07683005 -0.07233423 -0.021548957
0.026518116 0.05838929 -0.100691706 0.0013159788 -0.0473746 -0.037255656 -0.024438066 -0.019227397
0.014317062 -0.057024207 0.035949513 0.10121058 -0.0636986 0.005014546 -0.05616667 0.009228251
0.034282934 0.08145496 0.08737689 -0.01702714 -0.08665921 -0.051927894 -0.09833637 0.0066247415
0.010912909 0.055413157 -0.05504774 -0.0723627 0.10121646 -0.040548604 0.018708378 0.06262062
-0.03974189 -0.06266977 -0.08379562 -0.022740092 -0.0050701313 -0.014248572 0.016914193 0.055900704
0.06219508 0.068746194 -0.05549174 -0.0015358884 -0.026242958 -0.0052327914 -0.007593096 -0.073911265
-0.010246005 0.021746155 -0.01262625 -0.0029350114 0.025355011 -0.04867776 -0.049952254 -0.009484819
-0.0038156977 0.048254296 0.08659665 0.04119909 0.08532696 0.09044394 0.05953789 -0.08552648
-0.039155673 0.0802635 0.029973688 -0.041307863 0.018943956 -0.022835294 -0.021898642 0.088021204
0.06928371 -0.013197833 0.044988234 0.07813966 -0.07109342 0.08167774 -0.06010174 -0.08747673
-0.049046557 0.0060504857 0.074690275 -0.031211892 -0.07655558 -0.05503638 -0.046547044 -0.015732532
0.09449602 0.067469686 -0.020026041 0.045915376 0.019628083 -0.09061008 -0.034667496 -0.10618965
0.0020864923 0.05895231 0.059609372 0.0017421636 0.05649914 -0.09240607 -0.039636973 -0.094344646
0.061051182 -0.014112519 0.02748091 -0.013643361 -0.057018433 0.08380344 0.061692216 0.06754584
-0.004354758 -0.038912095 0.030524554 -0.027419783 0.056197476 -0.055240944 0.00261567 -0.06306982
-0.07450031 0.08439126 -0.034074727 0.0015276205 0.06404793 0.07619403 0.019275045 0.034500327
0.009343702 -0.063813016 0.070606075 0.046191387 0.016692562 0.08499386 0.07202937 -0.003122862

encoder.4.bias f4 [64]
00000000: 803a fc3c f183 413d b034 c43d 4e60 33bd
00000010: a3cf c93c fc9a 83bd 20a5 c8bd 703b d2bd
00000020: e22e 8a3d ed39 533d 0956 083d 1b03 253d
00000030: 165e 10bd 0959 943d 10ab 3e3d 8d69 953d
00000040: 96fb e53c 8d21 8f3d 129a 213d f239 66bd
00000050: b2ae 1ebd 8444 99bd f6eb d3bc 25d2 f7bc
00000060: 954d a2bd d9d8 8dbd 6e3a c9bd cdb1 76ba
00000070: 4940 3abd 9cb3 0a3d 2334 f63c 1875 9cbd
00000080: 0d50 aabd 47c9 12ba 36a3 b83d b518 3f3c
00000090: 127a d03b b5ef 7b3c 37d7 aebd bf32 a8bb
000000a0: f34e 7fbd ca84 22bd 4621 11bb 1226 f43c
000000b0: 6a0a 4f3d 711c 0d3c b606 f5bb 2198 21bd
000000c0: 0f8b 983d bc08 98bd 07b8 4fbd 08af 893d
000000d0: 8c7a 9c3d b393 a0bd 18e8 26bd 41a4 b13c
000000e0: cc34 1ebc eff9 88b5 96ae 983d 697a f73c
000000f0: 6b5c 1abd 2c92 6abc 7c18 123d 8bf9 643c
0.030789614 0.04724497 0.09580362 -0.043793015 0.024635142 -0.06426045 -0.0979712 -0.10265243
0.067472234 0.051568914 0.033285175 0.040286165 -0.035245977 0.072435446 0.046549857 0.07295523
0.028074067 0.06988821 0.039453574 -0.056207605 -0.03874082 -0.074837714 -0.02586935 -0.030251572
-0.07924954 -0.06926126 -0.09825598 -0.00094106497 -0.045471463 0.033862695 0.030054158 -0.07639521
-0.0831605 -0.00055994507 0.09015505 0.011663605 0.006362208 0.015376975 -0.08537143 -0.0051330025
-0.06233115 -0.03967742 -0.0022145077 0.02980331 0.05054704 0.008612738 -0.0074776066 -0.039451722
0.07448398 -0.07423541 -0.05071261 0.06722838 0.076405615 -0.078406714 -0.040748686 0.021684768
-0.009656142 -1.020553e-06 0.074551746 0.030209737 -0.037685793 -0.014317077 0.03566788 0.013975511

encoder.6.weight f4 [128, 64, 3, 1]
00000000: f2c3 413b 1671 743c 659f bbbc ecc3 55bd
00000010: f632 593d c74f 79bc 7cb3 143d a131 283d
00000020: 407b 21bb 2287 fb3c 877c 273d 0b3b 853d
00000030: 1dd4 0bbe 9723 d93b f20f 1e3e 18a1 d33c
00000040: 7297 4bbd d2da 94bd 37d7 233d 97ab 75bd
00000050: b1af e63c 6c46 0d3a e8c0 f0bc b439 dabc
00000060: 4a51 1abc 9f16 0f3c 7b30 7e3c 0a93 09bd
00000070: cde3 45bd ac75 5c3c c329 9ebc a34c b2bb
00000080: 95bc 87bd adc2 7ebb 6b0a 0bbd e6c1 333c
00000090: 9990 6abd 273d d4bb d928 db3c 8c94 7cbd
000000a0: afe7 6d3c da12 543d 1bfb 583c d5f7 4cbd
000000b0: 2f0d 3d3d 7baa c73c 194f 67bb 7d23 823d
000000c0: ed01 9dbd fcb9 4dbd 246f 6a3d a0e6 6fbc
000000d0: 2db3 013d d037 2abd f422 4ab0 91a6 943c
000000e0: 6ca9 aaba 852f 69bb 3571 cdbc 71af 1d3c
000000f0: dd49 3dbc 917f f4bc 7f8e acbb 5d52 1e3d
00000100: f49e 49bd 5010 073d ab58 0dbd 6dff 6b3c
00000110: 01f4 a0bd 79e6 a0bd 9a05 99bd 57d0 903b
00000120: 6d9d 28bd f64e 55bd b3c2 09bd 6d06 3939
00000130: 43ce 733d 3beb 86bc 1661 45bd f1ff e8bb
00000140: d9dc da3c 7708 1fbe 4cc0 e9bc 8c99 cc3d
00000150: 83de 6cbd c235 a6bc 7dba 513d 2495 23be
00000160: c9ef 953d 5bba 6b3d 9835 c83b e2fb 553d
00000170: 3c14 84bd f414 9dbc 7899 183c 03be c5bc
00000180: ac7b 89bd c489 c33b e4d9 853d 3e4a c23b
00000190: 94a7 623d 66db 5d3d 7e35 4c3d fbe2 213d
000001a0: 64a2 6b3d 7e4d ecbc 4749 d03c 0419 8cbd
000001b0: 70b3 80bc cc47 0c3e ac01 503d 0ecd d63c
000001c0: 3923 cc3b e095 0bbd ce5d c0bb 291c 873d
000001d0: c1f8 db3a 8809 79bd 6416 1f3c e5b3 983b
000001e0: 0316 2b3d 2032 4fbd 3bd5 97bc ac2f 61bd
000001f0: ab5f 2a3d ac7f 53bd b55c 7833 615a b0b3
00000200: 9f88 8333 f4da 78bd e948 c03b 054d 1fbd
00000210: d558 513d 805d 033d d9ea c13c fc98 623d
00000220: 6297 9a3c c61e 44bc 99f6 823c 10cd febc
00000230: 398d 4bbd d291 d4bc c238 423d b537 ddbc
00000240: 2135 4abd 84b9 7ebd 22cf 86bd 41e4 b3b6
00000250: 36b8 fab0 6884 03be 9891 d33c 4817 9dbc
00000260: 586d 2d3d a8e2 8fbd 5002 55bd 6bd8 e63c
00000270: 9802 513c 06fb bebc b796 93bd dab3 80bb
00000280: 15dd f9bc ba0a a33c 136e 3abd bc2b 6cba
00000290: 0fb3 9abd 480b d1bb 0e12 3d3d 5d6a dcbc
000002a0: 3532 0cbd ac4d 04bc 5058 a8bc 9df7 662b
000002b0: 1834 67b4 babc f1b1 0901 843d fe6d 2c3d
000002c0: 6902 843c 7b55 67bd b5ec 5e3d 1d00 783c
000002d0: 133b 073d 3674 713b 09db 0cbd 1622 f23b
000002e0: 9f4f 96bc 2ecb 20bd 4030 5cbd 6064 c1ba
000002f0: 9b1a 7fbd 51fc 323c 44d3 6e3d d66d 19bc
00000300: 2e30 3f3d 507e 8c3d a27f 21bd 44df 4b3b
00000310: 3d17 9e3c b182 173d c786 1dbc 9f59 87bd
00000320: ec7d 17bd 4552 813d e9bf d63c 7913 4f3d
00000330: d446 77bb bd73 04bc 6994 1cbd c2fd 93bd
00000340: 8b1c 333c 7272 39bc b323 4e3d ae21 83bc
00000350: b276 95bd 1d5b 5c3c 0251 d9bc 817e b63c
00000360: f69c 9bbc 03b1 38bd 2a0f 8f3d 525e 42bd
00000370: 7e4f 87b8 6e17 05bd c2b9 723c 6aa7 853d
00000380: b653 0e3b 8d5b eb3c 3b9c 0a3d 3159 843d
00000390: c911 673d 23bd 223c a4f8 933c 43b5 9dbb
000003a0: d069 81bd 89c7 7c3d 0146 08bd b7d4 7a3d
000003b0: 3918 8c3d 1ff4 993c 5292 233c 5f40 b2bc
000003c0: 1d33 d4bc 56d7 44bd eece b33c c204 8abb
000003d0: b32f ac3c fc52 453d 9c23 1237 e24a eaba
000003e0: a5ec 803b 6def 69bd 0d75 48bb 1b27 5a3d
000003f0: c0b1 ffbc 58b1 05bd df9d daba 20c3 b03a
0.0029566255 0.01491954 -0.022903154 -0.0521888 0.053027116 -0.015216774 0.036303982 0.041062955
-0.0024640113 0.030704085 0.040890243 0.06505402 -0.13655134 0.006626557 0.1543577 0.025833651
-0.049704976 -0.07268299 0.040000167 -0.059978094 0.028159948 0.0005389217 -0.02938886 -0.026638843
-0.009418795 0.008733421 0.015514488 -0.033587493 -0.04831295 0.01345579 -0.019307023 -0.0054412647
-0.06627766 -0.003887336 -0.033945482 0.010971522 -0.057266805 -0.0064770165 0.026752876 -0.061665103
0.01452057 0.05177579 0.013243462 -0.05004104 0.04615515 0.024373284 -0.0035294949 0.06354425
-0.07666383 -0.050226197 0.0572349 -0.014642388 0.031665016 -0.041557133 -7.3536843e-10 0.018145831
-0.0013020462 -0.0035581302 -0.025078395 0.009624348 -0.011553255 -0.029845985 -0.0052660103 0.038652766
-0.049223855 0.03297454 -0.03450839 0.01440416 -0.0785904 -0.07856459 -0.074717715 0.0044193673
-0.041165758 -0.052077256 -0.033632945 0.00017645369 0.05952288 -0.016469589 -0.04818829 -0.0071105887
0.026716636 -0.15530573 -0.028534077 0.09990224 -0.05782939 -0.020289306 0.05120324 -0.15974861
0.07321126 0.05755077 0.0061099045 0.052242167 -0.06449172 -0.01917503 0.009313934 -0.024138456
-0.06713042 0.0059673507 0.065357 0.0059292605 0.055335596 0.054164313 0.0498557 0.039523106
0.057527915 -0.028845545 0.025425566 -0.06840709 -0.015710562 0.13699263 0.050782844 0.026220825
0.006229785 -0.03407848 -0.0058705574 0.06597168 0.0016782508 -0.060800105 0.009709928 0.004660117
0.04176904 -0.050584912 -0.018534293 -0.054977104 0.041595142 -0.05163543 5.7826316e-08 -8.2120785e-08
6.125014e-08 -0.060755685 0.0058680666 -0.03889181 0.051110107 0.03207159 0.023671554 0.05532168
0.018871013 -0.011970228 0.015986728 -0.03110364 -0.049695227 -0.025948439 0.04741741 -0.027004102
-0.049367074 -0.06218864 -0.06582476 -5.361188e-06 -1.824225e-09 -0.12843478 0.02582626 -0.01917614
0.042340606 -0.07025653 -0.05200416 0.028179368 0.012756966 -0.023313057 -0.07206481 -0.00392769
-0.030500928 0.019902576 -0.04551513 -0.00090092025 -0.07553684 -0.0063795187 0.046159796 -0.026906187
-0.03422757 -0.008075159 -0.020549923 8.2056047e-13 -2.1532503e-07 -7.035479e-09 0.0644551 0.042097084
0.01611443 -0.056478005 0.05442496 0.015136746 0.033015322 0.0036842949 -0.034388576 0.0073893173
-0.018348513 -0.039256267 -0.053756952 -0.0014754646 -0.062281232 0.010924415 0.058306947 -0.009364566
0.046676807 0.0686003 -0.03942836 0.0031108418 0.01929819 0.03698987 -0.009614653 -0.06608891
-0.036985323 0.0631452 0.026214557 0.05055568 -0.0037731426 -0.008084235 -0.038227472 -0.07226135
0.010932098 -0.01131879 0.050327014 -0.01600727 -0.0729803 0.0134494575 -0.026527885 0.022277119
-0.018995743 -0.045090687 0.06985314 -0.047453232 -6.452108e-05 -0.032493047 0.014814796 0.06526072
0.0021717376 0.028730178 0.0338404 0.064623244 0.056413446 0.009932789 0.018062897 -0.004812868
-0.0631901 0.06171373 -0.033269886 0.061238017 0.068405576 0.018793164 0.009983616 -0.02175921
-0.025903279 -0.048056923 0.021949258 -0.004211993 0.021018839 0.048174843 8.710569e-06 -0.00178751
0.00393446 -0.0571131 -0.0030587346 0.05325995 -0.031212687 -0.03263983 -0.0016679129 0.0013485886

encoder.6.bias f4 [128]
00000000: 96af 643c d23b 163d 930f 33bd 76d1 b1bb
00000010: d2fe bebc c344 26bd 77ac 083c 8824 09bd
00000020: 0e60 4c3c 505c 11bd 6de3 33bc f288 57bd
00000030: ded7 203b dd3a db3c 7dff 1c3d f305 1f39
00000040: fb79 a9bb e5a2 5fbd cb56 243d 9873 f23c
00000050: 9e0b b63c dfaa 08bc 4660 893d 5c70 18bd
00000060: 4289 783c cad4 75bc e801 853d df36 78bd
00000070: 9b9b e63c 55ae 55bd e89a 9ebc 1b1b be3a
00000080: 57fd 6abd 7e58 23bd 20a1 97bd 72ba b2bc
00000090: c6ae eebb d4e9 473d 597f 32bd aab5 663d
000000a0: 0f18 09bd 90d6 983b 8ac0 0b3d 8cbe 3bba
000000b0: c927 49bd b56a 1b3d f51d 24bd 2f11 7fbb
000000c0: a66f c6bb 4e84 64bc 467c 00bb 14a3 bb3b
000000d0: e9bd 0e39 af3b 4fbd 045e 82bd 215f b83b
000000e0: 5222 42bc 7546 48bd 5332 c9bb 9d28 993b
000000f0: 6bf7 a0ba a2fe 7dbd 872e ab3c 5349 4abd
00000100: 7ea3 4abc 3e9d 833c 3807 e83c de06 ddbb
00000110: cca0 8c3d 7bdd c7bc e093 593c 69d0 c7bc
00000120: d37d 06ba 1a21 3abd c3d1 6bbb 6304 e33c
00000130: 121a 283d 7dd0 2d3d 24ea a2bc da83 523c
00000140: d64d 58bc 5249 bcbc 782a 82bd 2e35 343c
00000150: 257e 843d dc9b 983c 80d7 133d b1ec 0dbc
00000160: 9bad 323d 1b79 003d b6d5 a2bc 043d 7dbd
00000170: e38b f33b a289 433c db3d 13bc 1a29 043d
00000180: a7c1 37bd 7f3e 623d 1263 d5bc 9550 473d
00000190: 11a6 093d 23a8 f7ba 9fe2 9c3b 54c9 7ebd
000001a0: 859f 31bd 7714 823c d112 a03c 8143 07bd
000001b0: e48d 383d 54f7 81bc c8fd 61bc 9663 083b
000001c0: 99c7 37bc e38e 95bd 8e2c c4ba db08 8dbc
000001d0: 4687 dc3b 6281 4d3d 1d18 f33a 5f88 6dbd
000001e0: a961 06b5 312b 583c 4a5a 33bc 5291 8f3b
000001f0: d0d6 20bd 1b43 6dbc 2a3e 94bd 9ec2 e1bc
0.013957879 0.036678143 -0.043716025 -0.005426581 -0.023314867 -0.04059292 0.0083419 -0.033482105
0.012474073 -0.035488427 -0.0109795155 -0.052620836 0.002454273 0.026761467 0.03832959 0.00015165638
-0.005172012 -0.054598708 0.040121835 0.029596135 0.022222336 -0.00834152 0.06707816 -0.03721653
0.015169444 -0.015004346 0.06494504 -0.060599204 0.02815037 -0.05216821 -0.019360974 0.0014503928
-0.05737051 -0.039879315 -0.07403779 -0.02181742 -0.007284018 0.04880698 -0.04357848 0.056325592
-0.03347021 0.0046642497 0.034119166 -0.00071618776 -0.049110208 0.03794356 -0.04006763 -0.0038920154
-0.00605579 -0.0139475595 -0.0019605323 0.0057262275 0.00013612922 -0.050594028 -0.06365588 0.0056265746
-0.011849003 -0.048895318 -0.0061400323 0.004674031 -0.0012280768 -0.062010415 0.02089621 -0.049386334
-0.012368081 0.01606619 0.028323755 -0.0067452034 0.06866607 -0.024397602 0.013279885 -0.02439137
-0.00051304436 -0.045441724 -0.0035983182 0.027712053 0.041040488 0.042435158 -0.019887038 0.012848819
-0.013202151 -0.02298418 -0.063557565 0.010999007 0.06469373 0.018629007 0.03609419 -0.008662389
0.043622594 0.031365495 -0.019877296 -0.061825767 0.0074324473 0.01193467 -0.008986915 0.03226576
-0.044862416 0.055235382 -0.026048217 0.048660833 0.03360564 -0.0018894713 0.0047877575 -0.06220372
-0.04336502 0.015878899 0.019540222 -0.03302336 0.045057192 -0.015865006 -0.013793416 0.002081131
-0.011217021 -0.07302644 -0.0014966892 -0.017216137 0.006729993 0.050172217 0.0018546615 -0.05799138
-5.0061004e-07 0.013193891 -0.01094682 0.004381337 -0.03926736 -0.014481331 -0.07238419 -0.027558621

encoder.8.weight f4 [256, 128, 3, 1]
00000000: bd52 aebc 18c4 05bc cfce 333c 97db 4b3d
00000010: 853a bdbb 9f90 4d3d 0f16 003d b8c2 393c
00000020: ab24 2c3b 30a8 b0ad 850b 88ae f744 162e
00000030: d418 77ae 8d40 5ead 552b 6631 edee 9f2d
00000040: fbfe 64ac e989 992d 279d 2b3d d867 f4bc
00000050: 603a 323d d433 893c d4d4 44bc a6ee 47bc
00000060: dc86 71bc 7c05 68ba b3fa b03b 3f1d 203d
00000070: c864 0dbd 847a f33b 94f8 35bc 159a e2bb
00000080: 192e e5b5 22c0 8abc d505 6f3a 0c94 a5bc
00000090: 20e5 932c bfdf 5c2c 4e88 abad d305 a23c
000000a0: be59 0cbd 02e6 a93b 3f5d b33c d9cb ed3b
000000b0: 914e 183c b1fe a0bc 2ad6 ae3b 8bda d9bc
000000c0: be50 093c fe48 e73c a395 293d de38 1430
000000d0: a2fc 2638 c15b 4a2d 2622 d33c e3e1 323c
000000e0: 22ce d2bc c1fb f8b8 4753 3b3d c47a c13b
000000f0: c5aa 4abb 6ba0 043d 4591 213d 8782 8c3c
00000100: 081d c1bb 1b9e 543d 6389 113d 3875 3a3c
00000110: b364 f83c 3f55 ab3a 6818 45bc 152f 1abc
00000120: f695 9abc 00a9 a5bc be10 efbb 4a6d ed2d
00000130: c16a eeac ed55 1f2e 4004 a7bb 4993 29bd
00000140: f38a 333d 2675 a42b ac21 27ac e8f6 982e
00000150: 0ff2 3abd e91d 03bd 2cf5 8abc 90ca f7ad
00000160: 6ee1 a02d aef1 482e d8d3 59ac ce0d 7bac
00000170: 2d32 872c e441 58af 651c 7ead f529 24af
00000180: d032 1d3d d0a6 4f3c 79bb 673c 1174 423d
00000190: 4b8c 403d c2bb 9dbb 0fa5 b6bc 042a 93bc
000001a0: dc06 263d 3228 9f3c 1d53 4e3c 767b b33c
000001b0: dba4 652e e3ef 07ae 7221 44ac 6066 363d
000001c0: 31d0 6a3b c18c 063d aa91 7d34 74d8 b831
000001d0: 82bb a2ad ff0c c6bc 9969 00bd 313e d4bc
000001e0: cac9 f6bb 9a53 483b cf2b c53c 784f 70ba
000001f0: 0ebf ae38 9177 3c3d fe10 963b f9c0 25bd
00000200: 20c9 923c 7648 c6ad c8cb 0cab 315d c52c
00000210: e83c e2bb 80bf 6abc 64e2 27bb 6948 a0bc
00000220: b49f c13c c2a3 4d3d 5441 c7ac f04c 742d
00000230: 6832 66ab 9024 23bd 3850 1ebc 56d8 e1bc
00000240: c2ae 532c 64f6 29ab 585c 652d 5267 fc3b
00000250: 80f5 ecbc ea10 c0bc ee5b 802c 913a b7ac
00000260: 1537 1c2d 1fd3 dd3b 6595 dbbc ed9e 623c
00000270: 36c2 173b 33a7 04bd 904a 0bbd 5475 0e30
00000280: 2064 87b7 9e75 c4ac bf8c 9fbb 9c75 0bbd
00000290: c3ea 4dbc b742 3f3c edf5 45bd 5947 a2bb
000002a0: 1ae3 cdad f0ec de2c a1e3 e32d 2560 9fbc
000002b0: f145 1d3c 8ae8 c0bc 007d 1e3d 4be6 2b3d
000002c0: f3d9 033c 2e9d ba3a 230c 8a3c 688c 1e3c
000002d0: 8352 073d cac1 ea3b 8345 d33b 906a 3e2e
000002e0: 5ae3 eeae 6b6e b5ae fefa 2b3c 06ab a6bc
000002f0: f89f 18ba 87e4 3ead ae16 07ad a31e 9c2e
00000300: d783 022d bea6 f5ab c09e 422e 0937 0c3d
00000310: d6e0 02bc b129 75bc 7f49 f13c 8b64 c53c
00000320: 72af 03bd 504f 0b3a 52c2 ba36 5930 ec39
00000330: bc75 4bbc c6ec f23c 3f86 0d3d 218f eeab
00000340: deea 01ad 4721 b5ae 2be7 88bc 46c0 04bb
00000350: 52c4 4a3d 174c 30bb 1304 033a 7e67 d93b
00000360: e65e 7e3c 5914 06bd 6986 3c3d 0608 1fbd
00000370: 64d0 aebc 942c b23c 7728 0f3c 6079 e9bc
00000380: a94a dd3a 3b05 383d 1e61 063c 5cdd 503c
00000390: 6af0 a03c f7e3 fbbc 8289 e7bb 5d71 f53c
000003a0: dd58 f1bc 1b3e 44bd 9c9d 3cbc b4db d23b
000003b0: eb64 4c3d 1fe7 a2bc e357 12bc 6a79 2b3b
000003c0: 6a23 483d 55da 733c d2ff 023d f142 433c
000003d0: 5509 75bc b58b 45bb 14c8 293c bea6 953b
000003e0: d5a7 0cb8 80c6 673d 81a4 e0bc 5508 3c3b
000003f0: 26bc 24bd 03c4 d23c 130e 0abd 8603 95bc
-0.021279687 -0.008164428 0.0109746 0.049769964 -0.0057747983 0.05018675 0.031271037 0.0113379285
0.0026266973 -2.0083574e-11 -6.18661e-11 3.4167304e-11 -5.618335e-11 -1.2633572e-11 3.3494036e-09 1.8182312e-11
-3.2542291e-12 1.745533e-11 0.04189792 -0.029834673 0.043512702 0.016748346 -0.012013633 -0.012202894
-0.014741626 -0.0008850915 0.0054009794 0.03909039 -0.03451994 0.0074303765 -0.011106629 -0.0069153407
-1.7075246e-06 -0.01693732 0.00091179955 -0.020212196 4.2034293e-12 3.1388084e-12 -1.950098e-11 0.019778168
-0.034265272 0.00518489 0.02189505 0.0072569665 0.009296075 -0.019652696 0.005335589 -0.026593467
0.008381067 0.028233048 0.04140247 5.39229e-10 3.9812767e-05 1.1502744e-11 0.02577312 0.010918113
-0.025733057 -0.00011872454 0.045733716 0.0059045274 -0.003092454 0.03237955 0.03944518 0.017152084
-0.0058933534 0.051908594 0.035531413 0.011380486 0.030321455 0.001307167 -0.012029745 -0.009410639
-0.018870335 -0.020222187 -0.007295697 2.6992315e-11 -6.776219e-12 3.6228732e-11 -0.005096942 -0.041400228
0.043833684 1.1685416e-12 -2.375082e-12 6.956019e-11 -0.045641 -0.032010946 -0.01696261 -2.8170605e-11
1.8290005e-11 4.568939e-11 -3.0955152e-12 -3.5676908e-12 3.8425014e-12 -1.9668495e-10 -1.4444533e-11 -1.4930619e-10
0.038378537 0.012674049 0.014143818 0.04747397 0.047008794 -0.0048136422 -0.022295503 -0.01796437
0.040533885 0.019428346 0.012593058 0.021909457 5.2214993e-11 -3.090851e-11 -2.7871841e-12 0.044531226
0.0035829658 0.032849077 2.3615453e-07 5.3797127e-09 -1.8500538e-11 -0.024176119 -0.031350706 -0.025908561
-0.0075313793 0.0030567409 0.024068741 -0.0009167115 8.332553e-05 0.046012465 0.0045796623 -0.040467236
0.01791817 -2.2542173e-11 -5.0020795e-13 5.609423e-12 -0.0069042332 -0.014327884 -0.0025617117 -0.019565778
0.023635723 0.050205 -5.663173e-12 1.3886878e-11 -8.178237e-13 -0.03982979 -0.00966268 -0.027568977
3.0081914e-12 -6.0382797e-13 1.3037647e-11 0.0077027464 -0.028925657 -0.023445565 3.648185e-12 -5.207675e-12
8.879804e-12 0.0067695524 -0.026804635 0.013831836 0.002315653 -0.032386016 -0.034006655 5.182603e-10
-1.6139878e-05 -5.583713e-12 -0.004869073 -0.034047708 -0.012568179 0.011673621 -0.048330236 -0.004952353
-2.3406655e-11 6.335925e-12 2.5908e-11 -0.019455025 0.009599195 -0.023548383 0.038693428 0.04196767
0.008047569 0.0014237517 0.01685149 0.00967703 0.033037674 0.0071642147 0.0064474954 4.3295645e-11
-1.0863373e-10 -8.250541e-11 0.010496853 -0.020345222 -0.0005822177 -1.0850993e-11 -7.6788974e-12 7.099501e-11
7.418919e-12 -1.7454577e-12 4.425149e-11 0.034232173 -0.007988175 -0.014963553 0.029453991 0.024095794
-0.03214974 0.00053142477 5.565854e-06 0.0004504945 -0.012418207 0.029653918 0.034551855 -1.6950643e-12
-7.384952e-12 -8.236838e-11 -0.016711792 -0.0020256205 0.049503632 -0.0026900822 0.00049978605 0.0066346517
0.015525555 -0.03273425 0.04602662 -0.03882601 -0.021339603 0.021749772 0.008737675 -0.028500259
0.0016883212 0.044926863 0.0082018655 0.012748089 0.019645888 -0.03074835 -0.0070659528 0.029961282
-0.029461319 -0.04791079 -0.011512186 0.006434882 0.04990093 -0.019885598 -0.008932087 0.0026164898
0.0488619 0.014883597 0.03198225 0.011917816 -0.014955838 -0.0030143086 0.010362644 0.0045669964
-3.3534907e-05 0.05658579 -0.027422192 0.002869149 -0.040218495 0.025728231 -0.03370483 -0.018190157

encoder.8.bias f4 [256]
00000000: 3862 11bd 8aaf 41bd 28ad 0a3d 978d 3b3d
00000010: b6a1 06bd af75 04bc 9456 96b9 a3a0 c3bb
00000020: 0b7a 47bd 16fa 233c 547c 5b3c 7db0 7fbc
00000030: 57d5 97bc c34f 03b6 670a 773c 63e2 5fbd
00000040: effc 82bb f114 51bd 768e 97bb 7f43 1ebd
00000050: c74b 48bc d2d9 88bb c9a8 0e3c 7c84 3a3c
00000060: b25e f1b8 a765 e43c 8896 2d3b 904f 03bc
00000070: 7e2d 293b bb1b b4b9 32aa eabc 8954 f1b9
00000080: 9425 b2bb 8a66 713c cae4 80bc bde9 09bd
00000090: d36f 01bd f25e de3c ffc1 423c c174 653c
000000a0: a062 28bc 0a33 05bc 8d62 bc3c 72b0 e63c
000000b0: 086e 61bc d2e8 d23c 3c39 cbbb 9cca e0bc
000000c0: a50c 163d 003d df3b fe90 153d 2518 cebb
000000d0: 3f51 e8bb afdd 3fbc a63b 1dbd 733f 0dbd
000000e0: 5690 de3c 418c a1bc e101 f63c 3527 2d3b
000000f0: 4268 d6bc 3a40 873c 340d 0e3d b571 343d
00000100: 1ce2 eaba d3de a63c 4a19 1abc 031e 183d
00000110: 8c45 28bb bff9 ecbb ba68 3c3d 905b cabc
00000120: 5260 a9ba ae69 81bc 2aa3 47bc e26f 17bd
00000130: 34e9 983c 5948 9ebc 3c1b e73c 00a7 69bc
00000140: 4590 06bc 7997 f7b9 9fb8 c9bb c254 02bc
00000150: 1d02 31bc 79e0 15bd adeb 153d bf40 e83b
00000160: 2787 13bd 439c 1bbb 276d 39bb 160d 1bbb
00000170: 6f73 cd3c 35e9 32bc 9a06 e33c c56b e2bc
00000180: d8a0 273d 5ec0 473d 409a 743c ad20 30bd
00000190: 7f86 6dbc fb1d 7cbc a5a0 0ebb 8cc9 073c
000001a0: 290d 00bc 3682 1f3d 51d2 983b 3f1a 1ebd
000001b0: 65ad 3fbc 92fd 44bc 627a e3bc 6948 97bb
000001c0: 5d42 2a3c ddf7 003b 6777 28bc aec8 d4bc
000001d0: 22db 193d d356 16bd 18fa bebc 67f7 9f3c
000001e0: 8bef d5bb 543c 583c 91f0 e6bc 2cd8 17bc
000001f0: 07ef 8f3c 3267 35ba 1bee ec3c 219d 41bc
00000200: dab4 033c 401a 93bc 517f 1b3d c887 f5bb
00000210: e4d7 3dbc 8ddf 5dbc 1a2a 7c3b c3e0 c23b
00000220: de1f be3c 4af6 28bd 7d6b dabc 15e9 6f3c
00000230: 0036 be3c 8fb8 94bc a440 76b9 d4a2 dd3c
00000240: 8c3c 8b3a 4408 02bc 8f5a 233d dd2c a73c
00000250: ce79 03bb 93f0 433c 3f80 143d 5783 843a
00000260: 35c4 55bc 7104 253d 4fc1 57bd 20e5 3c3d
00000270: 834c f4bb c100 f23c e82d efbc dbc8 09bb
00000280: 3c8b ad3b 9dc1 b0bc bcf7 3a3b 23dc 273c
00000290: f873 6cbc 7a0c d4b9 f641 9b3c 0344 a93b
000002a0: 790d cf3a 01f7 4bbc f555 8d3c 1b8a 8b3c
000002b0: a6cc f2bb 1cbf e7ba 1d79 0bbd 4341 54bd
000002c0: f053 57bd 2419 03bc 0503 153d c60c f7bb
000002d0: 282a 3a3d 6643 52b9 1512 07bd dd11 2c3c
000002e0: 0f45 82bc 293e 953c 0fba 4fbd 6319 393d
000002f0: 357c 1bbd c196 91bc b889 653c 4b33 aabb
00000300: f629 be3c 5ef2 8cbc 4305 c3bc 2b0a f039
00000310: 6246 8ebb f5e2 8fbc 5aa6 763c 8dde 0a3c
00000320: 1686 d03c e71d 183d 7bd2 233d e8af 033b
00000330: d84d dd3c ba2e cb3c 95d0 f13b 3bd9 d53c
00000340: 678d f1bc 180f 6dbc 30a0 e53c 4a17 de3a
00000350: 59d5 de3c aa12 483c 8e55 ca3c 11ed 093d
00000360: 0c3a 4abc 8e53 e03c b88f 18bc f336 6a3c
00000370: 6e94 a33c 1a0c 0e3d a667 2ab6 3729 dd3b
00000380: f104 22bc 8837 53bb ec60 643c f885 9bbc
00000390: fba3 41bc e112 da3b fbcf a83c 3c1f f03c
000003a0: 2798 c23c bb1d a1bc 9189 afbb f0df d2b5
000003b0: e698 f5bc fd1f 333b fb9e 13bb 567e 163d
000003c0: 8e64 243d 8574 dc3b 6a35 e43c 3bab 3c3c
000003d0: 2343 00bc cc6b c8bb a406 cd3c 379a d2b9
000003e0: 1c2b 903c 1474 1e3c 4e91 33bb 27d7 b83b
000003f0: 148d 193c 99bf 11bc b6c5 1e3d 89c0 203d
-0.03549406 -0.047286548 0.03385654 0.045789327 -0.032869063 -0.008084699 -0.00028674735 -0.005970077
-0.048700374 0.010008356 0.013396341 -0.015606043 -0.018534346 -1.9566949e-06 0.015078164 -0.05465926
-0.003997437 -0.051045362 -0.004625137 -0.038638588 -0.012225098 -0.004176357 0.008707234 0.011384126
-0.00011509414 0.027880503 0.0026487429 -0.008014575 0.002581447 -0.00034352936 -0.028645609 -0.00046030086
-0.0054366086 0.01473392 -0.015734095 -0.033670176 -0.031600785 0.027144883 0.011887073 0.014004887
-0.01027742 -0.008129844 0.022996211 0.028160308 -0.013759144 0.025745783 -0.006201891 -0.027440362
0.036633153 0.0068126917 0.03651523 -0.0062894993 -0.0070897634 -0.011710568 -0.038386963 -0.034484338
0.027168434 -0.019720199 0.030030193 0.0026421074 -0.02617276 0.016510118 0.03468056 0.044053752
-0.0017920169 0.020369923 -0.009405443 0.037137996 -0.0025676219 -0.0072319205 0.045998313 -0.024701864
-0.0012922382 -0.015797462 -0.012184897 -0.036971934 0.018665887 -0.019321607 0.028211229 -0.014261007
-0.0082131075 -0.00047224367 -0.0061560418 -0.007954778 -0.0108037265 -0.036591027 0.03660171 0.0070877965
-0.036017563 -0.0023744262 -0.002829382 -0.0023658923 0.025079457 -0.010919859 0.027713109 -0.02763928
0.040924877 0.04876744 0.014929354 -0.042999912 -0.014497398 -0.015388007 -0.0021763232 0.008287799
-0.007815638 0.03894254 0.0046637435 -0.03859925 -0.011699055 -0.0120233465 -0.027768318 -0.0046167863
0.010391799 0.0019678988 -0.010282374 -0.025974598 0.037562497 -0.036703896 -0.023312613 0.01952715
-0.0065288 0.013197977 -0.028190883 -0.009267848 0.017570032 -0.00069199794 0.028922131 -0.011817248
0.008038724 -0.017956853 0.037963215 -0.007492993 -0.011587117 -0.013542068 0.0038477243 0.005947204
0.023208555 -0.041250505 -0.026662583 0.014642973 0.023219109 -0.01815441 -0.00023484469 0.027055182
0.0010622903 -0.007936541 0.039881285 0.020407135 -0.0020061615 0.011959213 0.036255118 0.0010109943
-0.013047268 0.04028744 -0.052674588 0.046116948 -0.00745541 0.029541375 -0.029196694 -0.002102426
0.005296139 -0.021576697 0.002852901 0.010245356 -0.014431946 -0.00040445087 0.018952351 0.0051655783
0.0015796862 -0.012449027 0.017252902 0.017033627 -0.00740965 -0.0017680856 -0.03405105 -0.05182005
-0.052570283 -0.008001599 0.036379833 -0.0075393645 0.04545036 -0.00020052269 -0.03297623 0.010502306
-0.01590207 0.018218117 -0.05071455 0.045190226 -0.03796025 -0.01777208 0.0140098855 -0.005194103
0.023213368 -0.017205413 -0.02380622 0.00045783943 -0.0043418864 -0.017564276 0.01505431 0.008475912
0.025454562 0.037137892 0.03999565 0.0020093862 0.027014658 0.024802554 0.0073796012 0.02610456
-0.029486371 -0.014468931 0.028030485 0.0016944197 0.027201341 0.012211481 0.024698999 0.03367335
-0.012342941 0.027383592 -0.009311609 0.0142953275 0.019968238 0.03467951 -2.5392305e-06 0.006749298
-0.009888873 -0.0032229144 0.013939124 -0.01898478 -0.011818881 0.0066550826 0.020606985 0.029311769
0.023754193 -0.019667497 -0.0053569754 -1.5711394e-06 -0.029980134 0.00273323 -0.002252518 0.036741577
0.04013496 0.0067277574 0.027857501 0.011515434 -0.007828507 -0.006116366 0.02502758 -0.0004016922
0.017598681 0.00967123 -0.002739984 0.0056408825 0.009372015 -0.008895778 0.03876277 0.039246116

conv_mean.weight f4 [20, 256, 3, 1]
00000000: 5577 c1bb 118d 5dbc a3a3 f93c e9f0 22bc
00000010: a800 6fbc 2e78 1d3c 9b04 8bbc f211 ef3c
00000020: 6bc8 00bd 1249 fbbc ddef 7eb9 71ee 983c
00000030: 97bf bebc 7611 033d 7699 fe3b cd8a dabb
00000040: 96da cebb 9dc3 e1bb 0c0e 38ae a547 73ad
00000050: 48d0 862d 4f7f 9b2d 7c4a 01b8 58d7 e439
00000060: 6253 b53c eecf 0cbd d880 dbbb 0ef9 c2bc
00000070: f4bf 323c ff77 8abc 608f 7ebb e4d1 bd3c
00000080: c008 d23c e0a0 78b0 23b6 192f 60e9 a92d
00000090: 721d e7ba c7a2 273c 9a4d e13b 64f6 90b5
000000a0: 8503 90b6 8721 f534 bcc0 963c a799 043d
000000b0: cfca 6fbc 33d1 19bd 423b 21bc 17e5 ac3c
000000c0: 5dcd 03bc f328 0cbc a7e1 04bb 0b8f 0bb9
000000d0: 58fc 0d3c 8d1d 883c 3708 4032 df2a ebb1
000000e0: 4e36 1932 bf5c 5839 1ab4 a0bc a7ec 2abc
000000f0: 18d2 ba3c bd07 9c3c ed31 133d 7e27 18bc
00000100: 2252 b5bb e512 c1bc 6900 d93b a9d8 173c
00000110: ae99 34bc 5f4d 803c 8ab9 f2bb 69fe 4bbb
00000120: 2270 1aae 3e6f d9ae a4e2 2aad 8498 62b9
00000130: adee 603b 6ca2 e3bc 44f4 323b 395f bf3c
00000140: 7292 04bc a1f7 853c 6072 94bc 561a c93c
00000150: 9588 cb3c d670 ba3c caab 19bd 0a6b b8ab
00000160: c173 712c d6b1 30ae da35 2ebd 01ae 083c
00000170: 4770 15bc aa28 c62d 12c0 272e 792a 2fad
00000180: 680a 2f3c aece 193d da10 a7bc ddc2 69bb
00000190: 4ab0 00bd bcad bcbc 2709 0abd f904 9c3c
000001a0: e2cc 9a3c a65c a839 0e89 743c d0f0 fd39
000001b0: 791a 2cbc b14c c3bc 22ef b13c 59c4 92bb
000001c0: 18b3 83bc 2405 3f3b c259 0f3c 434e 86bc
000001d0: 1d4e 4bbc 77f4 9d3c 2af5 03bd 386e 67bb
000001e0: b55a efba 5c77 f13c b69c 6bbc 7733 053c
000001f0: 37c7 9c3c e5ad eabc f846 073c c4ab dabb
00000200: 6482 1e3d ec97 30bc d276 72bc df91 b1bc
00000210: e134 97ad 8d11 a22d 48cb 052c 216d 2abc
00000220: ae21 913c b381 c43c c55b ae3b 5768 c63b
00000230: d5c6 b43b 1a34 e73c fdab 9bbc 2ac9 a4bc
00000240: d9c8 dc3b 2f34 af3c 4352 c8bc 052e a23c
00000250: 7ddd 983b 4e2e 42bc 4174 3f3c 692a 143c
00000260: 35c0 f43b 06b8 aa3c cdd6 3ebc 0245 e33c
00000270: 1cb6 e6bc cc4e e2bb 01d6 e03c ba85 7ebc
00000280: 0561 713c 25bf 053c b48a c33b c7ab 973b
00000290: e191 8cbc b7d5 9abc 30bb d9bb 00c1 f73c
000002a0: be15 96bc 705e b3bc 1b1e 913c 9602 b1bb
000002b0: 770f bdbb d482 c83a 2116 2bbc 5b14 9fbb
000002c0: 48c8 073c 30e1 c1bc 8851 c3ba 9891 24bc
000002d0: c53b c6bb dff1 df3b 8076 9cba 797b 0d3c
000002e0: fb17 923c 67db e33c 0bd5 a8bc 6014 263c
000002f0: 1acf fc3c 458b 18bc ea4f 403b e8b2 c4bc
00000300: d281 3fbc 424b 02bc 650f 29bd 27b7 9d3c
00000310: 016d 3dbc 2ee2 963c 8d93 8fbb 823c fbba
00000320: 66c6 46ba 4a9a 933c a798 b03c 50b4 d03c
00000330: 9f9a d83b facb b53c b2c2 ac3c 8982 e03c
00000340: 8c5d c0bc bdc6 c33c 44fd acbc bc38 343c
00000350: 2d73 c23c beb8 a53b 2bcf bc3c a5bf 24bd
00000360: 10fd 023d 63df 413c 112e c4ba 33ab 10bd
00000370: 80cc a13a 9180 e8bc 6158 b135 c2c3 adb5
00000380: 4380 2b35 119e 913c 5a16 21bd f13f 22bd
00000390: b3b8 e73c 40b2 683c ae18 063d dac6 7ebc
000003a0: 47a6 d13c 4346 653c ed86 afbb 1dcd abbb
000003b0: 1726 9bbc c662 c13c 36c7 d33c b290 f9bc
000003c0: 3077 bfbb 84a6 96bb 0dcd d1bb 02ec 08bc
000003d0: cbcf a33b 1a31 b13b d6da b23c 27c4 86bc
000003e0: bfaf e63b 4b37 c82c bdcf 8c2d 8770 e8ad
000003f0: ceda 233c 1404 203c f800 213c cafd c1bc
-0.005904118 -0.013522402 0.030473536 -0.009945133 -0.014587559 0.009611173 -0.01696997 0.029183362
-0.031441133 -0.030674491 -0.00024312684 0.018668385 -0.023284717 0.031999074 0.007769759 -0.0066693784
-0.0063126786 -0.006889774 -4.1849232e-11 -1.3828859e-11 1.5326532e-11 1.7677996e-11 -3.0825366e-05 0.00043647992
0.022134487 -0.034377985 -0.006698709 -0.0238004 0.010910023 -0.016902922 -0.0038842782 0.023171373
0.025638938 -9.045049e-10 1.3979977e-10 1.9316715e-11 -0.0017632677 0.01023168 0.006875706 -1.0800545e-06
-4.291944e-06 4.56592e-07 0.01840245 0.032373097 -0.014635756 -0.037553024 -0.009840788 0.021105332
-0.008044568 -0.008554685 -0.00202761 -0.0001330936 0.0086661205 0.016615653 1.1177739e-08 -6.844274e-09
8.91812e-09 0.00020633916 -0.01961713 -0.010432399 0.022805259 0.019046659 0.035936285 -0.009286759
-0.0055334726 -0.02356858 0.0066223633 0.009267964 -0.011022968 0.015661893 -0.007407372 -0.0031126982
-3.511514e-11 -9.887778e-11 -9.7137055e-12 -0.00021609856 0.003432195 -0.02778741 0.0027306238 0.023360835
-0.008091556 0.01635343 -0.018120944 0.02454869 0.0248454 0.022758882 -0.037517346 -1.3103696e-12
3.4312416e-12 -4.0175717e-11 -0.042531826 0.008342267 -0.009121007 2.2528052e-11 3.8141997e-11 -9.957029e-12
0.010683633 0.03755062 -0.020393778 -0.0035669126 -0.031418122 -0.023032062 -0.033700135 0.01904534
0.018896524 0.00032112485 0.0149252545 0.0004843534 -0.010504358 -0.02384028 0.021720473 -0.004478973
-0.01607661 0.002914735 0.008749427 -0.01639474 -0.01240876 0.019281609 -0.03221623 -0.0035313498
-0.0018261286 0.02947586 -0.0143806245 0.008129946 0.019137962 -0.028647372 0.008256666 -0.006673308
0.03869857 -0.0107784085 -0.014798837 -0.021676002 -1.7190195e-11 1.8425062e-11 1.901328e-12 -0.010401995
0.017716255 0.023987627 0.0053209984 0.0060549187 0.0055168667 0.028223086 -0.019002909 -0.020115454
0.00673781 0.021387188 -0.024453288 0.019797334 0.0046650753 -0.01185186 0.011685432 0.0090433145
0.007469202 0.020839702 -0.011647892 0.027742866 -0.028163008 -0.006906366 0.027445795 -0.015534813
0.014732604 0.008163248 0.0059674624 0.0046286318 -0.017159404 -0.018900735 -0.006644629 0.030243397
-0.018320914 -0.021895617 0.01771455 -0.0054019196 -0.005769666 0.0015297779 -0.010442288 -0.0048547215
0.008287497 -0.023666948 -0.0014901618 -0.010044478 -0.0060496056 0.006834253 -0.0011937171 0.008635395
0.0178337 0.02781458 -0.0206094 0.010136694 0.030860472 -0.009310548 0.0029344507 -0.02401109
-0.011688666 -0.007952513 -0.041274447 0.019252373 -0.011561633 0.018418398 -0.004381603 -0.0019167813
-0.0007582664 0.018017907 0.021557165 0.025476605 0.006610229 0.02219199 0.021088932 0.027405994
-0.023482107 0.023898477 -0.02111686 0.010999855 0.02373656 0.0050574234 0.023048004 -0.04022183
0.03197962 0.011833045 -0.0014967342 -0.03531952 0.0012344271 -0.028381618 1.3213249e-06 -1.2946477e-06
6.388911e-07 0.017775567 -0.039327957 -0.03961176 0.028286314 0.014202654 0.03273838 -0.01555034
0.025591983 0.0139938025 -0.0053566606 -0.0052429573 -0.018939061 0.02360667 0.025851827 -0.030464504
-0.0058430657 -0.004597487 -0.006402618 -0.00835705 0.004999136 0.0054074647 0.021832865 -0.016450955
0.0070399935 5.6904806e-12 1.6008412e-11 -2.6425319e-11 0.010000898 0.009766597 0.009826891 -0.023680586

conv_mean.bias f4 [20]
00000000: 7229 19bc f643 e3bc 2143 c63c 4f59 b13c
00000010: eac8 d5bc 8776 e53c 5e6d f53c 2afd 483a
00000020: 0f21 f4bc 35ba 8e3c beea 9fbc 0cf2 053c
00000030: c6ff 8dbb 8cf2 cdbc cf03 2c3a 1323 80bc
00000040: f58d f9bc 2854 93bc 639a 833c adf7 4fbc
-0.00934826 -0.027742367 0.024201931 0.021649031 -0.02609678 0.02801062 0.029959377 0.0007667119
-0.02980092 0.017422775 -0.019521113 0.008175384 -0.004333469 -0.02514007 0.0006561847 -0.015641725
-0.030463198 -0.017984465 0.016064828 -0.012693328
