VAE-LSTM-anomaly–detection/experiments/Collected_data/nosein_noseout_9-grid_search-0414/Collected_data-nosein_noseout_9-win_len1000-look_back2-codesize20-VAEunits256-LSTMunits128/checkpoint/vae_best_model.pth (torch, 704594 bytes, 24 tensors)

encoder.0.weight f4 [16, 3, 3, 1]
000000 41 6d 8e bd 0e 7e e4 3b a6 cb 03 be d2 01 9a 3e
       -0.06954432 0.0069730347 -0.12870654 0.30079514
000010 67 15 81 bc 95 68 4c be 3a ec 99 3e bf c2 9f bd
       -0.015757276 -0.1996177 0.3006304 -0.07800817
000020 6b 19 d5 bc 3f 9a 4a be 44 79 ca bd ba 8e 1d be
       -0.026013097 -0.19785403 -0.09886411 -0.15386477
000030 1c 28 99 be 52 0c f2 3d eb b8 5e 3e ed 50 85 bd
       -0.29913414 0.11818756 0.21750228 -0.06509576
000040 1f d1 7c 3e 84 40 9f be a9 4e 4a be a3 7e 18 be
       0.24689148 -0.3110391 -0.19756569 -0.14892058
000050 3d b1 fa bd 52 5e 9a be a9 c2 5e be a5 9d a9 bd
       -0.12240837 -0.30150086 -0.21753944 -0.082820214
000060 f1 d3 a2 3e a7 ba 87 3d 28 ee 40 3e e7 4a a1 be
       0.31802323 0.06627398 0.1884085 -0.31502458
000070 bd 30 3c be a3 7a 71 be a2 f6 ba 3d f6 56 6e be
       -0.18377967 -0.23581938 0.09129073 -0.2327536
000080 1d 4d a0 3e 93 f4 5c be ae 60 9a 3d 40 e5 86 be
       0.31308833 -0.21577673 0.075379714 -0.2634678
000090 64 dc 6d 3d 02 85 00 be 38 bf 6e 3e 7e 67 51 3c
       0.05807151 -0.12550738 0.23315132 0.012781022
0000a0 02 c0 10 3e c0 e2 74 3d db 97 53 3e 8b 20 5c 3e
       0.14135745 0.05978656 0.20663397 0.21496789
0000b0 34 5e 9f 3e cf 6a 80 be 35 3e 7c be 44 25 a9 bc
       0.3112656 -0.25081488 -0.24633105 -0.020647652
0000c0 d7 8a a0 bd f6 89 de 3d 6e 45 e9 bd 67 b2 eb bd
       -0.078389816 0.10866158 -0.11390196 -0.11508637
0000d0 55 49 8c be d6 1f d7 bd 05 ea 5b 3e 84 07 24 3e
       -0.27399698 -0.10504119 0.2147599 0.16018492
0000e0 ed 28 70 3e df 87 0d 3e 57 28 05 3b 55 3d 4d 3e
       0.23453112 0.13821362 0.0020318234 0.20042928
0000f0 5b 35 2c 3c d4 47 8e 3d 79 01 5c be 11 47 a1 3e
       0.010510768 0.06947294 -0.21484937 0.31499532
000100 94 46 66 3d 67 c0 ed 3c 52 ec 84 bd f5 1e 83 be
       0.056219652 0.029022409 -0.06490387 -0.25609556
000110 80 10 27 be a0 78 c6 bd e2 8b aa bc 4c a5 f2 3d
       -0.16314888 -0.09690976 -0.020818654 0.11847934
000120 cc 62 81 be a3 f0 13 be 48 0b 20 3e ca 1e 10 3e
       -0.2527069 -0.14447264 0.15629303 0.14074245
000130 eb 03 7f be 20 d7 6a bd 06 53 dd bc d5 d9 80 3e
       -0.24903838 -0.057334065 -0.027017128 0.25166193
000140 a5 54 3a 3e 5d df 64 3e 17 07 1a bd 81 1e 8d 3d
       0.18196352 0.22350831 -0.037604418 0.06890584
000150 2f ba df bd 83 31 47 be 88 f3 9d be 55 67 dc 3d
       -0.109241836 -0.19452481 -0.30849862 0.107618965
000160 c9 42 71 3d 73 1e ac bd 61 4d ba 3d 35 3f 3f be
       0.058901582 -0.08404245 0.0909679 -0.18676455
000170 8f ec 84 3e fd 36 c3 bb fa bf 93 bd 50 98 9e be
       0.2596173 -0.005957483 -0.07214351 -0.3097558
000180 d2 66 cb bd 44 bb 84 3e 4a 25 e4 3c 7b f9 63 3c
       -0.09931721 0.25924122 0.027849812 0.013914461
000190 e6 2c d7 bd 1b 76 8b 3e e9 50 41 3d f7 1e fd bc
       -0.105066106 0.27238545 0.047196303 -0.030898554
0001a0 69 2b 5d be 91 38 0c 3d 92 4c 18 be c0 1e f1 3c
       -0.21598591 0.034233633 -0.1487296 0.029433608
0001b0 98 0a e4 3c 9d c4 03 3c be 9f e2 3c 01 88 4d 3e
       0.027837083 0.008042482 0.027664062 0.20071413
0001c0 5d c5 97 be 42 82 35 3e b8 b9 2c be 01 b2 2d bd
       -0.29642764 0.1772547 -0.16867721 -0.042406086
0001d0 d4 f3 a4 3e d0 e0 45 3d 2b e3 69 3e 14 c0 ff bd
       0.32217276 0.0483101 0.22840564 -0.12487808
0001e0 9b bc b7 bc d8 26 2e be 92 cd 91 3d 50 77 5d be
       -0.022428801 -0.17007005 0.071192876 -0.21627545
0001f0 59 41 91 3d 0c 3a 93 3d 51 85 99 be a0 2d f3 bd
       0.07092542 0.07188806 -0.29984525 -0.11873937
000200 a1 e8 29 3e 07 9f 04 3d 1a ac 6f bd d0 1b 7c 3e
       0.16592647 0.032378223 -0.05851374 0.24619985
000210 a0 c1 6d bc 63 42 34 3d 6e ea 20 bd 71 82 80 be
       -0.014511496 0.044008624 -0.03928607 -0.2509952
000220 15 77 76 bd c3 a4 87 be 30 a3 9f 3e 2d 08 41 3e
       -0.06017216 -0.2649289 0.3117919 0.18850775
000230 cc 75 6e 3e 9b a8 1f 3e 97 5c e8 bd 0e 82 1b be
       0.23287123 0.15591662 -0.11345785 -0.1518633

encoder.0.bias f4 [16]
000000 82 99 13 3e 1e 92 a4 3e 23 32 b1 be e4 21 4a be
       0.14414027 0.3214273 -0.34608564 -0.19739491
000010 a5 b5 9b be b0 b2 99 3e da af 9b be eb 06 de bd
       -0.3041202 0.3001914 -0.30407602 -0.10841163
000020 4d 2f 4e be e0 bb 72 be fe 0c 54 be 83 c0 4e be
       -0.20135231 -0.23704481 -0.20708081 -0.20190625
000030 ac 47 8f be 31 e7 8d bd ac 26 2e be 64 b2 13 3d
       -0.2798437 -0.06928862 -0.1700694 0.0360588

encoder.2.weight f4 [32, 16, 3, 1]
000000 0f 54 17 bd 49 29 1a 3d 2e b2 0c 3d 29 61 b3 bd
       -0.0369454 0.03763703 0.034349613 -0.08758766
000010 01 83 7c bd 97 a5 a4 3d af f4 a9 3d 9e 05 6b bd
       -0.061648373 0.08039396 0.08298623 -0.057378404
000020 c4 24 a0 3d 54 79 ad 3d db 38 85 3d 3b cb c0 bc
       0.078195125 0.08470407 0.06504985 -0.023534408
000030 47 5d 87 bd ab 07 9f bd 4a aa f3 3d 48 d0 d1 bc
       -0.06609588 -0.077651344 0.118977144 -0.025612012
000040 68 cc aa 3d 6a e9 05 3c 5d 63 2a 3d b7 b5 57 bb
       0.08339769 0.008173326 0.041598666 -0.0032914707
000050 a0 93 16 be a4 62 40 bd 2f dd 46 3d ea d2 4d 3d
       -0.14704752 -0.04696907 0.04855078 0.05024997
000060 82 d4 e4 3c 3d f6 0f bd d0 c2 03 be f0 3b a1 3d
       0.027933363 -0.03514694 -0.12867284 0.0787276
000070 f2 3e 88 3d 33 d2 ff bb c2 f6 49 3d a1 9a 38 3d
       0.06652631 -0.00780704 0.049307592 0.04506934
000080 c4 28 a2 bd 4a 27 bb 3d 1d 4d bf 3d 12 1b 0d 3d
       -0.07917932 0.09138353 0.0934088 0.034449644
000090 76 20 bc bd 98 07 cd 3d 00 4a a3 bd 81 e9 3e 3d
       -0.09185879 0.10011214 -0.07973099 0.046609405
0000a0 06 3f 29 bd 69 a8 2b bd 7d 0b 09 3e 7f f3 16 bb
       -0.04131987 -0.041908655 0.13383289 -0.0023033319
0000b0 6e 34 03 3e ae 74 b2 bc 00 e2 8c 3d c1 95 cc bd
       0.12812969 -0.021784153 0.068790436 -0.09989501
0000c0 6d 94 de bd be 80 80 3c 41 21 5e bc 5e 3e 73 3d
       -0.10868154 0.015686389 -0.013557733 0.05938565
0000d0 31 3d 9b 3d 84 30 f3 3c f7 2b b1 3d d1 b6 03 3c
       0.07580031 0.02968622 0.08650964 0.008039192
0000e0 11 55 5c bd b8 26 6d bd 21 b2 a6 bc f1 fe 8e bd
       -0.053792063 -0.057898253 -0.02034861 -0.0698222
0000f0 60 4d 80 3d f0 c3 8e 3d f3 40 31 3d 07 40 ed bc
       0.06264758 0.06970966 0.04327483 -0.028961195
000100 c6 a6 f3 bd 27 a3 b9 3d 26 d7 07 3e 70 dc 4c bd
       -0.11897044 0.09064322 0.13265666 -0.050014913
000110 07 3c 24 bc 7b 8c f9 bd 76 8a 3d 3d c3 b4 ce bd
       -0.010024077 -0.12184998 0.046274625 -0.10093071
000120 81 72 bd bc 0b 80 d1 3d ba 4f 7c bd 2f 65 fe bd
       -0.023125889 0.102295004 -0.06159947 -0.12421643
000130 6b 23 d0 bd 77 78 11 3e 2b d8 81 3d 73 b1 2e bd
       -0.101630054 0.1420611 0.06340059 -0.042649698
000140 b3 ea 4b 3d 39 8d 59 bd c1 65 eb 3d cc 03 f7 bd
       0.049784373 -0.053113196 0.114940174 -0.12061271
000150 6b 4d c0 bd 3b 8f 8a 3d 20 95 f8 bd d5 0b 13 3d
       -0.09389766 0.067656 -0.12137818 0.035899956
000160 6d 5f 59 ba cd ca a7 bd 2a 9c 7d 3d a0 e2 40 3b
       -0.00082921126 -0.08192978 0.061916508 0.0029431954
000170 23 6d dc 3d 95 24 f6 bd 5e 29 95 3d 36 57 f3 bd
       0.10763004 -0.12018696 0.07283281 -0.118818685
000180 ce 6b 4b bd 4e 93 b4 bd b0 32 eb 3c 46 e7 ef bd
       -0.049663357 -0.08817159 0.028710693 -0.11714034
000190 aa d9 c4 3d 1b 83 ee bd 63 79 f1 3d dd a4 0d be
       0.096118286 -0.116461 0.11790731 -0.13832422
0001a0 62 e8 ef 3d 45 a9 e2 bd 67 c2 67 3c 6c 03 5e 3d
       0.117142454 -0.11067442 0.01414547 0.054202482
0001b0 da 41 4b bd ef cd ad bc b9 f1 fe 3d 39 2a 8a bd
       -0.049623348 -0.02121636 0.12448449 -0.067463346
0001c0 7e e4 a3 bd 46 22 09 be 7a 0f 00 3e c4 07 59 3d
       -0.08002566 -0.1339198 0.12505904 0.05298592
0001d0 7a da dc bd c2 b1 58 3d f3 ce 96 bd 0c 74 c4 3d
       -0.107838586 0.052903898 -0.07363691 0.09592447
0001e0 09 98 d3 3d a9 2a 8a 3d 86 4f 45 bd ee 96 95 bd
       0.10331733 0.06746418 -0.048171543 -0.07304178
0001f0 8f bb 86 3d d9 68 ce 3d 55 69 62 3d b7 fa d5 bd
       0.06578743 0.10078592 0.055276234 -0.10448211
000200 7d 0d 62 3c 9e 98 aa bd 44 70 5d 3d 90 9f b1 3b
       0.013797161 -0.08329891 0.054062143 0.0054206327
000210 b0 81 2a bc b3 a6 ce bd e8 68 48 3d 86 22 98 3d
       -0.0104068965 -0.10090389 0.04892817 0.0742846
000220 0e ab 6f bb 5b e1 f2 3d c0 5e 0d be 89 f9 f0 3c
       -0.0036570462 0.118593894 -0.13805676 0.029415863
000230 e4 32 9a bd db 05 99 3d bc 9b cc 3c a1 cf e9 bd
       -0.07529238 0.0747182 0.024976604 -0.11416555
000240 29 64 09 3e d1 e6 d0 3d df 19 a7 bd 64 99 ea bd
       0.13417114 0.10200275 -0.081592314 -0.11455038
000250 29 08 03 3e 8a 8b 04 be 84 e7 80 bd 87 6d f9 bd
       0.12796082 -0.12943855 -0.06294158 -0.12179094
000260 6f 8c ec bd 11 c0 d6 bd f8 72 6b bd c2 40 03 3e
       -0.11550223 -0.104858525 -0.05748269 0.12817672
000270 e1 23 0b be 09 85 99 bd 0e b4 52 3d 1f 88 fd 3d
       -0.13587905 -0.074960776 0.051441245 0.12379479
000280 92 e8 4e 3d 96 fa 6a 3d d2 a6 e8 3d f5 49 39 bd
       0.050514765 0.057367884 0.113599434 -0.045236547
000290 bf 35 92 3b f9 89 69 bd 6c 8f 96 bd d0 20 d1 3d
       0.0044619734 -0.057016347 -0.07351574 0.102113366
0002a0 3d 37 13 be 87 e4 f5 3c ac 3c 96 bd 4f ba e2 bd
       -0.1437654 0.030016197 -0.07335791 -0.11070692
0002b0 7b 74 0d 3e 0e 3e 05 be 3d 43 c5 bd f1 61 f2 3d
       0.13813965 -0.13011953 -0.09631965 0.11835087
0002c0 c3 d2 45 bd 49 6c f7 3c 11 62 83 bd 53 ea a1 3d
       -0.0482967 0.030203002 -0.06415189 0.07906022
0002d0 c6 d5 4e bd a1 28 c8 3d 72 f1 56 bd bc 39 68 3b
       -0.05049684 0.09773374 -0.052476354 0.0035434803
0002e0 34 06 a7 bd 37 bd e2 3c 8d 8a 8e bc bd 3a 35 bd
       -0.0815548 0.027678115 -0.01740005 -0.04424547
0002f0 5b 01 6b bd 9a fb 4c bd 97 e7 a3 bc 3f cd 6f bd
       -0.05737434 -0.050044633 -0.020007892 -0.058545347
000300 c2 e1 f3 bc c3 eb 3a bd 69 58 03 be 78 4e 9e bd
       -0.029770736 -0.045634996 -0.12826695 -0.077298105
000310 b2 1d 05 3e a0 4f 28 3d 6d 63 cf 3d e7 d2 8a 3d
       0.12999609 0.04109156 0.10126386 0.06778508
000320 a5 c7 bd 3d 07 91 d7 bd 61 78 82 3d f0 55 28 bd
       0.09266595 -0.10525709 0.06370617 -0.04109758
000330 3b d5 6f bd 22 86 d9 bd b5 b9 b9 bd 9f 22 17 ba
       -0.05855296 -0.10621287 -0.09068624 -0.0005765352
000340 e1 74 03 be a4 ac 76 bd 8c a1 20 34 2f 93 31 34
       -0.12837555 -0.060223237 1.4959932e-07 1.6537955e-07
000350 10 8e 92 3b b3 c9 93 bd 5d 34 fc 3c 19 3e 9c bd
       0.0044725016 -0.072162054 0.030786688 -0.07629032
000360 80 8a fc bd aa 42 f1 bc da 04 b4 bb b7 52 99 3c
       -0.12331104 -0.029450733 -0.0054937424 0.0187162
000370 f3 18 0d be 12 c8 e5 3c de 5b b2 3d 49 5d 8a bd
       -0.13779049 0.028049503 0.087089285 -0.06756074
000380 3b 22 da bd 39 11 3f bd b6 f9 ee 3d b0 0b 8d 3d
       -0.1065106 -0.046647284 0.11668722 0.06886995
000390 87 6a 23 3d 2e cb 38 3d 19 a2 09 3b ac 3e 73 bd
       0.039896514 0.045115642 0.0021001159 -0.05938594
0003a0 07 fc 36 bd ca 9d b4 bb 2e 9c f0 3d 91 3c 94 3d
       -0.044673946 -0.005511974 0.11748539 0.072381146
0003b0 18 6d 0c bd 94 92 b9 bd 59 d4 5e 3c e1 a9 f1 bd
       -0.034283727 -0.09061161 0.013600432 -0.1179998
0003c0 69 dc 98 bd 8b e4 8c 3b 5d 3a cb bd c6 8a 17 bd
       -0.07463915 0.0042997054 -0.09923241 -0.03699758
0003d0 5e a6 98 3d c7 ea ae 3d cd cf 21 bb 85 e5 18 3c
       0.07453607 0.08540874 -0.002469051 0.0093320655
0003e0 d7 03 1b bd 9f 6d c2 3d 82 ce 1b be 48 16 a5 3d
       -0.03784546 0.09493565 -0.15215495 0.080608904
0003f0 27 a5 9b bb 23 11 ac 3d 72 08 1d be 54 29 d2 bc
       -0.0047499123 0.08401706 -0.15335253 -0.025654472

encoder.2.bias f4 [32]
000000 75 38 cc bc 29 58 3f 3c ec 5c 11 bd 3a 3a e1 bc
       -0.024929265 0.011678734 -0.035489008 -0.027493585
000010 3e b5 bc bc de d7 29 3c c4 a9 96 3d ad 4e 10 3c
       -0.023035642 0.010366408 0.07356599 0.00880782
000020 53 c2 f8 bd ba cd 37 bc 83 1a 02 be 82 86 eb bd
       -0.121464394 -0.011218483 -0.12705426 -0.11500265
000030 c2 f9 2a 3d 21 bf a0 bc f5 2c 60 bd c0 c2 92 bc
       0.041742094 -0.019622387 -0.054730374 -0.01791513
000040 45 b6 17 be 0d c5 95 bd dc cb f5 bb e0 82 02 be
       -0.14815624 -0.07312975 -0.0075011086 -0.12745237
000050 1d b3 ab 3d 9c 86 10 3d 93 b3 cf 3d dc 1c 47 3d
       0.083837725 0.035284624 0.10141673 0.048611507
000060 b6 6a 12 bc 3c 55 ec bd f1 15 61 3d 86 28 f8 bd
       -0.008936575 -0.11539695 0.054952566 -0.12117104
000070 47 29 1b 3c ed 4e e2 3c f1 ac 0a 3e 40 ef 0a be
       0.0094702905 0.027625525 0.13542534 -0.13567829

encoder.4.weight f4 [64, 32, 3, 1]
000000 ff 5b 1a bc 02 da 41 3c 72 c5 a9 bd b6 45 93 3d
       -0.009421348 0.011831762 -0.08289613 0.07191031
000010 18 4e 84 bd db 8c a3 bc a9 74 bc bd 55 64 86 3c
       -0.06460208 -0.019964626 -0.09201939 0.016405264
000020 cc 4e 1b 3c 2e 60 d4 3b 75 6e 3a bd 5b 6c 4e bc
       0.009479236 0.006481192 -0.045515496 -0.012599076
000030 cc 31 06 3d 3a ab 2d 3d 3b 25 db 3c 07 42 37 bd
       0.032762334 0.042399622 0.026751151 -0.044740703
000040 db 07 a8 3d e1 b5 1c 3d 26 aa 0c bd 09 33 80 3d
       0.08204623 0.03825939 -0.034341954 0.06259734
000050 85 5b 7c 3d 46 49 aa 3d 0c 83 db 3b 6d a1 c8 3c
       0.061610717 0.08314757 0.0066989716 0.024491036
000060 d7 64 27 bd a2 d8 81 3d c6 7a de bd 1e 3a 81 bd
       -0.040867653 0.063401476 -0.10863261 -0.06309913
000070 6f c7 a3 3d 68 53 94 3d f9 c0 81 3d f7 c7 f4 3c
       0.07997023 0.07242471 0.06335635 0.029880507
000080 f8 c8 f1 3a 62 66 a6 3d 25 4e a4 3d 7a a6 15 bd
       0.0018446734 0.08124997 0.080227174 -0.036535718
000090 03 2a 59 bc ed b7 7c 3c ee 80 cf 3c d2 88 a3 bd
       -0.013254645 0.015424711 0.025330033 -0.07985081
0000a0 0f d0 a2 bd 81 50 05 3d f0 6e 2d 3d 9a 2b 30 bd
       -0.0794984 0.032547478 0.042342126 -0.04301033
0000b0 af 6b b4 3d e6 95 2a 3c 5e 04 90 3d 87 24 32 bd
       0.088096015 0.010411715 0.07032083 -0.043491866
0000c0 44 53 a0 bc 5f 5f 69 bd 9f a4 d7 bd 3a f8 a6 3d
       -0.019570954 -0.05697572 -0.10529446 0.08152814
0000d0 02 59 93 bd 53 0b c2 bd 3e 0d 6c 3d 9d da af bd
       -0.07194711 -0.09474816 0.057629816 -0.08586619
0000e0 8a 5f a8 bc 5c ba 5c 3b 92 ff 23 bd 55 fd 61 bd
       -0.02055337 0.0033680415 -0.040038653 -0.055173237
0000f0 fd f9 2d bd 1b b1 84 bd e8 65 a4 bd 5d 7d 48 3d
       -0.042474736 -0.06479093 -0.080272496 0.04894768
000100 5a be 8a bd 73 f4 3f 3b 2e b9 91 3d 65 bb ac bd
       -0.06774588 0.002928999 0.07115398 -0.0843418
000110 c4 d1 a9 bc bb 49 6c 3d 04 55 40 3d b9 1e a9 bb
       -0.020729907 0.057687502 0.046956077 -0.005161133
000120 1b c5 ba bb db bf 8f bb ea 61 b3 bd e9 42 3c bd
       -0.0056997663 -0.0043868846 -0.0875891 -0.045962248
000130 ac c8 8c 3d 17 e4 8c 3d fa 41 87 3d e7 92 f6 3c
       0.068742126 0.06879442 0.06604381 0.030099345
000140 64 73 8d bd 13 26 6e 3d f7 c3 6b bb 47 03 c9 bd
       -0.06906775 0.05814178 -0.0035974958 -0.09815078
000150 2d ab cd 3c a5 a1 3c 3d 93 aa 0c 3d 23 fb 9c bd
       0.025106037 0.046052594 0.03434236 -0.07665088
000160 35 90 4b bd 1e 08 f9 bc cd 73 9d 3d 69 17 a1 bb
       -0.049698073 -0.030399378 0.07688103 -0.004916121
000170 af 7a 9e bd ac b6 d8 35 68 bf ab b3 de 42 5b bb
       -0.07738244 1.6146419e-06 -7.9976246e-08 -0.0033456604
000180 7a f5 19 3c 88 96 b9 3d 48 ab a6 3d 02 27 ea 3c
       0.009396905 0.09061915 0.08138138 0.028583053
000190 ae be 03 3d a2 a3 7c 3c 89 5f e8 bc 01 7f 8e bc
       0.03216427 0.0154198725 -0.028365867 -0.017394545
0001a0 78 c9 66 bd bb 6d d0 bc ac 2b 6d bd 8f 35 3f bc
       -0.05634448 -0.025442949 -0.057902977 -0.011670484
0001b0 bf be cf bc 51 2f 50 3d 9f e6 22 3c 96 cc 89 bd
       -0.02535951 0.050826374 0.00994268 -0.06728475
0001c0 a2 e9 03 3d d1 7e 9f bd f2 34 b4 3c 51 bf 45 bd
       0.03220523 -0.0778786 0.021997903 -0.048278157
0001d0 39 e5 c9 3d bb 5f b4 bd 6e 78 2f 3c 4f 7a a5 3d
       0.09858174 -0.08807322 0.010709865 0.08079969
0001e0 77 45 1e 3d cb 5c 90 3c 0b be 31 3c 6b 4a 5c bd
       0.038640466 0.017622372 0.010848532 -0.053781908
0001f0 f7 aa ee 3c cc aa cc bd 23 3e f6 3c be da 51 bd
       0.029134257 -0.099935144 0.030058926 -0.051234
000200 72 cb b8 3d d6 53 90 bd 65 11 be bd 3e c2 c2 bd
       0.09023179 -0.070472404 -0.092806615 -0.09509705
000210 f7 b4 80 3d 34 52 62 3c 22 fc be bd 4b 88 1e 3d
       0.06284516 0.013813544 -0.09325434 0.038704198
000220 90 d4 58 bd a8 16 28 bd a2 b2 a3 3d 60 49 73 3d
       -0.05293709 -0.04103723 0.07993056 0.059396148
000230 19 57 99 3d f7 53 c2 bc 58 a5 85 bb c8 8a cd 3d
       0.07487316 -0.023721678 -0.0040785484 0.10036236
000240 5e d7 cd 3d 0f 46 92 3d a0 a7 c3 bd 09 fd 86 3d
       0.10050844 0.07142269 -0.09553456 0.065912314
000250 f8 f4 51 3b af fc 95 3b 57 e1 7e 3a e3 6b b7 3d
       0.0032036882 0.0045772414 0.00097229093 0.08956125
000260 f1 b2 99 3c 73 15 14 3b 76 0c 50 bd a3 00 ed 3c
       0.018762084 0.0022595793 -0.050793134 0.028930968
000270 91 5b 7a bd 18 30 fd 3c 18 de 99 bd 81 54 ea 3b
       -0.06112248 0.030906722 -0.07513064 0.007151187
000280 5d 1e 9f bd c7 58 66 bd d3 8f 98 3d 69 bf 51 bb
       -0.07769463 -0.05623701 0.07449307 -0.0032004958
000290 de 80 aa bd c5 97 11 3d ef b6 81 bb 72 8d c2 3b
       -0.08325361 0.03554513 -0.003958575 0.0059372718
0002a0 f6 0e 99 3d 17 c5 37 bb 0e 8e a9 3d f1 5b aa bd
       0.07473557 -0.0028041059 0.08279048 -0.08318318
0002b0 72 53 f6 bc da 9d 28 bd 90 83 a7 ba cc cd 5a bd
       -0.030069087 -0.041166164 -0.0012780298 -0.05341892
0002c0 d5 39 76 bd 25 a2 b4 3c 97 c8 90 bd c7 25 4c 3d
       -0.060113747 0.022049973 -0.070695095 0.049840715
0002d0 e0 ba 86 3d 95 51 35 bc 54 62 50 3d 6a 5e 90 3d
       0.06578612 -0.011066814 0.050875023 0.07049258
0002e0 39 f4 c8 3c 19 f9 5f bd 96 53 ff 3c 04 8f 51 bc
       0.024530517 -0.054680917 0.031167787 -0.012790445
0002f0 db 98 67 3d 99 6f 96 bc f2 72 98 bc f6 0a 8d 3a
       0.05654226 -0.01836376 -0.018609498 0.0010760713
000300 0e f7 f8 3b 2a ef 09 3d 90 6b 32 3c 1a 04 31 bd
       0.0075978106 0.03367535 0.010889903 -0.043216802
000310 0a 5c 92 bd 37 f9 db bc e6 d5 6e 3b f7 16 a0 bc
       -0.07146461 -0.026852233 0.0036443411 -0.0195422
000320 f1 74 7a bd 73 01 cb 3c ed d6 82 bd 83 39 5c 3d
       -0.06114668 0.024780964 -0.0638865 0.053765785
000330 cc a6 68 b9 a2 a1 f9 b7 ec 47 59 b8 04 67 76 3c
       -0.00022187381 -2.975838e-05 -5.1803814e-05 0.015039209
000340 9d e5 a6 3c fc cc 37 bd c3 de c4 3d 47 60 12 3c
       0.02037316 -0.044873223 0.09612801 0.008934087
000350 b6 ad 6d 3d ef b1 9c 3c f6 4d 99 bd b8 86 ad bc
       0.05802699 0.019127814 -0.07485573 -0.021182403
000360 bb 85 cc bd 4a 50 9e bc ba 25 c0 bd a7 75 1f bd
       -0.099864446 -0.019325394 -0.09382196 -0.03893056
000370 e9 74 84 bd 0b b7 b8 bb 42 c0 88 bd 0b 9e a5 3c
       -0.06467611 -0.005637055 -0.06677295 0.020216962
000380 26 f8 a9 3d 00 b8 f9 3c 58 0d 14 bd 82 28 a6 bd
       0.08299284 0.030483246 -0.036145538 -0.08113195
000390 47 c0 74 3a 22 f9 11 bd 04 f5 71 bd 5f 5b d8 bd
       0.0009336513 -0.035637982 -0.059071556 -0.10564303
0003a0 c9 6d d8 bd f4 df d1 3c 3f fc 8f bc 42 f9 62 36
       -0.10567815 0.025619484 -0.017576335 3.3821711e-06
0003b0 3a 75 1d 3d c7 6d 88 bd 06 22 d1 3b 83 72 de 3c
       0.038441874 -0.06661563 0.0063822297 0.027154213
0003c0 f7 bb 49 3d 35 33 09 3c 80 62 a1 3d ea 9e 7f bd
       0.049251523 0.008374025 0.078801155 -0.06240741
0003d0 1b d2 d5 3c a6 5e 78 bd 4e 3f db 3a f9 f7 39 bd
       0.026101163 -0.06063714 0.001672724 -0.0454025
0003e0 2a 3c de bc 58 fc 70 3d 59 09 c0 3d 43 e7 31 3d
       -0.027128298 0.058834404 0.09376783 0.04343344
0003f0 ea 83 01 3d 6d 4e b6 bd 47 81 87 bd d4 f1 ae bc
       0.031619944 -0.08901677 -0.066164546 -0.021355547

encoder.4.bias f4 [64]
000000 1a c4 dd 3b 3c 5c b5 3d be d8 17 3c fa 51 64 bd
       0.006767762 0.08855483 0.009267984 -0.05574224
000010 f3 2f ba 3d fe 4d 9e 3c 4a e8 50 bd 87 63 53 3d
       0.09091177 0.019324299 -0.051002778 0.05160859
000020 37 5c 8a bd 9e 02 81 3d 67 90 8f bd 32 b4 a8 3d
       -0.0675587 0.06299327 -0.070099644 0.082374945
000030 7e 6e 19 bd 49 7e 53 3d 37 7f c2 bd cb 8b a6 3c
       -0.03745889 0.051634107 -0.094969206 0.02033033
000040 0e fa ab 3d 5f dc 0f 3d 87 c8 90 3c c5 de 5c bd
       0.083973035 0.03512227 0.017673744 -0.053923387
000050 b6 83 11 3d 2a a1 1a 3c f9 d6 7b 3c 6c 15 9e 3d
       0.035526 0.009437839 0.015371078 0.0771893
000060 45 6f b0 3d 6b 81 19 3d ae c2 51 bd 76 58 ad 3d
       0.08614973 0.03747694 -0.05121105 0.08464138
000070 a6 92 b7 3d 99 cf 81 bd f1 ec bb 39 5f cf 87 bd
       0.08963518 -0.06338424 0.00035843955 -0.0663135
000080 89 71 b2 bc 25 62 8a bd 73 f8 bf bd 7b c6 84 bd
       -0.021782653 -0.06757001 -0.0937356 -0.0648317
000090 c1 82 93 bd 0b a9 91 3c 41 2d ad 3d cb 77 4d bd
       -0.07202674 0.017780801 0.08455897 -0.05016307
0000a0 48 af b1 bd 4e b3 7c bd 98 99 6f 3b 08 79 a2 bc
       -0.0867601 -0.061694436 0.0036560055 -0.019833103
0000b0 8b f3 93 bb 04 18 c6 3c cf 1f 3f 3d 02 7d 29 bd
       -0.0045151166 0.024181373 0.046661194 -0.041378982
0000c0 c7 19 8e bd 29 17 b6 bd 74 10 74 3d cb 3d b4 bd
       -0.069385104 -0.08891136 0.059586003 -0.088008486
0000d0 fe f9 27 bd 8d 33 81 bd 48 cb a9 bd 0f 62 3a 3d
       -0.041009896 -0.06308661 -0.08290726 0.045503672
0000e0 11 38 d5 3d e5 5e b7 bc 4b 3c 3b 3d 8a 9a 7f bc
       0.104110844 -0.022384116 0.045711797 -0.01560081
0000f0 19 59 93 bc 68 39 0d bc 6f ae 0d 3b aa 61 2a 3d
       -0.017986821 -0.008619644 0.0021618863 0.041597046

encoder.6.weight f4 [128, 64, 3, 1]
000000 c0 b0 08 3c 41 24 32 bd ec 80 90 3c 53 04 26 3c
       0.008342922 -0.043491606 0.0176396 0.010132867
000010 69 6e 02 3d 34 20 7c 3d c8 4a 3b 37 4a d5 41 bc
       0.031843577 0.06155415 1.116348e-05 -0.011830637
000020 16 f1 f5 3a 80 70 85 bd 38 97 8b bd 47 75 90 bc
       0.0018763866 -0.06515598 -0.06815952 -0.017634047
000030 f6 0a 4f bd d9 70 43 bc 7a f2 42 3d cb a9 84 bd
       -0.050547563 -0.01192876 0.047594525 -0.06477698
000040 62 ac 63 bd 61 67 d9 3b ff 18 50 3d 3a 9c 4b 3d
       -0.05558432 0.006634638 0.050805088 0.049709536
000050 76 d4 7e 3b 19 fa 67 3d 0a 44 b1 3c 2c 67 6b bd
       0.003888396 0.056634996 0.021638889 -0.05747144
000060 63 d3 10 3b bf b7 89 3c 00 3e 48 bc f5 9a 83 3b
       0.0022098653 0.01681125 -0.012221813 0.004016275
000070 02 af 1d 3c a4 04 eb b4 00 40 1b 3d ea 14 5e bd
       0.009624245 -4.3775538e-07 0.037902832 -0.054219164
000080 91 d1 dd 39 86 19 7c bd ec d5 a7 3c b2 93 15 bd
       0.00042308544 -0.06154778 0.020487748 -0.036517806
000090 24 23 4d 3d b7 f8 82 3d b1 66 67 bc a9 5e 91 3d
       0.05008234 0.06395095 -0.014123605 0.07098133
0000a0 15 ae 81 3d 8b e5 7b 3d c0 75 7c 3d 2f 15 29 bc
       0.06332032 0.061498206 0.061635733 -0.010319992
0000b0 c4 33 59 bd 2e ea e4 bc 89 97 8f 3c 53 7a 7c 3d
       -0.053027883 -0.027943697 0.017528312 0.061640095
0000c0 46 37 60 3c 45 33 42 3c 61 ad f1 bc cf 85 17 bd
       0.013685053 0.011853044 -0.029501619 -0.036992844
0000d0 15 e0 28 3d e4 ec 7b ba d8 4c b6 3c 14 9e b4 3c
       0.041229326 -0.00096101896 0.022253439 0.022048034
0000e0 2c 85 05 bd 1e 5d 45 bc 6e c8 67 bd 37 01 91 bc
       -0.032597706 -0.012046127 -0.05658763 -0.017700775
0000f0 46 68 49 3b cc 85 19 bd 56 0c c4 3b 23 6b 3c bd
       0.0030732318 -0.037481114 0.005982916 -0.04600061
000100 f9 a8 db bc 03 04 87 3d 02 fa 3c 3d 89 6e 57 3d
       -0.02681397 0.06592562 0.046136864 0.05259565
000110 be 25 72 bd e0 83 08 bd 34 9e d0 bc 8f 86 3c bd
       -0.059118025 -0.03332889 -0.025466062 -0.046026763
000120 d7 da 27 3c 1e ea 40 bd cc 52 28 3b 8f de 8f bc
       0.010245047 -0.04709827 0.0025684116 -0.017562179
000130 23 b0 4f bc 56 91 3f bd b8 05 54 b7 73 d1 41 b3
       -0.012676272 -0.046769463 -1.2637516e-05 -4.5126807e-08
000140 59 e7 97 34 50 23 6d bd d8 6b 1f 3d d9 22 6d 3d
       2.829427e-07 -0.057895005 0.038921207 0.05789456
000150 3a c7 35 3d f3 2f 91 bd ca 08 46 3c 2b a8 f7 bc
       0.04437945 -0.07089224 0.012087056 -0.030231556
000160 8a 30 23 bd 45 fa 68 3d d0 02 f9 3c fa 84 26 3d
       -0.039841212 0.0568793 0.030396849 0.04065416
000170 1b b2 36 3d bd 26 1f 3c c7 dd 68 bc b1 0a 3a bd
       0.04460345 0.009713826 -0.014213032 -0.045420352
000180 3c 6b d6 bc 49 a2 58 3d 4c 69 d9 3c 45 4a 38 3c
       -0.02617418 0.052889142 0.026539467 0.011248176
000190 a7 64 53 3b d6 55 e6 3c 94 24 e8 3c d7 55 47 bd
       0.0032256038 0.028117102 0.028337754 -0.048665848
0001a0 57 a6 dd 3c f4 6d 43 bd 1e 1e 76 3c 79 e5 77 3c
       0.027056856 -0.04771228 0.015021829 0.015130394
0001b0 35 ac 28 3d 88 85 3d 3d dc 79 c4 bc a0 ed 15 bd
       0.041179854 0.046269923 -0.023983888 -0.03660357
0001c0 6d a3 47 3c 2a ba 06 bd 86 dd fe 3c ad ad 55 3d
       0.01218496 -0.032892384 0.03111149 0.052167583
0001d0 56 7c bf 3c 3f 5f f8 3c d4 da 54 bd 06 a1 45 bd
       0.023374718 0.030318854 -0.051966503 -0.048249267
0001e0 3d bc fa 3c 59 87 81 bd 0b 19 93 bc f0 a7 19 3a
       0.030607337 -0.06324644 -0.017956277 0.00058615115
0001f0 be dc 79 bb c4 bc 40 3a 9e 2e 02 b4 92 05 48 35
       -0.0038125957 0.0007352347 -1.2124153e-07 7.451391e-07
000200 a5 44 ca b5 87 9a 8a bd 4a f8 5d 3d 20 19 00 bd
       -1.5070151e-06 -0.06767755 0.054191865 -0.03127396
000210 d1 99 14 bc 4d 30 37 bc e5 84 89 bd 9a da 07 b5
       -0.009069876 -0.011180949 -0.06714801 -5.0609526e-07
000220 20 c1 9e b5 d3 16 c7 b1 77 42 33 3d 3b 77 64 3d
       -1.1828124e-06 -5.794257e-09 0.043764558 0.05577777
000230 16 9a de 3c 2f 78 88 3c 92 9e 91 3c fb dd 41 3b
       0.027173083 0.01665887 0.017775808 0.0029581774
000240 7a ee 91 34 4e 22 2c bb 00 b5 60 36 ac ff dd bc
       2.718187e-07 -0.0026265564 3.3483957e-06 -0.027099453
000250 69 b0 18 3d 49 fe 9a 3b 71 48 af bc 22 ed 85 3d
       0.037277613 0.00473002 -0.021396847 0.0653937
000260 6b 3f 7b bc 69 a3 01 bd 90 bc 17 bd d6 72 fd 3c
       -0.015334944 -0.03164998 -0.03704506 0.030938547
000270 ed 5e 81 bb 98 40 98 bb 9b 1f 9c b7 0e 5c 83 bc
       -0.0039480836 -0.004646372 -1.8611367e-05 -0.016035106
000280 4c 7b cd bb 01 00 aa bc 29 48 2e 3d f5 7d 4a bd
       -0.0062708016 -0.020751955 0.042549286 -0.04943653
000290 4e 30 17 3d 8a e3 01 bb 1e 41 0f 3d ae d0 e2 3c
       0.0369113 -0.0019819462 0.03497421 0.027687397
0002a0 cf 56 25 bd 20 06 30 bd a2 03 28 bd 3f 5f ce 34
       -0.04036599 -0.04297459 -0.04101909 3.843979e-07
0002b0 e3 ed e8 b1 f8 7d a8 37 ff cc 2c 3d 45 03 99 bd
       -6.7791333e-09 2.008582e-05 0.042187687 -0.07471327
0002c0 b7 1c 72 bd a6 b5 e0 bb 6a 24 8b bc 3b 66 3d 3d
       -0.059109416 -0.0068575917 -0.016985137 0.046240073
0002d0 b0 51 89 bd bd d6 81 bc b4 62 a4 3c 32 8e 24 3c
       -0.06705034 -0.015849466 0.020066597 0.010043668
0002e0 1e d5 72 3d 35 cf 68 3c a9 fc 16 38 eb 0d 96 3b
       0.059285276 0.014209558 3.5998095e-05 0.004579296
0002f0 8f 6d a6 36 52 32 5b 3c 69 57 5c bd 58 f6 99 bc
       4.95994e-06 0.0133786965 -0.0537943 -0.018794224
000300 e6 96 68 bd dd cf 60 3d ea af 1d bd 02 c5 81 3d
       -0.056784533 0.054885734 -0.038497843 0.063364044
000310 14 03 91 bd a9 8c 60 3b c5 78 e2 3c 24 ff 64 3d
       -0.07080665 0.0034263527 0.027645478 0.055907384
000320 b9 74 8f 3d 71 f2 b2 3c 5d 86 b3 3c 40 74 a5 3c
       0.07004685 0.02184412 0.021914655 0.020197034
000330 19 5d 68 3d 33 1c 89 bd 17 e6 a3 bc 60 1e af bc
       0.05672941 -0.06694832 -0.020007176 -0.021376789
000340 a6 9d 48 3d d1 c8 10 39 f3 01 5c 3d c5 72 53 3d
       0.04897847 0.0001380772 0.053712796 0.051623125
000350 0b f8 5c bc 47 8d f7 3c e3 7f 43 bd 4c c9 c1 bc
       -0.013486872 0.030218733 -0.047729384 -0.023655556
000360 39 38 38 bd fb 5c 52 3d 5c 44 15 bc 8e df cd 3c
       -0.044975493 0.051358204 -0.009110536 0.025131013
000370 8d 4c 72 bd 1d 40 f8 bb 6d 03 bb 3c 01 2d ae bc
       -0.059155036 -0.0075760023 0.022828782 -0.021261694
000380 a0 7f 0a 3c de 00 32 3d b1 9b 74 bc bf b7 87 3d
       0.00845328 0.04345786 -0.014929698 0.06626844
000390 91 da f3 bc 3d d6 3c 3d 2f 9a 1f bd 9a a5 fe 3c
       -0.029767307 0.04610275 -0.0389654 0.031084824
0003a0 82 b0 13 3d 60 94 13 bd 5d fb 35 3c e4 92 78 bd
       0.036057003 -0.036030173 0.011107293 -0.06068696
0003b0 2a 18 46 bd a4 7e 65 3d 98 ba 2e 3c 02 76 cd 3c
       -0.04836289 0.056028977 0.010664605 0.025080685
0003c0 24 76 90 bd db c7 2f bc f5 63 6c 3c 84 7c d5 bc
       -0.070537835 -0.010728802 0.0144281285 -0.02606035
0003d0 a8 1a 9a 3b 62 c5 d8 3c 8b 2d 5e bd a3 49 8c bd
       0.0047028847 0.026461307 -0.054242652 -0.068499826
0003e0 61 ad a0 3b 7f 12 0f bc 9f 45 94 bc ed c0 1e bc
       0.004903481 -0.008732437 -0.018099604 -0.009689552
0003f0 16 81 87 bc f4 67 e2 3b 64 64 32 bd d3 1e e3 bc
       -0.016541045 0.006909365 -0.04355277 -0.02772466

encoder.6.bias f4 [128]
000000 8e 25 77 bd 8f 0c 1d 3d 54 a6 8f 3d 07 15 61 bd
       -0.06033855 0.038342055 0.070141464 -0.054951694
000010 68 20 80 bb 3f c5 49 3d 95 1f 15 bc 07 94 5d bd
       -0.003910113 0.049260374 -0.009101768 -0.054096248
000020 3b 33 4b 3d c2 9d ca bc 19 fa e2 3a fe aa 6c 3c
       0.049609404 -0.024733428 0.0017316967 0.014445065
000030 50 1a af bb 4d 2e 15 ba d6 a1 34 3d 3f 85 29 3d
       -0.005343713 -0.0005690798 0.04409965 0.04138684
000040 ac 8d 98 bd af 5d 18 3b 56 36 6f bd d4 be 38 bd
       -0.07448897 0.00232492 -0.05840143 -0.045103863
000050 32 45 83 bc de 88 0b bd 45 94 ef 3c 76 8b f3 3b
       -0.016024206 -0.034066074 0.029245505 0.0074323965
000060 18 55 1e 3d 23 d0 86 bd d2 63 1d 3d 6d 53 67 3d
       0.03865537 -0.06582668 0.038425274 0.056476045
000070 2d 59 60 bd 22 e5 bc 3c b0 5f 2d 3c dd 78 94 bb
       -0.054772545 0.023058478 0.010581896 -0.0045310096
000080 c5 40 10 bc 0a bb 4c bd 38 f4 1e bc f9 1d 26 bd
       -0.008804505 -0.04998306 -0.009701781 -0.040555928
000090 56 aa 05 3d 18 79 e4 bb 97 e7 8a bd 37 4f c0 bc
       0.032633148 -0.0069724433 -0.067824535 -0.023475273
0000a0 23 6d 68 3d ae e2 75 3d 2a b1 a4 3c 6d 73 13 3d
       0.056744706 0.06003063 0.02010401 0.03599875
0000b0 90 0c c0 3c fe b7 9a 3b 15 1c e8 3c dc 3d 74 bc
       0.02344349 0.0047216406 0.028333703 -0.014907327
0000c0 8b 26 e1 3c 69 d2 fa bc 35 7a 6e 3d 71 a8 c7 3c
       0.027484199 -0.03061791 0.058222014 0.024372311
0000d0 fe 7b d4 3c 97 61 ea 3c 06 be 8c 3c 3a 4b 9c 3b
       0.02593803 0.028610988 0.017180454 0.00476971
0000e0 50 bb 51 bd 9e b4 fe 3b 3d c7 8e bd 42 a9 d0 bc
       -0.051204026 0.007772996 -0.069715954 -0.025471333
0000f0 1a 78 20 3d 3e f0 3d 3d db 81 77 3d ac a6 2b bd
       0.039177038 0.04637169 0.060426574 -0.041906998
000100 75 32 55 bd 3d a9 f2 bc bf 1e 51 3c 3c 74 38 3d
       -0.052050073 -0.029621715 0.012763678 0.045032725
000110 97 99 ba 3b b7 f1 3f bc 8f 3d 8d bb a9 ed 6c bd
       0.005694579 -0.011715344 -0.004310317 -0.057843838
000120 e2 07 79 3c 3a 1b 6b 3b 61 1c 98 3b 3f 42 65 3d
       0.015199633 0.0035874383 0.004642055 0.05597138
000130 3b 65 1c 3d 9c 4f 4c bd ee 01 02 bd d3 6d dc 3c
       0.03818248 -0.04988061 -0.03174012 0.026907837
000140 29 10 e1 3a 8e 14 77 bd 71 7c 99 b7 2f e0 6b bd
       0.0017170954 -0.060322337 -1.8296969e-05 -0.057586845
000150 5f a9 1e bd df 0b 3b bc be 11 27 3d 78 8d 49 bd
       -0.038735744 -0.0114164045 0.040788405 -0.04920718
000160 d8 39 02 bd a4 2d 85 b9 e0 d1 40 3d 40 73 87 bc
       -0.031793445 -0.00025401742 0.047075152 -0.016534448
000170 c1 eb a1 ba d9 c5 9f bb bd 1e c6 b8 fa 44 b1 bb
       -0.0012353585 -0.00487588 -9.447101e-05 -0.005409834
000180 02 8c 79 3d 4a 4f cf ba cb 4e 82 3d d1 f9 d6 3c
       0.060924537 -0.0015816477 0.06362685 0.026242169
000190 d2 95 67 bb 35 f1 87 3c c3 95 21 3d 10 e4 c6 bc
       -0.0035337103 0.016594509 0.039449465 -0.02427867
0001a0 24 32 ab bc 8f ba 85 bd 5a 12 09 3d 0a 35 27 bc
       -0.020897932 -0.06529724 0.033464767 -0.010205517
0001b0 c0 07 df ba 6d 90 2d bc 76 04 98 b9 eb fa 2c 3d
       -0.001701586 -0.010593516 -0.00028995023 0.04223148
0001c0 60 6b 6e 3c 9f a8 6e bd bf 20 56 3d 72 55 e2 bc
       0.014551967 -0.05826628 0.052277323 -0.027628634
0001d0 35 cc c3 bc e4 81 87 3c c5 b8 a9 bc f3 e1 0d 3d
       -0.023901084 0.016541429 -0.020717988 0.03463931
0001e0 4a ef 40 bc 5c 4f 50 bc 0c 13 23 bd b3 57 f1 b9
       -0.011775801 -0.012714233 -0.039813086 -0.00046032443
0001f0 48 79 8c 3d 4d ef 84 bb 97 f0 d8 3c 6c 29 18 3d
       0.0685907 -0.004056847 0.02648191 0.037148878

encoder.8.weight f4 [256, 128, 3, 1]
000000 15 05 28 3d b6 43 18 3d cb 1e bf bb 27 d3 28 3d
       0.04102047 0.03717395 -0.005832528 0.041216996
000010 97 58 0a bb 16 49 f8 3c 3e 95 13 3d 1d 3d 8d bc
       -0.0021109933 0.030308288 0.036031 -0.017241055
000020 69 37 ae 3b 04 1e f3 bc 95 21 21 3d 23 c4 14 3d
       0.005316664 -0.029677399 0.039338667 0.036319863
000030 97 a9 e0 3b 8b eb df bc ee 6a e7 bc 12 7f 2b bd
       0.006856154 -0.027333995 -0.02824923 -0.04186923
000040 0f c9 19 bc 44 fe d6 3c f8 b7 0e 35 8e a6 3b 36
       -0.009386315 0.02624429 5.316683e-07 2.796212e-06
000050 87 1d e9 35 0a 9c ce b8 43 91 d5 bc 1d fb 2f b4
       1.7368446e-06 -9.85191e-05 -0.026070243 -1.63895e-07
000060 81 dc ff ba 23 35 37 bc 37 f0 64 bc 87 36 49 bd
       -0.0019520671 -0.011182102 -0.013973287 -0.049124267
000070 64 15 2d 3c 5e f7 27 3c 58 9f a8 3c 22 dc 68 bd
       0.010564182 0.010251848 0.020583794 -0.05685056
000080 e0 c7 49 bd 64 5d 1f bd 1d 13 08 3d 07 12 ca 3b
       -0.04926288 -0.038907424 0.033221353 0.0061667
000090 aa 70 f5 3c 6c 11 17 3c 85 fd e8 bc f2 3a 4a bc
       0.029960949 0.009220462 -0.0284412 -0.012343155
0000a0 83 41 88 bc ff 73 2c 3d ff 42 a3 3a a6 4f 15 bc
       -0.0166328 0.04210281 0.001245588 -0.009113228
0000b0 ec a0 07 bd df 86 0e bd 4a b9 24 3d 5e 95 ff ba
       -0.03311245 -0.03479659 0.040215768 -0.0019499471
0000c0 32 e0 e7 34 e9 5d 0e 35 6e 0f 44 b6 57 5c 78 3c
       4.3190227e-07 5.303578e-07 -2.9215257e-06 0.015158734
0000d0 34 bd 86 3c 4f b4 a3 bc d3 b7 83 bc a2 71 c7 bb
       0.016447641 -0.019983439 -0.016078865 -0.006086544
0000e0 d3 1a 5c bd bc 1a 1e bd 3d 18 5d 3c 92 d9 73 3c
       -0.05373652 -0.038599715 0.013494548 0.014883416
0000f0 45 25 a3 3c 6f 96 3e bd ce 8d 12 bd 91 d8 f3 bc
       0.019915232 -0.046530183 -0.035779767 -0.029766353
000100 e7 1a e1 bc bb 0c ed 3c 23 ce e9 bc 6b eb c5 3c
       -0.027478648 0.028936734 -0.028540676 0.024160108
000110 1f 84 88 bb 82 25 1d bb 79 08 17 bd 8c 32 df 3c
       -0.0041661407 -0.0023978655 -0.036873315 0.027245782
000120 c5 f7 cb bc b4 a0 0f 3d 0f bc 72 bb 09 a0 dd 3b
       -0.02489842 0.035065368 -0.0037038361 0.0067634624
000130 4f 26 12 bd db 38 15 3d 05 14 36 bd 05 ab 3a bc
       -0.035681065 0.036431175 -0.044452686 -0.011393313
000140 a0 38 14 bc b7 16 2f 3d b8 fb 1e 3d 69 1d 62 bd
       -0.009046704 0.042746272 0.038814276 -0.05520383
000150 88 3d 80 bb a8 44 28 3d f3 c1 2d 3b 6f b1 5b 34
       -0.003913585 0.0410811 0.0026513308 2.0460514e-07
000160 a9 60 55 34 08 f0 1b 35 cc 01 11 3d 43 3a b5 3c
       1.9872336e-07 5.809129e-07 0.035402104 0.022122508
000170 b5 86 67 bd 62 f5 eb bc 4a 73 98 3c 48 9b e3 39
       -0.05652495 -0.028803531 0.018609662 0.00043412508
000180 f3 ed 9b 35 6b c0 18 b6 19 17 48 b6 ce b1 b2 bb
       1.1617652e-06 -2.2761767e-06 -2.9815767e-06 -0.005453325
000190 3c 58 f2 3b a0 55 8f 3c 20 d9 cc 34 02 32 ff b4
       0.0073957723 0.017496884 3.815594e-07 -4.7533837e-07
0001a0 b8 c1 4b b3 9d 76 14 3c d0 6a a2 b8 30 bd e4 3c
       -4.7440807e-08 0.009061483 -7.744657e-05 0.027922243
0001b0 e5 56 0e 3d 05 1d 1b 3d 9d 15 8f 3c 76 be eb 35
       0.034750838 0.037869472 0.01746636 1.7564296e-06
0001c0 48 c3 ef 34 a5 07 f1 35 1a d8 02 bd 5a 7f d6 3c
       4.4659305e-07 1.7958124e-06 -0.03194437 0.026183773
0001d0 10 3f f5 bb 6b cf 65 3a 7b b8 23 3c 3d 3b 08 3d
       -0.0074843243 0.00087665644 0.009992714 0.03325962
0001e0 19 f9 33 bd c2 f7 6f 39 f7 2c 67 bd fa 3c 35 3d
       -0.04393873 0.00022885113 -0.056439366 0.044247605
0001f0 94 61 0c bd 42 58 1f bd 69 69 23 3d 52 95 90 bc
       -0.034272745 -0.03890253 0.03989545 -0.017649326
000200 8c 37 55 b9 bc 37 65 bb 36 a4 22 3d 9e 9e e0 3c
       -0.00020333956 -0.0034975847 0.039707385 0.027419385
000210 fe a1 1a 3d 6f a7 0c b9 c9 81 6c bd e6 70 48 bc
       0.037752144 -0.00013413814 -0.05774096 -0.012233948
000220 c4 fa 06 bd 48 a6 bb bc 25 d3 cc ba c4 cb 24 bb
       -0.032953992 -0.022906438 -0.0015626891 -0.0025145868
000230 e7 14 63 3c cc cd 15 bd 1e e9 a3 3b ae cf 08 3d
       0.013859964 -0.036573216 0.005002155 0.033401184
000240 fb c7 9a 3c 84 a7 13 3d 0e 72 50 bd 23 7f 7d b4
       0.018894186 0.036048427 -0.05089002 -2.3608713e-07
000250 99 77 23 b5 f3 4a 00 b6 e9 05 c6 3b 7a e5 c2 bb
       -6.089627e-07 -1.9117113e-06 0.006043185 -0.005947766
000260 62 c3 16 bd 39 e8 cb bc 8b 3b 58 3c 45 ea 9a 3c
       -0.036807425 -0.024891006 0.01319779 0.018910537
000270 44 11 5e bc 43 db 24 bd d5 9a fb 3c ab a5 8d 3c
       -0.013553921 -0.040248167 0.030713478 0.01729091
000280 48 ce bc bc 3e c7 07 bc c5 e3 18 bd 09 1a 71 bc
       -0.023047581 -0.008287249 -0.037326593 -0.01471568
000290 47 f1 08 3c a9 c0 4c bd f6 b8 34 bd 5b 9c 95 3a
       0.008358306 -0.049988423 -0.044121705 0.0011414395
0002a0 92 f3 09 bd 1f 31 f1 3c 65 99 93 3a b2 76 c0 bb
       -0.033679552 0.029442368 0.0011260925 -0.0058735246
0002b0 10 f4 6e bd 56 6e df bc a9 24 ac 38 9a 52 2c b6
       -0.058338225 -0.027274292 8.2084276e-05 -2.5678078e-06
0002c0 d2 b9 0b 36 6a fc f8 3b 9c 7f ac bc 9d 64 ad bc
       2.0820776e-06 0.0075984495 -0.021056943 -0.02116614
0002d0 26 91 50 bd 60 f5 60 3a 88 ae 1d 3d c0 c6 d5 3c
       -0.050919674 0.00085814856 0.038496524 0.026095748
0002e0 45 39 1d bd 4f 93 b4 3c 08 b1 1b bd 4d 8c 43 ba
       -0.038384695 0.022042898 -0.038010627 -0.0007459566
0002f0 7b 1e 24 bd 10 c2 41 bc 0f 85 a5 3b 92 38 28 bd
       -0.04006813 -0.011826053 0.005051262 -0.041069575
000300 d8 c9 5d bd 32 02 0a 3d c2 fb 1b 3d 40 7c 87 b8
       -0.05414757 0.0336935 0.03808189 -6.460445e-05
000310 12 35 91 3b a5 ec 2c 39 94 24 bd 3c e2 fe 11 3d
       0.0044313753 0.00016491355 0.02308873 0.035643466
000320 4a b3 1c 3d e1 a2 7a bc 54 3f ec 3b 02 5c 4d bd
       0.03825692 -0.015297622 0.0072096977 -0.050136574
000330 48 72 0a bd 9e 90 3f 3c fb fb b1 3c d9 bb d0 bc
       -0.033800393 0.011692194 0.021726599 -0.025480198
000340 8b 91 08 bc 42 c8 5a bc 67 1d c2 34 52 21 09 33
       -0.008335481 -0.013353409 3.615671e-07 3.1928103e-08
000350 eb 9d 9f 33 9c 34 f0 35 83 8f a0 35 06 16 99 b9
       7.4327396e-08 1.7896705e-06 1.1962696e-06 -0.00029198843
000360 76 e2 0a bc 91 c9 eb bc 08 0e 66 bd b7 18 0c bd
       -0.008476844 -0.028782638 -0.056165725 -0.034203257
000370 49 61 02 3d 7d 9f 17 bd a8 75 a2 3c e5 d9 84 39
       0.03183106 -0.037017334 0.019831493 0.00025339346
000380 74 5b 26 bd 25 b0 0b bd 28 e4 15 3b 96 56 dc 3b
       -0.04061456 -0.03410353 0.0022871587 0.006724189
000390 b2 d0 fb 3c 7e 2f 5b 3c 2c 4a 1c bd cd b7 0a 3b
       0.030739162 0.013378022 -0.038156673 0.0021166683
0003a0 a4 3b 39 3c 47 fa 84 39 a1 f5 ef 3a 73 2f 2d b3
       0.011305723 0.00025363473 0.0018307456 -4.0322856e-08
0003b0 00 77 9a b5 fc 57 0f 3d 55 76 21 3b b9 57 33 bd
       -1.1508528e-06 0.034996018 0.0024637182 -0.04378483
0003c0 fc 4f e5 bc 46 97 b2 3b ff e1 37 bd e2 ef a9 bc
       -0.027992241 0.005450162 -0.04489326 -0.020744268
0003d0 a4 6e 90 3c 99 55 bc 3c 82 05 3a b3 95 59 82 32
       0.017630883 0.022990035 -4.331151e-08 1.5174729e-08
0003e0 1c 45 2f b2 5f 22 ca b5 24 e4 f1 b5 fd 9e 1a b4
       -1.0202054e-08 -1.5060176e-06 -1.8022297e-06 -1.4400207e-07
0003f0 29 71 05 bc d7 b9 98 3c d8 be 4b 3c 4c 26 06 3d
       -0.008144655 0.018643303 0.012435637 0.032751366

encoder.8.bias f4 [256]
000000 54 36 c5 bc 5c 3f e9 3c 06 cc 19 3d 3f 35 dc bc
       -0.024073757 0.028472595 0.037548088 -0.026880858
000010 96 43 f6 3c 0f c6 2d 3c e5 cf f6 3c f6 34 00 bc
       0.030061524 0.010606303 0.030128429 -0.007825127
000020 f3 04 d5 3b 33 e7 27 3b 1a 58 8f bb f8 59 e1 3b
       0.006500834 0.0025619983 -0.004374516 0.00687718
000030 90 17 d2 3c 37 e4 24 bc f5 c5 33 3c 7e 1c fc bc
       0.025646001 -0.010064176 0.01097249 -0.030775305
000040 04 73 3f bd 40 29 dc bb a2 3a ed 3b 06 2f 0f 3a
       -0.046740547 -0.0067187846 0.0072396556 0.0005462024
000050 c3 96 df bc 9b 7b eb 3b d0 08 10 3d 32 7a a0 3c
       -0.027293568 0.007186366 0.035164654 0.019589517
000060 5b 6f 8a bc 41 06 cf ba 81 e1 01 bc d4 86 37 3d
       -0.016898802 -0.001579471 -0.0079272995 0.044806316
000070 45 ab 54 3c 16 28 ec 3c 02 5b 18 bd 33 4c b5 3c
       0.012980287 0.028827708 -0.037196167 0.022131061
000080 fc 09 29 3c a9 b1 e4 3c 9f a7 f5 3c 94 54 09 bc
       0.010317322 0.027916746 0.029987155 -0.008381981
000090 8f 29 ec 3c 24 d4 3b bb cf d1 cb 3c b0 43 41 bd
       0.02882841 -0.0028660381 0.024880318 -0.047183692
0000a0 79 84 33 3d ed 8a 70 bb 62 ae ac bc f1 74 1e bc
       0.043827508 -0.00367039 -0.021079246 -0.009671436
0000b0 3d 3d 49 3c 0a 27 46 3d 57 52 80 39 55 42 28 3d
       0.012282667 0.048377074 0.0002447541 0.041078884
0000c0 82 dc 38 bc 32 0b 64 bc ed aa 9b bb 95 e5 fa 3c
       -0.011283042 -0.013918685 -0.0047506006 0.030627051
0000d0 bd 6c 46 bd 66 df 45 bc da 46 ce bb 7d 12 7b 3c
       -0.048443545 -0.012077188 -0.0062950673 0.015324232
0000e0 c7 83 03 3d 78 b1 3d 3d df 15 23 3d 44 46 d5 bb
       0.032108095 0.046311826 0.03981578 -0.0065086205
0000f0 bb 89 bb bc 5e b2 d5 bc 50 34 a8 bc c0 dc 95 bb
       -0.022892823 -0.026086029 -0.020532757 -0.0045734346
000100 68 a6 a7 3c 4b d7 9d 3b fd f1 01 bd 18 e1 e1 bc
       0.02046509 0.0048169247 -0.03172492 -0.027573153
000110 66 8e 97 bc 35 ab f3 b7 25 88 11 bd dc bf 03 3c
       -0.018500518 -2.9047582e-05 -0.03553023 0.008041348
000120 50 b6 28 3b d2 60 dd bc eb 50 2a bd 72 9d 59 bc
       0.0025743432 -0.027023707 -0.041581076 -0.013282167
000130 51 79 34 3d a2 48 c4 bc c3 01 1d bd 59 01 1d 3d
       0.04406101 -0.023960415 -0.03833176 0.038331363
000140 04 8f 26 3d ff a0 29 3b 61 c9 c5 bc 89 49 4b 3b
       0.040663734 0.0025883315 -0.024143877 0.0031019172
000150 7c 09 03 bd 6d 5f 0b 3d 76 68 2a 3d 1b 58 23 3d
       -0.031991467 0.034026552 0.041603528 0.039878946
000160 c0 b9 e6 3c 3e 47 cc b9 e1 d0 1c 3d ae ac 0e bc
       0.028164744 -0.00038962992 0.03828514 -0.008708162
000170 45 d3 20 bc 23 4c e0 bb 7d e4 0a bd 9d 76 22 3d
       -0.009815996 -0.0068450137 -0.03390931 0.0396639
000180 7f 0e 6c bb 81 60 2b 3d 55 d0 34 bd 0b ff 3e bd
       -0.0036019383 0.04184008 -0.044143993 -0.046629947
000190 2c f7 a9 bc f0 8e 04 3d d4 14 cf bc 8f db 47 bc
       -0.020747744 0.03236288 -0.025278486 -0.012198343
0001a0 b9 50 f2 3b ad 65 43 3c 29 c0 ab b8 38 91 34 bc
       0.007394877 0.011926097 -8.189708e-05 -0.011020951
0001b0 26 df a2 bc 25 41 d3 bc 35 c9 10 bc 41 7d 4f bc
       -0.019881796 -0.0257879 -0.008837034 -0.01266414
0001c0 1b fd f9 3b 6e 04 ee bb 6c 7b fb 3c 2b 85 35 bc
       0.0076290495 -0.0072637117 0.0306985 -0.011079113
0001d0 0e 32 0c bd b5 ec d7 3c 0c 98 df 3c 35 bf 76 bc
       -0.034227423 0.026357988 0.027294181 -0.015060236
0001e0 2d 4a aa 3b 6f 51 22 bd 4f 5c c2 3c ce 34 a7 3c
       0.0051968307 -0.039628442 0.023725657 0.020410921
0001f0 93 93 01 3d 4a 20 e6 bc 98 d7 44 3d 91 cc f5 3b
       0.03163488 -0.028091568 0.04805717 0.007501193
000200 e9 54 39 3d 51 47 1f 3d 43 2c 3f bc 3d fe 1c bc
       0.045246992 0.038886372 -0.011668268 -0.0095820995
000210 25 49 a6 bc d6 e1 92 bb 20 17 c7 3c ee 84 c7 3c
       -0.02029855 -0.004482488 0.024303019 0.024355378
000220 30 af 90 b9 d8 03 2e bc 73 9a 04 3d e1 8b 04 bc
       -0.00027596345 -0.010621034 0.032373857 -0.00808999
000230 65 68 02 3d 45 46 1f bd 48 97 c1 bc 86 d9 5d 3c
       0.03183784 -0.038885374 -0.023631707 0.013540631
000240 ce b2 37 bd 5e 8a 01 3d 3e 87 e2 3c 96 e0 f9 ba
       -0.044848256 0.031626098 0.02765238 -0.0019064124
000250 70 db 87 3c a4 1a 42 bc 2e 4d 45 3c 5c 68 31 3d
       0.016584128 -0.011847172 0.012042327 0.043312415
000260 12 51 33 bd 8e be 34 3d f7 60 59 bd de 63 49 bb
       -0.043778487 0.04412704 -0.05307099 -0.0030729691
000270 c8 f8 d8 3b 8b 49 aa ba ab 2e 37 bd 4d 47 0a 3d
       0.006621454 -0.0012991888 -0.04472224 0.033759404
000280 74 73 41 bc 08 5c bd bc e1 ae 06 bc 6d 6e dd 3c
       -0.011807311 -0.023115173 -0.008220405 0.027030194
000290 4d 4f 02 3d 2a b9 a8 bc f8 58 12 3d 4b 0b 77 3c
       0.03181391 -0.020596106 0.03572938 0.015078376
0002a0 f8 83 b6 3b eb 70 89 bc c1 d8 3e ba 16 2c 98 bc
       0.005569931 -0.016777476 -0.00072802237 -0.01857571
0002b0 77 3a d2 3c 83 37 10 3d 52 a4 b5 bb 1b af 56 bd
       0.025662644 0.03520919 -0.00554327 -0.052413087
0002c0 21 03 29 3d 27 d1 0f 3d 8e 7a 03 3d 57 32 2f b9
       0.04126275 0.035111573 0.0320993 -0.00016708054
0002d0 04 58 6d 3c b4 03 41 bd 78 ca cb bc aa c4 e6 ba
       0.014486317 -0.047122672 -0.024876818 -0.0017606218
0002e0 be e8 bc bc 27 d4 15 3d 55 ff fa bc 73 9f 91 3b
       -0.023060199 0.036579277 -0.03063933 0.0044440567
0002f0 12 b5 46 3d 14 40 ba bc 22 df 9e 3c 29 5d e4 bb
       0.048512526 -0.022735633 0.019393507 -0.0069691134
000300 50 7b 35 3d 93 f0 11 3c 13 01 42 bc 4a 49 1b 3b
       0.044307053 0.008907455 -0.011841076 0.0023694807
000310 78 07 d9 bc 80 33 e4 bb 05 09 28 ba dc 59 c3 bb
       -0.02649282 -0.006964147 -0.00064100354 -0.00596164
000320 be 9c 6c bc fd 81 1f 3d 57 a4 1d 3d 5f a0 a8 bb
       -0.014441667 0.038942326 0.038486805 -0.005146071
000330 7a 9f 81 bb c7 01 a8 3c 8a 9f 3c 3d b0 53 01 bc
       -0.0039557787 0.02050866 0.046050586 -0.007893488
000340 14 71 4a bc 71 4d 03 bc 86 f0 04 ba 9e 92 f7 3b
       -0.0123560615 -0.008014069 -0.0005071241 0.00755532
000350 25 3b 12 bd 44 7a 43 bc 20 47 12 bd a0 54 09 bd
       -0.035700936 -0.011931006 -0.03571236 -0.03352797
000360 eb 04 28 3d 41 57 29 bd 40 02 0f bd fd c9 e2 bc
       0.041020315 -0.041342977 -0.034914255 -0.027684206
000370 68 4f 62 3b b5 23 e3 bb 9c 39 fc 3c 27 3e 9d 3c
       0.0034532193 -0.006931747 0.030789189 0.019194676
000380 3f aa 24 bd 80 ef 1d bd 7f 48 9c bc 16 9b 35 bc
       -0.04020142 -0.038558483 -0.019077538 -0.011084339
000390 c8 a4 2c bc 5e 89 8b bc 49 ae d7 bc 8d 0e 1d 3c
       -0.010537334 -0.017033275 -0.026328223 0.009585989
0003a0 ee 6a 21 3d 3e 2d 08 bc e6 2f 00 bb c4 c3 fb 39
       0.039408617 -0.008311568 -0.00195598 0.00048020307
0003b0 af d6 56 3c 75 44 5a 3c 34 af 18 bd 0f 68 99 3b
       0.013112708 0.0133219855 -0.03727646 0.004681594
0003c0 29 b2 39 3d 40 dc 7a bc 92 d1 58 3c ea 4c b9 bb
       0.045335922 -0.015311301 0.013233559 -0.005654921
0003d0 66 43 9d bc 88 91 0d 3a 41 e0 f5 3c cc 05 f4 3c
       -0.019197177 0.0005400409 0.03001416 0.02978792
0003e0 6a d7 f7 bb 1e f3 b8 3c c0 1d 5e bc 98 17 80 b9
       -0.007563521 0.022576865 -0.013556898 -0.0002443164
0003f0 b5 1d a9 bb 1d a5 a3 ba 99 e0 15 bc 46 f5 b7 bc
       -0.005161012 -0.0012485121 -0.009147787 -0.022455823
