VAE-LSTM-anomaly–detection/experiments/Collected_data/nosein_noseout_9-grid_search-0414/Collected_data-nosein_noseout_9-win_len2000-look_back1-codesize20-VAEunits256-LSTMunits128/checkpoint/vae_best_model.pth (torch, 704594 bytes, 24 tensors)

encoder.0.weight f4 [16, 3, 3, 1]
0	0x3e305ceb	0.17222945
1	0x3deee250	0.116642594
2	0x3b4b0c2b	0.0030982594
3	0xbea45743	-0.32097825
4	0x3def2516	0.116769955
5	0xbea311d0	-0.31849527
6	0xbe3b0027	-0.18261777
7	0xbe893ec1	-0.2680569
8	0xbe029d07	-0.12755214
9	0xbe3ea90a	-0.18619171
10	0x3e3c4f61	0.18389656
11	0xbe91b7f0	-0.28460646
12	0xbe8f2b1b	-0.27962574
13	0xbe8aee66	-0.2713501
14	0xbde706c0	-0.11280584
15	0x3e6cc1b7	0.23120771
16	0xbe8ec165	-0.27881923
17	0x3e4907a8	0.19631827
18	0xbe37b794	-0.17941123
19	0x3e5d9d92	0.2164214
20	0x3ded3a85	0.11583427
21	0x3dd28c78	0.102806985
22	0x3e99299e	0.29914564
23	0xbe1708a5	-0.14749391
24	0x3d9c9a13	0.07646575
25	0x3da0f27f	0.078587525
26	0x3e0b2a9c	0.13590473
27	0xbd51456f	-0.051091608
28	0xbe0bb5a9	-0.13643517
29	0xbdc60ce9	-0.09670431
30	0x3d9c64b3	0.07636394
31	0xbe2d5206	-0.1692582
32	0xbcb367d8	-0.021900102
33	0x3e902752	0.28155
34	0x3e86278f	0.26202056
35	0x3e49863d	0.19680114
36	0xbe6c85e3	-0.23097949
37	0x3eaa98d4	0.33319724
38	0x3e7ede36	0.24889454
39	0xbe5da7c8	-0.21646035
40	0xbe9ff9fe	-0.31245416
41	0xbea34f0d	-0.31896248
42	0xbca8d4c2	-0.020609263
43	0x3e9c9e7d	0.30589667
44	0x3e8814f8	0.26578498
45	0x3d4a6f76	0.049422704
46	0x3c51b9c8	0.012800641
47	0x3e569afe	0.20957562
48	0xbe8dd0a5	-0.27698246
49	0x3c4f80b1	0.01266496
50	0x3e89f03c	0.26941097
51	0xbcb7e4c6	-0.022447955
52	0x3d9d5fdc	0.07684299
53	0x3c157f78	0.009124629
54	0xbcb181a9	-0.021668272
55	0x3c1f4338	0.009720616
56	0xbe7958b5	-0.24350245
57	0xbd8e5144	-0.06949094
58	0xbe1b777b	-0.15182297
59	0xbe63057a	-0.22170058
60	0xbe7ef903	-0.24899678
61	0xbe3d0c44	-0.1846171
62	0x3db00858	0.085953414
63	0xbe0dc97b	-0.1384639
64	0xbdc42bf2	-0.095786944
65	0xbe585da1	-0.21129467
66	0x3e5f397b	0.21799271
67	0x3df7f6b8	0.12107605
68	0x3e90d672	0.2828861
69	0xbdf90831	-0.121597655
70	0x3e04ac0c	0.12956256
71	0xbcc0d0e6	-0.02353711
72	0xbdc8a105	-0.09796337
73	0xbbefa7f4	-0.0073137227
74	0xbe4f3e6a	-0.20238653
75	0xbe6ea78f	-0.23306106
76	0xbd936501	-0.07196999
77	0xbdf394f3	-0.11893644
78	0x3e2de1f3	0.16980724
79	0x3db51acd	0.088430025
80	0xbe8be24f	-0.27321097
81	0x3e56dc41	0.20982458
82	0x3e8651de	0.26234335
83	0xbb047952	-0.0020213914
84	0xbc4e54f3	-0.012593496
85	0xbc9e8269	-0.019349294
86	0x3e43a9d5	0.19107755
87	0xbe97eb1d	-0.29671565
88	0xbdf83e0a	-0.12121208
89	0x3dc3579e	0.09538196
90	0x3e0f0bd0	0.1396935
91	0xbe76f0b8	-0.24115264
92	0xbd88acb4	-0.066735655
93	0xbe9be832	-0.30450588
94	0xbe69cfed	-0.22833224
95	0xbde781d3	-0.11304059
96	0xbe96e5c6	-0.29472178
97	0x3ea357a2	0.31902796
98	0xbe86fb8d	-0.26363793
99	0xbcc68879	-0.024234997
100	0x3e532dd4	0.20622951
101	0xbd1870d2	-0.03721697
102	0x3e00fe39	0.12596978
103	0x3db9cd30	0.090723395
104	0x3e25e78f	0.16201614
105	0x3ea3106b	0.31848463
106	0x3e2928f1	0.16519524
107	0xbe74019a	-0.23828736
108	0x3a853020	0.0010161437
109	0x3e90f691	0.28313115
110	0xbde3e438	-0.11127514
111	0xbe45ba63	-0.19309382
112	0xbe806297	-0.25075218
113	0x3e425970	0.1897943
114	0x3d830209	0.063968726
115	0x3d8d4197	0.06897276
116	0xbd11e158	-0.035615295
117	0x3dc3884c	0.09547481
118	0x3e8b7c41	0.27243236
119	0xbe8c9009	-0.2745364
120	0xbe3df92f	-0.18552087
121	0x3e877248	0.26454377
122	0x3e3eb0e4	0.18622166
123	0xbdc56ce3	-0.09639909
124	0xbe95b4a3	-0.29239377
125	0x3e670506	0.2256051
126	0xbd9c49fc	-0.07631299
127	0x3e9d0303	0.3066636
128	0x3e5a4415	0.21315034
129	0xbe05760e	-0.13033316
130	0x3d92a7ce	0.071609125
131	0xbe827d17	-0.2548606
132	0xbe1758c1	-0.1477995
133	0x3df7fa30	0.12108266
134	0x3e8da16e	0.27662224
135	0x3cc579f5	0.024106005
136	0x3cd706e4	0.026248403
137	0x3e9d8b7a	0.30770475
138	0x3e1c02a4	0.15235382
139	0xbd5fd698	-0.054648012
140	0x3d62f7e3	0.055412184
141	0xbe4ab44d	-0.19795342
142	0x3e4d93ce	0.20075914
143	0xbe2c44f5	-0.1682318

encoder.0.bias f4 [16]
0	0x3ce13b8c	0.027494214
1	0xbe1bffa5	-0.1523424
2	0x3e3a48de	0.18191859
3	0xbe9375d5	-0.28800836
4	0xbd22cac2	-0.039744146
5	0xbdadc639	-0.084850736
6	0x3e1cc94a	0.1531116
7	0x3daea681	0.08527852
8	0x3d9325c8	0.071849406
9	0xbe77d66c	-0.24202889
10	0x3e5b9a03	0.2144547
11	0x3e245400	0.16047668
12	0xbd62472a	-0.05524365
13	0x3e8c9217	0.27455208
14	0xbe79759b	-0.24361269
15	0x3c2135ba	0.00983947

encoder.2.weight f4 [32, 16, 3, 1]
0	0xbd89844a	-0.06714685
1	0x3da88d69	0.08230097
2	0x3d1a232c	0.0376312
3	0xbdb1892b	-0.08668741
4	0x3aa9d9fa	0.0012958639
5	0xbc983e37	-0.018584354
6	0xbdf2e1ca	-0.11859472
7	0xbdacf8b6	-0.08445875
8	0x3dafc924	0.085832864
9	0x3c7b83af	0.01535122
10	0x3dc98a7c	0.09840867
11	0x3c0cb298	0.008587502
12	0x3d441b1c	0.047877416
13	0x3cfe559a	0.031046677
14	0x3d1c8286	0.038210414
15	0x3dd50462	0.104012266
16	0x3cdc5ea8	0.026900604
17	0xbdea8f62	-0.11453129
18	0x3cc491df	0.023995338
19	0x3d2f9333	0.04286499
20	0x3dd3a10e	0.10333453
21	0x3ba69976	0.005084212
22	0xbe01ce34	-0.12676316
23	0x3d8d5f5f	0.06902956
24	0xbcbfa8d7	-0.023395939
25	0x3d1e0988	0.03858331
26	0x3cdd6fcd	0.02703085
27	0x3dfe6139	0.124208875
28	0x3c9c4bda	0.019079138
29	0xbcafe6f1	-0.021472426
30	0xbdc3e46e	-0.09565054
31	0xbe15cf89	-0.1462995
32	0xbdc2366a	-0.09483035
33	0x3d7d747e	0.061878674
34	0xbdabb3c1	-0.08383895
35	0x3df086e0	0.11744475
36	0xbe043549	-0.12910952
37	0x3d02bd77	0.03191897
38	0xbcaa34fe	-0.020777222
39	0xbc8d050b	-0.017214319
40	0x3cf10ecf	0.029426007
41	0xbcc9265f	-0.02455443
42	0x3cd4b834	0.025966741
43	0xbe07343c	-0.1320352
44	0xbe1080d4	-0.14111644
45	0xbdbadfa1	-0.09124685
46	0x3da3d105	0.07998852
47	0x3c086376	0.008324495
48	0x3c0ae83f	0.008478223
49	0x3daab139	0.08334584
50	0xbe03278f	-0.12808059
51	0x3cec8bf9	0.028875338
52	0x3d2c0398	0.041995615
53	0xbd6eb4d5	-0.058277924
54	0xbda9d632	-0.08292808
55	0xbd6e1cc5	-0.058132906
56	0x3b510dd3	0.003189911
57	0x3d93f52d	0.07224498
58	0xbdd54683	-0.1041384
59	0xbe01462a	-0.12624422
60	0xbba06333	-0.004894638
61	0xbdfb9282	-0.122838035
62	0x3dd4b44d	0.10385952
63	0xbb92a9e5	-0.0044758194
64	0x3daced32	0.08443679
65	0x3cf17a57	0.029477281
66	0xbe128dfc	-0.14311975
67	0x3d82db77	0.06389516
68	0xbd893c63	-0.06700971
69	0x3c33393a	0.010938937
70	0xbd67d4a0	-0.05659926
71	0x3d38b2cb	0.045092385
72	0xbda640b4	-0.0811781
73	0x3d9b11a8	0.07571727
74	0x3e063f21	0.1311002
75	0xbdc876b8	-0.09788269
76	0xbd5d8c81	-0.054089073
77	0xbde7c110	-0.113161206
78	0x3d3d3c1c	0.046199903
79	0x3dc0d453	0.09415498
80	0x3dd99baa	0.10625394
81	0xbbc0b19f	-0.005880549
82	0x3df73470	0.120705485
83	0xbd4bb113	-0.049729418
84	0xbe15dcdd	-0.14635034
85	0x3cf7f5b2	0.030268524
86	0xbe0d239a	-0.13783112
87	0xbe093b25	-0.13401468
88	0x3dab2d8d	0.083582975
89	0xbda585ef	-0.080821864
90	0x3b7b172d	0.0038313374
91	0xbd866a62	-0.0656326
92	0x3da7b94e	0.08189641
93	0xbca4d44c	-0.020120762
94	0xbd04a772	-0.03238625
95	0x3c5412ca	0.012943933
96	0xbdf4215a	-0.11920424
97	0x3b4f7524	0.0031655515
98	0x3de0feab	0.10986074
99	0xbe00bb1a	-0.12571374
100	0x3d49d78b	0.049277823
101	0x3dc22a51	0.094807275
102	0xbe0e0e21	-0.13872577
103	0xbb9cae3d	-0.004781513
104	0x3e03a463	0.12855677
105	0x3d12e6bc	0.035864577
106	0xbd23fd07	-0.040036228
107	0x3dea32f7	0.11435502
108	0xbd851901	-0.0649891
109	0x3de42908	0.111406386
110	0xbd5f9abf	-0.054590937
111	0x3c14f24e	0.009090973
112	0x3d6920e1	0.05691612
113	0x3bbd90fd	0.005785106
114	0xbd8b3090	-0.06796372
115	0x3d2ba884	0.041908756
116	0x3ddb1f73	0.10699358
117	0x3db5f208	0.088840544
118	0x3e060997	0.13089596
119	0x3da71949	0.0815912
120	0xbd962aee	-0.07332407
121	0xbd8dff18	-0.06933421
122	0xbd2d4fe7	-0.04231253
123	0xbc487c20	-0.012236625
124	0xb64fe0b6	-3.0976203e-06
125	0x3dfcec48	0.123497546
126	0x3d96f320	0.07370591
127	0xbc7eea1b	-0.015558745
128	0xbe130980	-0.14359093
129	0x3da1a816	0.07893388
130	0xbd25bfd9	-0.040466163
131	0x3da5ef00	0.08102226
132	0xbda47c0e	-0.08031474
133	0xbdd7d99f	-0.10539555
134	0xbc976eee	-0.018485513
135	0xbd9292d5	-0.07156912
136	0xbce59985	-0.028027305
137	0x3bb8897c	0.005631624
138	0x3d44ea4a	0.048074998
139	0xbd0750c7	-0.03303602
140	0x3c8ebece	0.017424967
141	0xbda0ff15	-0.07861153
142	0xbd467ca9	-0.04845873
143	0x3d6bdf6b	0.057586115
144	0x3cafb237	0.021447284
145	0x3db12a23	0.08650615
146	0xbddc8ef6	-0.10769455
147	0x3d854334	0.065069586
148	0xbe00659f	-0.12538765
149	0xbdcf717c	-0.10129067
150	0xbd7134a9	-0.05888811
151	0x3d85e21b	0.06537267
152	0xbdb6a71a	-0.08918591
153	0x3de6e6f5	0.1127452
154	0xbc92e9ed	-0.01793381
155	0xbdf32b5a	-0.11873503
156	0xbbab1413	-0.005220899
157	0xbd3b9f7a	-0.045806386
158	0xbdab1669	-0.08353884
159	0xbd82e569	-0.06391413
160	0x3cc51332	0.024057005
161	0xbc8672c5	-0.016412148
162	0x3d62d569	0.055379305
163	0xbddacc50	-0.10683501
164	0x3c7c1eb9	0.015388184
165	0xbc271136	-0.0101969745
166	0xbd94b42c	-0.072609276
167	0xbcd4c26a	-0.02597161
168	0x3c526d6e	0.012843473
169	0xbdfefe7d	-0.124508835
170	0x3e055a38	0.13022697
171	0xbd0b9a92	-0.034082957
172	0xbe0f4ddf	-0.13994549
173	0xbdf31f86	-0.11871247
174	0x3deaac34	0.114586264
175	0x3c62be43	0.013839307
176	0x3d881f11	0.066465504
177	0x3d572b87	0.052531745
178	0xbc96bcdc	-0.018400602
179	0xbd816473	-0.06317987
180	0xbe0b301b	-0.1359257
181	0xbd974806	-0.07386784
182	0xbd82176d	-0.06352124
183	0xbb0dce27	-0.002163777
184	0xbddcd90c	-0.10783586
185	0xbdc53b88	-0.09630495
186	0xbac1b3fb	-0.001477837
187	0x3df967ac	0.12177977
188	0xbdd7746f	-0.10520255
189	0x3cc890fb	0.024483195
190	0x3db946b3	0.09046688
191	0x3cdc65de	0.026904043
192	0x3b770e67	0.0037697793
193	0xbe161967	-0.14658128
194	0xbe0aaf35	-0.13543399
195	0x3db8eceb	0.090295635
196	0xbd050185	-0.032472152
197	0xbe1291fd	-0.14313503
198	0xbdb757f6	-0.08952324
199	0xbdb00d81	-0.08596326
200	0x3d634076	0.055481397
201	0xbdadf345	-0.084936656
202	0xbd3c2d51	-0.045941655
203	0xbca38008	-0.019958511
204	0xbdf3b9a4	-0.119006425
205	0xbda87006	-0.08224492
206	0x3ca78085	0.020447025
207	0xbd73c60a	-0.059515037
208	0xbd6c645d	-0.0577129
209	0xbbf4ee13	-0.0074746697
210	0x3e0625ca	0.13100353
211	0x3d894bcf	0.067039125
212	0xbd850e22	-0.06496836
213	0xbc0f92ec	-0.008763056
214	0x3df1e8cb	0.1181198
215	0xbddab086	-0.106782004
216	0xbbac248d	-0.0052533806
217	0x3db37989	0.08763415
218	0xbe0c64e6	-0.13710365
219	0x3da2ccae	0.07949196
220	0xbc4a0285	-0.012329702
221	0x3a08ca99	0.00052181777
222	0xbd83b96d	-0.064318515
223	0x3cd0034b	0.025392195
224	0xbd49acc1	-0.049237017
225	0x3d3b44d8	0.04571995
226	0x3b1a82fb	0.0023576606
227	0xbd0dd69e	-0.034628503
228	0x39c8d8d7	0.0003830853
229	0x3a0f4c64	0.00054664
230	0x3b049fc6	0.0020236834
231	0x3d5188d9	0.0511559
232	0xbde6a324	-0.11261585
233	0xbe0654c7	-0.13118277
234	0xbd538e85	-0.05164959
235	0xbcdf1a98	-0.02723436
236	0x3d2c06ad	0.041998554
237	0xbdab4e84	-0.08364585
238	0x3d369857	0.044578876
239	0xbd902feb	-0.070403896
240	0xbca95bd8	-0.020673677
241	0xbd005926	-0.03133502
242	0xbdbd13ef	-0.09232318
243	0xbd6f8163	-0.058473002
244	0x3cf94c7b	0.030431977
245	0x3db59689	0.08866603
246	0xbdaeadc4	-0.08529237
247	0xbc3b8231	-0.011444614
248	0x3dc2a09e	0.095032915
249	0xbadf644e	-0.0017043443
250	0xbdb6ca54	-0.0892531
251	0xbc91056b	-0.017702779
252	0x3de33a27	0.11095076
253	0x3dcdc63e	0.10047577
254	0xbd0bb2ef	-0.03410619
255	0xbde5c96a	-0.11220057

encoder.2.bias f4 [32]
0	0x3d011eca	0.031523503
1	0xbda53fdb	-0.0806882
2	0x3d64b815	0.055839617
3	0xbe0152df	-0.12629269
4	0xbd193840	-0.03740716
5	0xbcd8faab	-0.026486715
6	0x3cd9addb	0.026572159
7	0xbd01a2ae	-0.031649284
8	0x3d595458	0.053058952
9	0xbe122a29	-0.14273895
10	0xbd5c91dc	-0.05385004
11	0x3e07e08a	0.13269249
12	0xbddab63b	-0.10679289
13	0xbd36dec4	-0.04464604
14	0xbdbb16e1	-0.09135223
15	0x3e08e61f	0.13369034
16	0xbc1bf494	-0.009518761
17	0xbdb8775e	-0.090071425
18	0x3d9c268c	0.0762454
19	0xbd8c2517	-0.06843012
20	0x3dea900c	0.11453256
21	0xbe0ce606	-0.13759622
22	0x3dacf321	0.08444811
23	0xbdea3984	-0.114367515
24	0xbca5f837	-0.02025996
25	0x3df4b30b	0.11948212
26	0x3da37060	0.07980418
27	0x3cf0be42	0.029387597
28	0xbe10cbbe	-0.14140221
29	0xbd565ee2	-0.05233658
30	0x3dd12947	0.10212951
31	0xbdfd0619	-0.12354679

encoder.4.weight f4 [64, 32, 3, 1]
0	0xbdb025aa	-0.08600934
1	0xbdb3f51c	-0.08786985
2	0x3db54db7	0.088527136
3	0x3c57b369	0.013165333
4	0x3b65ee2a	0.0035084584
5	0xbd8658d6	-0.06559913
6	0x3d98725d	0.07443688
7	0xbc9d8690	-0.019229203
8	0x3db0ec88	0.08638865
9	0x3a6bdfd0	0.0008997889
10	0x3d93e2c7	0.07220989
11	0xbd2cfced	-0.042233396
12	0xbb242b4b	-0.0025050219
13	0xbc84cdb2	-0.016211364
14	0xbdc79518	-0.09745234
15	0x3d82a358	0.063788116
16	0xbd0da0ba	-0.03457711
17	0x3d72d821	0.059288148
18	0xbd38025b	-0.04492412
19	0xbd2a6bc2	-0.041606672
20	0xbc9738ac	-0.01845964
21	0x3d4c8eb1	0.04994077
22	0xbd8f7181	-0.07004071
23	0x3da6aabd	0.081380345
24	0x3d8f5122	0.06997897
25	0xbd725213	-0.059160303
26	0x3db008e9	0.085954495
27	0x3d67b7cb	0.056571763
28	0xbdb20b00	-0.08693504
29	0x3d2af7fc	0.041740403
30	0x3d32ca12	0.04364974
31	0xbdce3614	-0.10068908
32	0x3cbdaab8	0.023152694
33	0x3d2b8ce5	0.041882414
34	0xbd933dbf	-0.071895115
35	0xbc2f381d	-0.010694531
36	0xbd24ea78	-0.04026267
37	0xbdc6d460	-0.09708476
38	0x3a5d6d54	0.0008446772
39	0xbdb17afb	-0.08666035
40	0xbd4ad681	-0.049520973
41	0xbc8ce74d	-0.017200137
42	0x3cf8c0ea	0.030365426
43	0x3dab1738	0.08354038
44	0x3d5ad958	0.05342993
45	0xbdd844fd	-0.105600335
46	0xbd465591	-0.048421446
47	0x3da5bde8	0.08092862
48	0x3d98943c	0.074501485
49	0xbd432531	-0.04764289
50	0x3c874511	0.016512426
51	0x3c7e12fb	0.015507455
52	0x3c91e1d4	0.017807879
53	0xbdcd1e2d	-0.10015521
54	0xbd85cf75	-0.0653371
55	0xbd583efc	-0.05279444
56	0xbd75d6ef	-0.06001943
57	0xbd206c45	-0.039165754
58	0x3d1bad22	0.03800691
59	0x3d95a352	0.073065415
60	0xbb76c99c	-0.003765679
61	0xbd910de3	-0.07082727
62	0x3dbc0540	0.09180689
63	0x3d5d33db	0.05400453
64	0xbc23d5bc	-0.009999689
65	0xbd70f558	-0.058827728
66	0xbd6e1a1a	-0.05813036
67	0x3d7dcb93	0.06196172
68	0xbc98ee44	-0.018668301
69	0xbd365b74	-0.04452081
70	0x3db4e7af	0.08833253
71	0xbda880ef	-0.08227717
72	0xbd2027d7	-0.039100494
73	0xbd808cca	-0.062768534
74	0x3db041b1	0.0860628
75	0xbd936260	-0.07196498
76	0x3cab0659	0.02087705
77	0x3da73c9f	0.081658594
78	0x3c64323d	0.013927993
79	0xbc4d66b3	-0.012536692
80	0xbd7f3852	-0.06230957
81	0x3daf8103	0.08569529
82	0x3d7395a0	0.059468865
83	0x3d24f77d	0.040275086
84	0x3dbe4ce6	0.09292011
85	0x3d9d985b	0.07695075
86	0xbd62f060	-0.05540502
87	0xbd3d55ac	-0.04622428
88	0x3d8f1b8f	0.06987678
89	0x3c86f385	0.016473541
90	0x3d9ecda7	0.07754069
91	0xbcec6f94	-0.028861798
92	0xbd2f56f2	-0.042807527
93	0xbda6c14f	-0.081423394
94	0x3d817f09	0.06323058
95	0xbd1d61d3	-0.03842337
96	0xbdcd4df7	-0.10024636
97	0xbbfa34b9	-0.0076356796
98	0x3c558b13	0.013033646
99	0x3d0116d8	0.031515926
100	0x3cf19df2	0.02949426
101	0xbd63a9ca	-0.055581845
102	0xbdad9c20	-0.08477044
103	0x3d360d84	0.044446483
104	0x3d8a3a63	0.06749418
105	0xbd5162ad	-0.051119495
106	0x3d31c304	0.043398872
107	0xbd8d1961	-0.06889606
108	0xbccec2d6	-0.02523939
109	0xbd279567	-0.040913966
110	0x3d3a1885	0.04543354
111	0xbcd6438f	-0.026155261
112	0xbcbb9e24	-0.022902556
113	0x3da1b6d3	0.07896199
114	0x3dbd8efc	0.09255788
115	0x3d719aa4	0.058985367
116	0xbd68e85d	-0.056862224
117	0x3dc28cc4	0.09499505
118	0x3db578f2	0.08860959
119	0xbd911d64	-0.07085684
120	0x3caa9d61	0.020826997
121	0xbcb77954	-0.022396721
122	0x3db4fdb0	0.088374496
123	0x3d99f966	0.07518272
124	0xbcddbea8	-0.027068451
125	0x3c617639	0.013761097
126	0x3cc42fc0	0.02394855
127	0xbc7be7a9	-0.015375056
128	0x3daee888	0.085404456
129	0x3d2994fa	0.04140184
130	0xbd9ea2e8	-0.07745916
131	0xbc084765	-0.008317803
132	0xbdc1737a	-0.094458535
133	0x3d8f9ac8	0.07011944
134	0x39d19495	0.0003997429
135	0xbca197d7	-0.019725723
136	0x3dc38781	0.0954733
137	0x3db8b1ce	0.090182886
138	0x3d858d66	0.0652111
139	0xbd6a12aa	-0.057146706
140	0xbdd05a39	-0.101734586
141	0x3dc1c7b0	0.094619155
142	0xbd11c0ba	-0.03558419
143	0x3dbdccaf	0.09267556
144	0xbd770d72	-0.060315557
145	0xbc12f2dd	-0.008969036
146	0x3d30d605	0.043172855
147	0x3d12349f	0.035694715
148	0x3c7cd60b	0.015431891
149	0xbddb2e8f	-0.1070224
150	0x3cc70088	0.024292246
151	0xbc901705	-0.017589102
152	0xbc90ad8d	-0.01766088
153	0xbd2dddc7	-0.04244783
154	0x3caf6394	0.021409787
155	0x3d7e7d4b	0.062131207
156	0xbcfec2db	-0.031098774
157	0x3d418c98	0.04725322
158	0x3d282a83	0.041056167
159	0xbd466f78	-0.04844615
160	0x3d8bcad5	0.068257965
161	0x3d90c29d	0.070683695
162	0xbd9395dc	-0.07206318
163	0x3dc326f4	0.09528914
164	0xbcac51b0	-0.021035045
165	0xbd4f5c02	-0.050624855
166	0x3d88a105	0.06671337
167	0xbca037e5	-0.019557903
168	0x3d093e55	0.03350671
169	0xbda39ed0	-0.079892755
170	0xbd8bd739	-0.0682816
171	0xbd2416ea	-0.040060915
172	0xb97538ff	-0.00023386253
173	0xbda913ab	-0.082557045
174	0xbc983e14	-0.018584289
175	0xbdbc53d3	-0.09195676
176	0x3c85bcb5	0.016325334
177	0x3d9e4ac3	0.077291034
178	0x3c7d73d3	0.015469509
179	0xbd777185	-0.060410995
180	0xbd955500	-0.07291603
181	0xba10c8c1	-0.0005523079
182	0x3d551bd4	0.052028492
183	0x3d9e7dd1	0.07738841
184	0x3c06aa4b	0.008219312
185	0x3dbd9fc5	0.09258989
186	0xbcbe284e	-0.023212578
187	0x3cf477ce	0.029842284
188	0xbdc398fa	-0.09550662
189	0xbb9caff4	-0.0047817174
190	0xbd171bce	-0.03689175
191	0xbd0203b3	-0.03174181
192	0x3db56a18	0.088581264
193	0x3cf2a2a8	0.029618576
194	0x3c1311a3	0.008976373
195	0xbc1e16c0	-0.009648979
196	0x3d8ce74f	0.06880056
197	0x3d3ce48e	0.046116404
198	0x3d698db5	0.057019908
199	0x3d871624	0.0659602
200	0x3d57ddb6	0.052701674
201	0x3d537495	0.051624853
202	0x3c4f90e8	0.012668826
203	0x3cab416f	0.020905225
204	0xbd2ba83c	-0.041908488
205	0x3d86ee76	0.065884516
206	0xbcda563a	-0.026652444
207	0xbd8e5224	-0.06949261
208	0xbd8f16f4	-0.069868
209	0xbd4d1bd9	-0.050075386
210	0xbda07516	-0.07834832
211	0xbddab51b	-0.106790744
212	0xbdb8add8	-0.09017533
213	0x3db07f13	0.086179875
214	0x3d9c29e2	0.07625176
215	0xbcda0e55	-0.026618162
216	0x3d616453	0.055027317
217	0xbcf8834b	-0.030336043
218	0xbdc3265a	-0.09528799
219	0x3d79c8fe	0.060982697
220	0xbd7a96ed	-0.06117909
221	0xbd9bceba	-0.07607789
222	0x3cc75d6d	0.024336541
223	0xbcb87685	-0.022517452
224	0xbd91749a	-0.07102318
225	0x3c811bd0	0.015760332
226	0x3cf0364f	0.029322771
227	0xbcbebe47	-0.02328409
228	0x3ce03cfc	0.02737283
229	0x3dae9b16	0.08525674
230	0x3d9e52c3	0.07730629
231	0xbdb812dd	-0.08987973
232	0x3c9765ee	0.018481221
233	0x3db3b398	0.08774489
234	0x3b9cd948	0.004786644
235	0xbd95bd0e	-0.0731145
236	0xbdbedcb7	-0.09319442
237	0xbd50c4aa	-0.050968803
238	0xbd15dd2f	-0.03658789
239	0xbc611baa	-0.013739506
240	0xbd878a33	-0.06618156
241	0x3c9b4ff2	0.01895902
242	0x3d46da6d	0.04854815
243	0xbde81767	-0.11332589
244	0x3d1f6497	0.03891429
245	0xbd51592d	-0.051110435
246	0xbdaaa03e	-0.08331345
247	0xbdc701fb	-0.097171746
248	0xbd5ea7af	-0.054359134
249	0xbca9b473	-0.020715928
250	0xbd7b8c2f	-0.061412986
251	0xbdc0ced8	-0.09414452
252	0xbd988ecf	-0.074491136
253	0x3d74142a	0.059589542
254	0xbd8fa12c	-0.07013163
255	0x3d96d148	0.07364136

encoder.4.bias f4 [64]
0	0xbc80997b	-0.015698185
1	0xbc24276a	-0.010019163
2	0x3bc57de7	0.0060269716
3	0xbd459487	-0.04823735
4	0xbdafd49b	-0.08585473
5	0x3cbe5013	0.023231542
6	0x3d56635d	0.052340854
7	0xbd775d04	-0.06039144
8	0x3dbc72e3	0.092016004
9	0xbca2a46b	-0.019853791
10	0x3dc3f0bd	0.095674016
11	0x3d2fd15b	0.042924266
12	0xbdbbed99	-0.091761775
13	0xbd4f0387	-0.050540473
14	0x3c461365	0.012089585
15	0x3d4547c7	0.048164155
16	0xbdbe78fc	-0.0930042
17	0xbd1c78cf	-0.03820115
18	0x3d180429	0.037113342
19	0xbd090e0d	-0.033460665
20	0xbcc63fe3	-0.024200385
21	0xbd570d1a	-0.05250273
22	0x3cbd9559	0.023142504
23	0xbda513e9	-0.08060438
24	0xbda1197f	-0.07866191
25	0x3cdbc1e9	0.026825862
26	0x3d92ff1d	0.07177565
27	0x3d8f744f	0.07004606
28	0xbd86b807	-0.06578069
29	0x3dc304f7	0.09522431
30	0x3d531c98	0.05154094
31	0x3d8d8292	0.0690967
32	0xbcf4abaf	-0.029867021
33	0x3d22dc49	0.03976086
34	0xbdbb1b6b	-0.09136089
35	0xbdb6b4e4	-0.08921221
36	0x3c8f0924	0.017460413
37	0xbddf52b9	-0.1090445
38	0x3db79944	0.0896478
39	0xbd43bd1b	-0.047787767
40	0x3d893156	0.06698863
41	0x3cf0f4ef	0.029413668
42	0xbbc59aff	-0.00603044
43	0x3d29c946	0.041451715
44	0x3d37118f	0.04469448
45	0x3d9a684d	0.07539425
46	0xbcd40fa8	-0.025886372
47	0x3da48851	0.08033813
48	0x3a92ec45	0.001120933
49	0x3c8892b0	0.016671509
50	0x3b8b5c5c	0.0042529535
51	0x3cfafb31	0.030637356
52	0xbd3127ea	-0.043250956
53	0xbd86d506	-0.065836
54	0xbd9bc462	-0.076058164
55	0x3ce120f6	0.027481537
56	0x3d8fa68c	0.07014188
57	0x3d857af5	0.06517593
58	0x3d464434	0.048404887
59	0x3d99d4b7	0.07511275
60	0xbd737a8d	-0.059443045
61	0x3c3a202a	0.011360208
62	0xbc35ca8c	-0.011095654
63	0xbcf3c7d8	-0.029758379

encoder.6.weight f4 [128, 64, 3, 1]
0	0xbccd7535	-0.025080303
1	0xbd9a5e97	-0.07537573
2	0xbc7106cc	-0.014711093
3	0x3d63b2c8	0.05559042
4	0x3c27e059	0.01024636
5	0x3c04c9a6	0.008104717
6	0x3bd577a4	0.0065145064
7	0x3bd0ca3b	0.006371764
8	0xbcc502fd	-0.024049276
9	0xbd1825f2	-0.037145562
10	0xbc06de3a	-0.008231694
11	0xbab8381e	-0.001405481
12	0xbd03ed6b	-0.03220884
13	0x3d2f06d8	0.042731136
14	0x3aa1c4d5	0.0012341986
15	0xbd929b0c	-0.07158479
16	0xbce43ebd	-0.027861947
17	0x3d46ab4b	0.0485032
18	0xbcccb32b	-0.024987778
19	0xbd861027	-0.065460496
20	0x3d5dd1bf	0.054155108
21	0xadabd44c	-1.9534728e-11
22	0xb2831448	-1.525963e-08
23	0x310f65f0	2.0867184e-09
24	0xbda2b31a	-0.07944317
25	0x3d51784c	0.051140115
26	0x3d22d5d1	0.039754692
27	0x31084c27	1.9833892e-09
28	0x324cfd56	1.1931965e-08
29	0x2f34ca7f	1.6442846e-10
30	0x3ccbc83c	0.024875753
31	0x3d43afb4	0.047774985
32	0x3d644ce7	0.055737402
33	0xbccf7c03	-0.025327688
34	0xbd366eb2	-0.04453916
35	0x3d627984	0.055291668
36	0xbd7c2c33	-0.06156559
37	0x3d70f578	0.058827847
38	0x3bf1c3d6	0.007378082
39	0x3c3c99af	0.01151125
40	0x3cda6b46	0.02666248
41	0x3cbb252c	0.022844873
42	0xb26ad0ff	-1.3668113e-08
43	0x2f140c6a	1.3464932e-10
44	0xb9131989	-0.00014028525
45	0xbd892672	-0.06696786
46	0xbd3f52fa	-0.046709992
47	0xbd6dd446	-0.058063768
48	0xbd8c70d5	-0.068574585
49	0x3d2f9297	0.04286441
50	0xbd55976e	-0.052146368
51	0x3bfdb0af	0.0077420096
52	0xbb08791a	-0.0020824135
53	0x3aa98797	0.0012934086
54	0x3c1338fc	0.008985754
55	0x3d48b924	0.04900469
56	0xbd0e833f	-0.034793135
57	0xbd9ab4af	-0.07553994
58	0xbba4929d	-0.0050223605
59	0xbd25c973	-0.04047532
60	0x3cbd25d0	0.02308932
61	0x3d05f54c	0.032704636
62	0xbc2be6f7	-0.010492078
63	0x3d657654	0.05602105
64	0x3d81bc5b	0.06334754
65	0xbd896892	-0.06709398
66	0xbd65c9cc	-0.05610065
67	0x3ca3c033	0.019989109
68	0x3d2cb3bd	0.0421636
69	0x3d253bf2	0.04034037
70	0xbd5ca16b	-0.053864878
71	0xbc8abdf8	-0.016936287
72	0x3d8a8551	0.06763709
73	0xbcc01be1	-0.023450794
74	0x3d99b17b	0.07504555
75	0xbb471e11	-0.0030382911
76	0xbd208f1f	-0.03919899
77	0xbd898b70	-0.06716049
78	0xbc6b08d5	-0.014345367
79	0xbd3fd880	-0.04683733
80	0x3cfa8557	0.03058116
81	0x3ac9bddd	0.0015391667
82	0xbccd5f1a	-0.025069762
83	0xbd89a2df	-0.06720518
84	0xb99f8ad3	-0.00030430275
85	0x3c20fb24	0.009825502
86	0xbc6781fe	-0.014130114
87	0x3d1c3c2e	0.03814333
88	0x3c0cf50c	0.008603346
89	0xbd5b296c	-0.0535063
90	0x3c87c21d	0.016572053
91	0x3c0b4ca7	0.008502162
92	0xbd94f25c	-0.07272789
93	0x3c3e3e31	0.011611507
94	0x3cbb69e8	0.022877648
95	0x3d82f39b	0.0639412
96	0xbcaecddd	-0.021338398
97	0xbcc9176d	-0.024547303
98	0xbd3e78dc	-0.04650198
99	0x3d58c97e	0.052926533
100	0x3d3820a6	0.04495301
101	0xbd8684db	-0.06568309
102	0xbd2f5759	-0.04280791
103	0xbd8a9ddb	-0.0676839
104	0xbd27595c	-0.040856704
105	0xbd74382e	-0.05962389
106	0xbbf2bf7f	-0.007408082
107	0xbc7e4155	-0.015518506
108	0xbd611d42	-0.054959543
109	0x3c073a18	0.008253597
110	0xbd813df5	-0.063106455
111	0x3d6de6b3	0.05808134
112	0xbc518581	-0.0127881775
113	0xbd7eeabe	-0.062235586
114	0x3d495259	0.0491508
115	0x3cf6f6a3	0.030146902
116	0x3c0eeb95	0.008723159
117	0x3cbb5d40	0.022871614
118	0xbb717062	-0.0036840667
119	0x3c17a2e3	0.009255144
120	0xbc99b884	-0.018764742
121	0x3d41b634	0.047292903
122	0xbcf2997a	-0.029614199
123	0x3ca23b44	0.01980365
124	0xba122200	-0.00055745244
125	0x3d068941	0.03284574
126	0xbd6c66ce	-0.05771523
127	0xbd367e29	-0.04455391
128	0xbda2c88e	-0.07948409
129	0xbd2c8539	-0.04211924
130	0x3c3424d9	0.010995113
131	0xbd9e6394	-0.07733837
132	0xbd8fd9e5	-0.07023982
133	0x3cabed76	0.020987254
134	0x3bed3b59	0.007239741
135	0x3d460c97	0.04835185
136	0xbd7fa33f	-0.062411543
137	0xbd809692	-0.06278719
138	0x3cd5197f	0.026013134
139	0xbc8652e1	-0.016396942
140	0x3d611e79	0.0549607
141	0xbd007989	-0.031365905
142	0x3d5a499a	0.05329285
143	0xbd1412a2	-0.036150582
144	0x3d44f681	0.048086647
145	0x3b499c60	0.0030763373
146	0x3adfd66f	0.0017077456
147	0xbda061b6	-0.07831137
148	0x3d7599d4	0.059961155
149	0x3d4dc377	0.050235238
150	0xb290bdb6	-1.6850077e-08
151	0xb0e4dc12	-1.6651731e-09
152	0xaf66d329	-2.0993397e-10
153	0xbd520e1f	-0.051283
154	0x3c863e5e	0.01638716
155	0x3cc15618	0.023600623
156	0x3cf65668	0.030070499
157	0xbd86353f	-0.06553125
158	0xbccf0766	-0.025272083
159	0xbc0e94e5	-0.008702491
160	0xbd7750c8	-0.060379773
161	0x3ce5f813	0.028072393
162	0x3d802c32	0.062584296
163	0x3d6b9a25	0.05752005
164	0xb9ecd151	-0.0004516938
165	0xbd7c8c36	-0.061657153
166	0x3d5cbdcd	0.053891946
167	0xbd6d3bc0	-0.05791831
168	0xbd66409b	-0.056213956
169	0x3c448bb3	0.0119961975
170	0x3c48a920	0.012247354
171	0xbc01608d	-0.007896555
172	0xbd070edb	-0.03297315
173	0xbd18087a	-0.03711746
174	0x3d49096a	0.049081244
175	0xbd5159f6	-0.051111184
176	0x3d552fe5	0.05204763
177	0xbcc59921	-0.02412087
178	0xbcf1faa3	-0.029538458
179	0x3ccc5f6d	0.024947846
180	0xb01d45f8	-5.72157e-10
181	0xaf432168	-1.7747015e-10
182	0x309571a9	1.0873481e-09
183	0x3cd83f2c	0.02639731
184	0xbd3ac5b6	-0.045598708
185	0x3d7f1167	0.062272456
186	0xbd34e7da	-0.044166423
187	0x3c925b26	0.017865729
188	0x3c095353	0.008381682
189	0xbcff400f	-0.031158475
190	0xbd5b33a8	-0.05351606
191	0xbd874bda	-0.066062644
192	0x3ce8c9bc	0.028416507
193	0x3d2e8c31	0.042614166
194	0xbd5680d8	-0.05236897
195	0xbd1fb630	-0.038992107
196	0xbd7157df	-0.05892169
197	0x3c9a2491	0.018816264
198	0xbc464b1c	-0.012102868
199	0x3d78f0e5	0.06077661
200	0x3cc0851f	0.023500977
201	0xbc3d6d48	-0.011561699
202	0xbc39ddf2	-0.01134442
203	0xbd90f83b	-0.07078596
204	0x3d14c4cb	0.03632049
205	0xbc0ffe7e	-0.008788703
206	0x3d16d44b	0.036823552
207	0xbcafdf7e	-0.021468874
208	0x3c864a5e	0.016392883
209	0xbcc1cd07	-0.023657335
210	0x3c37f690	0.011228219
211	0xbd569ba2	-0.052394517
212	0x3cb2eeeb	0.02184244
213	0x381a9d86	3.6863166e-05
214	0x396f40e1	0.00022816985
215	0x3afdc15b	0.0019359993
216	0x3d2bba41	0.041925672
217	0x3d6524f8	0.05594346
218	0xbc4eae93	-0.012614864
219	0x3b91c12f	0.004448078
220	0x3d28d191	0.041215483
221	0xbdb370a0	-0.08761716
222	0x3ce51d55	0.027968088
223	0x3d4adb41	0.049525503
224	0x3c3eadea	0.011638144
225	0xbcbbe1a6	-0.022934746
226	0xbd8772a6	-0.06613664
227	0x398ef56b	0.000272672
228	0xbd6e5ef4	-0.058196023
229	0x3c99e829	0.01878746
230	0xbc8e041e	-0.017335948
231	0x3d04390b	0.032280963
232	0xbd907c67	-0.07054978
233	0xbd1037c1	-0.03520942
234	0xbd25da0a	-0.04049114
235	0x3d2ad4a1	0.041706685
236	0xbd146e03	-0.036237728
237	0xbd74c491	-0.059757773
238	0xbd64887a	-0.055794217
239	0xbd4792af	-0.048723873
240	0xbd4a1c57	-0.049343433
241	0x3d484f36	0.048903666
242	0x3d05d221	0.032671098
243	0xbce16230	-0.02751264
244	0x3cdc55ff	0.026896475
245	0xbd6a5b35	-0.057215888
246	0xbcffdc58	-0.031232998
247	0xbc97dcf0	-0.018537968
248	0x3d2350e8	0.03987208
249	0xbcc655d7	-0.024210854
250	0xbd9876bc	-0.07444522
251	0x3d342d2b	0.043988388
252	0xbd400785	-0.04688217
253	0x3c7abcd1	0.015303806
254	0xbd60e045	-0.05490138
255	0x3d5744a4	0.052555695

encoder.6.bias f4 [128]
0	0xbd1bec5a	-0.0380672
1	0x3cc74746	0.024325978
2	0xbc273c83	-0.010207298
3	0xbc8930e8	-0.016746953
4	0xbc3434be	-0.010998903
5	0xbcaa0bd5	-0.020757595
6	0x3a48a29b	0.00076536246
7	0xbc9aee25	-0.018912384
8	0x3d84e363	0.06488683
9	0xbaff1536	-0.0019461277
10	0x3cee5533	0.02909336
11	0xbcddcd7e	-0.027075525
12	0xb937eb98	-0.00017540006
13	0x3c527c6a	0.012847045
14	0xbd5d2678	-0.053991765
15	0x3c8a35cd	0.016871357
16	0xbd489d77	-0.048978295
17	0x3ca688c3	0.020328885
18	0x3d74ab76	0.05973383
19	0x3cac7212	0.021050487
20	0x3c785d0c	0.015158903
21	0xbcf000be	-0.029297229
22	0xbd01c399	-0.031680677
23	0xbd0a9b8d	-0.03383975
24	0x3d86d25c	0.065830916
25	0xbd5f0370	-0.054446638
26	0xbd6b7b1d	-0.057490457
27	0x3d30edb0	0.043195426
28	0x3d3167cc	0.04331188
29	0x3d8bdbfd	0.06829069
30	0xbd5bf83f	-0.053703543
31	0x3d7a74d7	0.061146583
32	0xbcf68aae	-0.030095425
33	0xbcd4b045	-0.025962958
34	0x3d2925ce	0.04129582
35	0x3d73e8b6	0.059548102
36	0x3d8666e4	0.065625936
37	0xbd7ad21e	-0.06123554
38	0xbc180fd3	-0.009281117
39	0x3cbd2927	0.023090912
40	0x3d8a24b8	0.06745285
41	0x3cff52e7	0.03116746
42	0xbc327d0c	-0.010894071
43	0xbd25b61c	-0.040456876
44	0x3bfaeab3	0.007657373
45	0x3d540331	0.051760856
46	0x3d18c195	0.03729399
47	0x3d19983a	0.03749869
48	0xbd5d92d1	-0.054095093
49	0xbcffb16e	-0.031212535
50	0x3d41dc8d	0.047329474
51	0x3b4ac1ca	0.0030938261
52	0xbd26a55b	-0.04068504
53	0x3caa0e2e	0.020758715
54	0xbce6a425	-0.028154442
55	0xbd4ae3b5	-0.049533565
56	0xbc2ebfad	-0.010665816
57	0xbd8f999e	-0.07011722
58	0x3c9ea9a2	0.019367997
59	0x3d27ec55	0.04099687
60	0xbcb1ba6a	-0.021695334
61	0xbc0ca590	-0.008584395
62	0x3d5bd1a7	0.053666737
63	0xbc179c95	-0.009253641
64	0xbd525446	-0.0513499
65	0xbd5305ff	-0.05151939
66	0xbc7ac58c	-0.015305888
67	0x3bba861d	0.005692257
68	0xbb609218	-0.0034266766
69	0x3ca0b373	0.019616818
70	0xbcca3a81	-0.0246861
71	0x3c72c29e	0.014816908
72	0x3d8cba6d	0.068714954
73	0xbd3957de	-0.045249812
74	0xbd7b1daf	-0.061307605
75	0x3cae252e	0.021257963
76	0x3bb5e908	0.005551461
77	0xbd94b722	-0.07261492
78	0x3d3c5aef	0.04598516
79	0xbd88497c	-0.06654641
80	0xbd7c1382	-0.06154204
81	0xbd4ff09d	-0.050766576
82	0xbb07f4f6	-0.0020745373
83	0xbd8e5f9e	-0.06951831
84	0xbcdcda8f	-0.026959686
85	0x3ca8dd4e	0.020613339
86	0xbc2a46a5	-0.0103928195
87	0x3d2c3ed6	0.042052113
88	0xbd20da49	-0.039270673
89	0xbd1bd3e1	-0.03804386
90	0x3b87218b	0.0041238717
91	0x3cc87557	0.024470014
92	0x3c59eb2e	0.0133007
93	0x3ca081e5	0.019593189
94	0x3c6ee682	0.0145813245
95	0xbc8d4e33	-0.017249202
96	0xbcd11948	-0.02552475
97	0xbc681dec	-0.01416729
98	0x3bae35d9	0.0053164777
99	0x3c2c0cbd	0.010501084
100	0xbce7cfc3	-0.02829731
101	0xbcf153f6	-0.029458981
102	0x3cdcdf19	0.02696185
103	0x3d722428	0.059116513
104	0xbc46e165	-0.012138699
105	0xbc9e28fc	-0.019306652
106	0xbc26ef77	-0.010188929
107	0xbc6a0fcc	-0.014285993
108	0x3c169ed9	0.009193146
109	0xbb345df7	-0.0027521828
110	0xbc9fc0ba	-0.019501079
111	0x3cfb2ca5	0.030660937
112	0xbd820a7c	-0.06349656
113	0xbc8f6816	-0.017505687
114	0x3d4e95fd	0.05043601
115	0xbd8f249e	-0.06989406
116	0x3d4f068c	0.050543353
117	0xbd516536	-0.051121913
118	0x3b35256d	0.0027640716
119	0x3d3c40e5	0.045960326
120	0x3cf1b78a	0.029506464
121	0x3c96258c	0.01832845
122	0x39c5eb68	0.0003775016
123	0xbc2a529a	-0.01039567
124	0xbc404d39	-0.011737161
125	0x3d287406	0.041126274
126	0xbd99998d	-0.074999906
127	0xbc5bff46	-0.013427561

encoder.8.weight f4 [256, 128, 3, 1]
0	0xbcb61e44	-0.022231229
1	0x3b0cd4d7	0.0021489167
2	0xbb976ea5	-0.004621344
3	0x3c15b269	0.009136775
4	0xbc8dc007	-0.01730348
5	0xbcda5869	-0.026653485
6	0xb03e4b83	-6.9228906e-10
7	0xaec60e80	-9.006573e-11
8	0xadf88f4e	-2.8257976e-11
9	0x3c52786e	0.0128460955
10	0xbcf5abeb	-0.029989203
11	0xbcc12987	-0.023579372
12	0xbcfc9a5f	-0.030835329
13	0xbd53e23c	-0.051729426
14	0xbc89383f	-0.016750453
15	0x3d2434e5	0.040089507
16	0x3bf8adb2	0.0075890655
17	0x3bf4b359	0.007467669
18	0x3d06404b	0.03277616
19	0x3d0a1b3f	0.03371739
20	0xbd0a90ae	-0.033829384
21	0xbcc09d80	-0.023512602
22	0xbd2bf27e	-0.041979305
23	0xbccb3e64	-0.024810024
24	0x3d114d1b	0.035473924
25	0xb9b39bbe	-0.00034257577
26	0x3d1c6e2a	0.038190998
27	0xacfa295a	-7.1100183e-12
28	0xbb811d7e	-0.0039402833
29	0xb727097e	-9.956186e-06
30	0xbbc78ce5	-0.006089794
31	0xbc547541	-0.012967409
32	0x3ce2439c	0.02762013
33	0xbc7d52d8	-0.015461646
34	0x3ce36d3a	0.027762044
35	0xbd23a588	-0.039952785
36	0x2d2cf2c2	9.830971e-12
37	0xabf61543	-1.7485253e-12
38	0x2fec53d1	4.2987705e-10
39	0xbcd3db0e	-0.02586129
40	0xbb6710ef	-0.0035257896
41	0xbc3d8203	-0.011566642
42	0x2e73e899	5.545839e-11
43	0xae2829f5	-3.8236043e-11
44	0xae942add	-6.737875e-11
45	0x3c6a653c	0.014306363
46	0x3cbef114	0.023308314
47	0xbd35ba12	-0.044366904
48	0xbb3abbe8	-0.0028493349
49	0xb12cd178	-2.5148363e-09
50	0xbafead8d	-0.0019430384
51	0xaf1be8ee	-1.4179921e-10
52	0xada874b3	-1.9151214e-11
53	0x2fa35750	2.9711567e-10
54	0xbd024571	-0.031804506
55	0x3bd5c559	0.00652377
56	0xbd13e1b8	-0.036103934
57	0xbcee708d	-0.029106403
58	0xbd56cbf7	-0.05244061
59	0x3ca3c27c	0.019990198
60	0xbd60fec4	-0.054930463
61	0xbd087e11	-0.03332335
62	0xbc93dccf	-0.018049626
63	0xbcf9e933	-0.030506706
64	0x3cac71ee	0.02105042
65	0x3d27e337	0.040988173
66	0x3d0f7b67	0.035029795
67	0xbc3a664e	-0.01137693
68	0x3cde4ff1	0.027137728
69	0xbc2390ec	-0.009983283
70	0x3cd7ab01	0.026326658
71	0x3cac3532	0.02102146
72	0xbd155630	-0.036459148
73	0xbcc8f73a	-0.02453195
74	0x3b97a617	0.0046279537
75	0xbccb58ba	-0.024822582
76	0xbc2aa963	-0.0104163615
77	0xbcda28e7	-0.026630832
78	0x3cdb082a	0.026737291
79	0xbc88971f	-0.016673623
80	0x3a846bf3	0.0010102972
81	0xbd3eb365	-0.046557803
82	0x3d28edf6	0.041242562
83	0xbcc8e642	-0.024523858
84	0xbce6ded8	-0.028182432
85	0xbc75ac86	-0.014994746
86	0x3d32a481	0.043613914
87	0x3ab0c135	0.0013485315
88	0x3c29404e	0.010330273
89	0xbd32af07	-0.04362395
90	0xbc773727	-0.015088833
91	0x3bda7421	0.0066666757
92	0x3cce6294	0.02519349
93	0xbb84a425	-0.004047888
94	0xbb7961df	-0.003805272
95	0xbd5b2362	-0.05350054
96	0xbd3c3249	-0.045946393
97	0x3d0745d7	0.03302559
98	0x3b5c77d3	0.0033640757
99	0x2f8bc0c2	2.5420915e-10
100	0xae3c4537	-4.2807726e-11
101	0x307b655a	9.14573e-10
102	0x3c0a377f	0.008436083
103	0xbd453caf	-0.048153576
104	0xbcab364d	-0.020899916
105	0x3c83f3cd	0.016107464
106	0xbcc3440d	-0.02383616
107	0x3cc8d498	0.024515435
108	0xbd41c197	-0.047303762
109	0x3cfcbf7c	0.030853026
110	0xbbc37ba6	-0.005965668
111	0x2fe4da28	4.1627968e-10
112	0x2ff99ab3	4.5402757e-10
113	0x2c58ca9b	3.0807915e-12
114	0x3024e6f2	5.9991045e-10
115	0xafaa7841	-3.1008265e-10
116	0x2e8e7105	6.477489e-11
117	0x3d333507	0.043751743
118	0x3cb1943f	0.021677135
119	0xbc076aa3	-0.00826517
120	0xbd321c83	-0.043484222
121	0xbce5ec23	-0.0280667
122	0x3d2b12a3	0.04176582
123	0xbd5a009e	-0.053223245
124	0x3cd50c48	0.026006833
125	0x3cf599b5	0.02998052
126	0xaf219395	-1.4695296e-10
127	0x307216f2	8.8071694e-10
128	0x2f0fc813	1.3076855e-10
129	0xbd2e6633	-0.042577934
130	0xbc80202f	-0.015640346
131	0xbcdce6b2	-0.026965473
132	0x3c9ab51a	0.018885184
133	0x3d1f7cd7	0.038937416
134	0x3d1922d6	0.037386738
135	0x3c42de60	0.011893839
136	0xbc67870a	-0.014131317
137	0xbcdb68da	-0.026783396
138	0xbd36b60e	-0.044607215
139	0x3c8831e6	0.016625356
140	0xbd15c50d	-0.036564875
141	0xbcf72723	-0.030170029
142	0xbd1114e4	-0.035420313
143	0x3c850cfa	0.01624154
144	0x39df920c	0.00042642688
145	0xbaabf289	-0.0013118546
146	0xbc25a868	-0.010110952
147	0xb063b85b	-8.2844104e-10
148	0x2e5aebfe	4.9777064e-11
149	0x2dcd57e9	2.3344842e-11
150	0xbd47a097	-0.048737135
151	0xbd521d66	-0.051297568
152	0xbcf10969	-0.029423432
153	0xbd5af659	-0.05345759
154	0xbd46e9f7	-0.04856297
155	0xbb3e2133	-0.0029011487
156	0xbb5ac404	-0.0033380995
157	0xbd29d0a1	-0.04145873
158	0xbc3d52b5	-0.011555363
159	0xbc9e3c31	-0.01931581
160	0xbd65930e	-0.056048445
161	0x3b450347	0.0030061768
162	0x3cd783c7	0.026307954
163	0xbd1a788e	-0.037712626
164	0xbc7a6732	-0.015283393
165	0xb9e1ab09	-0.00043042775
166	0xb9525f30	-0.00020062621
167	0xb395a272	-6.967902e-08
168	0x2f1fd054	1.4534979e-10
169	0xae3ee7c3	-4.3406844e-11
170	0xaf8ed1b0	-2.5978641e-10
171	0x2ffcabf6	4.5960719e-10
172	0x2eb67fcd	8.299104e-11
173	0xaf1de8b7	-1.4361744e-10
174	0xbb9bf9f6	-0.0047600223
175	0x3c60a9b9	0.01371234
176	0x394f0e39	0.00019746357
177	0x3d1d1463	0.03834952
178	0x3bd27abf	0.006423324
179	0x3cdb4c2f	0.026769726
180	0xb8c7bbd7	-9.524047e-05
181	0xb0905710	-1.0502124e-09
182	0x38381c78	4.3895532e-05
183	0xbca554c5	-0.020182023
184	0x3c2f0416	0.0106821265
185	0xbabe55b1	-0.0014521388
186	0xbc1fe465	-0.009759043
187	0xbd22636a	-0.03964559
188	0x3b684034	0.0035438659
189	0xb02c274d	-6.2629085e-10
190	0x2d89132c	1.558361e-11
191	0x2f4025e0	1.7475754e-10
192	0x3d11e344	0.035617128
193	0x3d001640	0.03127122
194	0xbcc59f34	-0.024123766
195	0x3ca19a60	0.019726932
196	0x3cf62c86	0.030050527
197	0x3c3ae6d6	0.011407575
198	0xbbf7be8d	-0.007560557
199	0x397ebb08	0.00024293002
200	0x3cbc26b8	0.022967681
201	0xbcfef1f5	-0.031121233
202	0x3d098b34	0.03358002
203	0x3a188ba5	0.00058191485
204	0xae313df4	-4.0300166e-11
205	0xb0011f22	-4.697417e-10
206	0x2ea868ae	7.65835e-11
207	0xbcd8fe15	-0.026488343
208	0x3cd33425	0.0257817
209	0x3cd4c20a	0.025971431
210	0xbc5a4587	-0.013322241
211	0x3c4c5cbf	0.012473284
212	0xbc6e5fd8	-0.014549218
213	0x3b9cca31	0.0047848453
214	0x3d13a804	0.036048904
215	0xbc29b8f9	-0.010359042
216	0xbc0e48fc	-0.008684393
217	0x3b8e827b	0.0043490506
218	0xbd623f79	-0.055236313
219	0x300bf8c1	5.0921406e-10
220	0x2ffb1fa9	4.567913e-10
221	0xafe602a4	-4.1838633e-10
222	0xb53aab1e	-6.953941e-07
223	0x33b18a06	8.267311e-08
224	0xb65bd58b	-3.2757841e-06
225	0xbc18db05	-0.009329562
226	0x3c8914cc	0.01673355
227	0xbd19927e	-0.03749322
228	0x2e22cbaa	3.7015425e-11
229	0x2e6a1596	5.3224612e-11
230	0xae1c574e	-3.5547836e-11
231	0xbaa7b9f5	-0.0012796508
232	0x3cd77422	0.026300494
233	0xbbbc6001	-0.0057487492
234	0x3bf632c6	0.007513377
235	0x3c83f3c9	0.016107457
236	0xbc9e3aad	-0.019315088
237	0x3c117fbd	0.008880553
238	0x3c9af83e	0.0189172
239	0xba9db81e	-0.0012033021
240	0xbc4fcbda	-0.012682879
241	0xbd512fb0	-0.05107087
242	0xbcc3ad60	-0.023886383
243	0x3c564512	0.013077991
244	0x3d2ac149	0.041688237
245	0x3c109a81	0.008825899
246	0xbd119cd7	-0.035549965
247	0x3d18f147	0.037339475
248	0xbbc6308a	-0.006048267
249	0xbcfbef18	-0.030753657
250	0xbcfb5c87	-0.030683769
251	0x3d171e63	0.036894213
252	0x3c86f40c	0.016473792
253	0x3cbcf9e7	0.023068381
254	0x3d290f01	0.041274074
255	0x3c9e86bf	0.019351361

encoder.8.bias f4 [256]
0	0x3b6e8950	0.0036397763
1	0x3ce640d5	0.028107086
2	0xbd0c7bf5	-0.034297902
3	0x3ae493e6	0.0017439097
4	0x3c5a5691	0.013326303
5	0x3d2643fd	0.040592182
6	0x3ccf2768	0.025287345
7	0xbc95714b	-0.018242499
8	0xb916401b	-0.00014328996
9	0x3bc1a61e	0.0059096953
10	0xbca1290a	-0.01967289
11	0x3d25aace	0.040446095
12	0xbbdb7772	-0.0066975886
13	0x3d0b027f	0.033937927
14	0x38db696d	0.00010462371
15	0xbaeb250b	-0.0017940117
16	0xbc3eedc7	-0.01165337
17	0x3c11d881	0.008901716
18	0xbd052a71	-0.03251118
19	0x3d0b1c22	0.033962376
20	0xba1f01fb	-0.0006065664
21	0x3b6343aa	0.0034677782
22	0x3d08a3d0	0.03335935
23	0x39a9c87e	0.0003238357
24	0x3c9f069b	0.01941233
25	0x3c9e7407	0.019342436
26	0x3cef3a1b	0.029202512
27	0xbc95adcd	-0.018271351
28	0x3d047b0d	0.032343913
29	0x3d0196d4	0.03163798
30	0xbbc0c3fa	-0.005882737
31	0xbd5e2c21	-0.054241303
32	0xbc33f502	-0.010983707
33	0xbc146d49	-0.009059259
34	0xba624a6c	-0.00086323055
35	0xb24ca22a	-1.1911235e-08
36	0xb8df3ee0	-0.0001064518
37	0xbccb479e	-0.024814423
38	0x3cd4e18b	0.025986454
39	0x3d1610a0	0.03663695
40	0x3cbcfaf6	0.023068886
41	0x3c9501cb	0.018189332
42	0xbd391974	-0.04519029
43	0xbd099bba	-0.033595778
44	0xbb57a8d5	-0.0032907028
45	0x3c97990f	0.018505601
46	0x3c5a7d6b	0.013335566
47	0x3cdf44c3	0.027254468
48	0x3a0c9eae	0.0005364221
49	0xbca116f1	-0.01966426
50	0x3d19984f	0.03749877
51	0xbc13e87f	-0.009027599
52	0xbc68ad57	-0.014201484
53	0xb884774b	-6.3164705e-05
54	0xbcdebd3e	-0.027189847
55	0xbcfa4771	-0.030551644
56	0xbcbe6d60	-0.023245513
57	0xbd3c9dac	-0.046048805
58	0x3ca15419	0.019693421
59	0x3d042f25	0.032271523
60	0xbad5e6e0	-0.0016319416
61	0x3cdac74c	0.02670636
62	0xbbc5e12b	-0.006038805
63	0x3ad6a616	0.0016376402
64	0xbafd1ea0	-0.0019311495
65	0x3d3208b9	0.04346535
66	0x3d0e7486	0.034779094
67	0xb5859352	-9.952148e-07
68	0xbbd7ef65	-0.0065898173
69	0xbd185813	-0.03719337
70	0x3c34cace	0.0110346805
71	0xbc9063fe	-0.017625805
72	0xbc78b68f	-0.015180244
73	0xbd0d8c6a	-0.034557737
74	0x3d0f5afd	0.034998883
75	0x383586b6	4.3279222e-05
76	0xbb73d714	-0.0037207054
77	0xbd1f67f6	-0.038917504
78	0xbd40f460	-0.047108054
79	0xbbfdea97	-0.0077489126
80	0x3c909f1d	0.017653996
81	0xbbc3dd95	-0.0059773424
82	0x3c8d55b0	0.017252773
83	0xb8178da5	-3.6133122e-05
84	0xbd2c59d1	-0.042077843
85	0x3cc8f699	0.02453165
86	0x3cfa619d	0.030564124
87	0xbc8cc4cb	-0.017183682
88	0x3d307af1	0.043085996
89	0xbada2e38	-0.0016645854
90	0xbba4be4c	-0.005027568
91	0xbbe81e6c	-0.0070837047
92	0x3d04edb6	0.03245326
93	0xbbb34de2	-0.005471931
94	0xbac1622e	-0.0014753991
95	0xb90a90c6	-0.00013214638
96	0xbc731468	-0.014836408
97	0xbac920d0	-0.0015344862
98	0xb8da953d	-0.00010422848
99	0x3c0c6bba	0.008570606
100	0xbd58e624	-0.052953854
101	0x3c9e4c4c	0.01932349
102	0x3cde8811	0.02716449
103	0xbc9cab48	-0.019124642
104	0xbbcd72b4	-0.006269777
105	0xbcf070c4	-0.029350646
106	0xbd52051e	-0.05127441
107	0x3ce2d67e	0.027690168
108	0x3c834aec	0.016026936
109	0xbc3de677	-0.011590592
110	0x3cf9aa45	0.030476699
111	0x3cef2a8e	0.029195096
112	0x3c54798c	0.012968432
113	0x3c4eea23	0.012629065
114	0x3d189021	0.037246827
115	0x3c7f5b90	0.015585795
116	0x3d0418b3	0.032250118
117	0x3cf652c5	0.030068764
118	0x3d1ef900	0.038811684
119	0xba230b8a	-0.0006219676
120	0x3ac7847d	0.001522198
121	0x3d35a884	0.044350162
122	0x3d1f8a0f	0.038950022
123	0x3ce3fa3e	0.027829286
124	0x3d284dc0	0.041089773
125	0x3cfe5384	0.031045683
126	0xbc866ac7	-0.016408337
127	0xbd0ec80a	-0.03485874
128	0x3bd4db55	0.006495873
129	0x3c70c822	0.014696153
130	0x3cb6ed72	0.02233002
131	0xba2f3a4d	-0.00066844077
132	0x3c9b1829	0.018932419
133	0xbc24777d	-0.010038254
134	0xbd28a41f	-0.041172143
135	0x3c040180	0.008056998
136	0x3c1fff5a	0.00976547
137	0xbc144769	-0.009050229
138	0x3b814fb7	0.0039462703
139	0x3d00bb4c	0.03142862
140	0x3a9c4a44	0.0011923988
141	0xbb86ebda	-0.004117471
142	0xb94cff80	-0.00019550137
143	0x3c2b5bea	0.010458926
144	0x3cb2ed33	0.021841621
145	0x3babba56	0.005240719
146	0x3d104b7c	0.035228238
147	0x3caa18b6	0.020763736
148	0xbc02ab2e	-0.007975383
149	0xb5ea9db7	-1.748026e-06
150	0xbc05fdc2	-0.008178176
151	0x3ca1e95d	0.019764597
152	0xbcf5208b	-0.029922744
153	0xbbfa13e1	-0.0076317643
154	0xbbb159a7	-0.0054122987
155	0xb992e5b6	-0.00028018438
156	0xbc15e1ab	-0.009148042
157	0x3bb9f94f	0.005675472
158	0x3c99424c	0.01870837
159	0x3d0f1e07	0.034940746
160	0xbcd0a685	-0.025470028
161	0x3cf7b71d	0.030238682
162	0x3d2227cd	0.03958874
163	0x3a8a4912	0.0010550341
164	0xb8539361	-5.0443577e-05
165	0xbcac07d8	-0.020999834
166	0x3d246379	0.040133927
167	0xbc0bb4cb	-0.008526991
168	0xbccc52b2	-0.024941776
169	0xbc68270f	-0.014169469
170	0x3aa08f64	0.0012249765
171	0xbc6845f4	-0.014176834
172	0x3d06252a	0.032750286
173	0x3b244402	0.002506495
174	0xbc7a8144	-0.015289608
175	0xbadaaff1	-0.0016684515
176	0xbbb75d13	-0.005595812
177	0x3d188c79	0.03724334
178	0x3d0b2b33	0.033976745
179	0x3b9d3759	0.0047978577
180	0x3ce246f8	0.027621731
181	0x3cc42dc6	0.023947608
182	0x3c934c3f	0.017980693
183	0xbc137781	-0.00900066
184	0x3ca8e880	0.020618677
185	0x3cae679f	0.021289645
186	0x3ca5653b	0.020189872
187	0x3c654ed8	0.013995849
188	0x3d21774b	0.039420407
189	0x3d31a42e	0.043369465
190	0xbc5e68c6	-0.013574785
191	0x3d16f49e	0.03685438
192	0xbc33f51f	-0.010983734
193	0xba92516e	-0.0011163184
194	0x3cd8ca45	0.026463637
195	0x3d3291e3	0.04359616
196	0xbc396c84	-0.011317376
197	0x3d151ce0	0.03640449
198	0x3c83715e	0.016045269
199	0x3d154a09	0.03644756
200	0xbcf64bbe	-0.030065414
201	0xbb11c00d	-0.0022239715
202	0x3b209c4c	0.0024507223
203	0xbc2d2f13	-0.010570305
204	0x3ba7c982	0.005120457
205	0xbc079099	-0.008274221
206	0x3ca040db	0.019562175
207	0xbd3f245b	-0.04666553
208	0xbcaa127e	-0.02076077
209	0xbd0fe0ac	-0.035126373
210	0x3ce7aef7	0.028281672
211	0xbc599828	-0.013280906
212	0xb74f21ef	-1.2346062e-05
213	0xbac47b78	-0.001499041
214	0x3d1b7eca	0.037962712
215	0x3ce37821	0.027767243
216	0x3d1a9ea6	0.037748955
217	0xbc4ca1ed	-0.012489778
218	0x3c1a8691	0.009431497
219	0x3c45b178	0.012066238
220	0xbc9ba5ba	-0.018999923
221	0x3c216b47	0.009852237
222	0xbd2b1293	-0.04176576
223	0x3cae6d9e	0.021292504
224	0xbbe48d3b	-0.006974844
225	0x3bc83526	0.0061098514
226	0xba8390b1	-0.0010037628
227	0xbd49b424	-0.04924406
228	0x3cbd3e92	0.023101125
229	0xbc81f6e1	-0.015864791
230	0xbbb86309	-0.0056270403
231	0x3c741a93	0.014898914
232	0x3cc4b5c6	0.024012458
233	0x3d3d9ce7	0.04629221
234	0xbbfdd48e	-0.0077462858
235	0x3c3bdab1	0.011465714
236	0x3d1b8f3c	0.037978396
237	0xbaece870	-0.0018074643
238	0x3b139844	0.0022521177
239	0x3c2079cb	0.009794663
240	0x3c7dd2cd	0.015492153
241	0xbcc4eb8f	-0.024038104
242	0x3d08b96a	0.03337995
243	0xbca50e28	-0.020148352
244	0x3c59d174	0.013294566
245	0x3cfc4c7a	0.030798186
246	0xbc666399	-0.014061832
247	0xbc666e19	-0.014064335
248	0x3d40e483	0.047092926
249	0xbb62044f	-0.0034487431
250	0xbc4f98f1	-0.012670741
251	0x3d14b68d	0.036306906
252	0xbca3b8ba	-0.019985545
253	0x3c8b1ab4	0.016980506
254	0xbcfa13d7	-0.030527038
255	0x3ceb43f5	0.028718928
