VAE-LSTM-anomaly–detection/experiments/Collected_data/nosein_noseout_9-grid_search-0414/Collected_data-nosein_noseout_9-win_len1000-look_back1-codesize20-VAEunits256-LSTMunits128/checkpoint/vae_best_model.pth (torch, 704594 bytes, 24 tensors)

encoder.0.weight f4 [16, 3, 3, 1]
0	0xbe81ceb4	-0.25353014
1	0xbdcb81b8	-0.09936851
2	0x3e0c3703	0.1369286
3	0xbdbe4253	-0.09289994
4	0x3dee8ee5	0.11648349
5	0x3e7161bc	0.23572439
6	0xbe222a13	-0.15836363
7	0x3e1d678a	0.15371528
8	0x3da30bfb	0.079612695
9	0xbe4b8bc5	-0.19877537
10	0xbd9c08be	-0.07618855
11	0xbdff0e26	-0.124538705
12	0x3e6be7cd	0.23037644
13	0xbe843e0a	-0.25828582
14	0x3d0a690d	0.03379159
15	0xbe06a13b	-0.13147442
16	0x3e794ba1	0.24345256
17	0xbe20520e	-0.15656301
18	0x3d70f5a5	0.058828015
19	0xbe1776d2	-0.1479142
20	0x3e27d6ab	0.16390483
21	0x3dfd2b6b	0.12361797
22	0xbe968b13	-0.2940298
23	0x3e4a6298	0.19764173
24	0xbde76ae7	-0.11299687
25	0xbe03b94d	-0.12863655
26	0x3d284eaf	0.041090664
27	0xbe9cedf1	-0.30650285
28	0xbe2bf9bf	-0.1679449
29	0xbe388828	-0.1802069
30	0xbe406936	-0.18790135
31	0xbe978261	-0.2959166
32	0xbe8f06f5	-0.27934995
33	0xbe16307f	-0.14666937
34	0x3e944520	0.28958988
35	0x3e57e693	0.21084051
36	0xbe884a47	-0.2661917
37	0x3e2b8d49	0.16753115
38	0x3c663643	0.014051023
39	0x3e2d8ca8	0.16948187
40	0xbdf8aa8d	-0.12141905
41	0xbdfa88c3	-0.122331165
42	0x3db00068	0.085938275
43	0x3def57e7	0.11686688
44	0xbdaf395f	-0.085558645
45	0xbcc85842	-0.024456147
46	0xbe94e181	-0.29078296
47	0x3d4441c9	0.0479143
48	0x3c8b6a34	0.017018415
49	0x3e89d102	0.26917273
50	0xbe8987bb	-0.26861367
51	0xbe599e58	-0.2125181
52	0xbbe8beff	-0.0071028466
53	0xbe9a7d00	-0.30173492
54	0x3da3f330	0.08005369
55	0x3e9383c5	0.2881147
56	0x3cdf70a7	0.027275397
57	0xbe6458d0	-0.22299504
58	0x3e64b2c4	0.22333819
59	0xbc9b5725	-0.018962452
60	0xbda404f7	-0.080087595
61	0x3e2b3c09	0.1672212
62	0xbe9041be	-0.28175157
63	0x3c05f79b	0.0081767095
64	0xbe8d2dbc	-0.27573955
65	0xbd8c0e31	-0.06838644
66	0xbe92d1f0	-0.28675795
67	0x3e8262b8	0.2546594
68	0x3e7d3772	0.24728182
69	0xbd8cbb3f	-0.06871652
70	0xbe340331	-0.17579342
71	0x3bd63ce5	0.006538021
72	0x3e89ffce	0.26952976
73	0xbe3c9719	-0.18417014
74	0xbe6d5399	-0.23176421
75	0xbe0e2bae	-0.1388385
76	0xbea1e15a	-0.31617242
77	0x3cb8b7e5	0.022548625
78	0x3ea0d9ff	0.31416318
79	0xbe0d84c2	-0.13820174
80	0x3d20e227	0.039278176
81	0x3de6b591	0.112651
82	0xbe7d0153	-0.24707536
83	0x3c6731ca	0.014110992
84	0x3d050478	0.032474965
85	0xbd14b952	-0.036309548
86	0x3e80f62b	0.2518781
87	0xbdb173af	-0.08664643
88	0x3d8999f7	0.067188196
89	0xbe898f42	-0.2686711
90	0xbe11012e	-0.14160606
91	0x3e84f15d	0.25965396
92	0xbe1d0568	-0.15334094
93	0xbe43dae7	-0.19126473
94	0x3e842c42	0.25815016
95	0xbcb89bd1	-0.022535237
96	0x3debbf1a	0.11511059
97	0xbdbc4b4a	-0.09194048
98	0xbd47489c	-0.04865323
99	0x3c71b46a	0.014752487
100	0x3cfd3b78	0.030912146
101	0x3e9cc596	0.30619496
102	0x3cbe9d8a	0.02326848
103	0xbdfc4197	-0.12317198
104	0x3e96fa7d	0.29487982
105	0x3e453d1a	0.1926159
106	0x3e05a2ef	0.13050435
107	0x3e355952	0.17709854
108	0xbe1c89e7	-0.1528698
109	0x3ea726b2	0.3264671
110	0xbe0f60ce	-0.14001772
111	0xbe66fa78	-0.22556484
112	0xbd54f334	-0.05198975
113	0x3e3ebf95	0.1862777
114	0x3e4ece78	0.20195949
115	0xbe9428be	-0.28937334
116	0xbd75ef20	-0.0600425
117	0xbd334de7	-0.043775465
118	0xbe081c13	-0.1329196
119	0xbce93e8a	-0.028472204
120	0xbe762ffb	-0.2404174
121	0xba81afaa	-0.0009894271
122	0x3ea6efcc	0.32604825
123	0x3d69673e	0.056983225
124	0xbe84973d	-0.25896636
125	0x3ea01911	0.31269124
126	0xbe5936fb	-0.2121238
127	0x3c806e80	0.01567769
128	0xbe18a1f3	-0.14905529
129	0x3e0b0469	0.13575901
130	0xbddb8a44	-0.107197315
131	0x3e995f71	0.2995563
132	0xbd9ab7f6	-0.07554619
133	0x3e4f97b7	0.20272718
134	0xbdca4201	-0.098758705
135	0xbc942181	-0.018082382
136	0x3e395256	0.18097815
137	0x3e0e9e73	0.13927631
138	0x3e0b7021	0.13616993
139	0x3e094a4e	0.13407251
140	0xbd41eb0d	-0.047343303
141	0x3e9cb7df	0.30609033
142	0x3be89d3e	0.007098823
143	0x3dda7bba	0.1066813

encoder.0.bias f4 [16]
0	0xbe681ec0	-0.2266798
1	0xbe9c924d	-0.3058037
2	0xbe433127	-0.19061719
3	0x3e10100b	0.1406862
4	0xbe6d2922	-0.23160222
5	0x3e441c0e	0.19151327
6	0x3e881a7b	0.26582703
7	0x3d99c0b2	0.07507457
8	0x3c169703	0.009191277
9	0x3d8a10f1	0.067415126
10	0xbd8fa6f6	-0.07014267
11	0x3e6169fb	0.22013085
12	0xbe1a7d96	-0.1508697
13	0x3e631942	0.22177604
14	0xbdc8511d	-0.09781096
15	0xbe7254a4	-0.236651

encoder.2.weight f4 [32, 16, 3, 1]
0	0x3d635d03	0.055508625
1	0x3cde1e47	0.027114047
2	0x3c31aace	0.010843946
3	0xbd3e5800	-0.046470642
4	0x3e0174e3	0.12642245
5	0x3db1fbc1	0.08690596
6	0x3da40177	0.08008092
7	0xbc5f1b09	-0.0136172855
8	0xbe088c10	-0.1333468
9	0xbe109244	-0.14118296
10	0xbda9a4ac	-0.08283362
11	0xbd31f382	-0.043445118
12	0xbe03cfa8	-0.12872183
13	0xbdb80fff	-0.08987426
14	0x3d6cb819	0.057792757
15	0xbcda7db0	-0.02667126
16	0xbd68a4dc	-0.056797847
17	0x3db8c2bc	0.09021518
18	0xbdc3e4d4	-0.0956513
19	0x3de94fee	0.113921985
20	0xbd54bae1	-0.051936034
21	0x3d9a7972	0.07542695
22	0x3de23731	0.11045683
23	0xbb830d5d	-0.0039993958
24	0x3de0d1e9	0.10977537
25	0x3cf94b85	0.030431518
26	0x3de02cd2	0.10946049
27	0xbde9b6e1	-0.114118345
28	0xbe1d658a	-0.15370765
29	0x3dc9fe85	0.09862999
30	0xbd9d660e	-0.07685481
31	0x3bf2e41a	0.0074124457
32	0xbd4ce851	-0.05002624
33	0xbdc9d0d8	-0.09854287
34	0xbdee4aaa	-0.11635335
35	0x3d41645e	0.04721486
36	0xbd136b8a	-0.03599123
37	0xbe0cbc6c	-0.13743752
38	0xbd9662d8	-0.07343072
39	0x3cd846ff	0.026401041
40	0x3dd8efed	0.10592637
41	0x3dfe5726	0.12418966
42	0xbd9e3c42	-0.07726337
43	0xbdbfa075	-0.093567766
44	0x3c3a3a66	0.011366462
45	0xbd09594c	-0.033532426
46	0x3aa1f35f	0.0012355855
47	0xbac9c25a	-0.0015393004
48	0x3e0d6957	0.13809715
49	0xbd2f94ca	-0.042866506
50	0xbd667de8	-0.056272417
51	0x3e05355c	0.13008636
52	0xbdbc81c3	-0.092044376
53	0xbbc64f4c	-0.0060519334
54	0x3d32675c	0.043555602
55	0xbd9c7607	-0.076396994
56	0x3dbd0808	0.092300475
57	0xbdf3b7a2	-0.119002596
58	0xbdda573d	-0.10661171
59	0xbc22fff5	-0.00994872
60	0xbd45af27	-0.04826274
61	0xbd5e0f82	-0.05421401
62	0x3ca02a38	0.019551381
63	0x3de6eb54	0.11275354
64	0xbe0456e6	-0.12923774
65	0xbd93ced4	-0.07217184
66	0x3dd86243	0.10565617
67	0x3cfa8bd8	0.03058426
68	0xbe06b5d0	-0.13155293
69	0x3cdfae78	0.027304873
70	0xbdd03aac	-0.10167441
71	0x3d3a0338	0.045413226
72	0xbddf4259	-0.10901327
73	0x3d22755b	0.0396627
74	0xbd3f54b9	-0.046711657
75	0x3dc4bda4	0.096064836
76	0xbcd4fa9a	-0.025998402
77	0x3baeef4e	0.005338586
78	0x3dc7acc1	0.09749747
79	0xbd8acdae	-0.067775115
80	0xbe012ee2	-0.1261554
81	0x3c02c5f3	0.007981765
82	0x3d10c777	0.035346474
83	0xbda6db67	-0.081473164
84	0xbdbdf1d3	-0.0927464
85	0x3dca00a0	0.098634005
86	0x3dbb3de0	0.09142661
87	0x3d36419e	0.04449617
88	0x3e0edeb1	0.13952138
89	0xbdd629dc	-0.10457203
90	0x3d9a102d	0.075226165
91	0x3dc87e97	0.0978977
92	0xbddbb213	-0.10727324
93	0x3e047435	0.12934954
94	0x3dc1ede7	0.094692044
95	0x3cfc7739	0.030818569
96	0x3d957b5d	0.0729892
97	0xbe0e76df	-0.13912533
98	0x3d8259c7	0.0636478
99	0x3d6bc457	0.05756029
100	0xbd00944c	-0.031391427
101	0x3dda75a8	0.106669724
102	0xbccf6f7c	-0.025321715
103	0x3db48b53	0.088156365
104	0xbdfba61e	-0.12287544
105	0xbaaa3d29	-0.0012988198
106	0xbdf824b9	-0.12116379
107	0xbbeaf0f3	-0.0071698367
108	0xbb610c00	-0.0034339428
109	0xbd84f238	-0.06491512
110	0x3d6e4d27	0.058179047
111	0xbdfcb00c	-0.12338266
112	0x3ded916c	0.11600003
113	0xbdcf222e	-0.10113941
114	0xbbf1835c	-0.0073703956
115	0xbccf2b6c	-0.02528926
116	0xbda670cf	-0.08126985
117	0x3dc42f3a	0.0957932
118	0xbde09bec	-0.1096724
119	0xbbaafcf4	-0.0052181426
120	0x3d672b96	0.05643805
121	0xbdb1e68f	-0.08686554
122	0x3ce5afe5	0.028037975
123	0xbd6fb586	-0.058522724
124	0x3ccc1256	0.024911087
125	0xbd72022f	-0.059084114
126	0x3d215812	0.03939063
127	0x3da214cd	0.07914124
128	0xbda35e33	-0.079769515
129	0x3dc4321a	0.095798686
130	0xbd8a5065	-0.06753615
131	0x3e08e831	0.13369824
132	0x3cfb16c1	0.030650498
133	0xbccc9bec	-0.024976693
134	0xbdad723a	-0.084690526
135	0x3d8b78a1	0.068101175
136	0xbc1ba72a	-0.009500304
137	0x3c335bfb	0.010947223
138	0xbd260532	-0.0405323
139	0x3debf00c	0.11520395
140	0xbdaa725b	-0.08322593
141	0xbd53b506	-0.05168631
142	0x3d65a344	0.056063905
143	0x3dff22af	0.12457787
144	0xbd0c3826	-0.034233235
145	0x3d8b72b2	0.06808986
146	0x3df615a2	0.12015845
147	0x3da9b606	0.08286671
148	0x3d16ab2d	0.03678434
149	0x3d0b3887	0.033989456
150	0x3d61e928	0.055153996
151	0xbd9006f3	-0.070325755
152	0xbb42da42	-0.0029732143
153	0x3ddaeed9	0.10690088
154	0x3d3a7349	0.0455201
155	0xbc111dce	-0.008857204
156	0xbe0bcd9a	-0.1365265
157	0xbc0197f2	-0.007909762
158	0x3d7ef3bf	0.062244173
159	0x3da972f7	0.08273881
160	0x3e03c073	0.12866382
161	0x3df5af6d	0.119963504
162	0x3e02737c	0.12739366
163	0xbde902b0	-0.11377466
164	0x3da46371	0.080267794
165	0x3de201a4	0.11035469
166	0xbb81fedc	-0.003967149
167	0x3d696808	0.056983978
168	0x3dfc5ca1	0.12322355
169	0xbdb8e4fb	-0.090280496
170	0x3dd55e44	0.1041837
171	0xbd4b85dc	-0.049688205
172	0xbd3fe387	-0.046847846
173	0xbdcb51d7	-0.09927719
174	0x3daf1322	0.08548571
175	0xbda2c936	-0.07948534
176	0xbd409fbd	-0.04702734
177	0xbcdc8a4b	-0.026921412
178	0xbccf1e5b	-0.02528303
179	0xbd04d903	-0.03243352
180	0x3d9345ed	0.07191072
181	0xbda08495	-0.07837788
182	0x3d767fb4	0.06018038
183	0x3d91a9ba	0.07112451
184	0xbda57ee9	-0.08080847
185	0xbe01abc0	-0.12663174
186	0x3bebb4a4	0.007193165
187	0x3a5b6b47	0.00083701726
188	0x3c5cc359	0.013474309
189	0xbd768b8f	-0.060191687
190	0x3ce3792a	0.027767736
191	0xbc1cf226	-0.009579217
192	0x3d8761d1	0.06610454
193	0x3d7779be	0.060418837
194	0x3e064efe	0.1311607
195	0x3dff9e87	0.124814086
196	0xbcd0ecad	-0.02550348
197	0xbd854067	-0.065064244
198	0x3b69c492	0.0035670144
199	0x3d665e7a	0.056242444
200	0xbde94935	-0.11390916
201	0xbd414d8b	-0.04719309
202	0xbda21459	-0.07914037
203	0x3ca1ff96	0.019775193
204	0xbcf23230	-0.029564947
205	0x3c77d606	0.015126711
206	0x3db4ef27	0.08834677
207	0xbc6862a5	-0.014183675
208	0xbd181971	-0.037133638
209	0xbd366470	-0.04452938
210	0xbdba6b8d	-0.09102545
211	0xbe18bbcc	-0.14915389
212	0xbd85745d	-0.06516335
213	0x3c858094	0.016296662
214	0x3d47ad32	0.048749156
215	0xbdc51f83	-0.09625151
216	0x3d6a45d3	0.057195496
217	0xbd023989	-0.03179315
218	0x3d469df1	0.04849047
219	0x3d294595	0.041326124
220	0x3dc6cdfc	0.09707257
221	0xbe149c23	-0.14512686
222	0x3d964e3f	0.07339143
223	0xbdc904fd	-0.098154046
224	0x3deea63f	0.11652803
225	0x3d7de790	0.061988413
226	0x3cb2b662	0.021815483
227	0x3da004db	0.07813426
228	0x3d1ac42e	0.037784748
229	0xbdc842da	-0.09778376
230	0xbced52d4	-0.02897016
231	0x3dd59acc	0.10429916
232	0xbd881e0e	-0.066463575
233	0xbe1beab5	-0.15226252
234	0xbdccf7a1	-0.10008169
235	0xbdcdb025	-0.100433625
236	0x3dc8be3c	0.09801909
237	0x3bcf4770	0.0063256547
238	0x3db2f122	0.08737399
239	0xbdcf4c21	-0.10121942
240	0xbd9f52c6	-0.0777946
241	0x3e0aa2df	0.13538693
242	0xbdcf3c04	-0.10118869
243	0x3dd43147	0.103609614
244	0xbda44a5a	-0.08021994
245	0x3c6ecfc2	0.0145759005
246	0xbd5f9524	-0.05458559
247	0xbe154913	-0.14578657
248	0x3da3d5af	0.07999741
249	0x3d4e6698	0.05039081
250	0xbcf1748a	-0.029474515
251	0x3b800fad	0.0039081187
252	0x3e08e555	0.13368733
253	0x3cc73c06	0.024320614
254	0x3e025a07	0.12729655
255	0xbde16467	-0.11005478

encoder.2.bias f4 [32]
0	0xbd54e8a9	-0.051979695
1	0x3d9fc0ab	0.078004204
2	0x3e04947d	0.12947269
3	0x3d9a59bc	0.07536647
4	0xbd6b7c78	-0.05749175
5	0x3d1693b4	0.036761954
6	0x3dda0dce	0.10647164
7	0x3d8a0b93	0.06740489
8	0xbcc327a9	-0.023822622
9	0xbe005f82	-0.12536433
10	0xbdada59f	-0.08478855
11	0xbe01b06d	-0.12664957
12	0xbda6de41	-0.0814786
13	0x3d38264c	0.044958398
14	0x3dbc68c1	0.09199668
15	0xbd89b5bb	-0.067241155
16	0xbd87c642	-0.066296116
17	0xbce468f3	-0.027882075
18	0xbd6e9b89	-0.0582538
19	0xbd8eb38b	-0.06967839
20	0xbdd11dac	-0.102107376
21	0x3e0d0704	0.13772207
22	0xbddb3a8b	-0.107045256
23	0xbdaa7d47	-0.08324676
24	0xbdcb9b84	-0.099417716
25	0x3d7b155d	0.06129967
26	0xbde59e8d	-0.11211882
27	0xbdee52d2	-0.116368905
28	0x3de56ecc	0.112027735
29	0xbc995f55	-0.018722216
30	0xbe0ea63e	-0.13930604
31	0xbd3b17d4	-0.04567702

encoder.4.weight f4 [64, 32, 3, 1]
0	0x3d74b4d7	0.059742775
1	0x3d4a63b2	0.049411483
2	0xbc8d504a	-0.017250199
3	0xbca7f171	-0.02050087
4	0xbd8cc20b	-0.06872948
5	0xbd9350ee	-0.071931705
6	0x3d9d88d8	0.076921165
7	0x3d632ac3	0.055460703
8	0x3d5b776b	0.053580683
9	0xbd6268d6	-0.05527576
10	0xbda78081	-0.08178807
11	0x3da0bb64	0.07848242
12	0xbdc4c2c9	-0.09607465
13	0x3b9a2683	0.004704298
14	0xbd8c52fc	-0.068517655
15	0x3bb41527	0.0054956856
16	0x3d09acd1	0.033612076
17	0x3dac0a09	0.084003516
18	0x3da473ab	0.080298744
19	0xbd2989bd	-0.041391123
20	0x3d233feb	0.03985588
21	0xbd9ad835	-0.075607695
22	0x3d3eb141	0.04655576
23	0xbb8c5cff	-0.004283547
24	0xbd83da3e	-0.06438111
25	0x3d9f5b36	0.07781069
26	0x3d5ee96f	0.05442184
27	0x371204e8	8.7034205e-06
28	0x380b58e5	3.3222972e-05
29	0x3b18f88d	0.0023341507
30	0xbd45432c	-0.048159763
31	0x3d1007e2	0.035163768
32	0x3de7cf36	0.11318819
33	0x3b5ecbf3	0.0033996075
34	0xbdc57b5a	-0.09642668
35	0x3c4244e4	0.011857245
36	0x3d0214fb	0.03175829
37	0xbd98b389	-0.074561186
38	0xbc33bb81	-0.010969997
39	0x3dc363fc	0.09540555
40	0xbd1d6f50	-0.038436234
41	0x3d50f2ea	0.05101291
42	0x3c396dc8	0.011317678
43	0xbdafbe9e	-0.08581279
44	0xbd9992fc	-0.07498738
45	0x3dd18887	0.10231119
46	0x3db0fa9f	0.08641552
47	0xbd284c94	-0.041088656
48	0x3d9003ff	0.07032012
49	0xbd53c486	-0.05170109
50	0xbdb6b989	-0.08922107
51	0xbd16a7ac	-0.036780998
52	0x3d01afca	0.031661786
53	0xbc36af15	-0.011150141
54	0xbd18be40	-0.03729081
55	0xbd2fd39f	-0.042926427
56	0x3cff3ac0	0.031155944
57	0xb91867e4	-0.00014534552
58	0x3ba5ee6c	0.0050638225
59	0x3a052240	0.0005078651
60	0xbd68c7f7	-0.056831326
61	0x3d54ab1c	0.051920995
62	0xbdbce018	-0.0922243
63	0x3dc9d20e	0.09854518
64	0xbd181cea	-0.03713695
65	0xbc5706e1	-0.013124199
66	0xbd41b633	-0.0472929
67	0x3ce68ef1	0.028144332
68	0x3d345be1	0.044032935
69	0xbdc1b686	-0.09458642
70	0x3d882a29	0.066486664
71	0xbc8331ce	-0.01601496
72	0x3dae4f38	0.085112035
73	0xbcc06ef1	-0.023490401
74	0xbd923553	-0.07139077
75	0xbdb6ba31	-0.08922232
76	0x3d000993	0.03125913
77	0x3cab18a6	0.020885777
78	0x3c665b93	0.014059919
79	0x3c390065	0.011291598
80	0xbdabbcd0	-0.083856225
81	0x3c0cb974	0.008589137
82	0x3c18b5af	0.0093206605
83	0x37b49c85	2.1530557e-05
84	0x3d429be7	0.04751196
85	0x3d7e41d9	0.062074516
86	0xbda58132	-0.08081283
87	0xbccd0fcc	-0.025031947
88	0xbcfd4a8d	-0.030919338
89	0x3d822754	0.063551575
90	0xbcf74227	-0.030182911
91	0xbd453dca	-0.04815463
92	0x3adb50ae	0.0016732418
93	0x3db6591c	0.08903715
94	0xbd7b1db2	-0.061307617
95	0xbd59be0d	-0.053159762
96	0xbd9b5a05	-0.07585529
97	0x3c33748f	0.010953083
98	0x3d1e7d85	0.038693924
99	0xbd8403d5	-0.064460434
100	0xbd57a9ea	-0.052652277
101	0xbd2de941	-0.042458776
102	0xbda9f431	-0.08298529
103	0x3dbe644c	0.09296474
104	0x3da8e974	0.08247653
105	0x3d5bb96a	0.05364362
106	0x3d8186ab	0.06324514
107	0x3d5add51	0.05343372
108	0xbd2ed83d	-0.04268669
109	0x3ddd35a9	0.108012505
110	0x3d1cf12f	0.038315948
111	0x3d2c2aa6	0.04203286
112	0xbd44b58e	-0.048024707
113	0x3db9cb2f	0.09071957
114	0xbd372929	-0.044716988
115	0x3b5d34ba	0.0033753351
116	0x3ce8aaa4	0.02840168
117	0x3be24486	0.0069051413
118	0xbdacb8a1	-0.08433653
119	0xbd6aad91	-0.057294432
120	0x3afdf2bc	0.0019374709
121	0x3db06868	0.08613664
122	0xbd314ddb	-0.04328714
123	0x3a0d83f9	0.00053983886
124	0x3ca4505e	0.020057853
125	0xbc8b4e41	-0.017005088
126	0x3d3d626b	0.046236437
127	0xbd66b855	-0.056328136
128	0x3d981b40	0.074270725
129	0x3d61da28	0.05513969
130	0x3d72cf11	0.059279505
131	0xbd70a51a	-0.058751203
132	0x3d735f26	0.059416912
133	0xbd314425	-0.04327788
134	0xbdc095ea	-0.09403594
135	0xbcedcfdd	-0.029029781
136	0x3d3a8992	0.045541354
137	0x3d6c8ebc	0.05775331
138	0xbd2cf563	-0.042226207
139	0xbda31620	-0.079632044
140	0x3d9fc89c	0.07801935
141	0xbd2e5da0	-0.042569757
142	0x3d7a49dc	0.061105594
143	0x3caae232	0.020859811
144	0xbd592206	-0.053010963
145	0xbd80d0e7	-0.06289845
146	0x3c711927	0.014715469
147	0x3d921e61	0.071347006
148	0x3d9f2830	0.07771337
149	0x3c02e884	0.007990006
150	0x3d3e10f0	0.04640287
151	0x3d933b56	0.07189052
152	0x3c96a6ff	0.018390177
153	0x3c1819ef	0.009283527
154	0x3c3de0a8	0.011589207
155	0x3bdd5b24	0.0067552496
156	0xbc847f1c	-0.016173892
157	0xbd9b3f0b	-0.07580384
158	0x3d831901	0.064012535
159	0x3d9d65d6	0.07685439
160	0xbd490f57	-0.049086895
161	0x3cf61791	0.030040534
162	0x3dc33de7	0.09533291
163	0xbda5a01f	-0.08087181
164	0xbd8cdc3d	-0.068779446
165	0x3c357d05	0.01107717
166	0x3d2d4a25	0.042307038
167	0x3c3f8db3	0.011691499
168	0xbd42192c	-0.047387287
169	0xbdbab340	-0.091162205
170	0xbb5139cf	-0.0031925326
171	0xbd5e9d1e	-0.054349057
172	0x3d228754	0.03967984
173	0xbd62285d	-0.055214275
174	0x3c9f7ffe	0.019470211
175	0x3ce0c78a	0.027438898
176	0xbc32d15f	-0.010914176
177	0x3d26121e	0.04054462
178	0x3d124887	0.0357137
179	0x3c07d95c	0.008291569
180	0x3d940f56	0.072294876
181	0xbcfb0a6a	-0.030644614
182	0x3c90e96f	0.017689435
183	0xbd49e224	-0.04928793
184	0x3d95abbc	0.07308146
185	0x3d7802a7	0.060549404
186	0xbca0875b	-0.019595793
187	0x3d881ecd	0.066465
188	0xbdb2adfb	-0.087245904
189	0xbc3f299e	-0.011667637
190	0xb98b260d	-0.00026540496
191	0xbcc41b76	-0.023938876
192	0x3da29c01	0.07939912
193	0xbd04edc2	-0.032453306
194	0xbd48271d	-0.048865426
195	0xbd7e36e1	-0.062064055
196	0x3d9104a5	0.07080964
197	0xbd2dd82a	-0.04244248
198	0x3d951774	0.07279864
199	0xbbad11fd	-0.0052816854
200	0x3da9ccfc	0.08291051
201	0x3cd3a1ce	0.02583399
202	0xbc989593	-0.01862601
203	0xbd93e41e	-0.07221244
204	0x3d3f2a14	0.04667099
205	0xbbbcf8aa	-0.0057669478
206	0xbda41d14	-0.08013359
207	0x3d781e31	0.060575668
208	0x3d559447	0.05214336
209	0x3cd5d567	0.026102735
210	0xbd6d7eb2	-0.057982154
211	0xbdba6be8	-0.09102613
212	0xbd8f3bbd	-0.06993816
213	0xbdab9c66	-0.0837944
214	0x3c6f8416	0.014618894
215	0x3d69c12d	0.057068992
216	0xbd765b56	-0.0601457
217	0xbc2d2620	-0.010568172
218	0xbc80d73d	-0.015727634
219	0x39f649dd	0.0004697581
220	0x370a7b5d	8.254164e-06
221	0xbb2025af	-0.0024436524
222	0x3dc2e8d9	0.095170684
223	0xbd323c02	-0.04351426
224	0x3d198c1a	0.037487127
225	0xbc1149fe	-0.008867739
226	0xbc942b6e	-0.018087115
227	0xbdd5b569	-0.10434992
228	0xbd07f1f2	-0.03318972
229	0xbc39a9cc	-0.011331987
230	0xbd388738	-0.04505083
231	0x3d4fe4d7	0.050755348
232	0x3d64d3ed	0.05586617
233	0xbc35eed7	-0.011104307
234	0x3d4d96f7	0.0501928
235	0x3db6cb4d	0.08925495
236	0x3d993cf6	0.074823305
237	0x3d57956b	0.05263273
238	0xbd017bd2	-0.031612225
239	0x3d928ec8	0.071561396
240	0xbd9fd621	-0.07804514
241	0xbdb60fb7	-0.08889716
242	0xbda9448d	-0.08265028
243	0x3d3d570f	0.046225604
244	0xbdad3a07	-0.084583335
245	0xbd8369f2	-0.06416692
246	0xbbe64078	-0.0070267282
247	0xbcd0e523	-0.025499886
248	0xbd5cd3b3	-0.05391283
249	0xbc22dacf	-0.009939863
250	0x37d0c20e	2.4885896e-05
251	0xbb544452	-0.0032389355
252	0xbd39859c	-0.045293435
253	0xbdc37862	-0.095444456
254	0x3d9c86c0	0.07642889
255	0x3d4d379f	0.050101873

encoder.4.bias f4 [64]
0	0xbda76251	-0.08173049
1	0xbd2660a5	-0.04061951
2	0xbdbafa53	-0.09129777
3	0x3be049d3	0.006844738
4	0xbd1b05c0	-0.03784728
5	0xbd3c7c18	-0.046016783
6	0xbc26b605	-0.010175233
7	0xbc5a1cb0	-0.013312504
8	0xbd895dc0	-0.067073345
9	0xbd90f4b8	-0.070779264
10	0x3d20d72a	0.039267696
11	0x3d485c15	0.04891594
12	0xbdb4f946	-0.08836608
13	0xbdd6fba6	-0.10497217
14	0xbd5b6777	-0.05356547
15	0x3d437bdd	0.047725547
16	0xbc8a0520	-0.016848147
17	0xbd0aa513	-0.033848833
18	0x3d088f93	0.033340048
19	0xbc2fab53	-0.010721999
20	0x3d2e9fa9	0.042632733
21	0xbc14a4e5	-0.009072517
22	0x3a74a8d0	0.00093330164
23	0xbdb40812	-0.08790602
24	0xbc57f200	-0.013180256
25	0xbd47b812	-0.048759528
26	0xbd80839e	-0.06275104
27	0x3db29203	0.08719256
28	0x3c7c3bfe	0.015395163
29	0x3daf06ee	0.085462436
30	0x3d50a7df	0.050941344
31	0x3d5bf402	0.0536995
32	0xbd5fc6f3	-0.054633092
33	0x3da8e77d	0.08247278
34	0x3dc4fddc	0.09618732
35	0x3ceac018	0.02865605
36	0x3d9d0c03	0.07668307
37	0xbc54d2b2	-0.012989687
38	0xbd72e255	-0.05929788
39	0x3cca38ab	0.024685225
40	0xbd936884	-0.07197669
41	0x3ce2d30c	0.027688526
42	0xbd980e10	-0.07424557
43	0x3d9428c8	0.07234341
44	0x3cf83e8e	0.030303266
45	0x3ceaa27e	0.028641935
46	0xbd44ea38	-0.04807493
47	0x3d3377aa	0.043815292
48	0xbbd3b5d3	-0.006460884
49	0xbc4ca679	-0.012490862
50	0x3d8249b2	0.063617125
51	0x3bed66c4	0.0072449166
52	0xbdbacd28	-0.09121162
53	0x3daab03c	0.08334395
54	0xbd3b23d2	-0.045688458
55	0xbdb5cc82	-0.088768974
56	0x3cf40f56	0.029792469
57	0xbd31fa47	-0.043451574
58	0x3da0131d	0.078161456
59	0x3c5ae54b	0.013360332
60	0xbc49937e	-0.012303231
61	0x3d654480	0.05597353
62	0xbc0871e0	-0.008327931
63	0x3bc15b45	0.0059007728

encoder.6.weight f4 [128, 64, 3, 1]
0	0xbd4b4c83	-0.049633514
1	0xbd8781df	-0.06616568
2	0xbb913032	-0.004430794
3	0xbd581a97	-0.052759733
4	0x3b2fc729	0.002682159
5	0x3d09d519	0.03365049
6	0xbceda87d	-0.029011006
7	0xbd1f9274	-0.038958028
8	0xbd6eb2ea	-0.058276094
9	0xbcf9e7e8	-0.03050609
10	0x3d96ff0a	0.073728636
11	0xbcfce845	-0.030872473
12	0xbb2c0a02	-0.0026251082
13	0x3c94badb	0.018155506
14	0x3bc16829	0.0059023094
15	0x3c9ef066	0.01940174
16	0xbb243109	-0.0025053641
17	0xbc86ec19	-0.016470002
18	0x3c050dce	0.008120967
19	0xbbe82a7b	-0.007085142
20	0x3cceeabd	0.025258416
21	0xbb008dd2	-0.0019615781
22	0xbd448b9a	-0.047984697
23	0x3bd45f28	0.00648107
24	0x3d071ad7	0.03298458
25	0xbb26883e	-0.0025410797
26	0xbd856087	-0.06512552
27	0xbcce6ec1	-0.025199296
28	0xbd8ab798	-0.06773299
29	0xbd0448bd	-0.03229593
30	0x3d54b80b	0.05193333
31	0x3d7aaa7e	0.06119775
32	0xbc717067	-0.014736271
33	0xbbb08903	-0.005387427
34	0xbd5ed22d	-0.054399658
35	0x3d1b0175	0.037843186
36	0xbd9bad8e	-0.07601462
37	0xbc46980c	-0.012121212
38	0x3ce6556e	0.028116908
39	0x3ce35f31	0.027755352
40	0x3cfa8427	0.030580593
41	0xbc3f3a59	-0.011671626
42	0x37a68773	1.9851816e-05
43	0x3c5f8415	0.013642331
44	0xbc8e3808	-0.017360702
45	0x3ccf3805	0.025295267
46	0xbdb05de5	-0.08611659
47	0x3c824c07	0.015905393
48	0xbccef6d9	-0.02526419
49	0x3b5ad858	0.003339311
50	0x3c9c164a	0.019053597
51	0x3d6ce45c	0.057834968
52	0xbd9584b5	-0.073007025
53	0x3d56dda9	0.052457485
54	0xbc726ea9	-0.014796891
55	0xbd11fa93	-0.035639357
56	0x3ce570b7	0.028007848
57	0xb76abdba	-1.3991661e-05
58	0x37513042	1.2468607e-05
59	0x37b2e98b	2.1328005e-05
60	0x3c514011	0.012771622
61	0xbc81319b	-0.015770724
62	0x3d4de497	0.05026683
63	0xb8725e24	-5.778497e-05
64	0xb7a3aa97	-1.9510551e-05
65	0xb922b3ee	-0.00015516553
66	0xb8a41cb5	-7.8254765e-05
67	0xb9413d62	-0.00018428781
68	0x38af49a6	8.358368e-05
69	0xbd4df88e	-0.05028587
70	0x3d82cfef	0.063873164
71	0x3caef9ac	0.021359287
72	0x3c8ed381	0.017434837
73	0xbd6cfcc8	-0.05785826
74	0x3cd538bf	0.026028035
75	0xbd9c1380	-0.07620907
76	0xbd2099a8	-0.039209038
77	0x3bd0dc00	0.0063738823
78	0x3d148f14	0.036269262
79	0xbd30d1d6	-0.043168865
80	0x3b15cf5e	0.0022859196
81	0x3d5c343d	0.053760756
82	0xbc71a739	-0.014749342
83	0x3d7411ff	0.059587475
84	0x3d8455fb	0.06461712
85	0xbd2fb538	-0.042897433
86	0x3d834568	0.064097226
87	0xbd6329b2	-0.055459686
88	0x3c31cda7	0.010852254
89	0x3c4505b0	0.012025282
90	0x3d845c02	0.064628616
91	0xbbadbaf3	-0.005301827
92	0x3b21bc90	0.0024679042
93	0x3d3b8ca9	0.04578844
94	0xbc96aecb	-0.018393895
95	0xbd76b804	-0.060234085
96	0x3c8018a1	0.015636744
97	0x3a4ccf81	0.0007812903
98	0xbd475cb6	-0.0486724
99	0xbd628d82	-0.055310734
100	0x3d74da30	0.059778392
101	0x3d27e479	0.040989373
102	0xbd083284	-0.0332513
103	0xbc55468c	-0.013017308
104	0xbd8461b8	-0.06463951
105	0x3cbb0002	0.022827152
106	0x3d1763d1	0.036960427
107	0xbd8522d6	-0.06500785
108	0xbd3989f4	-0.045297578
109	0xbd2dec26	-0.042461537
110	0xbc4e5ac8	-0.012594886
111	0x3d1042d4	0.035219982
112	0xbb9c6dea	-0.004773845
113	0xbd50032d	-0.05078428
114	0xbd1969e1	-0.03745449
115	0x3d7aa625	0.061193604
116	0xbd557c1c	-0.052120313
117	0xbc2bb7b9	-0.010480815
118	0x3b4c72bd	0.003119632
119	0x3d759ef4	0.059966043
120	0x3d3f7534	0.046742633
121	0x3a13b5d6	0.00056347006
122	0xbcb97db4	-0.022642948
123	0x3b496d38	0.0030735265
124	0xbb90414a	-0.0044023143
125	0xbd199d77	-0.037503686
126	0x3d428e39	0.047498915
127	0x3d73649d	0.059422124
128	0xbd688e62	-0.05677641
129	0xbd8bc636	-0.06824915
130	0xbcc5a29b	-0.024125388
131	0x3c6a2334	0.01429062
132	0x3d12be61	0.03582609
133	0x3d84af9e	0.06478809
134	0x3d003298	0.03129825
135	0xbb0779bc	-0.0020671925
136	0x3d0871aa	0.033311523
137	0x3bfa2c6d	0.0076346905
138	0x3cbd3a8f	0.023099212
139	0xba2e2ec3	-0.0006644541
140	0x3c4a5bb2	0.012350963
141	0xbd1a5761	-0.037680987
142	0x3d60fac3	0.054926645
143	0x3c529113	0.012851971
144	0xbcd5846c	-0.02606412
145	0xbd6cdf48	-0.057830125
146	0x3d066b09	0.03281692
147	0xbb9aa2c5	-0.0047191107
148	0x3d886487	0.06659799
149	0xbd02292e	-0.031777553
150	0x3d187168	0.037217528
151	0xbb34285c	-0.0027489876
152	0xbc909065	-0.017646978
153	0xbbcac845	-0.006188425
154	0xbc9d7895	-0.019222537
155	0xbd241851	-0.040062252
156	0xbd089b26	-0.033351086
157	0xbd761c8f	-0.06008583
158	0xbce985f4	-0.028506257
159	0xbd248078	-0.04016158
160	0xbd1f04cf	-0.038822945
161	0x3d8c61d8	0.068546
162	0xbc1baf8e	-0.009502305
163	0x3c0b623d	0.008507309
164	0xbd6929b1	-0.056924526
165	0x3d82de05	0.06390003
166	0xbd55992d	-0.052148033
167	0x3c8a5334	0.016885377
168	0x3c98cbc7	0.018651856
169	0xbd11473d	-0.03546833
170	0xbcb91cc2	-0.02259672
171	0xbd848acf	-0.06471788
172	0xbd5068c8	-0.050881177
173	0xbd647feb	-0.055786055
174	0xbd367e58	-0.044554085
175	0x3d4256ad	0.04744594
176	0x3d3c3268	0.04594651
177	0xbd8f7d26	-0.07006292
178	0x3bebdd8a	0.0071980404
179	0xbd6206b5	-0.055182178
180	0xbccd1b1f	-0.025037346
181	0x3d57558b	0.052571815
182	0xbd230abf	-0.03980517
183	0x3d32d06c	0.043655798
184	0x3b94d9b9	0.004542556
185	0x3d2987e3	0.041389357
186	0x3c539db1	0.0129160145
187	0xbd3cdf31	-0.04611129
188	0x3ca68f78	0.020332083
189	0x3d430692	0.047613688
190	0x3d4fab4a	0.050700463
191	0x3d3c9ef2	0.04605002
192	0x3d0296e6	0.03188219
193	0x3d512765	0.05106296
194	0xbd304f42	-0.043044336
195	0x3d029df1	0.031888906
196	0x3d811065	0.06301955
197	0xbd898ad0	-0.067159295
198	0xbd3507fb	-0.044197064
199	0x3ce55e60	0.027999103
200	0x3b9e7cf3	0.0048366725
201	0x3c600e50	0.013675287
202	0x3d2f465a	0.0427917
203	0xbd3a53c6	-0.04549005
204	0xbd12e3ad	-0.03586166
205	0xbcc755ea	-0.02433296
206	0xbd737dcf	-0.059446152
207	0xbd526748	-0.051368028
208	0xbb09be0c	-0.0021017818
209	0x3d8a048f	0.06739151
210	0xb5d354df	-1.5745426e-06
211	0x34657013	2.136806e-07
212	0xb630cd4c	-2.6345542e-06
213	0xbb2b13d1	-0.002610434
214	0x3ca65d40	0.020308137
215	0x3c716812	0.014734285
216	0x3d3093dc	0.04310976
217	0xbd1118b7	-0.03542396
218	0x3cd73964	0.026272483
219	0x3c36b1f9	0.01115083
220	0x3c8daeb8	0.017295226
221	0x3d4b1b06	0.04958632
222	0x3d9152e9	0.07095892
223	0xbd7451f9	-0.059648488
224	0xbd01d90e	-0.03170114
225	0x3ca29e62	0.019850913
226	0xbb98f4a1	-0.004667834
227	0xbd18a63d	-0.037267912
228	0xbd466376	-0.048434697
229	0xbd7076ba	-0.058706976
230	0xbd84ec52	-0.06490387
231	0x3cc7d0fc	0.024391644
232	0xbc02bf34	-0.007980157
233	0x3d45cef5	0.048293073
234	0xb690cd87	-4.315461e-06
235	0x388158da	6.167749e-05
236	0x37819a8a	1.5449961e-05
237	0xbcc9c833	-0.024631595
238	0xbcfdfdb2	-0.03100476
239	0xbccfc0d9	-0.025360512
240	0xbd237d22	-0.039914258
241	0xbd78f35c	-0.06077896
242	0x3d84af32	0.06478728
243	0x38ec59c1	0.00011270075
244	0x3cff77d2	0.031185064
245	0xbd97c5ed	-0.07410798
246	0xbb6ac9bb	-0.0035825807
247	0x3d09817e	0.03357076
248	0x3cdb3256	0.0267574
249	0x385ddc18	5.2895484e-05
250	0x3884c6eb	6.331302e-05
251	0x387989f8	5.949472e-05
252	0xbb5311ac	-0.0032206578
253	0x3ce01513	0.027353799
254	0xbb3c72da	-0.002875498
255	0x3a001b9d	0.0004886927

encoder.6.bias f4 [128]
0	0x3d772aa9	0.06034342
1	0xbd10511d	-0.035233606
2	0x3d643341	0.055712942
3	0xbcc0ccfa	-0.02353524
4	0x3d1c38e4	0.038140193
5	0xbc420ba0	-0.011843592
6	0x3c2370f5	0.0099756615
7	0xbd01486a	-0.0315632
8	0x3cfacbec	0.030614816
9	0xbcbc0252	-0.022950325
10	0x3c6ef324	0.014584336
11	0xbd93b5e9	-0.07212431
12	0x3d4e8df7	0.050428357
13	0xb905656f	-0.00012721655
14	0x3c64f004	0.01397324
15	0x3b4b10bf	0.0030985323
16	0x3d67b34c	0.056567475
17	0xba45a8cd	-0.0007540107
18	0x3d26926f	0.040666994
19	0xbd5ae4a5	-0.05344071
20	0xbbd6af4a	-0.006551658
21	0x3d32aed2	0.043623753
22	0x3d69f3c3	0.057117235
23	0x3c049fc3	0.008094731
24	0x3ccbf7f7	0.024898512
25	0x3c86a87d	0.016437763
26	0xbc0ea346	-0.00870592
27	0xbd26d267	-0.040728
28	0xbc0cd9f8	-0.00859689
29	0xbc3591fe	-0.0110821705
30	0xbce9c235	-0.028534988
31	0xbd290f3a	-0.041274287
32	0x3cf710db	0.030159405
33	0x39245b69	0.00015674312
34	0xbd55d711	-0.052207056
35	0xbd8fa877	-0.07014554
36	0x3d6c6a93	0.057718825
37	0xbc52357f	-0.012830137
38	0xbd224efc	-0.039626107
39	0x3c96d6cf	0.018412976
40	0x3cec9b91	0.028882774
41	0x3d813634	0.063091666
42	0xbd79e7c6	-0.061012052
43	0xbd7540be	-0.059876196
44	0xbc033539	-0.008008295
45	0x3b601d43	0.003419713
46	0x3d0b7e5e	0.03405606
47	0xbc2cefdb	-0.010555233
48	0x3d3d8185	0.046266098
49	0xb9f964e4	-0.0004756815
50	0x3c55a584	0.01303995
51	0x3cfad6db	0.03062003
52	0xbd78c702	-0.060736664
53	0xbd0f1d3e	-0.034939997
54	0x3bf22235	0.0073893317
55	0x3d7488e0	0.059700847
56	0xbb8ac0cc	-0.004234409
57	0x3d79b31b	0.060961824
58	0xbcaf2e09	-0.021384256
59	0x3bdea687	0.006794754
60	0x3d058489	0.0325971
61	0x3c0be804	0.008539204
62	0xb9f69c58	-0.00047037262
63	0x3cef27cf	0.029193787
64	0xbbc4da71	-0.0060074856
65	0xbd621e94	-0.055204943
66	0xbd0a5f5c	-0.033782348
67	0xbcd8842c	-0.026430212
68	0x3c9c6b0e	0.019094016
69	0x3d3bab20	0.045817494
70	0x3c5150cc	0.012775611
71	0xbbfe9cf5	-0.0077701756
72	0x3d35cbb0	0.044383705
73	0xb9829a9f	-0.00024910734
74	0x3d501d27	0.05080905
75	0xbd5d6541	-0.05405164
76	0x3d4def08	0.050276786
77	0xbd7c36b2	-0.0615756
78	0xbd8ef49d	-0.0698025
79	0xbd0089cd	-0.031381417
80	0x3d050178	0.032472104
81	0x3d0ddd49	0.034634862
82	0x3d76f5f1	0.06029314
83	0xbc23323e	-0.009960709
84	0xbbe6441f	-0.0070271636
85	0x3b202cc4	0.0024440745
86	0xbd33b731	-0.043875877
87	0x3aa7a02d	0.0012788825
88	0x3c63e19b	0.013908769
89	0xbca567b8	-0.020191059
90	0xbd3c89dd	-0.046029914
91	0x3d3c4c3a	0.045971133
92	0xbd9fc9b8	-0.07802147
93	0x3d7b3f1a	0.061339475
94	0x3d146145	0.036225576
95	0xbd23e8b1	-0.040016834
96	0xbd648911	-0.05579478
97	0x3cf2ade6	0.029623937
98	0x3d05bd88	0.032651454
99	0xbd5ac351	-0.053408924
100	0x3d71d7c9	0.05904368
101	0x3c308369	0.010773518
102	0xbc2fa781	-0.010721088
103	0xbccb41f8	-0.02481173
104	0x3d335645	0.043783445
105	0xbd3cb820	-0.046074033
106	0xbcb29685	-0.021800289
107	0xbb5e938c	-0.0033962457
108	0xbcb6f02b	-0.022331318
109	0x3d02eeef	0.031966146
110	0xbb77fee3	-0.0037841133
111	0x3d50d950	0.050988495
112	0x3cb48f1e	0.0220409
113	0xbc424f64	-0.0118597485
114	0x3ce6a30b	0.028153917
115	0xbd9bf3be	-0.076148495
116	0xbd548380	-0.05188322
117	0x3c85b5d8	0.016322061
118	0x3bae2511	0.0053144773
119	0xbbf007bf	-0.007325142
120	0x3cb1eeab	0.021720251
121	0x3d4cbb9b	0.049983602
122	0x3b8468b9	0.004040804
123	0xbcd178ed	-0.025570357
124	0x3cdf116e	0.02722999
125	0x3d7505c6	0.05981996
126	0xbc86c360	-0.016450584
127	0xbcdbc95d	-0.026829416

encoder.8.weight f4 [256, 128, 3, 1]
0	0xbd4c3255	-0.049852688
1	0x3d08167a	0.03322456
2	0x3d21ce69	0.03950349
3	0x3caf092b	0.021366676
4	0xbc24596c	-0.010031085
5	0x3cd6469b	0.026156714
6	0xbd3f555c	-0.046712264
7	0x3b1a2d6e	0.0023525613
8	0xbd084031	-0.033264343
9	0x3cdeebae	0.02721199
10	0xbd1bbcfe	-0.038022034
11	0x3d2803ce	0.041019253
12	0xbd131447	-0.03590801
13	0xbbc0f57c	-0.005888639
14	0x3ca90675	0.020632962
15	0xbce9cc5c	-0.028539829
16	0xbc1019e5	-0.008795236
17	0x3d32355e	0.043507926
18	0x3d1c9b07	0.038233783
19	0xbd29150f	-0.04127985
20	0xbd508449	-0.050907407
21	0x33bff4fd	8.938694e-08
22	0x37484c20	1.1938653e-05
23	0x35d353fe	1.574517e-06
24	0xb9dec089	-0.0004248659
25	0x3b743f54	0.0037269192
26	0xbc69c1ca	-0.014267394
27	0x3d28b93d	0.041192282
28	0x3d14c4a6	0.03632035
29	0xbd1a8141	-0.037720922
30	0x3a70e148	0.0009188843
31	0xbc458bb2	-0.012057232
32	0xbbc3ceb3	-0.005975568
33	0x3cd5188a	0.026012678
34	0xbb36480e	-0.0027813944
35	0xbc7a280f	-0.01526834
36	0x3d364812	0.044502325
37	0xbd5b81bf	-0.053590532
38	0x3b93e7ba	0.004513708
39	0xb70fb594	-8.565741e-06
40	0xb76aa1a5	-1.3985123e-05
41	0xb7bb5736	-2.2332748e-05
42	0x3d05632d	0.032565285
43	0x3c26cf70	0.010181293
44	0x3d070417	0.032962885
45	0x3cd1c535	0.025606731
46	0x3cbd026f	0.02307245
47	0xbd5d29c7	-0.05399492
48	0x3cc147bb	0.023593774
49	0x3ce139e2	0.027493421
50	0x39e87c70	0.000443432
51	0x3d2b27aa	0.041785873
52	0x3d008507	0.031376865
53	0x3b2b50b3	0.002614063
54	0x3c7a37c6	0.0152720865
55	0xbba216c2	-0.0049465606
56	0xbc9632f1	-0.018334838
57	0xbd10ba24	-0.035333768
58	0x3c3339d7	0.010939083
59	0x3d3a64dc	0.045506343
60	0x3c84128d	0.016122127
61	0x3c7ba182	0.015358331
62	0xbc903390	-0.017602712
63	0xbc875f7d	-0.016525025
64	0x3c9fe610	0.019518882
65	0x3c560d92	0.013064759
66	0x3d29a504	0.041417137
67	0x3d34df88	0.04415849
68	0xbd183899	-0.03716335
69	0xbc63133b	-0.013859565
70	0x3c517d40	0.01278621
71	0x3aa5b18d	0.0012641415
72	0x3c395432	0.011311578
73	0xbd03ccfe	-0.032177918
74	0x3c68e302	0.014214279
75	0xbd39fb92	-0.04540593
76	0xbd4cb1ca	-0.04997424
77	0xbd55841e	-0.05212795
78	0xbc4339a7	-0.011915601
79	0xbc1477ac	-0.009061735
80	0xbc356dd4	-0.011073548
81	0x3c0eca95	0.0087152915
82	0xb956f9a3	-0.00020501627
83	0x37d9dffd	2.5972719e-05
84	0x3cc8c259	0.024506735
85	0x3c48a3f3	0.01224612
86	0xbc965a4b	-0.018353602
87	0x3ba96353	0.005169311
88	0x3b93e1ab	0.0045129857
89	0x3ba1139d	0.004915668
90	0x3d114689	0.03546766
91	0xbd770eb6	-0.060316764
92	0xbb04a6c0	-0.0020240992
93	0xbc2e303e	-0.010631619
94	0xbd117db1	-0.03552026
95	0x3c3002a5	0.010742818
96	0x3d33c653	0.04389031
97	0x3cc5d540	0.024149537
98	0x3ba60091	0.0050659855
99	0x3c96d980	0.018414259
100	0xbc3539e7	-0.011061168
101	0x3c19a55a	0.009377802
102	0x3d43814c	0.04773073
103	0x3d1ae615	0.03781708
104	0x3ccc541a	0.024942447
105	0xbcf07325	-0.02935178
106	0xbb67bdcc	-0.003536093
107	0x3c57be06	0.013167864
108	0xbd15261f	-0.03641331
109	0x3ca13c73	0.019682145
110	0xbd6633d5	-0.056201775
111	0x3b9a03dd	0.0047001676
112	0x3d091a23	0.03347219
113	0x3d1bd9f3	0.03804965
114	0xbd03ce1a	-0.032178976
115	0xbd4229cb	-0.047403138
116	0x3c8eb852	0.017421875
117	0x3c8949f1	0.01675889
118	0xbc19db87	-0.009390718
119	0xbc862cc2	-0.016378764
120	0xbd43889e	-0.04773771
121	0xbc6ba5f9	-0.014382833
122	0xbd3f2cb4	-0.04667349
123	0x3caeb60b	0.02132704
124	0xbd051301	-0.032488827
125	0x3bf3f90b	0.0074454597
126	0x3b80f555	0.003935496
127	0x3c536d09	0.012904414
128	0xbcd0e153	-0.025498068
129	0xbd3b4c57	-0.0457271
130	0x3d126b3e	0.035746805
131	0x3c1e8db6	0.009677341
132	0x3d1a604d	0.037689496
133	0x3b902069	0.004398395
134	0xbcf32bf9	-0.029684054
135	0x3b84891c	0.004044665
136	0x3b937253	0.0044997125
137	0xbd123fbd	-0.035705317
138	0x3c90c641	0.01767266
139	0xbd54dba2	-0.05196727
140	0x3cc3ac08	0.023885742
141	0x3cdbb34a	0.02681889
142	0x3ce7fc81	0.028318645
143	0xbd5cebbe	-0.05393576
144	0x3b5b21a9	0.003343681
145	0xbb76415d	-0.003757558
146	0xbc3ebb6e	-0.011641366
147	0x37de9dc4	2.6537928e-05
148	0x3794b5d9	1.7727654e-05
149	0xb5f74576	-1.842315e-06
150	0xbd03d35d	-0.032183994
151	0x3caae4a3	0.020860976
152	0xbd511bf3	-0.051052045
153	0x3a81982a	0.0009887267
154	0xbbbbfb92	-0.0057367766
155	0x3ccd27bc	0.02504336
156	0xbd1a3288	-0.037645847
157	0x3cc110e7	0.02356763
158	0x3b2bbe19	0.0026205836
159	0xbc955bbf	-0.018232225
160	0x3c1f3525	0.0097172605
161	0x3d0ebd36	0.034848414
162	0xbc11ae8d	-0.008891714
163	0x3c8b4721	0.01700169
164	0xbd643144	-0.055711046
165	0xbd4eee2e	-0.050520115
166	0xbc8224c0	-0.015886664
167	0x3ce33cb5	0.027738908
168	0xb7b353a9	-2.137742e-05
169	0x379ec6ba	1.8927607e-05
170	0x370aa742	8.264384e-06
171	0x3cf87415	0.03032879
172	0x3c78564c	0.0151572935
173	0xbc303092	-0.010753768
174	0x3b3c5f90	0.0028743483
175	0xbd15eb7e	-0.036601536
176	0x3c6be3c4	0.014397565
177	0x3bffeda7	0.007810313
178	0xbd68fa18	-0.056879133
179	0x3ca768b8	0.020435676
180	0x3c37e569	0.011224129
181	0xbd405d7f	-0.046964165
182	0x3cbb3648	0.022853032
183	0xbb11076c	-0.0022129668
184	0xbbd74e53	-0.0065706163
185	0xbcc1e121	-0.02366692
186	0x38351243	4.317077e-05
187	0xb7d12032	-2.4929734e-05
188	0xb50ad47e	-5.1718223e-07
189	0xbd24f2f3	-0.040270757
190	0xbc8aa0ac	-0.016922317
191	0x3cbe2f8f	0.023216037
192	0xbc8992ba	-0.016793597
193	0x3d2b5a46	0.04183414
194	0xbd267924	-0.040642872
195	0x3c949e24	0.018141814
196	0x3d063c53	0.032772373
197	0xbbb3531c	-0.005472554
198	0x3cbe6548	0.023241654
199	0x3bb12718	0.0054062717
200	0x3d24fa8f	0.040278014
201	0xbc431fd1	-0.011909441
202	0x3b6e5f37	0.003637267
203	0xbd50ecdd	-0.05100714
204	0xbc3f1375	-0.011662354
205	0x3c5bcb3b	0.013415153
206	0x3c833263	0.016015237
207	0xbd2b3477	-0.04179808
208	0x3bff5297	0.007791828
209	0x3d327a50	0.043573678
210	0xbbc0ebaf	-0.0058874707
211	0xbd15247c	-0.036411747
212	0xbce81c69	-0.02833386
213	0x3bb17269	0.00541525
214	0x3be38908	0.0069438256
215	0x3bd5d2d7	0.006525378
216	0xbd141e61	-0.036161784
217	0x3c1171f7	0.008877269
218	0x3bb89804	0.005633356
219	0x38e2c8d6	0.000108139284
220	0x3a83af6e	0.0010046789
221	0x39ce241a	0.0003931828
222	0xbd6207d8	-0.05518326
223	0xbbfbce87	-0.007684532
224	0x3c5a1cae	0.013312502
225	0xbc041376	-0.0080612805
226	0xbab48231	-0.001377171
227	0xbd4d73cd	-0.050159264
228	0x3c54063f	0.012940942
229	0xba667b90	-0.0008792216
230	0xbd04754d	-0.03233843
231	0x3b9a9280	0.004717171
232	0xbd4a4746	-0.049384378
233	0x3d030314	0.031985357
234	0xbbfcdfb1	-0.007717096
235	0xbd37d595	-0.044881422
236	0xbd042b25	-0.03226771
237	0xbd035aed	-0.032069135
238	0xbc184c5b	-0.009295548
239	0xbd19c356	-0.037539802
240	0xbbb1eba5	-0.0054297023
241	0xbd153378	-0.036426038
242	0x3c782710	0.015146032
243	0xbc164652	-0.009172039
244	0xbbb53848	-0.005530391
245	0xbd349989	-0.044091735
246	0xbd4af39d	-0.049548734
247	0x3cb5c176	0.022186976
248	0xbd5e3a31	-0.054254714
249	0x3cebabee	0.028768506
250	0xbc3b7fdf	-0.011444061
251	0x3d00191d	0.03127395
252	0xbb752649	-0.0037406853
253	0x3c61da0c	0.013784897
254	0x3d0d54e7	0.034504797
255	0x3d10b5f3	0.03532977

encoder.8.bias f4 [256]
0	0x3c7579ef	0.0149826845
1	0x3d10f7ff	0.035392758
2	0x3b81ed00	0.00396502
3	0xbc238dab	-0.009982507
4	0x3bf78f7b	0.007554946
5	0x3cd5311d	0.026024396
6	0x3cf42f19	0.029807614
7	0xba4aa049	-0.0007729573
8	0xbc81ead7	-0.01585905
9	0x3cafc9d4	0.021458544
10	0xbc90cfbe	-0.017677184
11	0xbd36e364	-0.04465045
12	0xbcacdaae	-0.021100368
13	0x3c87b7ff	0.016567228
14	0x3d284de4	0.041089907
15	0x3bf19487	0.007372442
16	0x3b4a7e4b	0.003089803
17	0xbbbf3edc	-0.005836351
18	0x3d1fdd9d	0.039029706
19	0xbb6cd475	-0.0036137376
20	0x3a480b6a	0.00076310954
21	0x3c42433b	0.011856849
22	0xbd086984	-0.033303753
23	0x3cc9d8f4	0.024639584
24	0x3aac3aca	0.0013140079
25	0xbacc9cd9	-0.0015610709
26	0xbc3ecb17	-0.0116451
27	0xbc725ddc	-0.014792886
28	0xbb82ec97	-0.003995489
29	0xbb9c7b47	-0.004775438
30	0x39394d72	0.00017671825
31	0x3d3e3735	0.04643937
32	0xbc0f6fd7	-0.008754692
33	0x3ce89bb4	0.028394558
34	0xbc6789cb	-0.0141319735
35	0x3d3ba5fa	0.045812584
36	0x3cedb910	0.029018909
37	0xbbe7b65a	-0.0070712985
38	0x3ba12856	0.0049181385
39	0xbcad97ee	-0.02119061
40	0x3c9f7920	0.019466937
41	0xbaee62dc	-0.0018187421
42	0xbcd2e0a3	-0.02574188
43	0x3ce9f02f	0.028556911
44	0x3d355f2c	0.044280216
45	0xbd09ed1c	-0.03367339
46	0xbd0c4a65	-0.034250636
47	0xbd2392c9	-0.039934907
48	0xbc8bd17f	-0.017067669
49	0x3d4c5b75	0.049891908
50	0x3c1ce456	0.009575924
51	0x3c821560	0.015879333
52	0x3ad9faa6	0.0016630485
53	0xbcb68e08	-0.022284523
54	0xbd1e3e5f	-0.0386337
55	0x3c975e20	0.0184775
56	0xbd1870b1	-0.037216846
57	0xbbf95819	-0.007609379
58	0xbccaec2b	-0.024770817
59	0xbbb86b60	-0.0056280345
60	0x3d1530f9	0.036423657
61	0xbc91a6f8	-0.017779812
62	0x3d098be9	0.033580694
63	0xbc8ccb6f	-0.017186848
64	0x3c7ce06d	0.015434367
65	0x3d0cffe9	0.034423742
66	0xbd17acef	-0.037030157
67	0xbc5a6b78	-0.013331287
68	0x3d18159e	0.03712999
69	0xbc14dfa7	-0.009086526
70	0x3c6c9540	0.014439881
71	0xba5761a1	-0.0008216147
72	0x3cfb8d1b	0.030706933
73	0x3c4482ff	0.0119941225
74	0xbcc49fdb	-0.024002006
75	0xbc1a3932	-0.0094130505
76	0x3cd8fa97	0.026486678
77	0x3c743f71	0.014907704
78	0xb9326a2f	-0.0001701496
79	0xb96b7b75	-0.00022457338
80	0x3bb6983c	0.005572347
81	0xbc71ab01	-0.014750243
82	0xbc91fb03	-0.017819887
83	0x3c0d74f8	0.008633845
84	0x3d11827f	0.03552484
85	0xbd1c6ed3	-0.038191628
86	0xbcd0265f	-0.025408922
87	0xbc08b07a	-0.008342857
88	0x3cff3634	0.031153776
89	0xbd076c90	-0.033062518
90	0x3baf7e6a	0.005355646
91	0xbc831c22	-0.016004626
92	0x3d4c6d37	0.049908843
93	0xb8a78530	-7.987989e-05
94	0xbc0dd723	-0.00865725
95	0xbd2d5a2f	-0.042322334
96	0x3d0713b7	0.032977786
97	0xbc01b5c3	-0.0079168705
98	0x3d110704	0.03540708
99	0x3cc3ba1b	0.023892453
100	0xbce9c0bb	-0.028534284
101	0xbd201f78	-0.03909251
102	0xbd4f673c	-0.05063556
103	0x3d10a996	0.03531798
104	0xbbc74a23	-0.006081836
105	0xbd2802b5	-0.041018207
106	0x3bf7bfef	0.007560722
107	0x3d2a0922	0.041512616
108	0xbb7d4a4f	-0.0038649028
109	0xbb93d242	-0.0045111487
110	0x3b7e5748	0.0038809348
111	0xbc278e66	-0.0102268215
112	0xbaa197b6	-0.0012328539
113	0xbcea84ed	-0.028627837
114	0xbd1cae2b	-0.038252037
115	0xbbfb894d	-0.0076762796
116	0xbcb676ca	-0.02227344
117	0x3b219380	0.0024654567
118	0xba496426	-0.0007682465
119	0x3cac78a9	0.021053629
120	0xbbcf4bc9	-0.006326173
121	0xbcc87e95	-0.024474422
122	0x3d2300e0	0.039795756
123	0xbca2cb1d	-0.019872243
124	0x3c02f192	0.007992165
125	0x3ca59536	0.02021275
126	0x3cc7cf20	0.024390757
127	0xb61a8704	-2.3026378e-06
128	0x3c61c5c8	0.013780065
129	0xbc65d014	-0.0140266605
130	0x3bd53371	0.0065063764
131	0xbbdc67d1	-0.006726243
132	0x3bc6a349	0.0060619456
133	0xbb5be7f9	-0.0033555015
134	0x3c8457d3	0.01615516
135	0xbae7b9fc	-0.0017679329
136	0x3c01bf51	0.007919149
137	0xbd043e7d	-0.032286156
138	0x3cee1ea4	0.029067345
139	0xbbd54f10	-0.006509669
140	0x3cb412b8	0.021981582
141	0xbc1553e0	-0.009114236
142	0xbbf1cb83	-0.007378997
143	0x3a64e275	0.00087312545
144	0xbc8eb61a	-0.017420817
145	0xba9f091c	-0.0012133452
146	0xbc068a37	-0.008211664
147	0x3c9803a0	0.018556416
148	0x3c848ee1	0.016181411
149	0xbc17b35b	-0.00925907
150	0x3c16a500	0.0091946125
151	0xbc18871f	-0.009309559
152	0x3ac871e5	0.0015292732
153	0x3c8aa1af	0.0169228
154	0x3afbc45b	0.0019208299
155	0xbbbef60a	-0.00582767
156	0x3c22dfa6	0.009941017
157	0xbc08c802	-0.008348467
158	0x37bc5584	2.2451168e-05
159	0xbcc0e5aa	-0.023547012
160	0xbc693328	-0.014233388
161	0x3cc9915e	0.02460545
162	0x3c9fd093	0.019508636
163	0x3d12ae6b	0.03581087
164	0x3d0a9076	0.033829175
165	0x3d10843c	0.03528236
166	0x3c9dc750	0.019260079
167	0xbd04bbcb	-0.032405656
168	0xbd484a53	-0.048899006
169	0x3cd47851	0.025936278
170	0xbd30c527	-0.04315677
171	0x3b6978fd	0.0035625093
172	0x3c964a85	0.01834608
173	0x3d0bd383	0.03413726
174	0xbc09e94b	-0.008417438
175	0x3c40a7c0	0.011758745
176	0x3d0b6585	0.034032363
177	0x3cf189ec	0.029484712
178	0x390a7969	0.00013205934
179	0x3d2605fe	0.04053306
180	0x3baa6ff5	0.0052013346
181	0xba9dee79	-0.001204922
182	0xbc2e6e40	-0.010646403
183	0x3ce2718a	0.02764203
184	0x3a526671	0.0008026129
185	0x3d27f5c6	0.041005872
186	0xbd1831be	-0.037156813
187	0x3ce06fb6	0.027397018
188	0xbbae5f0b	-0.0053213886
189	0xbbd71166	-0.0065633534
190	0xbd13f5d6	-0.03612312
191	0x3c88e28f	0.016709594
192	0x3d16a67b	0.036779862
193	0xbc841b6f	-0.016126363
194	0x3ca7a9b8	0.02046667
195	0xbcbc403e	-0.022979852
196	0xbcc4bb65	-0.024015138
197	0x3cb14bde	0.021642622
198	0x3d00365f	0.031301852
199	0xbb9206eb	-0.004456391
200	0xbc223e08	-0.009902485
201	0xbc2fbc50	-0.01072605
202	0x3c1a2c87	0.00941003
203	0xbb510acd	-0.0031897307
204	0xbc8d8787	-0.017276539
205	0x3c9851d8	0.018593714
206	0x3cc09da0	0.023512661
207	0x3c6599d2	0.014013724
208	0xbd1408d9	-0.03614125
209	0xbbf43f69	-0.007453848
210	0xbd3b0026	-0.04565444
211	0xbd281c3f	-0.041042563
212	0x3cd2f1a3	0.025749987
213	0x3c8f4127	0.017487122
214	0x3d33c095	0.043884832
215	0xba3ed7c6	-0.00072800776
216	0xbc81a7fe	-0.015827175
217	0xbbfe3653	-0.007757941
218	0x3c8492fa	0.016183365
219	0xbd502ca4	-0.050823823
220	0x3bc4ec8e	0.006009645
221	0x3d19ab22	0.03751672
222	0x3c006adc	0.007837977
223	0xbcc7c96a	-0.024388034
224	0xba0ef0fc	-0.00054527796
225	0xbd1806cf	-0.03711587
226	0xbbb0889e	-0.00538738
227	0x3ce9e898	0.028553292
228	0xbb59af78	-0.003321616
229	0x3d14b660	0.03630674
230	0x3d540c7c	0.05176972
231	0xbd31ce72	-0.043409772
232	0xbaf4684e	-0.0018646808
233	0x397503b7	0.00023366405
234	0xbc1e74bf	-0.009671389
235	0xbce5ecea	-0.028067071
236	0x3a60c6af	0.0008574528
237	0xbd50df76	-0.05099436
238	0xbbb572ae	-0.0055373525
239	0xbc9232be	-0.017846461
240	0x3d155520	0.036458135
241	0xbc300092	-0.0107423235
242	0xbc302b1f	-0.010752468
243	0x3cf69c84	0.03010393
244	0xbc936e14	-0.017996825
245	0xbcda6d78	-0.026663527
246	0x3c15353d	0.009106931
247	0xbb9221cd	-0.004459596
248	0xbc064460	-0.008195013
249	0xb8aa6097	-8.124223e-05
250	0x3b665874	0.0035147937
251	0x3d12499c	0.03571473
252	0x3c496d57	0.012294135
253	0x3d304f90	0.043044627
254	0xbbb17cc4	-0.0054164845
255	0xbc53d0b8	-0.01292818
