VAE-LSTM-anomaly–detection/experiments/Collected_data/nosein_noseout_9-grid_search-0414/Collected_data-nosein_noseout_9-win_len400-look_back5-codesize20-VAEunits256-LSTMunits128/checkpoint/vae_best_model.pth (torch, 704594 bytes, 24 tensors)

encoder.0.weight f4 [16, 3, 3, 1]
0.22001882 0.31758723 0.12015569 -0.23080209 -0.0050824895 0.14612536 -0.26233482 -0.1610047
-0.24046484 -0.25869423 0.30199593 -0.23927541 -0.14698102 0.19123287 -0.19313988 -0.22377858
-0.12701346 0.19526036 -0.17272443 0.2373991 0.124619655 0.0649327 0.31165913 -0.058340196
-0.040235065 -0.24470201 0.23333041 -0.28056213 0.10797353 -0.1784142 0.06826932 -0.17019708
-0.14104278 0.20642145 -0.10506416 0.05337866 -0.056760784 0.073564135 -0.3144354 -0.24079035
0.018225273 0.060975097 -0.045378175 -0.21273167 0.25089726 0.32228726 0.09572338 0.14327444
-0.014705712 0.13546379 0.067449406 -0.04918771 -0.30484194 -0.29304844 -0.2992016 -0.16712637
-0.28245202 0.13059996 0.0319988 -0.16403373 0.26520425 0.30224547 -0.25934604 0.28935876
0.049227625 -0.1303518 0.25721535 -0.25538138 -0.23587963 -0.0070732473 0.060090672 0.14797765
0.069318034 -0.312125 -0.22160593 0.2942821 0.1157603 -0.28434795 -0.06420296 0.18954486
-0.24319401 0.27954805 -0.12326351 0.19318804 0.15089856 -0.1904247 -0.1273447 0.20970641
0.15347064 0.2612908 0.035008524 0.025099052 0.1364379 0.3176508 0.0970573 -0.24846153
-0.21576692 -0.0055894507 0.10833182 -0.11728825 -0.031331632 0.24160656 0.23299517 -0.14317146
0.036446683 0.1736061 -0.08505268 0.19862369 0.18400516 -0.19852746 0.014266964 -0.03294854
0.11833485 0.18938471 0.2574678 -0.053157467 0.22400837 0.20238523 -0.016114833 -0.247494
0.15476617 0.29536027 0.2612182 0.15390204 -0.28375068 0.2911009 0.2419665 0.2822477
0.26433703 0.263105 -0.009420654 0.19051011 -0.056641076 -0.23918411 -0.0077994275 0.10001212
0.048186395 -0.08633267 -0.07648172 -0.1954079 0.23017684 0.24094073 -0.239192 -0.30102062
00000000: 9d4c 613e cb9a a23e 3014 f63d 6257 6cbe
00000010: 038b a6bb e3a1 153e c050 86be 6bde 24be
00000020: 6a3c 76be 9273 84be 369f 9a3e 9d04 75be
00000030: 3182 16be 8dd2 433e 76c6 45be 3626 65be
00000040: d10f 02be 55f2 473e acde 30be c018 733e
00000050: 9738 ff3d 6ffb 843d c991 9f3e 21f6 6ebd
00000060: 86cd 24bd 2a93 7abe 2bee 6e3e d7a5 8fbe
00000070: 3a21 dd3d 36b2 36be c9d0 8b3d 2548 2ebe
00000080: 856d 10be 2560 533e e12b d7bd 95a3 5a3d
00000090: ff7d 68bd cba8 963d adfd a0be bf91 76be
000000a0: 2b4d 953c 06c1 793d 77de 39bd 55d6 59be
000000b0: 9b75 803e d602 a53e 9f0a c43d 89b6 123e
000000c0: 3af0 70bc 05b7 0a3e ea22 8a3d 0d79 49bd
000000d0: 3e14 9cbe 720a 96be f430 99be 2d23 2bbe
000000e0: 8d9d 90be ffbb 053e 2c11 033d 75f8 27be
000000f0: dac8 873e ebbf 9a3e 01c9 84be d526 943e
00000100: e8a2 493d f17a 05be bbb1 833e 59c1 82be
00000110: 6e8a 71be b3c6 e7bb a321 763d 7487 173e
00000120: 9df6 8d3d d9ce 9fbe aaec 62be 25ac 963e
00000130: bc13 ed3d 0e96 91be d77c 83bd 0c18 423e
00000140: da07 79be ec20 8f3e 9471 fcbd 16d3 453e
00000150: 2785 1a3e b1fe 42be a666 02be 47bd 563e
00000160: 6827 1d3e e8c7 853e 1965 0f3d 879c cd3c
00000170: 60b6 0b3e 20a3 a23e fac5 c63d b36c 7ebe
00000180: 01f2 5cbe b627 b7bb 13dd dd3d d234 f0bd
00000190: 9955 00bd b667 773e 4996 6e3e 8a9b 12be
000001a0: 1e49 153d ccc5 313e 1930 aebd 0264 4b3e
000001b0: d96b 3c3e c84a 4bbe fcbf 693c 0cf5 06bd
000001c0: 8b59 f23d 11ee 413e d2d2 833e a5bb 59bd
000001d0: 7362 653e 133e 4f3e 4103 84bc 116f 7dbe
000001e0: 067b 1e3e 7639 973e 64be 853e 7f98 1d3e
000001f0: c547 91be 2d0b 953e 11c6 773e c582 903e
00000200: 2f57 873e b3b5 863e 1659 1abc 1515 433e
00000210: 7900 68bd aeec 74be 5792 ffbb 28d3 cc3d
00000220: 195f 453d 2fcf b0bd 73a2 9cbd 0219 48be
00000230: 7ab3 6b3e 2bb9 763e bfee 74be 601f 9abe

encoder.0.bias f4 [16]
-0.099064425 -0.31865883 -0.035158925 -0.11746347 -0.12058271 -0.18334576 -0.29534408 0.21877003
0.1338352 0.09823605 -0.08145638 0.10970273 -0.2199246 -0.054517087 -0.18715832 -0.16436768
00000000: 4ae2 cabd 4027 a3be ce02 10bd b090 f0bd
00000010: 11f4 f6bd febe 3bbe 5737 97be 4005 603e
00000020: 180c 093e fb2f c93d 9ad2 a6bd d3ab e03d
00000030: ea33 61be 4f4d 5fbd 6ea6 3fbe 0050 28be

encoder.2.weight f4 [32, 16, 3, 1]
0.056586504 0.09887562 -0.059397496 0.04614583 0.076220445 0.024779458 0.090274066 -0.13191056
-0.0074047856 -0.049489748 -0.043161955 -0.1356624 0.12240311 -0.0935069 0.102523245 -0.03584883
0.04839185 -0.054960202 -0.074173525 -0.07987831 0.119015865 0.05528476 0.020703169 0.11760376
0.0805596 0.07814572 -0.13825329 -0.0013851674 -0.038219742 -0.10105535 0.069517076 -0.0031983973
0.0048738783 -0.1015826 -0.083423294 0.10944906 -0.041692186 0.10147905 -0.064433634 -0.10737954
0.116021626 0.09606712 0.018367426 0.0023963107 0.104423776 -0.1427106 -0.02720506 -0.02469181
-0.04501827 0.01727105 0.012861726 0.104499064 0.10970122 -0.06983963 -0.055280566 0.071763046
-0.026313864 0.04940833 -0.08963527 0.1266182 0.011775706 0.005276345 -0.08072056 0.0435791
-0.0018907927 0.06514455 -0.08620265 -0.06906803 0.08565255 -0.12771726 -0.03322153 -0.08118585
0.0042896993 0.05640367 0.07360352 0.097475946 0.049012154 -0.08999291 0.051907726 -0.07442278
0.11365524 -0.064066835 0.08047082 0.070730664 0.11198552 -0.07545088 -0.1461726 0.10928354
-0.13275388 -0.024473766 0.09641483 0.06021586 0.05810605 0.04773751 -0.0349916 0.04036042
0.0828634 -0.0713313 -0.10771639 0.041847613 0.055071633 0.0137725 -0.12177938 0.008180362
0.004948813 -0.033736777 0.002266596 0.049983684 -0.015736803 -0.07625376 0.05466574 -0.1400885
0.03196822 0.035669986 -0.14008841 -0.123239785 0.10363875 -0.027136825 0.010686869 0.1237779
0.017789531 -0.08863919 -0.14279394 0.07152079 0.11340491 -0.07230656 0.029453602 -0.008141624
0.11277727 0.12691838 0.05191987 -0.14482483 -0.033369035 -0.046971757 0.12781978 -0.053526282
-0.036638122 -0.06934215 -0.13175829 0.08899709 -0.09582318 -0.0084152585 0.11761407 -0.13508262
-0.1139359 0.054274853 -0.028492693 0.08778565 -0.03101641 0.09442798 -0.10073428 -0.0983885
-0.022845222 0.13437967 0.026271144 -0.06066089 -0.058753196 -0.09598791 0.03887955 0.15151678
0.063146345 -0.025422728 0.06447745 0.07280125 -0.13282382 0.099093184 -0.08170896 0.09509982
-0.0716885 0.09597277 -0.083052 0.0958477 -0.05157979 0.13035552 -0.09583492 -0.027791752
0.086032726 0.07463277 -0.08538746 0.082353614 -0.084910475 -0.0530448 -0.031642385 0.09743771
-0.099529505 -0.07193293 0.11702975 -0.09410925 -0.034689613 -0.10804686 0.12959239 0.106183276
-0.057876967 -0.116528206 0.014804885 -0.018936886 -0.12623408 0.049476855 -0.043578107 -0.10898367
-0.057774797 -0.061107263 -0.078647345 0.08644438 0.14311595 -0.00060150126 0.018360082 -0.01416545
0.11165496 0.035518166 -0.124061905 -0.07854469 0.03962469 0.06433455 0.055388883 -0.042932898
0.008284426 0.09435338 -0.016361233 0.105272405 -0.016890446 -0.10367009 0.010251916 -0.05673969
0.050793815 -0.059660863 -0.10232112 -0.07413126 -0.08885574 0.017854208 -0.1013068 0.07303989
-0.10404851 0.00014431596 -0.023373373 0.07668864 -0.002182488 0.11323904 0.0023148782 -0.023047838
0.02120952 0.070691586 -0.12461841 -0.07338015 -0.08561117 0.05706523 -0.09259081 -0.13683955
0.019813493 0.09977773 0.10497976 0.03368879 -0.061726842 0.014286156 -0.14437473 -0.08940171
00000000: 40c7 673d 4d7f ca3d ca4a 73bd 6903 3d3d
00000010: 7719 9c3d 4afe ca3c 9ce1 b83d 9013 07be
00000020: d8a3 f2bb c3b5 4abd 97ca 30bd 16eb 0abe
00000030: 7bae fa3d 8c80 bfbd b5f7 d13d 39d6 12bd
00000040: 8836 463d f31d 61bd 4ae8 97bd 3d97 a3bd
00000050: 97be f33d 4672 623d b199 a93c 3dda f03d
00000060: 6efc a43d dd0a a03d 4592 0dbe 818e b5ba
00000070: 4e8c 1cbd 1bf6 cebd f85e 8e3d 349c 51bb
00000080: 0eb5 9f3b 8a0a d0bd d5d9 aabd d426 e03d
00000090: 6dc5 2abd 40d4 cf3d c8f5 83bd cee9 dbbd
000000a0: bf9c ed3d d7be c43d 4977 963c 6c0b 1d3b
000000b0: 22dc d53d ba22 12be 25dd debc 7b46 cabc
000000c0: 1465 38bd 047c 8d3c fdb9 523c 9b03 d63d
000000d0: 09ab e03d 1408 8fbd e06d 62bd 81f8 923d
000000e0: 2c90 d7bc 6460 4a3d b292 b7bd 34a8 013e
000000f0: e4ee 403c 31e5 ac3b d250 a5bd 0080 323d
00000100: 7ad4 f7ba 816a 853d 048b b0bd 8a73 8dbd
00000110: 9b6a af3d 50c8 02be 4d13 08bd c444 a6bd
00000120: 9b90 8c3b 8907 673d 71bd 963d 78a1 c73d
00000130: f8c0 483d 344e b8bd 329d 543d f86a 98bd
00000140: 14c4 e83d 7935 83bd e3cd a43d 3ddb 903d
00000150: aa58 e53d fe85 9abd 45ae 15be 0cd0 df3d
00000160: a2f0 07be 357d c8bc 2375 c53d e8a4 763d
00000170: 9c00 6e3d 6888 433d 5a53 0fbd f850 253d
00000180: 49b4 a93d 2516 92bd 699a dcbd 6768 2b3d
00000190: cb92 613d 0da6 613c 7867 f9bd ed06 063c
000001a0: a729 a23b 932f 0abd 2c8b 143b b1bb 4c3d
000001b0: 78ea 80bc ee2a 9cbd 2fe9 5f3d 5c73 0fbe
000001c0: 1cf1 023d b11a 123d 5673 0fbe 2465 fcbd
000001d0: 8e40 d43d 0c4e debc fa17 2f3c 457f fd3d
000001e0: 5abb 913c 7788 b5bd 9338 12be 7e79 923d
000001f0: d540 e83d 7615 94bd ae48 f13c 7264 05bc
00000200: c5f7 e63d e4f6 013e eea9 543d f64c 14be
00000210: f8ad 08bd 7565 40bd 30e3 023e 603e 5bbd
00000220: db11 16bd 4203 8ebd a5eb 06be 1b44 b63d
00000230: f23e c4bd 27e0 09bc a5df f03d 1953 0abe
00000240: 3a57 e9bd 4f4f 5e3d 8269 e9bc f6c8 b33d
00000250: 2016 febc 7563 c13d c64d cebd e97f c9bd
00000260: e725 bbbc d39a 093e 9536 d73c 8e77 78bd
00000270: 31a7 70bd 4f95 c4bd 2a40 1f3d 3727 1b3e
00000280: df52 813d 5343 d0bc c10c 843d d218 953d
00000290: f802 08be 5ef1 ca3d 0757 a7bd b2c3 c23d
000002a0: 6cd1 92bd 5f8d c43d 2b17 aabd cd4b c43d
000002b0: 5445 53bd eb7b 053e 1945 c4bd 87ab e3bc
000002c0: ed31 b03d 11d9 983d 9fdf aebd 03a9 a83d
000002d0: 8be5 adbd 8145 59bd 729b 01bd 6c8d c73d
000002e0: 20d6 cbbd 9251 93bd 4bad ef3d 5abc c0bd
000002f0: b216 0ebd ac47 ddbd deb3 043e 9e76 d93d
00000300: 6610 6dbd 57a6 eebd 3090 723c 8721 9bbc
00000310: 8243 01be 3ea8 4a3d f57e 32bd d532 dfbd
00000320: 44a5 6cbd 9c4b 7abd dc11 a1bd c009 b13d
00000330: fd8c 123e 11ae 1dba e267 963c 3416 68bc
00000340: 5bab e43d 7f7b 113d 2b14 febd 0adc a0bd
00000350: 804d 223d d5c1 833d 74df 623d 68da 2fbd
00000360: 67bb 073c 583c c13d fe07 86bc 0f99 d73d
00000370: d55d 8abc fc50 d4bd a7f7 273c e167 68bd
00000380: 2d0d 503d f35e 74bd bc8d d1bd 21d2 97bd
00000390: 00fa b5bd fd42 923c f179 cfbd f095 953d
000003a0: 6317 d5bd 8553 1739 8479 bfbc ef0e 9d3d
000003b0: 1308 0fbb dfe9 e73d 36b5 173b d2ce bcbc
000003c0: 96bf ad3c c0c6 903d f037 ffbd 5548 96bd
000003d0: e954 afbd 3bbd 693d 40a0 bdbd ab1f 0cbe
000003e0: e84f a23c 4458 cc3d a1ff d63d 42fd 093d
000003f0: 49d5 7cbd 7b10 6a3c f8d6 13be 3e18 b7bd

encoder.2.bias f4 [32]
0.09254805 0.02630551 0.060871158 0.09893337 -0.021583168 0.14528145 0.12717223 0.04933341
0.073081926 0.0750791 0.124287285 0.13402358 -0.092771836 0.051084645 -0.055292528 -0.017056812
0.035779987 -0.1191138 -0.048356496 0.105658785 -0.12596527 -0.11740645 -0.030784188 0.12944327
0.037399013 -0.047574177 0.1360946 -0.06723266 -0.013643329 -0.02162386 0.09112347 0.10227599
00000000: d589 bd3d a77e d73c 0954 793d 949d ca3d
00000010: 2fcf b0bc a9c4 143e 7039 023e d411 4a3d
00000020: faab 953d 12c3 993d 558a fe3d 7a3d 093e
00000030: 29ff bdbd 223e 513d 6b7a 62bd baba 8bbc
00000040: 098e 123d f0f1 f3bd 7611 46bd a263 d83d
00000050: 0afd 00be cb72 f0bd 1f2f fcbc c78c 043e
00000060: b52f 193d 24dd 42bd 625c 0b3e 47b1 89bd
00000070: 4588 5fbc 8524 b1bc f19e ba3d 1376 d13d

encoder.4.weight f4 [64, 32, 3, 1]
0.07956818 -0.0081755975 0.008183427 0.05798211 -0.07086748 -0.06214147 -0.061394546 0.067427225
0.010639694 0.037091885 -0.025004314 0.07774189 -0.017217457 0.077842124 -0.06822447 -0.04102529
-0.06114929 0.010150349 -0.033740547 -0.060528032 -0.05739439 -0.023673996 0.090170905 0.076175004
-0.013644851 0.06705782 0.049459018 -0.023294948 -0.053690832 0.061191425 -0.0027639589 -0.006962044
0.04478655 -0.03992895 0.011643538 -0.034232393 0.071233094 -0.04479979 0.01248195 -0.06218142
-0.008932113 -0.08334245 -0.07739064 -0.05450769 -0.09511826 -0.104973584 0.06323957 0.0670283
0.07980256 -0.030863004 0.081815265 -0.078316584 0.081177436 -0.0031497602 -0.067353606 -0.10231601
0.06626481 0.047631193 -0.07870898 0.026756763 0.009286231 -0.050068796 -0.032956883 -0.02381459
0.07335802 -0.083949596 0.09159081 -0.07904289 -0.09195316 0.06280166 -0.053591106 0.0034825318
-0.057989966 -0.017233841 -0.04898781 0.062594935 0.05933318 -0.04598963 0.04861441 -0.0059526907
-0.06485128 0.056633767 -0.06023095 0.003368913 -0.07802519 0.07315642 0.020649614 -0.10595908
-0.06843632 0.01008668 0.039043717 -0.011974002 0.021375617 -0.056500074 -0.03883975 0.055239156
-0.047338482 0.00986911 0.014241119 0.027325647 0.09003457 -0.096749395 -0.03859981 0.022646757
-0.1023608 -0.0727579 -0.105171725 -0.06932149 0.02576899 -0.075917035 -0.040932223 -0.08360365
-0.052762885 -0.10286713 0.04316445 0.06261958 -0.08576594 0.023131538 -0.014458625 0.043712966
0.04124119 -0.02228054 -0.0927785 0.07022354 0.0011790714 -0.006515992 -0.08361229 -0.088635966
-0.07486967 -0.032297596 0.08693255 -0.080959156 -0.0027450242 0.04703368 -0.015728585 -0.037711922
0.04730051 0.06350312 0.008301449 -0.10409939 0.07090281 0.0052082865 -0.05139775 0.0135741765
0.06434126 -0.0085926475 -0.08238064 0.07867925 -0.06777435 -0.0010642014 -0.028065594 -0.06675009
-0.0885364 0.06647086 -0.03260042 0.08188655 -0.0653425 -0.044749703 0.0160315 -0.018449703
-0.028055469 0.042566244 0.07160749 0.03602835 0.08179531 0.040145364 -0.023357159 -0.06164861
-0.0021662128 -0.10550829 -0.020589955 0.08895755 0.026004924 -0.032951895 0.057781685 0.03134694
0.010798482 0.033639893 0.02048277 0.039023254 -0.02484275 0.022171143 0.0032870732 0.041742362
-0.07400887 0.007821582 0.025008995 -0.04275937 -0.015336819 0.07668784 0.026005613 -0.07090696
-0.093042955 -0.054360677 -0.070065446 -0.1041931 0.035060238 -0.041082196 0.006097273 0.0022976426
0.026855282 0.003583912 -0.066636726 -0.020888073 0.019083465 -0.08093721 -0.0072289235 -0.07052036
-0.05299061 0.07404063 -0.0019700471 0.08854706 0.07409415 -0.052433964 -0.093692854 0.05715908
-0.101362854 -0.03241974 0.026376477 -0.050477788 -0.078645855 0.07336564 0.036332034 0.028824264
-0.02449371 0.04677631 0.074434094 0.0024252022 -0.0015648274 -0.004572209 0.011459169 0.05158266
-0.026632387 -0.047972716 0.041511837 -0.015761606 -0.028768566 -0.027613465 0.050440695 -0.016851412
0.04327918 0.058861215 0.084488675 0.06306664 0.020865725 -0.055695333 -0.0018864821 -0.023718195
-0.078125946 0.027522797 -0.09389411 0.02562555 0.081204 -0.09522772 0.076627664 0.02619867
00000000: a4f4 a23d f1f2 05bc c813 063c a67e 6d3d
00000010: f822 91bd 0e88 7ebd d978 7bbd 4917 8a3d
00000020: 1c52 2e3c a9ed 173d d9d5 ccbc 2437 9f3d
00000030: a00b 8dbc b16b 9f3d 45b9 8bbd 220a 28bd
00000040: ae77 7abd a64d 263c 8733 0abd 3eec 77bd
00000050: 6116 6bbd f8ef c1bc 86ab b83d a401 9c3d
00000060: a78e 5fbc 9c55 893d 8a95 4a3d 0cd5 bebc
00000070: ebea 5bbd dca3 7a3d 8923 35bb dc21 e4bb
00000080: 1a72 373d 8a8c 23bd 8ac4 3e3c 4437 0cbd
00000090: a8e2 913d fc7f 37bd 1881 4c3c f2b1 7ebd
000000a0: ff57 12bc 72af aabd fc7e 9ebd 7543 5fbd
000000b0: 5dcd c2bd 64fc d6bd bf83 813d 2246 893d
000000c0: 866f a33d 69d4 fcbc c38e a73d 7264 a0bd
000000d0: 5b40 a63d 356c 4ebb b0f0 89bd 0e8b d1bd
000000e0: d8b5 873d ed18 433d 2c32 a1bd 0031 db3c
000000f0: 4725 183c f014 4dbd ccfd 06bd d116 c3bc
00000100: bb3c 963d c4ed abbd f693 bb3d 3de1 a1bd
00000110: f051 bcbd 289e 803d 5982 5bbd 303b 643b
00000120: e386 6dbd fc2d 8dbc 71a7 48bd c631 803d
00000130: 5907 733d 9f5f 3cbd e71f 473d ca0e c3bb
00000140: bfd0 84bd cff8 673d bbb4 76bd fbc8 5c3b
00000150: accb 9fbd 08d3 953d 6129 a93c 1301 d9bd
00000160: 5728 8cbd 9a42 253c 4eec 1f3d 9b2e 44bc
00000170: eb1b af3c 9f6c 67bd 6e16 1fbd 7442 623d
00000180: ffe5 41bd 0cb2 213c 9553 693c 09da df3c
00000190: 0b64 b83d 8c24 c6bd d61a 1ebd b185 b93c
000001a0: 8aa2 d1bd 1802 95bd 4664 d7bd 6df8 8dbd
000001b0: 7d19 d33c 647a 9bbd 8ca8 27bd 6438 abbd
000001c0: e51d 58bd 00ac d2bd 35cd 303d b23e 803d
000001d0: 0ea6 afbd 5a7e bd3c dee3 6cbc 5e0c 333d
000001e0: 86ec 283d ae85 b6bc a702 bebd 5cd1 8f3d
000001f0: 128b 9a3a 1a84 d5bb ec3c abbd c686 b5bd
00000200: 4555 99bd 7c4a 04bd b109 b23d eacd a5bd
00000210: dde5 33bb 63a6 403d 3cd9 80bc d177 1abd
00000220: 2ebe 413d ec0d 823d cd02 083c 1032 d5bd
00000230: 7e35 913d 46aa aa3b 7286 52bd 3966 5e3c
00000240: 5ac5 833d 2dc8 0cbc 2eb7 a8bd 9622 a13d
00000250: 47cd 8abd ac7c 8bba d1e9 e5bc 45b4 88bd
00000260: 9252 b5bd e021 883d 0588 05bd 23b4 a73d
00000270: 4ad2 85bd 774b 37bd 7e54 833c d523 97bc
00000280: 95d4 e5bc f159 2e3d f3a6 923d 7792 133d
00000290: 4d84 a73d 776f 243d 8357 bfbc 4183 7cbd
000002a0: 05f7 0dbb bb14 d8bd 44ac a8bc 602f b63d
000002b0: 4708 d53c 91f8 06bd 7dac 6c3d a665 003d
000002c0: 1eec 303c fcc9 093d 7bcb a73c d9d6 1f3d
000002d0: 0683 cbbc 42a0 b53c f06b 573b 0afa 2a3d
000002e0: f691 97bd 1826 003c aadf cc3c 7324 2fbd
000002f0: 4847 7bbc 840e 9d3d b909 d53c ab37 91bd
00000300: 4e8d bebd 4da9 5ebd 797e 8fbd 3163 d5bd
00000310: 539b 0f3d ce45 28bd a2cb c73b 0c94 163b
00000320: 9cff db3c 11e0 6a3b d678 88bd 771d abbc
00000330: ed54 9c3c 68c2 a5bd 9be0 ecbb fa6c 90bd
00000340: af0c 59bd 9da2 973d e81b 01bb 2958 b53d
00000350: acbe 973d ffc4 56bd 0ae2 bfbd a41f 6a3d
00000360: 5497 cfbd 90ca 04bd 7b13 d83c ccc1 4ebd
00000370: 1411 a1bd ba40 963d e6d0 143d dd20 ec3c
00000380: 08a7 c8bc 8498 3f3d e770 983d 24f0 1e3b
00000390: e51a cdba 78d2 95bb 3dbf 3b3c 5748 533d
000003a0: 2a2c dabc 0a7f 44bd 5108 2a3d 7c1e 81bc
000003b0: 0eac ebbc a235 e2bc e79a 4e3d f90b 8abc
000003c0: 8245 313d 7518 713d 6608 ad3d 1529 813d
000003d0: 99ee aa3c ca20 64bd d643 f7ba a94c c2bc
000003e0: 7f00 a0bd 7d77 e13c 8e4b c0bd acec d13c
000003f0: 484e a63d c006 c3bd f7ee 9c3d 989e d63c

encoder.4.bias f4 [64]
-0.014639353 -0.0009343602 -0.036950324 -0.08890278 -0.0494965 0.024571186 -0.06205838 -0.06294013
0.06889189 0.0534004 -0.0415885 0.08296243 0.09518319 0.009798952 0.06803645 0.04985591
0.023367342 0.054441504 0.08125555 -0.069040276 0.003776602 -0.0337705 0.042371437 -0.04760589
0.020766238 0.09215326 0.08354214 -0.04503171 0.08620502 -0.025568612 -0.048726488 0.0963
-0.0017605902 0.029632324 -0.058818705 0.043374795 0.07700648 -0.03043413 -0.040608138 -0.067003354
-0.09102034 -0.010640334 -0.08599068 0.03479869 0.072478846 0.07222998 0.09243619 -0.096651524
-0.056460068 -0.10484752 -0.07329039 0.0833152 -0.052764922 0.07813155 -0.0070126923 0.04537083
-0.10018857 0.06923194 -0.010733974 0.08472209 -0.014124227 0.06966778 0.04670092 0.012499844
00000000: e6d9 6fbc daef 74ba 3959 17bd a912 b6bd
00000010: d8bc 4abd 8349 c93c ee30 7ebd c1e6 80bd
00000020: 3117 8d3d 61ba 5a3d b458 2abd 35e8 a93d
00000030: 68ef c23d c98b 203c b256 8b3d b635 4c3d
00000040: de6c bf3c 0efe 5e3d 4f69 a63d fd64 8dbd
00000050: de80 773b f052 0abd ac8d 2d3d 65fe 42bd
00000060: f51d aa3c d9ba bc3d 2418 ab3d 2c73 38bd
00000070: 428c b03d 4475 d1bc 6d95 47bd ef38 c53d
00000080: 9bc3 e6ba 7dbf f23c e2eb 70bd c5a9 313d
00000090: 93b5 9d3d ff50 f9bc b854 26bd 0e39 89bd
000000a0: df68 babd cc54 2ebc e21b b0bd 1289 0e3d
000000b0: ca6f 943d 50ed 933d 2f4f bd3d 3cf1 c5bd
000000c0: ac42 67bd 4cba d6bd 4619 96bd 29a1 aa3d
000000d0: 0820 58bd 6f03 a03d baca e5bb c3d6 393d
000000e0: aa2f cdbd 7ac9 8d3d 8ddd 2fbc c682 ad3d
000000f0: 4d69 67bc fbad 8e3d 7749 3f3d 25cc 4c3c

encoder.6.weight f4 [128, 64, 3, 1]
0.006407079 0.061581034 0.018863212 -0.029955978 -0.011229345 -0.004838089 0.021078825 0.06309556
0.06627598 0.026305681 -0.06695986 -0.056863144 -0.06653785 0.03675705 -0.027933326 -0.0053181713
0.0045245057 -0.0113031 -0.03564969 -0.01033972 0.06103727 0.028787445 -0.029244207 0.012795589
-0.023366744 0.05605647 0.031166451 -0.05337058 0.007083091 -0.036865488 -0.03762107 0.046366878
-0.040485144 0.042111516 0.03661728 -0.019181192 0.0104937935 0.024996338 0.04866087 -0.008939621
-0.011047566 -0.02645492 0.045846444 0.03667102 0.050077617 -0.02811417 0.011244809 -0.059589583
0.006772544 0.021269325 0.053499155 0.052303005 -0.017440455 0.069774985 -0.01300506 0.0068085096
-0.040310193 0.034985892 0.03724388 -0.043060984 -0.043321393 0.0037723517 -0.038753226 0.03535158
-0.004741152 -0.047993395 0.069387145 -0.0005204696 0.032083277 -0.034025602 -0.029935325 0.042632774
-0.04602873 -0.045382086 0.004428372 -0.06383426 -0.02048148 0.015889347 0.05624379 -0.042101655
0.0677523 -0.00035392918 0.0012203802 0.0058865403 -0.048457097 0.011740299 -0.062077496 -0.0026156278
0.04584662 -0.019520748 -0.008244437 -0.0132726515 0.06158565 0.06548411 0.01291977 0.067666575
-0.02052342 0.03860047 0.06436557 0.042410437 0.059111156 -0.051059127 -0.009318694 0.04152762
0.005456655 -0.0011197993 -0.0022980731 -0.047100767 -0.041696988 -0.063696705 0.04341113 -0.021495517
0.06564284 0.03465866 0.035597924 0.013625378 0.037045114 -0.056970175 -0.024447145 0.066337906
-0.049260065 0.014247023 0.059459183 0.031860933 -0.068665504 0.06634824 -0.030001959 0.031771228
-0.01630617 -0.016555162 -0.036287453 -0.033809893 0.021024363 0.03511125 -0.012397155 -0.049591683
0.0030528656 -0.054312594 -0.06523554 -0.064342745 -0.045310058 0.011964319 0.020983795 0.05584328
-0.03284785 -0.006059512 0.0041773356 1.8938794e-08 9.1357564e-05 -0.00046794963 0.027019555 0.060343523
0.03822325 -0.051437322 0.01208644 -0.014205855 -0.06361992 0.0043187975 0.028743217 0.053492714
0.015868992 -0.055976685 0.028997473 0.06251838 -0.009181904 0.049624294 0.0663086 -0.00815063
-0.005306455 0.04830666 0.0036316507 -0.04310121 -0.061846495 0.025813235 -0.06457357 0.023284793
0.036878422 -0.01479317 0.0223908 0.023382567 -0.035032585 0.011893405 0.06326765 0.0456241
0.03844373 0.053638477 0.060161225 0.068667226 -0.004385652 -0.043107513 -0.023071887 0.05705428
0.004040678 -0.044061307 0.019903274 0.022424126 -0.03711672 -0.051790982 0.002113679 0.055145927
0.027976109 0.040129103 -0.055999722 -0.044379395 -0.009221643 -0.067841806 -0.03345801 -0.05622486
-0.06083438 0.0029164436 0.002853828 -0.010493595 0.03314819 -0.070898384 0.017391646 -0.050236534
0.024773916 -0.04017447 -0.009906811 -0.07146384 0.00079947023 0.055259828 0.02972935 -0.07589997
0.010537072 -0.062236182 -0.040021773 0.0479294 -0.034961138 -0.06747201 -0.06583502 -0.067479596
0.0018039653 -0.06893016 -0.021227367 0.0004968638 0.0634641 -0.04115498 -0.0053509376 -0.049911283
0.0022167657 -0.022847487 -0.04411053 -0.06657285 -0.0076188655 0.034311615 0.04096749 0.01391752
0.023411976 0.01623208 0.04703702 -0.046850294 0.055642907 -0.023352819 0.02640483 0.04474107
00000000: 79f2 d13b 653c 7c3d 0687 9a3c 3d66 f5bc
00000010: 49fb 37bc d588 9ebb 80ad ac3c 3f38 813d
00000020: b3bb 873d 037f d73c 4022 89bd 54e9 68bd
00000030: ff44 88bd 8f8e 163d 6ed4 e4bc 0e44 aebb
00000040: 4e42 943b a330 39bc 6905 12bd ee67 29bc
00000050: 3702 7a3d a6d3 eb3c 8c91 efbc 97a4 513c
00000060: 9d6b bfbc 789b 653d c950 ff3c 1c9b 5abd
00000070: 4619 e83b 4400 17bd 8d18 1abd 32eb 3d3d
00000080: c0d3 25bd 207d 2c3d 00fc 153d e021 9dbc
00000090: 29ee 2b3c 1fc5 cc3c 9f50 473d 7d77 12bc
000000a0: da00 35bc fdb7 d8bc 7bc9 3b3d 5a34 163d
000000b0: 301e 4d3d b04f e6bc 263c 383c 3514 74bd
000000c0: 37ec dd3b 023d ae3c ee21 5b3d ad3b 563d
000000d0: 49df 8ebc 30e6 8e3d 2d13 55bc eb19 df3b
000000e0: 4d1c 25bd 5e4d 0f3d 0a8d 183d b760 30bd
000000f0: c671 31bd 8f39 773b b4bb 1ebd d1cc 103d
00000100: aa5b 9bbb b994 44bd d91a 8e3d 2070 08ba
00000110: c169 033d 6e5e 0bbd ed3a f5bc b49f 2e3d
00000120: 9f88 3cbd 91e2 39bd e01b 913b 89bb 82bd
00000130: c7c8 a7bc 602a 823c e35f 663d c972 2cbd
00000140: b8c1 8a3d 928f b9b9 2af5 9f3a e1e3 c03b
00000150: f37a 46bd 625a 403c f944 7ebd f46a 2bbb
00000160: aac9 3b3d fae9 9fbc ad13 07bc 8975 59bc
00000170: 3c41 7c3d 881c 863d 71ad 533c c694 8a3d
00000180: bb20 a8bc 871b 1e3d 19d2 833d 91b6 2d3d
00000190: 8a1e 723d 6023 51bd 6fad 18bc de18 2a3d
000001a0: bdcd b23b 3bc6 92ba 459b 16bb bcec 40bd
000001b0: 76ca 2abd 6b73 82bd decf 313d 5e17 b0bc
000001c0: c16f 863d 3df6 0d3d 21cf 113d fa3c 5f3c
000001d0: 9ebc 173d 8f59 69bd 6145 c8bc 2bdc 873d
000001e0: ecc4 49bd 586c 693c 798b 733d 9c80 023d
000001f0: 80a0 8cbd 96e1 873d abc6 f5bc 8c22 023d
00000200: 8494 85bc b19e 87bc 27a2 14bd 3e7c 0abd
00000210: 493b ac3c d0d0 0f3d 701d 4bbc a620 4bbd
00000220: 9612 483b e276 5ebd 369a 85bd 21c6 83bd
00000230: 0a97 39bd fe05 443c 35e6 ab3c ecbb 643d
00000240: 788b 06bd df8e c6bb 08e2 883b d9ae a232
00000250: 3897 bf38 2357 f5b9 1d58 dd3c c52a 773d
00000260: fc8f 1c3d f1af 52bd 3406 463c adbf 68bc
00000270: 294b 82bd b384 8d3b e576 eb3c 2d1b 5b3d
00000280: b0ff 813c cf47 65bd 1c8c ed3c a309 803d
00000290: b26f 16bc d842 4b3d cecc 873d 388a 05bc
000002a0: c5e1 adbb 34dd 453d fd00 6e3b e58a 30bd
000002b0: c052 7dbd 4776 d33c 263f 84bd c0bf be3c
000002c0: d40d 173d 0d5f 72bc e96c b73c cc8c bf3c
000002d0: 547e 0fbd 8edc 423c 7892 813d 56e0 3a3d
000002e0: 2c77 1d3d 05b4 5b3d 9e6b 763d 67a1 8c3d
000002f0: 84b5 8fbb 8191 30bd 4101 bdbc c0b1 693d
00000300: aa67 843b a179 34bd 310c a33c cdb2 b73c
00000310: b407 18bd c822 54bd a685 0a3b b2e0 613d
00000320: 272e e53c 6a5e 243d f75f 65bd 2bc7 35bd
00000330: 6016 17bc a5f0 8abd 440b 09bd 0a4c 66bd
00000340: 792d 79bd ce21 3f3b 4a07 3b3b 54ed 2bbc
00000350: 65c6 073d 2c33 91bd ed78 8e3c d3c4 4dbd
00000360: abf2 ca3c fc8d 24bd 2d50 22bc a25b 92bd
00000370: 8a93 513a 2158 623d f78a f33c 7271 9bbd
00000380: afa3 2c3c 5eeb 7ebd dfed 23bd 9e51 443d
00000390: 6933 0fbd c42e 8abd 83d4 86bd be32 8abd
000003a0: 0873 ec3a 412b 8dbd 04e5 adbc f73f 023a
000003b0: 77f9 813d 2092 28bd eb56 afbb c66f 4cbd
000003c0: 2847 113b a72a bbbc 3ead 34bd 5957 88bd
000003d0: ada7 f9bb 568a 0c3d 87cd 273d 4f06 643c
000003e0: 79ca bf3c 24f9 843c e4a9 403d 18e6 3fbd
000003f0: d1e9 633d 694e bfbc f14e d83c 6a42 373d

encoder.6.bias f4 [128]
0.006151485 0.048924014 0.012685638 -0.013601538 -0.06475815 -0.024293901 -0.011905544 -0.07573994
-0.005915811 -0.053723454 -0.020568656 -0.04673104 -0.0067090862 -0.054400206 0.04922551 -0.024263037
-0.07174974 0.053128585 0.018779293 0.02108746 -0.0007067367 -0.007095199 0.065047845 -0.043537784
-0.0065818685 -0.005608585 0.01167768 0.024603607 -0.012437015 0.051976528 -0.044653095 0.048304547
-0.006088705 -0.05874721 -0.047906294 0.04946473 0.049085334 0.04728717 0.021962542 0.029647524
-0.038955193 -0.06367356 0.01928887 0.04143405 -0.036922086 -0.025526261 -0.00780419 -0.043021712
-0.044436425 0.015804874 -0.0034448085 -0.026827818 0.033438828 -0.0005837455 -0.011264347 0.04354678
0.057161935 0.001298722 -0.058269802 0.045351103 0.05975101 0.029197222 0.02494934 -0.053187862
-0.027514962 -0.0202925 0.06309018 0.011479053 0.019663163 -0.0140248025 0.06067574 -0.043234456
0.049434368 -0.06544464 0.0497981 0.03859577 -0.039759994 -0.009917895 -0.031648014 -0.037991855
0.0558233 0.018134672 0.07177845 -6.8462437e-06 0.0044545783 0.03707535 0.025731985 0.0024970218
0.0027673843 -0.028504983 0.026838195 0.0052085076 0.044805378 0.057365175 -0.00026508575 -0.04712622
-0.043232907 -0.0017787958 -0.006646849 0.056841232 -0.072811656 0.0375782 -0.0118591115 -0.0002388402
-0.010525089 0.05741107 -0.03613435 0.013643627 -0.039957736 0.014764085 0.0039066877 -0.007528758
-0.011513782 -0.07735678 0.037697554 -0.013064844 -0.022137593 -0.06366651 -0.0048124855 -0.03796614
0.002807138 0.06520187 -0.021274464 -0.07166945 0.06521482 -0.016642876 0.0068004746 -0.0030212807
00000000: 6592 c93b 8c64 483d 6cd7 4f3c fcd8 5ebc
00000010: ec9f 84bd 0104 c7bc 790f 43bc 8b1d 9bbd
00000020: 6bd9 c1bb 200d 5cbd 997f a8bc 0c69 3fbd
00000030: e5d7 dbbb c0d2 5ebd b0a0 493d 47c3 c6bc
00000040: 87f1 92bd 5c9d 593d 08d7 993c 9cbf ac3c
00000050: 4c44 39ba d87e e8bb ce37 853d ad54 32bd
00000060: b7ac d7bb 39c8 b7bb bd53 3f3c 818d c93c
00000070: 9fc4 4bbc 57e5 543d 2ae6 36bd fdda 453d
00000080: c283 c7bb eaa0 70bd 6439 44bd 879b 4a3d
00000090: b40d 493d 31b0 413d caea b33c 5ddf f23c
000000a0: 7b8f 1fbd 4967 82bd b103 9e3c c0b6 293d
000000b0: 9d3b 17bd 731c d1bc 4aba ffbb 8937 30bd
000000c0: f802 36bd 3979 813c 4cc2 61bb 03c6 dbbc
000000d0: 27f7 083d 7f06 19ba 188e 38bc 1c5e 323d
000000e0: a222 6a3d e139 aa3a 51ac 6ebd 14c2 393d
000000f0: 7abd 743d 032f ef3c 8f62 cc3c 84db 59bd
00000100: 0f67 e1bc 753c a6bc 6d35 813d a312 3c3c
00000110: a414 a13c 49c8 65bc 2087 783d 9d16 31bd
00000120: b17b 4a3d d707 86bd 18f9 4b3d 9916 1e3d
00000130: 60db 22bd ab7e 22bc 59a1 01bd 599d 1bbd
00000140: f9a6 643d 2a8f 943c 9400 933d c9b8 e5b6
00000150: b6f7 913b 52dc 173d e2cb d23c 13a5 233b
00000160: 015d 353b 4883 e9bc c6db db3c 21ac aa3b
00000170: d885 373d bff7 6a3d 35fb 8ab9 6c07 41bd
00000180: fd14 31bd 7c26 e9ba d0cd d9bb 5ad2 683d
00000190: 471e 95bd 99eb 193d b84c 42bc 2e71 7ab9
000001a0: 6c71 2cbc df27 6b3d 9d01 14bd 8589 5f3c
000001b0: b9aa 23bd 10e5 713c ac03 803b cdb3 f6bb
000001c0: 4da4 3cbc 3b6d 9ebd c068 1a3d ed0d 56bc
000001d0: e659 b5bc 9663 82bd 0eb2 9dbb 6282 1bbd
000001e0: f6f7 373b 8f88 853d c947 aebc 6fc7 92bd
000001f0: 598f 853d a456 88bc 84d6 de3b ae00 46bb

encoder.8.weight f4 [256, 128, 3, 1]
-1.3442916e-09 1.943989e-10 -3.901872e-11 -2.250078e-09 -1.867342e-09 3.461495e-10 8.896814e-05 -1.2901317e-05
-1.4917433e-09 5.0591327e-09 -3.4223094e-10 1.1624472e-09 4.467472e-09 1.3741397e-09 3.0146628e-11 -7.948545e-09
9.479874e-10 3.7261456e-09 -1.5465342e-10 -6.444975e-08 1.166629e-10 -2.7125682e-10 -2.6657632e-10 -2.5731803e-09
-2.1790847e-10 1.1860158e-09 3.6199949e-10 -4.2991606e-09 -3.752034e-10 -1.636361e-10 -3.5182468e-10 -4.1566445e-10
7.2266654e-10 4.1614498e-10 1.3465172e-09 -4.8294035e-10 -1.5921832e-09 -1.0579444e-11 2.9693956e-09 5.228397e-12
-1.1384338e-09 -4.2520523e-10 -2.6062672e-09 -2.1177693e-09 -1.4584642e-09 2.0124273e-09 -3.5852323e-09 2.044433e-10
9.642024e-05 -9.372608e-11 2.2046565e-10 0.00094555627 -0.0009979776 1.7097268e-09 9.7204735e-05 1.2774232e-06
-3.996068e-09 -7.617836e-11 -3.6338568e-09 -2.1305435e-11 5.8818802e-08 -1.0250518e-08 4.5539773e-11 -2.048653e-09
-1.3872518e-09 -2.7713729e-10 -0.000419135 -0.000726352 1.323585e-09 -5.42523e-10 -1.2106825e-08 -1.7951993e-09
0.0014141331 -9.955754e-05 -1.6479995e-10 1.0091609e-11 -4.2171835e-09 -4.4926934e-10 0.0010230414 -0.00061496627
-3.2836497e-10 -1.1774377e-05 0.00029023102 -8.7428853e-10 -3.7172998e-09 6.3167555e-10 -1.7516282e-09 0.00022660464
5.0292047e-06 5.6350186e-10 3.4132461e-09 1.8862291e-10 -2.424928e-09 1.5238075e-09 1.3761305e-09 4.398898e-10
-6.293076e-08 -2.5385996e-08 -1.1976569e-09 -3.309362e-09 -1.9851871e-09 1.6752919e-09 -2.6932498e-09 2.3169518e-10
3.1594063e-09 1.1679512e-07 -3.101515e-05 -4.176306e-10 -3.811092e-10 1.0076476e-09 -6.649798e-10 -0.00019009314
-0.0002547602 5.964329e-10 3.407152e-05 -5.733352e-05 4.895989e-10 8.402139e-10 -4.0160106e-09 5.889007e-10
-0.00039336525 5.1369016e-06 2.4363351e-09 -6.028474e-09 1.5286515e-09 4.9718707e-10 -0.0008983574 0.0001381659
9.727734e-10 1.5027856e-05 -3.969982e-05 -1.0686246e-09 4.376053e-09 -7.177285e-10 5.70499e-10 -3.3248406e-09
1.101532e-10 -5.0599733e-09 -3.6957202e-09 -4.78233e-10 -4.7603577e-10 -6.5076215e-08 -5.7883526e-10 -1.4465469e-09
-4.6754256e-10 8.466914e-11 -4.0583198e-10 3.8837034e-10 -2.1774034e-09 2.1969888e-10 3.7366615e-10 5.481167e-10
-9.829799e-10 -4.625156e-09 -7.320704e-11 4.1977874e-10 -1.9081084e-07 6.745784e-07 -3.65612e-09 1.0380438e-10
-2.5710192e-10 -1.7288974e-09 6.2442916e-07 -1.6791623e-09 2.7428274e-10 -0.0009087632 0.00023892167 4.1041653e-10
-0.0008092301 0.002245816 -2.0424873e-09 -1.2718083e-09 -2.9956493e-09 -5.3141247e-10 1.9749299e-08 -4.8831605e-10
2.7627197e-11 1.981808e-05 -3.7316705e-09 2.0013453e-11 -0.00031888098 -0.00063397974 -2.7778828e-09 -0.0021970638
-1.5581857e-06 3.799807e-09 -3.6196263e-10 6.2840566e-10 -1.9265974e-10 -2.9445397e-09 1.4936113e-09 -1.0250536e-09
-3.2330156e-09 -2.6044564e-09 1.6663374e-09 5.7646804e-11 3.887699e-09 1.8084897e-09 7.510674e-06 -1.5801034e-07
5.1461466e-09 -3.9435445e-06 -0.002339666 -1.0344378e-09 4.2461883e-09 1.8805997e-10 -2.1816446e-09 1.8058293e-11
-2.2187918e-09 4.834727e-09 -0.0008022367 -0.00033533378 2.9121587e-09 7.400497e-10 -1.3677472e-09 -2.5417227e-10
1.7894229e-10 -6.2615115e-08 -3.5223013e-10 -1.8739632e-08 -2.1813525e-10 -5.9695227e-10 -1.5616487e-10 4.5661075e-09
-2.0023643e-09 8.548932e-10 -6.9529096e-06 1.300327e-09 -1.030497e-09 -5.232598e-09 1.5864494e-09 -1.02808005e-10
1.1556955e-09 1.2412975e-11 1.9520432e-09 5.951481e-10 9.442536e-10 1.6717306e-09 1.1334254e-10 -3.3751277e-09
-0.004279442 0.0039171516 3.0913483e-09 4.1028855e-10 -3.891653e-09 3.132258e-09 0.0007282976 2.2370696e-05
2.2060563e-11 9.365429e-11 1.417771e-09 -2.9387306e-09 8.047617e-05 0.00014950235 -5.6285164e-11 2.6798924e-10
00000000: 0ec2 b8b0 6dbe 552f 2c9b 2bae ca9f 1ab1
00000010: a152 00b1 364c be2f 6894 ba38 bc72 58b7
00000020: 0d06 cdb0 9ad4 ad31 b924 bcaf fac3 9f30
00000030: 4d80 9931 3edc bc30 1696 042e 128e 08b2
00000040: 574a 8230 8607 8031 110b 2aaf a067 8ab3
00000050: b045 002f 0120 95af 488d 92af ded3 30b1
00000060: c897 6faf 3901 a330 e602 c72f d1b7 93b1
00000070: 2f45 ceaf 78eb 33af ec6a c1af 9283 e4af
00000080: 23a5 4630 33c7 e42f 5d10 b930 e8bf 04b0
00000090: f7d3 dab0 941d 3aad 290e 4c31 37f5 b72c
000000a0: 1477 9cb0 51c2 e9af f019 33b1 3188 11b1
000000b0: 2673 c8b0 ff4a 0a31 1360 76b1 acc9 602f
000000c0: 3935 ca38 181b ceae 9067 722f 35df 773a
000000d0: 92ce 82ba aafb ea30 65da cb38 ed73 ab35
000000e0: c94d 89b1 9b84 a7ae 7cb7 79b1 9367 bbad
000000f0: f59f 7c33 411a 30b2 3a49 482e 49c8 0cb1
00000100: 95a9 beb0 9b5b 98af 59bf dbb9 a868 3eba
00000110: 82e9 b530 aa20 15b0 61fe 4fb2 f6ba f6b0
00000120: 6f5a b93a 8cc9 d0b8 1033 35af 9188 312d
00000130: bde6 90b1 0afd f6af 9317 863a b035 21ba
00000140: 4385 b4af 908a 45b7 262a 9839 9652 70b0
00000150: 6e73 7fb1 37a2 2d30 f0bd f0b0 b89c 6d39
00000160: 8ac0 a836 ebe4 1a30 768e 6a31 a164 4f2f
00000170: c9a3 26b1 366e d130 4a22 bd30 fcd4 f12f
00000180: 8d24 87b3 6510 dab2 ce9a a4b0 e96a 63b1
00000190: c86b 08b1 1840 e630 2714 39b1 65c0 7e2f
000001a0: dd1c 5931 ccd0 fa33 4416 02b8 4898 e5af
000001b0: 5a84 d1af 737d 8a30 cbc9 36b0 bd53 47b9
000001c0: 5691 85b9 3cf2 2330 04e8 0e38 6679 70b8
000001d0: 7694 0630 ccf4 6630 34fd 89b1 34e0 2130
000001e0: 973c ceb9 a65d ac36 766c 2731 0523 cfb1
000001f0: a518 d230 6eaa 0830 bf7f 6bba a0e0 1039
00000200: 6cb2 8530 2620 7c37 5b83 26b8 e3de 92b0
00000210: 2b5c 9631 a749 45b0 4cd1 1c30 377b 64b1
00000220: bd3a f22e ffdb adb1 ccf7 7db1 a874 03b0
00000230: 0ada 02b0 07c0 8bb3 e91b 1fb0 d8cf c6b0
00000240: 6284 00b0 7d30 ba2e c61b dfaf 4482 d52f
00000250: 49a1 15b1 bd8f 712f d66c cd2f 49aa 1630
00000260: 8819 87b0 4deb 9eb1 e6fb a0ae 9bc6 e62f
00000270: afe1 4cb4 ad14 3535 253f 7bb1 ac44 e42e
00000280: e157 8daf 2b9e edb0 729e 2735 45c8 e6b0
00000290: ddc9 962f 113a 6eba 0c87 7a39 fea0 e12f
000002a0: 8322 54ba 8a2e 133b d15b 0cb1 c7cb aeb0
000002b0: 05dc 4db1 d412 12b0 2ba5 a932 303a 06b0
000002c0: eb02 f32d 013f a637 1f38 80b1 4a0a b02d
000002d0: 7b2f a7b9 a931 26ba 08e5 3eb1 9dfc 0fbb
000002e0: da22 d1b5 758f 8231 b6fd c6af 1ebc 2c30
000002f0: e5d4 53af e458 4ab1 c747 cd30 dee1 8cb0
00000300: d02b 5eb1 15fa 32b1 0905 e530 8888 7d2e
00000310: 9094 8531 938e f830 3304 fc36 8da9 29b4
00000320: fcd1 b031 ca52 84b6 1555 19bb 0b2c 8eb0
00000330: dee5 9131 2dc6 4e2f e6eb 15b1 a9d7 9e2d
00000340: 6679 18b1 b51e a631 324d 52ba bdcf afb9
00000350: 3d1f 4831 5e6c 4b30 54fb bbb0 91bb 8baf
00000360: c7bf 442f 0677 86b3 fca3 c1af e3f8 a0b2
00000370: 9dd7 6faf c816 24b0 81b4 2baf e8e3 9c31
00000380: f799 09b1 c3fd 6a30 0a4d e9b6 30b7 b230
00000390: 64a1 8db0 6bca b3b1 3a0a da30 c313 e2ae
000003a0: 6cd6 9e30 125f 5a2d b524 0631 d397 2330
000003b0: f8c6 8130 cbc2 e530 2d3e f92e e0ef 67b1
000003c0: 903a 8cbb 735b 803b 936f 5431 fb8e e12f
000003d0: 58b7 85b1 443f 5731 39eb 3e3a b4a8 bb37
000003e0: f90b c22d aef2 cd2e 62db c230 b2f2 49b1
000003f0: 51c5 a838 bbc3 1c39 768b 77ae 2254 932f

encoder.8.bias f4 [256]
-0.015086818 -0.011276609 0.04122066 -0.009751032 -0.037170324 -0.029644359 -0.011858786 -0.012382391
0.0041863183 0.014487197 -0.04561824 0.017794326 -0.01329229 0.038388323 -0.013477502 0.025891775
-0.0037290705 0.018864432 0.024999531 -0.00683523 -0.0055243713 -0.015541232 0.04321865 -0.0017405071
-0.01390429 -0.03097258 -1.5552265e-06 0.0022337502 0.04355339 0.028522605 -0.0058290567 -7.631833e-06
-0.010704773 0.002233862 -0.007232917 -0.007901763 -0.011477493 -0.017073996 0.039773934 0.03934411
-0.00916748 -0.03950289 -0.003456408 -0.030161228 -0.0060943817 -0.043011166 0.00812826 0.009734828
-0.04664489 -0.028305965 0.030434757 0.017339054 -0.0071910685 -0.006598456 -0.0011001233 0.00093292695
0.0092510795 -0.029150182 0.045253575 0.016882628 -0.0040572444 0.039735153 -0.045068156 0.017841808
0.01906526 0.016899174 -0.050053794 0.0010644697 0.040088587 0.04347841 -0.010663067 0.002188059
-0.016724078 -0.0019604454 -0.034299046 -0.0069677434 -0.011541182 0.028471546 0.020113492 -0.044506956
0.04225783 -0.0033226695 -0.010169168 -0.0083708465 -0.000777956 0.039204095 -0.0062449076 0.038121533
-0.007981272 -0.001618146 -0.004979916 -0.0508613 -0.0069836937 -0.044169743 0.0003701695 0.021371268
-0.0059904605 -0.014050693 0.0020130335 0.009850478 -0.030791441 -0.020587116 -0.0091935955 -0.016250601
0.01624586 -0.05407986 -0.04106863 -0.03198763 -0.030616771 -0.011671519 -0.041365914 0.030768115
-0.011664348 -0.004411606 -0.0052922815 0.0028352295 0.032623425 0.021973008 0.00034378972 -0.0042755175
0.016658524 0.012932514 0.033151597 0.015344145 -0.009257236 0.013301371 0.034438793 -0.009752389
-0.007238289 0.034130424 0.032936625 -0.014349555 -0.0039277147 0.039354496 0.008801529 -0.015234282
0.017325364 -0.006866964 0.018173065 -0.03046565 -0.055418637 -0.013103992 0.0324848 0.04180611
0.029208986 -0.022553347 -0.025704755 0.010233934 -0.009555076 0.0030626408 0.029765138 0.04355366
0.03302446 -0.016136905 -0.031355605 -0.0152684115 -0.00739379 0.007311302 -0.008405129 -0.0058755004
-0.0069486154 -0.004261852 0.020542746 0.0056714355 0.037206247 -0.0073032402 0.035123922 -0.04533579
-0.0071918922 -0.029105257 0.026761124 -0.0072317477 -0.009212764 -0.031447057 0.009920319 -0.0050591086
-0.018729772 -0.009967112 -8.881381e-05 0.036432866 -0.036086347 0.020651206 -0.007942526 0.022167131
0.030971508 0.010088838 -0.019744575 0.026960958 -0.031300344 0.03929682 0.034510814 -0.000655943
-0.0003416246 -0.0020815146 -0.004958945 -0.00012808973 0.048082393 0.018632825 -0.003908632 0.016432002
0.020848362 0.049878925 -0.01363726 0.020451281 -0.041335836 0.039255407 0.04901979 0.039322726
0.041289434 -0.0019393456 -0.003134142 -0.01121562 0.036791414 -0.009513139 -0.00060257147 -0.031331416
0.013569097 -0.010440304 -0.030983713 0.04509879 -0.006634021 0.0008307639 0.018958516 0.0042480878
0.03476086 0.010682871 0.0045792167 0.017419219 -0.020554338 0.0065753562 0.024044465 -0.019052409
0.023476647 0.04284761 0.002984216 0.024599379 -0.006837784 -0.00123971 -0.016954126 -0.00017244703
-0.030506555 0.026750784 -0.013855246 -0.011783595 -0.016772239 -0.007872767 0.0029349828 0.011386554
-0.011907008 -0.04847083 -0.010179427 -0.04133553 -0.003702254 -0.0027699072 0.015144853 -0.000414107
00000000: b32e 77bc 87c1 38bc ffd6 283d cbc2 1fbc
00000010: e93f 18bd bad8 f2bc 5b4b 42bc 83df 4abc
00000020: 622d 893b b55b 6d3c 31da 3abd 68c5 913c
00000030: e8c7 59bc 133d 1d3d bed0 5cbc fd1a d43c
00000040: 6c63 74bb 9589 9a3c d1cb cc3c 11fa dfbb
00000050: c905 b5bb a7a0 7ebc 0a06 313d ba21 e4ba
00000060: d2ce 63bc 35ba fdbc 2dbd d0b5 1c64 123b
00000070: 0a65 323d 3da8 e93c ac01 bfbb 790a 00b7
00000080: 1263 2fbc fc65 123b 1b02 edbb 6576 01bc
00000090: 180c 3cbc c4de 8bbc fee9 223d 4a27 213d
000000a0: 3333 16bc c8cd 21bd e784 62bb ae14 f7bc
000000b0: 61b3 c7bb 7a2c 30bd 652c 053c d47e 1f3c
000000c0: b60e 3fbd e9e1 e7bc 5052 f93c a20a 8e3c
000000d0: 0ea3 ebbb dc37 d8bb 0332 90ba ab8f 743a
000000e0: d791 173c 5dcc eebc d05b 393d 704d 8a3c
000000f0: a2f2 84bb 54c1 223d 6399 38bd fc28 923c
00000100: c02e 9c3c 2370 8a3c 3505 4dbd ad85 8b3a
00000110: ee33 243d 6b16 323d 25b4 2ebc 8a65 0f3b
00000120: ef00 89bc d17a 00bb 287d 0cbd ab51 e4bb
00000130: 3a17 3dbc 293d e93c 0dc5 a43c ed4c 36bd
00000140: 8c16 2d3d 25c1 59bb 959c 26bc e025 09bc
00000150: beef 4bba 7994 203d 15a2 ccbb 5325 1c3d
00000160: e2c3 02bc f817 d4ba 902e a3bb f053 50bd
00000170: 78d7 e4bb 55eb 34bd 4f13 c239 cc12 af3c
00000180: a04b c4bb e134 66bc 19ed 033b e663 213c
00000190: 553e fcbc 50a6 a8bc bca0 16bc fb1f 85bc
000001a0: 0a16 853c d882 5dbd 9437 28bd 7605 03bd
000001b0: 06d0 fabc e639 3fbc 4e6f 29bd 6a0d fc3c
000001c0: d21b 3fbc 3c8f 90bb e06a adbb 42cf 393b
000001d0: 24a0 053d bd00 b43c ad3e b439 a419 8cbb
000001e0: 7577 883c e5e2 533c f8c9 073d 0266 7b3c
000001f0: a9ab 17bc feed 593c b10f 0d3d 7cc8 1fbc
00000200: 2b2f edbb 58cc 0b3d 8ee8 063d 651a 6bbc
00000210: 0fb4 80bb 2e32 213d 4a34 103c 3699 79bc
00000220: eced 8d3c 4504 e1bb aedf 943c 1993 f9bc
00000230: a7fe 62bd 20b2 56bc c80e 053d e23c 2b3d
00000240: af47 ef3c ccc1 b8bc c792 d2bc 3bac 273c
00000250: e58c 1cbc 96b6 483b 05d6 f33c 5365 323d
00000260: a844 073d 8b31 84bc bc6e 00bd 5c28 7abc
00000270: 9b47 f2bb a593 ef3b abb5 09bc 4587 c0bb
00000280: 36b1 e3bb 01a7 8bbb 4349 a83c 73d7 b93b
00000290: 9465 183d 0550 efbb 1ade 0f3d 05b2 39bd
000002a0: f7a9 ebbb 266e eebc 253a db3c 4cf8 ecbb
000002b0: 22f1 16bc a1ce 00bd d588 223c e1c6 a5bb
000002c0: 2e6f 99bc 194d 23bc 8d41 bab8 a13a 153d
000002d0: 47cf 13bd b82c a93c 5e21 02bc d897 b53c
000002e0: f6b7 fd3c a74b 253c 60bf a1bc 3add dc3c
000002f0: ca34 00bd b4f5 203d 365b 0d3d 97f3 2bba
00000300: 141c b3b9 056a 08bb a57e a2bb d34f 06b9
00000310: 0bf2 443d dea3 983c fb13 80bb 689c 863c
00000320: 2fca aa3c d84d 4c3d d06e 5fbc 7289 a73c
00000330: c44f 29bd 47ca 203d fac8 483d de10 213d
00000340: 1c1f 293d a431 feba 2d66 4dbb b8c1 37bc
00000350: 98b2 163d ffdc 1bbc e3f5 1dba 5f55 00bd
00000360: eb50 5e3c cf0d 2bbc 8ed1 fdbc 82b9 383d
00000370: 3462 d9bb 9fc7 593a e44e 9b3c 8b33 8b3b
00000380: 6761 0e3d 3507 2f3c 410d 963b c0b2 8e3c
00000390: 9261 a8bc 1676 d73b e6f8 c43c cc13 9cbc
000003a0: 1952 c03c fa80 2f3d d692 433b a384 c93c
000003b0: 7d0f e0bb c47d a2ba 61e3 8abc e6d2 34b9
000003c0: e2e8 f9bc 7624 db3c 1d01 63bc fb0f 41bc
000003d0: ef65 89bc c7fc 00bc d758 403b ab8e 3a3c
000003e0: 9c15 43bc 5989 46bd 9dc7 26bc 724f 29bd
000003f0: 84a1 72bb 5587 35bb 1e22 783c 801c d9b9

conv_mean.weight f4 [20, 256, 3, 1]
-2.0415158e-09 2.0649293e-09 -4.0293497e-09 -0.006514677 -0.0063293353 -0.0064563984 -0.009247928 -0.015700933
-0.019036818 -0.010690578 -0.011297662 -0.010535347 0.014906618 -0.022668364 0.027054751 -0.023472512
-0.029475365 -0.01540604 0.014772537 0.019064585 -0.015825883 -0.012377665 0.029432386 0.028107796
0.0038754323 0.002638215 0.008983235 -0.013594197 0.021245832 -0.022016864 0.008684644 0.02650866
-0.021113532 0.025539186 0.0067437794 -0.027312754 -0.0020261654 0.0061355685 -0.0064668884 -0.030154122
-0.007494179 -0.03433661 0.016435627 0.0035798436 0.00010294459 0.002250475 0.016558932 0.0014585542
-8.1847444e-05 -0.04003204 -0.0015901392 -0.0066531873 -0.019611018 0.033146713 -0.002479795 -0.03724223
-0.030952362 0.004611471 0.004594898 0.0045148428 0.0030508232 -0.014287294 -0.0025358521 -0.011419918
0.017341914 -0.018867256 -0.015479956 0.024994384 0.01777888 0.0019945889 0.0018207263 0.0010776828
-0.032951713 0.007508701 -0.025618704 0.020713393 -0.014380073 -0.0037948336 2.087664e-07 -6.4250133e-07
1.3771445e-06 0.023580512 -0.0061373087 0.005720667 -0.019167999 -0.016996354 0.027217288 -0.03612482
-0.01788569 -0.008166325 0.0007678331 0.0010708101 0.0011709661 -3.0867078e-08 3.7804245e-08 5.450828e-08
0.009174934 0.009245477 0.011012914 0.023672348 0.024444187 -0.02765279 -0.0016983614 -0.0041065873
-0.0025064484 -0.015813133 0.0013554965 0.0414592 0.012184149 0.013143441 0.009738515 0.01459294
-0.0028025808 -0.015326878 -0.0021007226 0.0062244073 -0.01939775 -0.0047945343 0.011122228 -0.030183109
0.013097663 0.023257365 -0.03033819 -0.028324056 -0.0069067907 0.024997912 2.2754916e-09 4.4277226e-10
-1.1449963e-09 0.003362496 -0.029842414 0.022913229 0.0024479963 0.006480448 0.0062130005 -0.01147997
0.031339 -0.01482852 0.014274735 0.019228494 0.0038421438 0.016934954 -0.0061165495 0.0015365274
0.007867855 -0.033353653 -0.004783122 -0.0034831252 0.0055723 -0.0009186478 0.002785821 0.0018614145
0.0054812264 0.029009227 0.011004459 0.016812323 -0.042425323 -0.050158955 0.012065868 -2.0420965e-10
1.6046011e-09 3.4271916e-10 -0.026179194 0.0039911703 0.013980137 -8.283144e-05 -0.0076764175 -0.012808167
0.0039198026 -0.0008560221 0.01890819 0.027183294 0.004493091 -0.0062951534 -0.029525515 -0.031239307
-0.008484576 0.029077753 0.0011349784 0.0066510974 0.0014116481 -0.008501087 -0.0008054413 -0.024346586
-0.00038977835 -0.028289571 -0.02175503 0.008642153 -0.030609237 -0.01411534 -0.008818926 0.0023556468
-0.021198686 0.022005906 -0.012300469 0.015588608 -0.0197832 0.029862411 0.022438876 -0.018324181
0.02505249 0.014336148 -0.011789916 -0.014208391 -0.02710588 -0.02179792 0.0016925649 0.024085682
-0.010801297 -0.011972756 -0.007564079 -0.007683777 -0.007326918 0.0013681102 -0.004500603 -0.016260471
-0.03816652 -0.028372306 -0.03882647 -0.031218225 0.027695028 0.006598508 -0.011875505 -0.0067506637
0.029674549 -0.009672994 -0.007243555 -0.006559002 -0.001024205 0.0065340996 0.004400715 0.018824045
-0.029777002 -0.021962486 -0.03272708 0.0075672856 0.010684734 -0.037989598 0.019745205 -0.009150021
-0.040479813 0.01748097 -0.012882842 -0.0071485788 -0.0060641677 -0.0050176955 -0.0035072528 0.0061645457
6.78986e-10 -0.009558101 -0.009088791 -0.008894837 1.7669909e-06 5.6483104e-06 -2.2970346e-06 0.014594305
00000000: ba4a 0cb1 9fe6 0d31 8972 8ab1 1279 d5bb
00000010: 5066 cfbb 3290 d3bb 9f84 17bc 3e9f 80bc
00000020: 1af3 9bbc 8927 2fbc d419 39bc 739c 2cbc
00000030: e33a 743c 01b3 b9bc eda1 dd3c 6d49 c0bc
00000040: 5276 f1bc 9d69 7cbc 8308 723c 552d 9c3c
00000050: 48a5 81bc b1cb 4abc 301c f13c 5242 e63c
00000060: f7fa 7d3b e7e5 2c3b 6b2e 133c 32ba 5ebc
00000070: bd0b ae3c b65c b4bc 094a 0e3c b028 d93c
00000080: 49f6 acbc 8e37 d13c ecfa dc3b ffbe dfbc
00000090: 6ac9 04bb e10c c93b 31e8 d3bb c705 f7bc
000000a0: bb91 f5bb 8ca4 0cbd 02a4 863c cf9b 6a3b
000000b0: f5e3 d738 b57c 133b 99a6 873c f52c bf3a
000000c0: 83a5 abb8 a3f8 23bd 386c d0ba fb02 dabb
000000d0: 49a7 a0bc d9c4 073d 0e84 22bb 4f8b 18bd
000000e0: cf8f fdbc d31b 973b cc90 963b 3ff1 933b
000000f0: 52f0 473b 4115 6abc 8a30 26bb 9c1a 3bbc
00000100: a110 8e3c 818f 9abc a49f 7dbc 06c1 cc3c
00000110: 04a5 913c a6b7 023b 70a5 ee3a 0941 8d3a
00000120: 60f8 06bd 8d0b f63b 51de d1bc 22af a93c
00000130: 669a 6bbc beb2 78bb 4529 6034 5b78 2cb5
00000140: 53d6 b835 eb2b c13c 7a1b c9bb 6f74 bb3b
00000150: 3506 9dbc f03b 8bbc caf6 de3c 9ff7 13bd
00000160: 0385 92bc 0dcc 05bc 6848 493a 6d5a 8c3a
00000170: 1a7b 993a b692 04b3 355e 2233 7d1c 6a33
00000180: 7652 163c 577a 173c 826f 343c 83ec c13c
00000190: 2d3f c83c 1b88 e2bc 8d9b deba 8d90 86bb
000001a0: 3a43 24bb 8b8a 81bc eaaa b13a 1fd1 293d
000001b0: 06a0 473c 9657 573c 4b8e 1f3c 3a17 6f3c
000001c0: 81ab 37bb 961d 7bbc 47ac 09bb 1df6 cb3b
000001d0: 08e8 9ebc 781b 9dbb 013a 363c 9142 f7bc
000001e0: 9597 563c 3b86 be3c cc87 f8bc da07 e8bc
000001f0: 5c52 e2bb 6cc8 cc3c df5e 1c31 a86a f32f
00000200: fa5d 9db0 525d 5c3b 1478 f4bc 86b4 bb3c
00000210: 906e 203b f059 d43b 6d96 cb3b 7c16 3cbc
00000220: 535d 003d 52f3 72bc 94e0 693c 1385 9d3c
00000230: 7acc 7b3b 2cbb 8a3c 566d c8bb 4e65 c93a
00000240: 2de8 003c d79d 08bd bcbb 9cbb 2545 64bb
00000250: d797 b63b 69d1 70ba 5292 363b b5fa f33a
00000260: dc9b b33b c2a4 ed3c 0c4c 343c ffb9 893c
00000270: 2dc6 2dbd 7a73 4dbd ebaf 453c e887 60af
00000280: e288 dc30 6f69 bc2f c075 d6bc 5dc8 823b
00000290: f20c 653c cab5 adb8 758a fbbb 59d9 51bc
000002a0: b071 803b ac66 60ba 59e5 9a3c 80af de3c
000002b0: c73a 933b 9347 cebb 7edf f1bc 93e9 ffbc
000002c0: e402 0bbc 7834 ee3c 8ec3 943a 73f1 d93b
000002d0: 0d07 b93a 2548 0bbc 4024 53ba 7e72 c7bc
000002e0: 2a5b ccb9 88bf e7bc 9b37 b2bc d197 0d3c
000002f0: 39c0 fabc 0744 67bc 427d 10bc 3261 1a3b
00000300: dea8 adbc bb45 b43c e887 49bc 5c67 7f3c
00000310: 6110 a2bc 04a2 f43c bcd1 b73c 981c 96bc
00000320: e13a cd3c 2ae2 6a3c 7e2a 41bc 50ca 68bc
00000330: 270d debc 8d91 b2bc 0ed9 dd3a 564f c53c
00000340: ecf7 30bc 6129 44bc 18dc f7bb 31c8 fbbb
00000350: a516 f0bb 2952 b33a cb79 93bb ae34 85bc
00000360: 7f54 1cbd 0a6d e8bc 8108 1fbd 5dbd ffbc
00000370: afe0 e23c 4c38 d83b 7a91 42bc ac34 ddbb
00000380: 0a18 f33c 7a7b 1ebc 585b edbb e6ec d6bb
00000390: 9e3e 86ba 001c d63b e033 903b e234 9a3c
000003a0: e6ee f3bc acea b3bc d50c 06bd fef6 f73b
000003b0: 060f 2f3c fb9a 1bbd b2c0 a13c f8e9 15bc
000003c0: 29ce 25bd 4034 8f3c 8e12 53bc a03e eabb
000003d0: edb5 c6bb 7b6b a4bb f0d9 65bb f5ff c93b
000003e0: 64a3 3a30 9599 1cbc 27e9 14bc a7bb 11bc
000003f0: 5829 ed35 9e86 bd36 c126 1ab6 f41c 6f3c

conv_mean.bias f4 [20]
0.026636336 -0.004232164 0.020720186 0.0018554147 -0.0031138097 0.0060506347 0.016021583 0.017624903
-0.01615458 -0.012163954 -0.015364697 0.030374294 -0.0071162973 0.016812328 -0.017567279 0.005363886
-0.01032073 0.026813412 0.006874081 0.014128785
00000000: 7234 da3c f7ad 8abb 61bd a93c 6331 f33a
00000010: 0f11 4cbb 6744 c63b b23f 833c 1a62 903c
00000020: 9c56 84bc 524b 47bc 36bc 7bbc 83d3 f83c
00000030: d42f e9bb 02ba 893c 41e9 8fbc 89c3 af3b
00000040: 4718 29bc cda7 db3c f93f e13b 6b7c 673c
