VAE-LSTM-anomaly–detection/experiments/Collected_data/nosein_noseout_9-grid_search-0414/Collected_data-nosein_noseout_9-win_len200-look_back5-codesize20-VAEunits256-LSTMunits128/checkpoint/vae_best_model.pth (torch, 704594 bytes, 24 tensors)

encoder.0.weight f4 [16, 3, 3, 1]
00000000: b3d4 5cbe 795f 173e 1b35 573e da99 ed3d
00000010: 0a96 39bd d791 21bd 79d6 35be dd69 163e
00000020: 7ad8 6e3e 7b27 9d3e 1a00 af3c 8e50 3c3e
00000030: 69e7 323d a2b7 16be c006 a9be 3c06 13be
00000040: 0cdc 05bc 24e2 9c3e 8afd 84be 0930 5ebe
00000050: 460d 343e 0f80 e53d d2ed 4dbe 5637 2f3e
00000060: 9f94 22bd 8434 9d3e bd31 8c3d 1833 063e
00000070: 1839 bfbc 8aa8 f73d 00a3 81be 7053 9cbe
00000080: b7a5 a2be e1e7 cebd 8c4a 6a3e 64c8 5fbe
00000090: 9b8e 83be 594d 84bd d0d5 6c3e 5923 ba3d
000000a0: ec43 e43d 2554 903e 25a1 4e3e 5b9a ac3d
000000b0: 9190 76be 36fd 833e 8887 f1bb d91b 1abd
000000c0: babe 3f3e 8eb2 563e b9bb f43d a449 d53d
000000d0: f1ab 48be 74e1 eebd 48ff 203e 5252 383e
000000e0: 8697 1abd 2b13 edbc d7bf 0c3d 68c1 80be
000000f0: 843f 54be fc65 073e 2343 1a3e e94f 403d
00000100: d6f6 3a3e d57b 81bd 8d67 87bd 5142 863d
00000110: e46b e03d ca20 92be 94ca 433e 2848 2ebc
00000120: e4fd e03d 58f2 603d 06a1 e9bd 4aa2 59be
00000130: 403a 353d e2ea 24be 3df4 0abe bc4a 84be
00000140: dcdd 9c3d b55a fe3d a964 6a3e 0365 82be
00000150: 7c8f e03c ec4e 873e 9ad2 3f3d 9ece 663e
00000160: cace 14be 27c3 843e f830 3f3e fd84 913e
00000170: da71 2dbe 55dd 91be 1430 90be 319b babd
00000180: 604a 8a3e b74f 6a3e 5cc1 373e a2a1 493e
00000190: 4f96 7bbe 1929 00be ef50 213e ecbe 9e3e
000001a0: 6b25 12ba 13f6 95be d8d3 e83d 43f4 8a3e
000001b0: 3550 943e 7931 283e f8f6 493e d291 1f3d
000001c0: 8650 f63d 1b72 4b3e 06ec 21be db11 63bd
000001d0: aa8a 263e d4b2 33be e8f7 2d3e 7660 983e
000001e0: 82c0 94be c7e5 cebd 375c 4bbe 535c 633c
000001f0: 0c2b d3bd 576c 70bc d717 57be dd88 813e
00000200: 5a9f ac3b 7553 2bbd 442a 243e 805e 5b3e
00000210: 392e 2e3e fd2b 54be dd43 c33b 7a34 d3bc
00000220: 3cb4 f83d 3abc 45be ef03 673e 98f4 8dbe
00000230: c65b 00bd a836 71bd bbc9 823e 4aaf 173e
-0.21565513 0.14782514 0.21016352 0.116016105 -0.045309104 -0.039445724 -0.17757596 0.14688821
0.23324767 0.30694184 0.021362353 0.18390104 0.04367772 -0.14718488 -0.33012962 -0.14357847
-0.008170139 0.30641282 -0.25974685 -0.21698011 0.17583188 0.11206066 -0.20110252 0.17110953
-0.039692517 0.3070413 0.06845424 0.13105428 -0.023342654 0.12092693 -0.25319672 -0.30532408
-0.31767055 -0.10102821 0.2288 -0.21853787 -0.25694737 -0.064600654 0.23128438 0.09088773
0.111457676 0.28189197 0.2017866 0.084278785 -0.24078585 0.25779122 -0.007370893 -0.037624214
0.187251 0.2096655 0.11949868 0.104144365 -0.1959684 -0.116640955 0.15722382 0.18000153
-0.03774216 -0.028939804 0.03436264 -0.25147557 -0.20727354 0.13222498 0.15064673 0.04695121
0.18258223 -0.06322447 -0.066115476 0.065556176 0.109580785 -0.2854064 0.19120246 -0.010637321
0.10985926 0.054918617 -0.11407666 -0.21253315 0.044245005 -0.16105226 -0.13569732 -0.25838268
0.07659504 0.12419645 0.22889961 -0.2546769 0.027412169 0.264274 0.046831705 0.22539756
-0.14532009 0.2593014 0.18671024 0.28421775 -0.16937962 -0.28489175 -0.2816168 -0.09111632
0.2700987 0.22881971 0.17944854 0.19690564 -0.24569057 -0.12515678 0.1575353 0.31005037
-0.0005575034 -0.29289302 0.11368531 0.27139482 0.28967443 0.16425122 0.19723117 0.038957424
0.120270774 0.19867747 -0.15812692 -0.05543695 0.16263834 -0.17548686 0.169891 0.29761094
-0.29053122 -0.1010242 -0.19859396 0.013876992 -0.10310945 -0.014674268 -0.21005188 0.2529973
0.0052680196 -0.041827638 0.16031748 0.21422768 0.1700982 -0.20719905 0.0059590177 -0.025781859
0.12143752 -0.19310084 0.22560094 -0.27725673 -0.031337522 -0.058890015 0.25544533 0.14812961

encoder.0.bias f4 [16]
00000000: bed9 623d f866 933e 3171 8abe e201 18bb
00000010: 191d 273e f71e 353d 9451 8e3e 63f5 2ebe
00000020: c856 593e e81c f0bd 02ed 7bbd 7c0b 2e3e
00000030: 72fc 1bbe 5e7d 5f3e b7e4 18bd 4cf1 863e
0.055383436 0.28789496 -0.27039483 -0.0023194482 0.16319694 0.044218984 0.27796614 -0.17085795
0.2122451 -0.117242634 -0.061505325 0.16996568 -0.15233019 0.21825168 -0.037327494 0.2635597

encoder.2.weight f4 [32, 16, 3, 1]
00000000: 43a6 ed3d f7ac 673c e4e7 8f3d 4d0e ee3c
00000010: e248 823d 1d70 e1bd 9255 c43d ad95 13be
00000020: 1ed3 e0bd 40de 8b3c 38b6 bbbd 083c 9b3d
00000030: d77b 9a3d 917b 3cbd 88ea 9bbd 41b7 cabd
00000040: 6ff2 ef3d 9a84 bab9 00b1 04be fdd5 e53d
00000050: b773 83bd a8cf 25bd a6ff 57b8 8b44 5bbd
00000060: a07a bcbd 78dd 843c 2e6c 3ebd a225 e3bd
00000070: 23a7 ef3c 1440 203d 1146 8c3d 8b0d dcbd
00000080: 6032 e53c 0d80 4d3c 401f 9dbd a32b 99bd
00000090: b1e8 133c 166d 64bd b020 c8bd f97e debc
000000a0: 83d6 9e3d 14d9 583b b6b9 47bc 8bf7 b03d
000000b0: e610 1ebd 0000 b03d edea 963c 6358 18bd
000000c0: 1687 d53d 708e 023e 281b f23c aab8 f83c
000000d0: 8e94 afbd 31cc f73d 25b5 e73c 3c7d 08be
000000e0: 4058 7bbb 8774 d03d 40af bdbd 14ff 92bd
000000f0: edb9 093e 0349 c8bd baae a2bd 935f 58bd
00000100: c4f0 82bd e13e b23d ff67 a4bd a69a 353d
00000110: 629d 213d c56e dc3d 4b5d 093e f01a 3c3d
00000120: 596a 3b3d 592b b93d cf27 a3bd e953 e2bc
00000130: da70 013c 5c90 80bd f94c c53d 3e50 d53c
00000140: ce55 0f3d a93a c3bd f038 d0bd b508 093d
00000150: 85d8 ab3d 755b 1bbc f1be c73d b651 08be
00000160: 0ea2 673d 60f1 c9bd 693e d43d e84c b13d
00000170: f368 8a3d aa1a 0bbe a52e c13d 155f 753d
00000180: af0a d5b9 aa6c 7ebd 4e1b f6b9 384a 13ba
00000190: 8aae fdbd 7aa9 cebd 438d a1bd 2e40 9f3d
000001a0: 4f78 3dbd d644 163d 9379 2f3d 3e8b a7bb
000001b0: 942f c43d 7e6d a0bb 9070 003e 3d36 083e
000001c0: 3088 f8bd 7a6f 08be 5095 c7bb d6d2 01bd
000001d0: 0764 f6bb 1b3a ddbd b5b4 dcbd 0b1d e23c
000001e0: e84f 90bd c06a 28bc 4074 d73b 711c e53d
000001f0: 25f8 5b3d cbfb 4c3d 64eb dbbd 8fbb 923d
00000200: d15d 673d 696c dbbd bfb1 f7bd 7545 403c
00000210: fd13 88bc 29cc 073e ac8d de3d bc9f ae3d
00000220: 1230 aebb e4a1 453c c1c3 fbbd 4940 963d
00000230: 1409 01bd afaa c23d 32d7 60bc 6a4a fd3b
00000240: 7e11 423d 4483 21bd 5ea1 37bd d482 bf3b
00000250: 61c1 0fbe 0cf5 473d 0e9d d4bd 022c 2cbc
00000260: 06bf e63d dba4 c43d 0824 b03d d503 72bd
00000270: 4f93 073d a19a 0b3e b88b 1ebd 87a0 b0bd
00000280: f2c4 b23d efaa b4bd 09df f5bd 8710 3dbd
00000290: f1e5 e83d e4b1 a03d fd7e 94bc eb4d c5bd
000002a0: 222d cb3d 7535 22bc cd13 55bd a1f8 87bd
000002b0: 8e90 db3d 742f 08be ec19 663d 7254 05bd
000002c0: e97e 033e 06cc 5d3d 5039 cfbd 9b3e f03d
000002d0: 668b 4bbd b740 0d3d f387 d03c 1625 f53d
000002e0: 2112 c6bd e610 973c cc98 00be 144c 163d
000002f0: f5e8 4d3c f69c b23b e63f 633d b7cf b73d
00000300: 8ced d6bd e2b0 17bd bd30 f93d 4011 08be
00000310: df77 ab3d 407b 803c e0c2 ccbd e55c 503d
00000320: e26c a93c d86a 3ebc 3a5e a23d c91d 25bc
00000330: a838 ec3d 6589 bb3d 833a cdbd 7788 c23d
00000340: 3d2e c63d f316 f1bd a5e5 05be 4a76 9fbd
00000350: 4718 edbd f253 fb3d 8a22 89bd 31c5 30bd
00000360: f6b6 3cbd 0b13 f23d 462e 97bd 8bcd 13be
00000370: 1461 dabc ceab 503d deb8 b13c d140 3e3d
00000380: 65c4 b23c 0738 8ebd 6f5e 86bc f90a 0d3d
00000390: 0a30 93bc f423 a7bc eb85 08be 1024 af3d
000003a0: ad5b b33d a9ac c4bd 983b 97bd 9c7b 843d
000003b0: d83e d1bc 0d16 f33d a3b6 7e3d 4cb4 13be
000003c0: 70b9 71bd f7e7 de3d bffc 223d e584 05be
000003d0: 8689 8fbd c656 b93d db01 633d ad7c e1bd
000003e0: fb29 b7bd dd53 01be 30a1 b0bc c021 263c
000003f0: d3b3 203d c281 913d 54cf a0bd 5301 eabd
0.116039775 0.014140359 0.070266515 0.029059554 0.063615575 -0.11007712 0.09586634 -0.14412566
-0.109777674 0.01707375 -0.09165615 0.075798094 0.07543152 -0.04601628 -0.07613093 -0.09898234
0.117161624 -0.0003557548 -0.12958145 0.11222456 -0.06418555 -0.04048124 -5.1498086e-05 -0.053532165
-0.09203076 0.016218886 -0.046489887 -0.11091162 0.029254502 0.03912361 0.068493016 -0.107447706
0.027978122 0.012542737 -0.07671976 -0.07479026 0.009027646 -0.055768095 -0.0977186 -0.027160155
0.077557586 0.0033088373 -0.012190273 0.08640965 -0.038590334 0.0859375 0.018422568 -0.037193667
0.10426156 0.12749648 0.029553965 0.030361492 -0.085732564 0.12099493 0.028284619 -0.13329023
-0.0038352162 0.10178476 -0.09261942 -0.071775585 0.13449831 -0.09779551 -0.07943483 -0.05282552
-0.06393579 0.087033994 -0.08027648 0.044336937 0.039456733 0.10763315 0.13414495 0.045924127
0.045755718 0.09041471 -0.07966577 -0.027627902 0.007900441 -0.06277534 0.09633822 0.026039239
0.03499394 -0.09532673 -0.1016711 0.03345557 0.08390907 -0.009482254 0.09753216 -0.1331242
0.05655103 -0.09860492 0.10363466 0.08657247 0.06758299 -0.1358439 0.09432725 0.05990513
-0.00040634486 -0.06211535 -0.0004694112 -0.00056186644 -0.12386806 -0.10090919 -0.07888272 0.07775913
-0.046257313 0.03668674 0.04284055 -0.0051130345 0.09579387 -0.004895865 0.12542939 0.1330194
-0.12135351 -0.13323775 -0.0060907975 -0.03169521 -0.0075192484 -0.10802098 -0.10776655 0.02760174
-0.07046491 -0.010279357 0.0065751374 0.111870654 0.053703446 0.050044816 -0.107382566 0.0716468
0.056485955 -0.10714037 -0.12094449 0.01173531 -0.016611094 0.13261475 0.108668655 0.08526561
-0.005315789 0.0120625235 -0.122931965 0.0733648 -0.0315028 0.095052116 -0.013723182 0.007729818
0.047379963 -0.039431825 -0.044831626 0.0058444533 -0.14038612 0.04881768 -0.10381518 -0.010508539
0.112669036 0.09601756 0.086006224 -0.059085686 0.03309947 0.13633205 -0.038707465 -0.08624368
0.087289706 -0.088216655 -0.12005431 -0.04615834 0.11371983 0.0784643 -0.018126959 -0.09634002
0.09920718 -0.00990044 -0.052020837 -0.06639219 0.10720931 -0.13299352 0.056177065 -0.032551236
0.12841381 0.05414965 -0.10118353 0.11730691 -0.049693488 0.034485545 0.02545545 0.11969964
-0.096714266 0.018440675 -0.12558287 0.036693648 0.012567748 0.00545084 0.05548086 0.08975165
-0.10494527 -0.037033923 0.12167499 -0.1328783 0.08372473 0.01568377 -0.09998107 0.05086984
0.020681802 -0.011622153 0.079281285 -0.010077902 0.11534244 0.09157065 -0.10020926 0.09498685
0.09676788 -0.11771955 -0.13075884 -0.07786234 -0.11576896 0.12271871 -0.06696041 -0.043156806
-0.046072923 0.118200384 -0.07381873 -0.14433877 -0.026657619 0.050945096 0.021694597 0.046448532
0.021822164 -0.0694428 -0.016402451 0.034434292 -0.017967243 -0.020402886 -0.13332336 0.085518
0.0875772 -0.09603245 -0.073844135 0.06468889 -0.025542662 0.1186944 0.062185895 -0.14424247
-0.059014738 0.108840875 0.03979182 -0.13038976 -0.070086524 0.09049754 0.05542169 -0.11010108
-0.08943554 -0.12629648 -0.021561235 0.010139883 0.039233994 0.071048275 -0.07852045 -0.11426034

encoder.2.bias f4 [32]
00000000: c8a4 aebd e101 403d 38d2 753d 4869 08be
00000010: 313c a03d 3a8e 0e3e 2723 db3d 2e53 2f3d
00000020: f324 93bd dd44 c43c 1df9 d03c 9c5c 6bbc
00000030: 0c86 88bd 8dc1 dcbd 8f11 92bd e6d2 9abd
00000040: 11fd dd3d f5f2 073e 5954 4239 7b6b 093e
00000050: e7d2 823d 2142 70bc befb adbd f036 873d
00000060: 1584 26bd 28db a1bd 6a8d ce3d 4683 aab9
00000070: 1f5e f43d ce3e b7bd 742c 0dbe ca67 d43d
-0.08527523 0.046876792 0.060014933 -0.13321412 0.078239806 0.13921443 0.10700064 0.042803936
-0.07184782 0.023958618 0.025509411 -0.0143653415 -0.066661924 -0.107791044 -0.07132255 -0.07559757
0.10839284 0.13276275 0.00018532704 0.13419907 0.06387883 -0.014664204 -0.08495282 0.06602275
-0.040653307 -0.07903129 0.10085566 -0.00032522733 0.11932015 -0.08947526 -0.13786489 0.10371359

encoder.4.weight f4 [64, 32, 3, 1]
00000000: b3dc 85bd 8bbe 9c3d 7cc2 c8bd e387 a1bb
00000010: 04f1 a8bc 13b8 85bd 149a 66bd fa7d 44bc
00000020: 69e5 9bbd b594 8bbd b879 dc3c 7b1a e33c
00000030: 8fe0 51bd c2b8 2abc 0e1b b53d 317e 3c3d
00000040: d949 38bd 5eb8 86bd fe5d a83d d9e3 c5bc
00000050: 1228 883a c340 7dbd 07b7 7b3d 6de3 963d
00000060: dc05 c53c 15ef 563d 8525 7abd dd37 103d
00000070: 1945 513d 6c28 96bd acf9 edbc 3d7d 4fbc
00000080: 1523 953c 1fe0 3dbd b930 95bc 21a6 bcbc
00000090: f861 693d daab 9fbd cca6 6c3d 3e55 28bd
000000a0: 673a 4cbd d203 acbd 6beb 5bbd a6b0 d1bc
000000b0: f23e 6b3d fbf8 40b7 5a46 a83c 925d 233c
000000c0: daa7 7abd 6b61 97bd 6438 67bd 3089 2ebd
000000d0: b9c9 b33d 9e94 37bc cf83 e7bc df2f 5f3d
000000e0: bc41 b3bd 18ee 2fbd fa0e d23b 6d57 483d
000000f0: 9ec2 f53c adb3 d8bd 39d2 aabc 8ef4 9a3d
00000100: f394 8e3d e647 a2bc 2167 78bb b613 993d
00000110: b406 c3bd d4d6 253c 3048 093d 8a5b f03c
00000120: 9078 85bd 4bd8 2bbd dc1a c4bc 67cd 513d
00000130: 1c4e 723d 0369 ccbd e97c 88bc 2b60 583d
00000140: cced ac3d 94a9 ff3b 29ac 9bbb e299 e0bc
00000150: 6edc 343d 83b6 763d 54a8 c0bd fcfe c03d
00000160: c2ae 523d b4c9 6e3d 5376 833d d29a 3b3d
00000170: 7482 4bbd b526 143a 317b b0bc 4ebd 7bbd
00000180: 7021 893d 9fb8 433d d254 afbd 65d7 40bd
00000190: 411d aabd da59 c3bd 3a95 043d 5e17 d1bc
000001a0: 80d6 c9bc 3c79 9a3b 30ab c1bc 2234 bd3c
000001b0: aac4 653d f0cd 5e3d 64e1 8b3a 01af 3fbd
000001c0: 0098 cdbd 487f c1bd f219 6fbd f37a 71bd
000001d0: 2334 e0bc 9a2a be3d 7621 59bd f66b b03c
000001e0: c9da 12bd 0158 613b 8e45 94bc 747b a43d
000001f0: 2c6d 273c 91f0 a73d a376 3cbc 4c7b 6e3c
00000200: d90d d93c 0309 f5bc df08 6fbd aafb 2dbd
00000210: 62d5 af3d 08a3 683d 096a 203d ee7a b93d
00000220: f6d7 33b9 0312 ccbd 0da9 17bd d7cb 393c
00000230: 3d4d a63d c42a 01bc a4f9 683d 99de 00bd
00000240: da73 523d 79ca 163d e5ca 85bb 0945 2f3b
00000250: ba1b 95bc a5bd d9bd 202a dbbc 258c 643d
00000260: f219 a8bd 06f0 913d b908 8f3d 7c98 3c3d
00000270: 57ff b5bd 5c0a b4bb 338e 4ebd 0244 e1bc
00000280: 84b9 abbd 617f 8cbc 0adb f0bb c79a 75bc
00000290: 32af 62bd 04d2 67bd 4a45 b33d 6ce6 69bd
000002a0: 0ff0 453c a19c a03d e726 3abd 1365 d1bd
000002b0: 65c3 d2bc 23d2 7ebc 88c9 d3bd 0a65 e63c
000002c0: 6484 913d a28d af3d 6431 763d 5e97 66bb
000002d0: b8f1 643b 4181 0cbd 1f6f 733c 6078 84bd
000002e0: 7210 203d 770b c3bc a48c 843c 202a 0dbd
000002f0: b1ca bdbd 5f63 0b3d 73a5 b33d 18a8 5e3d
00000300: d8bf 163b 4d1d 923d 8314 dcbc 239a 0abd
00000310: 1529 acbd a503 babd d3ff a83d 4eac 24bc
00000320: 2322 23bc 4506 933d 94cb 3e3d b922 fabc
00000330: 1b29 d53c 5621 cb3d aec3 8dbd 0906 f7bb
00000340: 6d67 d83c d61b c5bd 3431 5bbd af0f 803d
00000350: 84b0 bd3d 129c 243d 6186 473d a516 3dbd
00000360: 1566 6fbd d191 75bb 5a3f 243c 84e4 2e3d
00000370: 2714 713d e1d7 a33c 1a84 73bc 5436 c3bd
00000380: 4a2f c0bd 3846 1d3d fd03 173d 3940 e93b
00000390: 7874 92bd f11d 73bc bd8a 693d 71db 0dbc
000003a0: 821b f139 4dfa 2bbd 1e48 063c 3448 3b3d
000003b0: 977f 77bc f40f d4bc 3368 1cbd 82bb 1b3d
000003c0: 1c71 903d 15c5 33bd 4cf6 273c 8182 1abd
000003d0: 9e1c 873d 9b82 d2bc 7e39 ac3d eb4f babd
000003e0: fcd7 bc3d 1196 c73d 294c 743d b84f aa3d
000003f0: 2f96 e43c 1523 a339 5c7d a5bd b199 e4bc
-0.06536236 0.07653531 -0.0980272 -0.004929529 -0.020622738 -0.0652925 -0.056299284 -0.011992926
-0.07612116 -0.06815473 0.026913509 0.027722588 -0.051239546 -0.010420026 0.08843051 0.046018783
-0.0449923 -0.06578134 0.082210526 -0.024156498 0.0010387918 -0.06182934 0.061453845 0.07367597
0.024050646 0.0524741 -0.061070938 0.035209525 0.051091287 -0.073319286 -0.029049717 -0.0126641365
0.018205205 -0.046356317 -0.01821171 -0.023028435 0.056978196 -0.0779645 0.057776257 -0.04109692
-0.049860384 -0.08399166 -0.05369131 -0.025596928 0.057433076 -1.1502062e-05 0.020541359 0.009971039
-0.061195232 -0.07391628 -0.056450263 -0.0426113 0.0877871 -0.011204867 -0.028261093 0.054489013
-0.08752772 -0.042951673 0.0064104768 0.0489115 0.030000027 -0.105811454 -0.020852195 0.07566176
0.069620036 -0.019809674 -0.0037903266 0.07474463 -0.09522763 0.01012202 0.03351611 0.029340524
-0.06517136 -0.04195432 -0.023938589 0.051221278 0.059156522 -0.09980967 -0.016661124 0.052826088
0.08443794 0.0078021977 -0.0047507477 -0.027417127 0.04415553 0.06023265 -0.09407106 0.094236344
0.051436193 0.058297828 0.06419053 0.045801945 -0.049684957 0.000565152 -0.021543117 -0.061459832
0.06695831 0.04778349 -0.085611 -0.047080416 -0.08306361 -0.09538622 0.032368876 -0.025523838
-0.024638414 0.0047141593 -0.023641199 0.023096148 0.056095757 0.054395616 0.001067203 -0.046797756
-0.10038757 -0.09448105 -0.058374353 -0.058955144 -0.02736861 0.09285469 -0.053010426 0.021535855
-0.03585318 0.003438473 -0.018099573 0.08031359 0.0102189 0.08200181 -0.011502895 0.014555763
0.02649586 -0.029911524 -0.05835807 -0.042476334 0.085856214 0.056796104 0.039163623 0.0905665
-0.00017151222 -0.09964373 -0.037026454 0.011340103 0.08120201 -0.007883731 0.0568787 -0.031462286
0.051380016 0.036814187 -0.004083025 0.002674403 -0.018201698 -0.10631875 -0.026753485 0.055797715
-0.08208074 0.07125859 0.069840856 0.046043858 -0.08886593 -0.005494399 -0.05042858 -0.027498249
-0.08384994 -0.017150583 -0.0073503302 -0.014990515 -0.05534286 -0.05659677 0.0875345 -0.057104513
0.01208116 0.078423746 -0.045447256 -0.102243565 -0.025727937 -0.01555303 -0.103411734 0.028124351
0.0710533 0.08571936 0.060105696 -0.0035185437 0.0034934115 -0.034302954 0.014858036 -0.06468272
0.039078183 -0.023809178 0.016180344 -0.034464 -0.09267176 0.034030315 0.08771791 0.054359525
0.0023002531 0.07134495 -0.02686525 -0.033838402 -0.08406273 -0.090827264 0.082519196 -0.010050846
-0.009956869 0.0717893 0.046580866 -0.030534135 0.026020577 0.09918468 -0.069220886 -0.0075385612
0.026416505 -0.0962445 -0.05351372 0.062529914 0.09262183 0.040187903 0.048712138 -0.046164174
-0.058446962 -0.0037470947 0.01002487 0.0426984 0.05885711 0.0200004 -0.014863038 -0.09531847
-0.0938402 0.038397044 0.036869038 0.0071182516 -0.07151121 -0.014838682 0.057017077 -0.008658276
0.00045987597 -0.041986752 0.008195905 0.045723155 -0.015106103 -0.025886513 -0.03818531 0.03802062
0.07052824 -0.043889124 0.010251593 -0.037722114 0.06597255 -0.025697043 0.08409403 -0.090972744
0.09220883 0.0974542 0.059642944 0.083159864 0.027903644 0.0003111592 -0.08080551 -0.027905317

encoder.4.bias f4 [64]
00000000: c085 a8bd 279d b5bc 5beb 033d 665f b23d
00000010: 692f a2bd 6ed8 0b3d 6765 0c3d a360 e03b
00000020: 9ede c3bd 3527 fd3c 0676 f73c 33d4 25bb
00000030: b813 51bd ee36 193d fddb 003c 7f4e 6a3d
00000040: 4562 25bc a7f1 76bc b7ec a9bd 4b6e 92bd
00000050: 9f1f 52bc 5fe8 3abd 1863 223c e87b 973d
00000060: b615 3bbd 7303 59bd ad5a acbd 9059 8d3d
00000070: 8cfb 103c 5131 e43c b36b 6ebd 2398 86bc
00000080: 1421 9ebd dde3 9b3d 02ef c5bc 1789 57bd
00000090: a478 c6bd 1c75 16bc 10a4 b6bb 4a26 7dbd
000000a0: b3b3 093d 89d2 cdbd ecab 7dbc 7f33 a03c
000000b0: b404 103d d009 be3c 536a 2cbd 0c1f 7ebd
000000c0: d0ed e13b 5db3 82bd 4a11 903d a761 34bc
000000d0: 15ae a2bd 2c65 a9bd 5578 a7bd a824 d23c
000000e0: 1e11 a63d d7ee c53c 71f6 213d 2062 7ebd
000000f0: 520c c6bd 3397 53bc 691c 75bd 3fe4 093d
-0.08228636 -0.022169663 0.032206874 0.08709602 -0.07919199 0.03414195 0.034276392 0.0068474575
-0.09563945 0.030902484 0.030207645 -0.0025303483 -0.051044196 0.0374059 0.007864949 0.057203766
-0.01009423 -0.015072263 -0.08297103 -0.07149943 -0.012824922 -0.045631763 0.009911321 0.0739668
-0.045675002 -0.052981805 -0.084157325 0.06901848 0.008849036 0.027855547 -0.05820818 -0.016429966
-0.07721153 0.07611821 -0.02416182 -0.052620973 -0.09690979 -0.0091831945 -0.005573757 -0.061804093
0.03361864 -0.10049922 -0.015482884 0.019555805 0.035160735 0.023198038 -0.042093586 -0.062041327
0.0068948045 -0.06381867 0.070345476 -0.01100961 -0.0794336 -0.0827125 -0.081772484 0.025652245
0.081087336 0.02416174 0.039541665 -0.062105298 -0.09670319 -0.012914467 -0.059841547 0.033664938

encoder.6.weight f4 [128, 64, 3, 1]
00000000: f2fa a3bc 8f62 67bd e657 123d 0d73 0a3d
00000010: 347e 5e3d 0a0a be3b c537 7f3d c542 443d
00000020: 4cbc cfbc fd43 99bc 69f1 183c 9347 8fbc
00000030: eda5 6c3d b8d6 2c3d 40c9 043d 438a 18bc
00000040: af90 db3c 8f6c 9abc 337b a827 14c8 822a
00000050: 54a5 83aa 6de6 d0bc fba5 7427 7977 f9b4
00000060: cabb 2d3c b0d8 35bd a9d1 b43c 0e17 8729
00000070: 26b3 55b8 0be0 daba 0444 3ebd c0c3 2dbd
00000080: ed2c 45bd 7c89 2bbd 93d4 b53c f5d8 8ebd
00000090: 7d53 fbbb 2b43 122e 678b dda4 f622 753b
000000a0: 48e0 263c 9c87 dc3c 5668 4abc 6968 963c
000000b0: 96a4 3e39 7d5b 743d f323 403d d859 3e3d
000000c0: 69dc 3ebd 22e4 853c 4b0c 07bd 14f6 23bc
000000d0: 197e 713d 1c71 0b3d a0f0 aea9 336c 4529
000000e0: a5ac ec27 fec8 b2bc 387d 03bb e0b5 6fbd
000000f0: 76dc 423c 06ef 4c3d d8c7 35bd bb94 a43a
00000100: 0d61 8629 7308 c4a9 8498 10a9 bdf5 1a28
00000110: 9945 fba7 637a 41bd 045b 3dbd 375f cd3a
00000120: 10a2 8bbd 4503 143d 94f2 84bd a567 aabc
00000130: f7e5 873b 21ad d3bc 9b82 cba6 1f71 8026
00000140: 593d 0a29 4708 26bc 621b 41bd 6bcd 233c
00000150: 5cdf 473d d764 6abd ab8e f4bc 8106 0a3c
00000160: 56e7 fabc 3b44 b6bb ab68 8abc 5548 1d3b
00000170: 763a 5eba bd3a 1439 6f46 39aa 091a 2828
00000180: 6ee5 92bd c564 143d 4231 733b 2923 91bb
00000190: 754f 423d db55 8fbc 2e75 e3a7 47a3 9f28
000001a0: 449e f6a7 7b9b 29bd 53bd 883c c8a6 913c
000001b0: 67ad 153d 3e7c babb 5fb2 293d 3a96 bfbb
000001c0: 1a44 94bb fb0a 96a8 d933 07bd f5b6 8e3c
000001d0: 0dd4 583d 45df 0e3d ebfd 7b3c b819 553d
000001e0: 2067 8fbd f3a7 923c ce40 8abd 13c1 d5bc
000001f0: 805e e6bb 2648 91bd 10f5 443c 0b50 66bd
00000200: 0bcd 5abd b43e b13c de40 203d dd49 b6bc
00000210: a746 2b30 af7f 9827 3884 d0a6 839f 2a3d
00000220: ac4d e0bc 51de 85bd d879 a6bc 6260 9cbc
00000230: f0ee 763d 37b5 8cbc 4fc5 7fbd e86f 2c3d
00000240: 2e98 2a28 1f36 aaae f88b b9bb 6348 9629
00000250: 3562 b832 7c6a 32a6 312b 823d 3ea5 bf3b
00000260: 50d9 273c 159b 74bc d47f b3bc f93b 6ebd
00000270: d755 e4aa 28fd f9a8 8ebd 02a7 587d 433d
00000280: bb88 033c 6b28 073d ac8a 573c f204 f03a
00000290: 2c71 35bd 4b4c 2a27 746b 68a5 ba01 86a5
000002a0: 5d23 34bd e966 7e3d 8908 78bd b22e 39bd
000002b0: 342c 38bd b672 443c 63a0 f53a 73b0 303d
000002c0: e8cc 5fbb 5cfb d6a8 255a 9ca7 bd8d 5da9
000002d0: d071 bc3b 3272 49bc 5498 6abc 7372 e429
000002e0: 1dc1 05a2 8c3b 40a9 2af4 9bbc 86a5 10bd
000002f0: 1ccb d9b9 6384 82bb 822f bc3c 7a28 1e3d
00000300: 97a7 5c3c 7b1b 6abd 9c51 d3b8 6b29 24bc
00000310: 5df3 453d f418 703c 0fd3 c3bc abfc 37bd
00000320: b53f 8ebd 9351 07bd 63f9 7bbd c944 4c3d
00000330: ba7d 8b3d 45f3 873d b559 2fbd 080c 54bd
00000340: 03c7 463d bcbc 68bd bc9a 2139 7d3e ccb9
00000350: e86e 0f39 256c 8abc 8a0f d1bc 0275 8cbc
00000360: b71b 513d 4e2b 88bd 5858 5c3d dd82 5bbc
00000370: 49fb 1fbc 5bcf 09bc b9ce a53c e295 81bd
00000380: 76d9 2fbd 7cb1 09bd 90ed 52bd 7f62 a13b
00000390: 4666 85bc e52a 803b b598 1abd f40c 7f3d
000003a0: ad13 303d cbe9 723d 4d6b 803d 94fd 7b3c
000003b0: 7381 383d 8bea 04bd fc67 15ba 68eb a7bc
000003c0: 0a27 14bd 6d10 d5bc ce1f 443c 3173 95bc
000003d0: 7a3d 243d b5f4 8cbd 5923 8636 9fe3 893b
000003e0: af8f 583a 57cc 563c 7e63 23bd 4e54 4cbd
000003f0: 4088 d73b 7919 393d aa07 c4bc 349d 42bc
-0.020017121 -0.056490477 0.035728358 0.033801127 0.054319575 0.0057995366 0.062309045 0.04791524
-0.025358342 -0.018709177 0.0093349 -0.017490184 0.057775427 0.04219696 0.03241849 -0.009310308
0.026802389 -0.018850593 4.676294e-15 2.323147e-13 -2.3384994e-13 -0.0255005 3.395178e-15 -4.6466792e-07
0.010603854 -0.044396102 0.02207263 5.999204e-14 -5.0950002e-05 -0.001669885 -0.046451584 -0.04242301
-0.048138548 -0.041879162 0.02219609 -0.06974975 -0.0076698647 3.3256214e-11 -9.607963e-17 0.0037404872
0.010185309 0.026920132 -0.012353977 0.018360334 0.00018181125 0.059657563 0.046909284 0.0464724
-0.04659692 0.016344134 -0.032970708 -0.0100074 0.058958147 0.034043416 -7.768894e-14 4.3836635e-14
6.569034e-15 -0.021824356 -0.002006365 -0.05852306 0.011893382 0.050032638 -0.04438004 0.0012556532
5.967631e-14 -8.705614e-14 -3.210671e-14 8.602003e-15 -6.9741953e-15 -0.047235858 -0.046229377 0.0015668635
-0.0681802 0.03613593 -0.064915806 -0.020801375 0.004147287 -0.02583939 -1.4121355e-15 8.912446e-16
3.0695366e-14 -0.010133809 -0.047145255 0.009997706 0.048796996 -0.057225075 -0.029853186 0.008424402
-0.030627888 -0.005562333 -0.016895613 0.0023999412 -0.0008477339 0.00014136262 -1.6455737e-13 9.331519e-15
-0.071726665 0.036228914 0.0037108217 -0.0044292402 0.047439057 -0.017496994 -6.3132203e-15 1.7723356e-14
-6.845031e-15 -0.041408043 0.01669184 0.017779723 0.036542322 -0.0056910804 0.041429874 -0.005846766
-0.00452472 -1.6658107e-14 -0.03300843 0.017421225 0.052936602 0.034880895 0.015380363 0.05202648
-0.070020914 0.01790235 -0.06750642 -0.026093042 -0.0070303082 -0.07093839 0.012021318 -0.05622868
-0.0534182 0.021636344 0.039124362 -0.022252018 6.230984e-10 4.232691e-15 -1.4468737e-15 0.04165603
-0.027380787 -0.06536544 -0.020321772 -0.019088928 0.060286462 -0.017176254 -0.062444028 0.04209891
9.469894e-15 -7.740319e-11 -0.0056624375 6.673895e-14 2.1465079e-08 -6.190047e-16 0.06355894 0.005848556
0.010244682 -0.014929553 -0.02191154 -0.058162663 -4.05605e-13 -2.7754342e-14 -1.8143882e-15 0.04772696
0.008028205 0.03299753 0.013155621 0.0018312021 -0.044297382 2.3633598e-15 -2.0159199e-16 -2.3246465e-16
-0.043979038 0.06210986 -0.060555015 -0.045210548 -0.04496403 0.01199024 0.0018739816 0.043137025
-0.0034149233 -2.3867782e-14 -4.3396433e-15 -4.9194796e-14 0.005750872 -0.012295293 -0.014318544 1.0145088e-13
-1.8127094e-18 -4.2684213e-14 -0.019037325 -0.035314105 -0.00041540794 -0.003983067 0.022971872 0.03861282
0.013467691 -0.057155114 -0.00010076465 -0.01001964 0.048327792 0.014654387 -0.023904352 -0.044918697
-0.06945745 -0.03303678 -0.06151713 0.049870286 0.0681109 0.06638197 -0.04281016 -0.051769286
0.048529636 -0.056820616 0.000154118 -0.0003895647 0.00013678859 -0.01689727 -0.025520105 -0.017145637
0.05105182 -0.06648885 0.05379519 -0.013397899 -0.009764501 -0.008411254 0.020240175 -0.06327416
-0.042931996 -0.033616528 -0.05149609 0.0049250717 -0.01628412 0.0039113634 -0.03774329 0.062268212
0.042987514 0.059304994 0.06270466 0.015380282 0.045045327 -0.03245024 -0.0005699394 -0.020497993
-0.036170043 -0.026008809 0.011970473 -0.018243404 0.04009769 -0.06882612 3.997626e-06 0.0042080428
0.00082611566 0.013110242 -0.039889805 -0.049885087 0.0065775216 0.04519031 -0.023929436 -0.0118783

encoder.6.bias f4 [128]
00000000: d23a 97bd e431 cfbb 356c 603d 5fe9 97bd
00000010: 5cc1 bdbc 93c2 173c 1e1b efbc 896b 41bd
00000020: 0095 25bd dc03 1abc 9c19 7d3d 2ce2 5ebd
00000030: 51d7 09b8 5c2d 713d ac58 f6bc 0f7a ee3c
00000040: 797e 6d3d 1c9c 773d 9b04 ae3c e226 51bc
00000050: 3cb8 65bd 750e 45bd 8740 6fbc 8850 08bd
00000060: 4d25 80bc 99ad db3c d7e0 543d 5a63 c23b
00000070: 9dab 4ebc d5a4 11ba 7754 b3bc 55b4 4c3d
00000080: ef5d 31bb f89b 93bd a66d 80bd 8c53 0a3d
00000090: 514f 19bc 73fe 36bd d8af e83c 742e 973b
000000a0: 8350 b9bb a0cd 663d d84f 813d 415f 23bd
000000b0: 28ce 113d 0748 513d 9ba7 be3b 5c58 42bc
000000c0: 1b05 013d 737b 15bd f180 3cbd b714 b8bc
000000d0: 0629 25bd 13ad 6fbd 0a57 45bc 285c 3abd
000000e0: 4b41 073d 06b4 6dbc d835 1f3d 12c7 583d
000000f0: ab92 71bc 1013 4c3d 11a9 a03c b0cb 66bd
00000100: 4d95 75bd 7440 913d fa0c a63c 4e3f 52bc
00000110: a165 a9bc 0777 05bc fb02 d1b5 349a 5c3d
00000120: dcc4 69bc e21b 4abd 9bd7 513d 75bc 6f3d
00000130: 4e34 7dbb 5120 60bc 6fe0 43bc b9aa 0d3d
00000140: 3567 373d 9921 153d 6c75 95bd 7b18 11bd
00000150: b4d5 67bd cd9c 413d f851 963b 9529 403d
00000160: 9d5b 9e3c 2f53 95bc e8bd d2bc 804e 513c
00000170: c316 1a3d 07ff fe3c 7754 bfbb 98c7 4d3c
00000180: 09f9 533d 76ab 3bbc b666 453d 7fe0 73ba
00000190: 1b6c 11ba 0e77 273d 15ff 8cbd 444c e0bc
000001a0: 1663 953c 594b 5bbd b27b 283a 0872 32bb
000001b0: a37a 433d 930d 8ebc 83c2 e0bb 13dd 63bc
000001c0: 0444 fb3c bcfd 913b fe47 1fbc 19e6 3a3b
000001d0: 070a a53b 9f77 913b 239b 003d f505 77bb
000001e0: 4020 283d 3a9c 7fbc 90f0 373d ba32 763d
000001f0: 96b1 f73c 95b0 8f3d 5d1a 36bd 3db5 76bd
-0.07384266 -0.006323086 0.054790694 -0.07417559 -0.02316349 0.009262699 -0.029187735 -0.047221694
-0.0404253 -0.009400334 0.061792 -0.054414913 -3.2863874e-05 0.05888115 -0.030071579 0.029110936
0.05798194 0.060451612 0.02124243 -0.012765618 -0.056083903 -0.04810949 -0.014602787 -0.033279926
-0.015642786 0.026816176 0.051972236 0.005932254 -0.012614158 -0.0005555873 -0.021890862 0.049976666
-0.0027064045 -0.07207483 -0.06270914 0.033771083 -0.009357289 -0.044676255 0.028404161 0.004613692
-0.0056553497 0.056348443 0.06314057 -0.039885763 0.035596997 0.05109408 0.00581832 -0.011861887
0.03149901 -0.036494683 -0.046021406 -0.022470815 -0.040322326 -0.058514666 -0.0120446775 -0.045498043
0.033021253 -0.014508253 0.03886971 0.052924223 -0.014744441 0.049822867 0.019611867 -0.056346595
-0.059956837 0.070923716 0.02026986 -0.012832476 -0.020678343 -0.008146054 -1.5572581e-06 0.053857997
-0.014268126 -0.049342997 0.051231008 0.058529336 -0.0038635912 -0.01367958 -0.011955365 0.034586642
0.04477616 0.036408994 -0.07297787 -0.035423737 -0.056600288 0.047268678 0.004587408 0.046914656
0.019330794 -0.018228142 -0.02572532 0.0127750635 0.037619364 0.031127466 -0.0058389264 0.012559794
0.05175117 -0.011454454 0.048193656 -0.0009303167 -0.000554742 0.040885024 -0.068845905 -0.027380116
0.018235724 -0.053538654 0.00064271234 -0.0027228612 0.047724377 -0.017340457 -0.006859125 -0.013907689
0.03067208 0.0044552963 -0.009721754 0.0028518497 0.0050365957 0.004439309 0.03139795 -0.003769276
0.04104638 -0.015601212 0.044907153 0.06010697 0.030236047 0.07016102 -0.044458736 -0.060231436

encoder.8.weight f4 [256, 128, 3, 1]
00000000: 7b9e 973a e4b1 403b f6f1 c13a b8a3 2fbd
00000010: 4b67 c23c 44fb d93c fb50 16bd 6ff6 c6bc
00000020: 735d f0bc aed0 24a9 5476 94a7 ac58 05a7
00000030: cb28 8bbc cddc 5b3b 032e 623c 847e 95a8
00000040: 8535 b126 66ff cb26 8dbe 25a8 7ccc 52a9
00000050: c4ba 1429 44a3 5aa8 d589 b927 a09c b928
00000060: b38e 2ebb 75a0 ad3c 8a95 fcbb 6d15 8629
00000070: 9b19 f2a5 fa2a 1928 30df 3dbc dccc c2bc
00000080: 9fa9 0abd c6a8 3a28 effd 40a6 b786 18a6
00000090: 2ec5 a928 a8ce 8427 1430 3ea7 4d1e 753c
000000a0: e7ec ad3a ca2a 00bd a88c aa28 e765 cb28
000000b0: 008a c3a7 b4d5 423c fe38 093d f39a 603c
000000c0: 5ccf 1cbd 0694 1b3d 4d73 a33c eba6 463c
000000d0: 4426 dabc 7d45 993c 94ba 27bc 1065 8cbc
000000e0: f2cd 72bc fc8e 293d 3505 e2b9 744b 4c3c
000000f0: c550 3738 ed01 1ba8 1e7d a028 3397 7d34
00000100: 8f9f c6a8 82a9 9928 cd22 21a9 7bd4 a1a8
00000110: 1b76 c1a8 2cfc 4b3a 8b7b b8ba 1dc2 f43a
00000120: e323 b238 39c1 403a f596 46bb 95c7 5fbc
00000130: a1b4 a23b a121 2e3d 6966 1fbd 51b7 cfbc
00000140: ac44 36bd 0cac 0b3d ee7c ac3c 0bcd 8a3a
00000150: 04d3 01a9 81ad 06a7 dd12 45a9 e05b 4fbd
00000160: d399 2fbc 8a1d f83c 1bc8 0a26 fc22 7ba8
00000170: c45f 2ba7 e008 51bd 16ad b13c 5403 e8bc
00000180: 8315 8fbc 200f 15bd 05af 943b a280 9d27
00000190: c0ab 1aa9 fe2a 7db0 70d3 b6ab 72e9 f1af
000001a0: e761 2d36 3b2c 0e3d e4b5 b53c 0c71 ddbc
000001b0: f190 e8a6 7abc ac28 a85b be28 1aa7 e528
000001c0: ecdb 21a9 e718 2da8 299f f63c 3aad 66bb
000001d0: 17f3 9bbc 176e 5ea8 94e4 83a8 6cb4 65b1
000001e0: d87b 01a5 d4a5 09a8 bbec 3027 544e 263c
000001f0: ae6a 04bd dad7 4dbd 1c87 983c cb9a 1b3d
00000200: ea76 273d 5f66 74aa 4f0e 20ab 1397 b5a8
00000210: d45a 12bc 993c c33c 3284 a8bb 42f0 43ba
00000220: 8479 9e3c ea65 b8bb 54a5 b0bc 8c7f 7a3c
00000230: 859d 6cbc b083 0fbd d6e5 043d 19e1 ef3c
00000240: a612 1abd 7a0d f43c d1cb 0a3d 1197 d8bc
00000250: bd86 0b3d 46b7 053d 411d 083c b0f6 5d3b
00000260: 8d25 193b 73d2 ab27 1f6f cba5 ff5b 16a8
00000270: 96b5 40bc 26e9 fb3b de09 853b efbb c4ab
00000280: ef1b 232b 6549 b22b 3e0f 9d3b 6474 08bd
00000290: 5bbc 02bd 1929 843c 97a1 5c3b daf2 103c
000002a0: 0e1f 07ba 7d4c 07bc 3738 f13b 0722 3da8
000002b0: 9a6c eea8 b4bf 7ba9 e82e a73b 57c6 c4bc
000002c0: 74a1 093d 4eee 89bc 5ea8 81bc 5f8b 8ebc
000002d0: cf80 ab38 946e a5b6 4fc8 9436 2eb1 b1bc
000002e0: 2a64 273c 597a 0a3d be6a 71bc 206e bb3c
000002f0: b853 f63c 8a2b 6327 30c2 5f29 3ef9 1d28
00000300: 2a1b c028 3408 d7a8 69e1 8b27 24fa 58bd
00000310: e56e f53b 1eb5 9f3c 2173 5b3c 7c02 853c
00000320: 58d0 4eba adb4 a6b8 c277 77bc 2cb6 50bc
00000330: fd5d 9da8 522c 5a28 f3ee c1a8 1f04 c026
00000340: 9818 fa27 e3b4 4fa8 10d6 d027 beee 62a8
00000350: 6fac 1928 830d 88ba e19b c83c f6a5 14bd
00000360: 3ff4 15a8 4eb6 8fa8 225a 0aa8 6483 99a7
00000370: 20da aaa7 a767 13a5 b343 ca3b 868d 053d
00000380: f9fc ce3c 4f80 263d c0ea a9bb 95d4 9fbb
00000390: f4be be37 2d18 50b8 78c7 9fb9 39e9 0cbb
000003a0: 7e9c d8bc 33eb c2bb a46e 74bc 8413 0abc
000003b0: 8094 2e3d 44d3 e73c d8cc 923b df77 edbc
000003c0: ec7e febc 1da0 87ba 9dc8 073d a92e 8bb4
000003d0: e723 d1b2 5a84 19ba 70e4 c9b7 7c3b 013b
000003e0: eb08 023a 458b 9028 6efe 16a7 ff98 c926
000003f0: 72db 98bb 0257 1a3d db32 98bc 7003 94bc
0.0011567617 0.0029402906 0.0014796841 -0.042880744 0.023730895 0.02660907 -0.036698323 -0.02428743
-0.029341435 -3.6596316e-14 -4.1206544e-15 -1.8505527e-15 -0.016987225 0.0033548356 0.013804915 -1.659719e-14
1.2296349e-15 1.415518e-15 -9.200659e-15 -4.680673e-14 3.3024595e-14 -1.21368336e-14 5.1497253e-15 2.0607051e-14
-0.0026635348 0.021194676 -0.007708256 5.954512e-14 -4.199766e-16 8.502525e-15 -0.011588857 -0.023779325
-0.03385317 1.0361671e-14 -6.6957526e-16 -5.2918166e-16 1.8848282e-14 3.6861417e-15 -2.639386e-15 0.014960838
0.0013269455 -0.031290807 1.8934791e-14 2.258172e-14 -5.4272992e-15 0.011891771 0.033501618 0.013708818
-0.03828369 0.037982963 0.01995244 0.012124757 -0.026629575 0.018709892 -0.010237355 -0.017138034
-0.014819609 0.041396126 -0.0004310996 0.012469161 4.3705822e-05 -8.604646e-15 1.781783e-14 2.3617467e-07
-2.2051613e-14 1.7059925e-14 -3.5779366e-14 -1.796674e-14 -2.1478524e-14 0.0007781412 -0.0014074905 0.0018673573
8.494386e-05 0.0007353011 -0.003030238 -0.013658424 0.0049653803 0.04251254 -0.038916025 -0.025355967
-0.044499084 0.034099624 0.021055665 0.0010589672 -2.882678e-14 -1.8690292e-15 -4.375915e-14 -0.05062473
-0.010717827 0.030287523 4.814956e-16 -1.3940885e-14 -2.3782932e-15 -0.051033854 0.02168898 -0.0283219
-0.017466312 -0.036391377 0.0045374655 4.3715718e-15 -3.434384e-14 -9.210196e-10 -1.2990563e-12 -4.4003517e-10
2.5835996e-06 0.03471015 0.022181459 -0.027031444 -1.613752e-15 1.9177575e-14 2.1133987e-14 2.5496576e-14
-3.5939933e-14 -9.608829e-15 0.03010519 -0.0035198466 -0.019036813 -1.23473475e-14 -1.4643052e-14 -3.3426444e-09
-1.1230926e-16 -7.640986e-15 2.4553238e-15 0.010150511 -0.0323283 -0.05025468 0.018619113 0.03798942
0.04088489 -2.170707e-13 -5.6863276e-13 -2.0160555e-14 -0.008932788 0.023832606 -0.005142712 -0.0007474461
0.019345053 -0.0056273835 -0.02156321 0.015289199 -0.014441852 -0.035037696 0.03244575 0.02928214
-0.03761544 0.029791582 0.03388578 -0.026439222 0.034064043 0.032645486 0.008307756 0.003386896
0.002336833 4.7690204e-15 -3.5290185e-16 -8.346621e-15 -0.011762043 0.0076877056 0.004060014 -1.39788e-12
5.7948e-13 1.2668032e-12 0.004793077 -0.033314124 -0.03191791 0.016132878 0.003366565 0.008846963
-0.0005154469 -0.008257982 0.0073614377 -1.0498986e-14 -2.6470406e-14 -5.5899472e-14 0.005102027 -0.024020357
0.03360124 -0.016837265 -0.015827354 -0.017400442 8.177908e-05 -4.930256e-06 4.4340627e-06 -0.021690931
0.010216752 0.033808086 -0.014734922 0.02287966 0.030069217 3.152618e-15 4.9684378e-14 8.7692965e-15
2.1328063e-14 -2.3873353e-14 3.882464e-15 -0.052972928 0.0074900263 0.019495543 0.013394148 0.016236536
-0.0007889322 -7.94915e-05 -0.015104236 -0.012738746 -1.7471262e-14 1.2111041e-14 -2.1530932e-14 1.3323793e-15
6.9415604e-15 -1.1530032e-14 5.7963684e-15 -1.2597289e-14 8.530597e-15 -0.0010380003 0.024488391 -0.036291085
-8.324124e-15 -1.5955251e-14 -7.680083e-15 -4.2608485e-15 -4.742097e-15 -1.2785336e-16 0.006172621 0.03260567
0.025267111 0.04064971 -0.005185455 -0.0048776367 2.2738684e-05 -4.961358e-05 -0.0003047546 -0.0021501316
-0.026441809 -0.005948448 -0.014918957 -0.008427504 0.04262209 0.028298981 0.0044799857 -0.028987823
-0.03106638 -0.00103474 0.033150304 -2.5924717e-07 -2.4347129e-08 -0.0005856209 -2.4067442e-05 0.0019719293
0.00049604353 1.604761e-14 -2.0954608e-15 1.3988646e-15 -0.004664832 0.037680633 -0.018578937 -0.018068045

encoder.8.bias f4 [256]
00000000: 0d02 34bd 971b bc3b 920d a73c 6521 f13b
00000010: fd5a e93c ebd4 e3bb a679 15bd cb9d f2ba
00000020: 588d 54bd 720d 72bc 8c83 4c3c 1a91 67bc
00000030: 3451 7dbc 40e4 863c 80c3 dcbc c6c4 52bc
00000040: 4088 803c 6078 dcbc 111d da3c 4297 443d
00000050: 3b88 58bc 3ae9 53bc 3e78 a43c 80e1 b33c
00000060: e8d8 3c3a 70d0 b3bb 2f84 51bc 2626 c33c
00000070: 5d05 19bd d2f5 253d 3e60 fcbc 16db 073d
00000080: 301d 2fbc 3a95 9d3c a209 083d bb3d cb3c
00000090: c7a6 ee3b ab56 e2bb 67a5 943c b453 213c
000000a0: 558e cdbc 8c75 12b9 6090 b9bb 0924 553c
000000b0: a61a f93c fdee 1d3d 47a1 b2bc ce32 febc
000000c0: 3487 ccbc b980 bd3c 0873 1c3d 36cd 80bc
000000d0: fa8f 57bb 11c7 c73c c4e7 19bd 71c9 9c3c
000000e0: 61d9 6ebc 9dea b0bc 6d39 213d aa84 61bb
000000f0: e037 5dbd fcc2 05bc 77f0 2abd 1acf 913c
00000100: 480d 173d 91a3 303d 3a6d 81ba f1e1 1f3d
00000110: 8cec 82bc 06e1 18bd 8f8c a23c 3f11 4cbc
00000120: 6e46 35bc 31c1 dabc 9d90 53bc bddc f1bb
00000130: 6909 863c 3ee4 f63a 784f 1c3c 1391 88bb
00000140: 03ca 05bd a192 863b cbc7 a8bc d87a 2c3c
00000150: 7658 903c af5f aa3c 73b5 95bc 8ac7 753c
00000160: 0257 a43c 2c37 52bc 106b 643b 600e 7c3c
00000170: 9c83 0b3d e47d d53c 6b85 eb3c 2f6f 3e3c
00000180: 374b 29b8 05a3 bb3c 7d5d 3839 5872 163d
00000190: 4b62 9abb 7706 7a3c 0190 85bc 93b5 f8bb
000001a0: bbc0 47bd 8235 263d b207 e9bc a57c 463c
000001b0: 35a4 243c 829c b4ba 8df3 0a3d 46a9 353d
000001c0: b51e 5fbc b340 e6bb 7f43 113d 265c 283d
000001d0: 7361 17bd b21e d4bc c8d3 413d 22ee 7c3c
000001e0: 3fd4 3bbc bbb5 c03c d5fb a5bc 3ce7 51bd
000001f0: bffa 54bc 39cb b03b c385 35bc 9679 9e3c
00000200: 3d8e d0bb 48e7 f4b4 1b6e 303c 04a9 92bc
00000210: 7344 883c 28fb c03a a67a c6bc c695 8f3c
00000220: cbc4 8dbc e846 103c 1e13 343d b9a0 90bb
00000230: ca1a 073d d7ac 313d f5b4 d3b8 cca9 c8bb
00000240: 2c9d 183c c46a 8e3c c92e f6bc 2db4 1d3c
00000250: 1a69 e43c 26cd 5fb7 b702 4dbd 985c 43bc
00000260: a6d6 183d e150 9bbb 57e6 be3c ca86 f73b
00000270: 3e3e 73bb 0f07 09bd d32f 4cbc 8ea0 9ebc
00000280: 8fbc ee3c cfb8 af3c 0848 a53c c30c a13b
00000290: 5624 4fbd 420e f83b aac7 58bd 776f 603c
000002a0: df5e 253d be4b 2f3d 9392 983c d2a1 d53c
000002b0: b988 cbbb c1fb 11bc 18bc 083d 1a31 8bbc
000002c0: 6cd6 2ab8 bb9e 01bd 56c3 413c 4658 33bc
000002d0: 3be5 343d c6c8 55bc e550 3cb9 a829 0f3d
000002e0: e22a fab9 aca0 12bc f967 413c 3600 3cbd
000002f0: 4d90 283c b1dd 0b3d ec68 d63c 9ecd 12bc
00000300: f47d 0f3d 9bad 15b5 01d8 95bb 8077 093d
00000310: 27d1 00bc ca17 b3bb f1b2 a7b5 cd50 353d
00000320: 27cd e8bc d9a6 8fbc e751 2a3d e0ad 33bd
00000330: 7a92 38bd bd84 fdbc 4817 0f3c d5e6 273b
00000340: 9d33 343d 3b37 5e3c cd20 c43b d38a e9ba
00000350: 7f80 1c3a 8b1b 363d 7f65 bdbb a2ab bb3b
00000360: 50e0 373c 3c98 f5bb 8f58 0c3d c56f 193c
00000370: 6b9b fa3c 2871 4bbc 42d2 d73c 9b70 81bc
00000380: 458e 063d 9748 333c cf82 68bc 28ac bebc
00000390: 6af3 e13c e0df 293d 0407 133d f53d 3fbb
000003a0: 2054 dbbc 52ad d63c 10db dbbc 69fb 413c
000003b0: 6c84 853c 259a 7cbc 07c8 69bb 92a1 4cbd
000003c0: 5774 61bc 3911 ba3c 4a5a 20bd 1893 873c
000003d0: a771 b63c 6494 dbbc 9226 3cbb 3212 b8bb
000003e0: 1d70 03bb 1979 103d 6fc5 4fbb 154a 183d
000003f0: af4a a8bc 4ca8 d0bc c5b8 3a3d 37f4 8abb
-0.04394727 0.0057405937 0.020392213 0.0073587173 0.02848577 -0.006952872 -0.036492966 -0.0018510161
-0.05189261 -0.014773713 0.012482535 -0.014133716 -0.015461255 0.01646626 -0.02694869 -0.012864297
0.015689969 -0.026912868 0.026625188 0.047995813 -0.013216074 -0.0129340235 0.020076867 0.021958113
0.00072039524 -0.005487494 -0.012787863 0.023821902 -0.03735863 0.040517636 -0.03080761 0.03316792
-0.010688111 0.019236196 0.03321231 0.024809709 0.007283065 -0.0069073043 0.018145276 0.009846617
-0.025092283 -0.00013967435 -0.005662963 0.01300908 0.030408215 0.038557995 -0.021805419 -0.031030085
-0.024966814 0.023132669 0.03819564 -0.015722852 -0.0032892213 0.024386914 -0.037574545 0.019139023
-0.014578194 -0.021596247 0.039361406 -0.003441135 -0.054008365 -0.008164164 -0.04173323 0.017798949
0.0368779 0.04312474 -0.0009874471 0.039033834 -0.015981935 -0.037323974 0.019842414 -0.012455284
-0.011064155 -0.026703449 -0.012912896 -0.0073810504 0.016361909 0.0018836332 0.009540431 -0.004167685
-0.032663357 0.004106835 -0.020603081 0.010527335 0.017620306 0.020797579 -0.018274998 0.015001187
0.02006102 -0.012830537 0.0034853853 0.015384287 0.03406106 0.026061006 0.028750142 0.011623188
-4.036279e-05 0.022904882 0.00017582435 0.03673014 -0.0047114245 0.01526033 -0.016304018 -0.0075900047
-0.048767786 0.040578373 -0.028446052 0.0121146785 0.010048916 -0.0013779553 0.033923674 0.044350885
-0.013618161 -0.0070267557 0.03546476 0.041103505 -0.03695817 -0.025893543 0.04732111 0.015437635
-0.011464178 0.023524156 -0.020261684 -0.051245913 -0.012999236 0.00539532 -0.011079255 0.019345086
-0.0063646124 -4.561682e-07 0.010768439 -0.017902859 0.016634202 0.0014723288 -0.024228405 0.017527472
-0.017305752 0.008805968 0.043963544 -0.004413691 0.032984532 0.043377724 -0.0001009497 -0.006123757
0.009314816 0.017384894 -0.030051606 0.009625477 0.027882148 -1.3339601e-05 -0.050051417 -0.011923932
0.03731408 -0.004739866 0.023303194 0.00755391 -0.0037115957 -0.033453997 -0.012462574 -0.019363668
0.029142646 0.021450428 0.020175949 0.0049148514 -0.050571762 0.007570059 -0.05292479 0.01369845
0.04037368 0.042796843 0.01862458 0.026078139 -0.006211367 -0.00891012 0.033382505 -0.016991187
-4.0730854e-05 -0.031645518 0.011826357 -0.010946339 0.044163924 -0.013048356 -0.00017959213 0.034951836
-0.00047715666 -0.00894944 0.011804574 -0.04589864 0.01028831 0.03414697 0.026173078 -0.008960156
0.035032228 -5.5759455e-07 -0.004572869 0.03356123 -0.007862366 -0.0054654824 -1.2494548e-06 0.04426651
-0.028418137 -0.017535614 0.041582014 -0.043866992 -0.045061566 -0.030947084 0.008733578 0.0025619764
0.043994535 0.013562973 0.0059853555 -0.0017817862 0.0005970075 0.04445986 -0.0057799215 0.0057272473
0.011222914 -0.0074949544 0.034264144 0.009365027 0.030591687 -0.012417115 0.026345376 -0.015800765
0.032850523 0.0109426 -0.014191343 -0.02327545 0.02758189 0.04147327 0.035895362 -0.0029181216
-0.026773512 0.026205692 -0.026837856 0.011839726 0.016298495 -0.01541761 -0.0035672204 -0.049958773
-0.013760648 0.02271329 -0.039148606 0.016549632 0.02227099 -0.026804157 -0.0028709513 -0.0056174034
-0.0020055838 0.035271738 -0.0031703373 0.037180025 -0.020543424 -0.025470875 0.045586366 -0.0042405385

conv_mean.weight f4 [20, 256, 3, 1]
00000000: 06ce fe3b 9603 0dbd e91e 65bc df49 813c
00000010: 0ea2 a8bc 6394 38bc fe22 6cbc c81b 92b9
00000020: d3fc 8abc 0710 2bbb 0a4e 163c f2ef 6cbc
00000030: c834 1cbd cfec 903c 7c03 ecbc a737 dd3c
00000040: 89ac 063d b15a bdbc 98f5 cbbc 5b23 bfba
00000050: 3a11 09bd e667 af3b 6970 fc3a 5659 57bc
00000060: fe38 9439 65ee ab3a 8981 35bb 3cc1 c13c
00000070: 86ad fc3a c6fa 82bc 8baa e63b 65aa a1bc
00000080: ddd3 813c 3bb1 47bb 6496 093b 7ac9 f339
00000090: 3e90 f3bb ca44 233c 04a9 e7bb 6c04 713c
000000a0: 5d09 573c cd9f adbb bb27 893c fb78 12bc
000000b0: 68ec f92a 3b3f da3c 3430 1f3d e491 d5bc
000000c0: 5917 a13b b8a6 aa3b 251e a93c bd21 be3c
000000d0: 0123 c2bb 7093 e53c 52d3 bd3c 0636 cabc
000000e0: 0803 10bd 4e0f 203c 4a8c 05bd 7aec dcbc
000000f0: f5b7 0b3c afd9 81bb 62b6 12bb 42bb c0bb
00000100: a37e 7b3a 828b 14bc 9cd7 733b d5ad 17bd
00000110: 271f c6bc 343d fdbb 3dd2 d53c 994b 633b
00000120: 17e8 f93a 8ca5 0f3c e31d f8bc 1521 4426
00000130: dd42 83a8 cff6 dfa8 5edc acbc e6d6 dd3b
00000140: 6bf8 07bd d9e2 5dbb 28cb 00bc 9a3d 5abc
00000150: 5e69 7e39 9475 383b ae76 a0bc baac 53bc
00000160: db64 ea3b 48aa 933b 55ba 8cbc 97c3 9f3c
00000170: 68db a9bc 2207 a63c cf16 d33c f718 27bb
00000180: ce69 3f3c 0c63 383c 8165 353c 4b9f c0bc
00000190: 8e3a 32bb 8138 183c bdc2 393c eec2 9ebc
000001a0: 9d14 92bc 8951 1d3b 667e 273c e59a 963c
000001b0: 431f a2bb 8b60 20bc 1e31 1b3c feb6 37bb
000001c0: 189b 24bc 7f56 043d 1813 20bb 3da3 e2bc
000001d0: 05fc 933b f627 c9bc 651a dd3b 197e 163c
000001e0: 6de8 ddbb 8211 30bc 2d9a 863c f179 d9bc
000001f0: 10ae 6b3c 1070 8d3b b4f0 0dbc d955 62bc
00000200: 0c65 1fbc 6e5b 5b3c 4aa2 20bc 4e99 babc
00000210: 8141 b63c 67a8 4e3b 1dd1 f5bc 4bae e63c
00000220: 7543 82bc bc0c 9d3b 1724 b23b b58e af3c
00000230: ef0a 7b3c df8e 8e28 9642 b228 5623 8427
00000240: f5d0 1327 0d4b 75a8 3eda aba8 f840 a0bc
00000250: af84 63bc 97a7 e2bc b2ab 153c 7488 03bd
00000260: 2171 94bc 6a34 10bd 01dc 10bd b8a9 773c
00000270: 666d 72b9 03b2 f53c f563 62bc 37d6 863c
00000280: ecfb 23bd 0f92 09bd ef57 21bd c02e 8e3c
00000290: 7d10 17bc 6b33 623b 1518 2bbc f4f1 413c
000002a0: ab5e c9a8 7169 9f27 3760 46a8 d3ed 4326
000002b0: 83bf d6a8 fe4a 2429 5d0d 69bc e667 feba
000002c0: 2843 f5bb 1e8e a6bc fd06 20bd b542 0fba
000002d0: 4199 0a3b d5d1 44bc 62be 0abc b7bd f43a
000002e0: 5c09 543b ca38 903b cbe4 b0bc 2e2c 81bc
000002f0: b54a f43c 15ab e3bb 816e 1abb d0e0 16bb
00000300: 7559 013c c739 15b9 41e5 ffbc b7f1 c33c
00000310: bb45 bb3b 8f4b 8abc 8071 2c28 d191 ba27
00000320: 6660 1a27 5d0d bebb 673c 223c bf42 a53c
00000330: 54e1 1ebc dd39 21bc 251f 22bc 288a 22bc
00000340: 004d 36bc 7bd5 b3bc d00b 25bc 88db 0abb
00000350: e1b0 f7bc 9813 c8bc 217d aa3c 0818 e6bc
00000360: 84b6 7e3c 4a05 a23c 2364 00bd 72ae 9227
00000370: c142 6d28 70c5 85a8 bc49 233c 0665 cbbc
00000380: 7cc9 ce3c 131f 663c d547 d83c 00a5 be3c
00000390: de8a c33c ce95 343c dd03 dbbc 8bfe 6f3c
000003a0: 3d9b 933c 2ee4 3ebb bf1e d3bb 5c3b 82bb
000003b0: 12cb 083b 6d1f 28bc dff9 f0bb 47ec e4bb
000003c0: 27c1 843a a084 703b 1f08 293a b9f9 9fbc
000003d0: 3e2f 833b 476d 233b e7d0 f5bb 4808 acbc
000003e0: 4e06 803c e874 153a 5fa1 c4bc 55c0 d4bc
000003f0: 1e65 a9bb c9b7 d43b ccfd 9cbc a709 cd3c
0.0077760248 -0.034427248 -0.01398442 0.015782295 -0.020585086 -0.011265847 -0.01441264 -0.0002786799
-0.01696626 -0.0026102082 0.009173879 -0.014461504 -0.038136274 0.017691044 -0.028810255 0.027004076
0.032879386 -0.023114534 -0.024897382 -0.001458268 -0.033463694 0.005352962 0.0019259575 -0.013143858
0.00028271222 0.0013117312 -0.0027695617 0.023651712 0.0019277788 -0.015988719 0.0070393733 -0.01973457
0.015848095 -0.0030470628 0.002099418 0.00046498684 -0.0074329665 0.009965131 -0.007069709 0.014710527
0.013124791 -0.0052985908 0.016742578 -0.008939977 4.4395325e-13 0.026641479 0.03886433 -0.026070543
0.0049161133 0.0052078627 0.020644257 0.023209447 -0.005924583 0.028024405 0.023172054 -0.024683964
-0.03515914 0.009769274 -0.032604493 -0.02696823 0.0085277455 -0.0039627175 -0.002238654 -0.005881698
0.00095937605 -0.009066464 0.003720737 -0.037031014 -0.024184776 -0.0077282432 0.026101226 0.003468251
0.001906636 0.008767497 -0.030287689 6.8045995e-16 -1.4572919e-14 -2.486501e-14 -0.021101173 0.0067700027
-0.033195894 -0.0033857136 -0.007860936 -0.013320351 0.0002426258 0.0028146254 -0.01958784 -0.012919599
0.007153136 0.004506383 -0.017178694 0.019502444 -0.020734504 0.020267073 0.025767712 -0.0025497058
0.011682941 0.011254083 0.011071564 -0.023513457 -0.0027195546 0.009290815 0.011337933 -0.01938006
-0.017832095 0.0024004898 0.010223007 0.018384406 -0.0049475743 -0.009788643 0.00947216 -0.0028032656
-0.010046743 0.03230905 -0.0024425443 -0.027665729 0.004516127 -0.024555188 0.0067475312 0.009185337
-0.006772092 -0.010746362 0.016430939 -0.026547404 0.014384761 0.0043163374 -0.008663345 -0.013814413
-0.009728681 0.013388498 -0.009804318 -0.02277818 0.022248032 0.003153348 -0.03000694 0.028159281
-0.015901307 0.004792778 0.005436431 0.021430353 0.015322431 1.5827127e-14 1.9790847e-14 3.667567e-15
2.0513624e-15 -1.3616506e-14 -1.9079461e-14 -0.01956223 -0.013886615 -0.027667804 0.009135174 -0.032112554
-0.01812035 -0.035206236 -0.035366062 0.015116148 -0.00023119673 0.02999211 -0.013817777 0.016459567
-0.040035173 -0.033586558 -0.0393905 0.017356277 -0.00922024 0.003451551 -0.010442753 0.011837471
-2.2356538e-14 4.4245685e-15 -1.1012071e-14 6.797653e-16 -2.3841828e-14 3.648036e-14 -0.014224377 -0.0019409626
-0.0074848123 -0.020331439 -0.039069165 -0.0005464957 0.0021148475 -0.0120129185 -0.008468242 0.0018672262
0.0032354211 0.004401301 -0.021593472 -0.015768137 0.02982078 -0.006947885 -0.00235644 -0.0023022182
0.007894863 -0.00014231271 -0.031237246 0.02391897 0.0057150996 -0.016881732 9.572529e-15 5.1783465e-15
2.142405e-15 -0.005799933 0.009902096 0.020173429 -0.009697277 -0.009840456 -0.009895121 -0.009920634
-0.011126757 -0.021952381 -0.010073617 -0.002118798 -0.03023571 -0.024423406 0.02081162 -0.02808763
0.015546445 0.019777913 -0.031345498 4.0712274e-15 1.3170618e-14 -1.4851591e-14 0.00996631 -0.024828445
0.02524256 0.014045495 0.02640144 0.023272038 0.023869928 0.011022044 -0.02673524 0.01464809
0.01801836 -0.0029127705 -0.006442874 -0.0039743613 0.0020872992 -0.010261399 -0.0073540057 -0.0069861743
0.0010128365 0.0036700144 0.00064480485 -0.019528257 0.0040034344 0.002493696 -0.0075017097 -0.021000043
0.015628006 0.00057013193 -0.024002729 -0.025970617 -0.005169525 0.0064916355 -0.019163989 0.025029017

conv_mean.bias f4 [20]
00000000: cf3e 85bb 0330 e23c 39b3 d83c f8a6 933c
00000010: 1329 a6bc 5351 c43c 9165 d03c daa9 ebbc
00000020: 734f 013c 960d a23c 361c f73c 46fc cabb
00000030: 90eb c7bc aaa0 e43c 1147 583c 5275 813b
00000040: cf1c a73c 31a8 85bc a5fa bf3c 763f c13c
-0.0040663253 0.027610784 0.026452648 0.018023953 -0.020283258 0.02396456 0.025439056 -0.028767515
0.007892477 0.019781869 0.03016482 -0.006194624 -0.024404317 0.027908642 0.013200537 0.0039507532
0.02039948 -0.016315551 0.023434946 0.02358983
