VAE-LSTM-anomaly–detection/experiments/Collected_data/nosein_noseout_9-grid_search-0414/Collected_data-nosein_noseout_9-win_len1000-look_back4-codesize20-VAEunits256-LSTMunits128/checkpoint/vae_best_model.pth (torch, 704594 bytes, 24 tensors)

encoder.0.weight f4 [16, 3, 3, 1]
00000000: 7728 83be 7b87 a9bd 2fc6 c7bd 81d7 a0bb
00000010: 25b3 7cbe 43d9 a13e a6dd c23c 9d9d 23be
00000020: 37bc a3bd 1d7e 85bd 9609 0bbe ef8b d7bd
00000030: a0c4 413e ca57 783e 50f2 543e 98db 6d3e
00000040: 511d a33e 348f 543b c006 843e 9e1e 8bbe
00000050: 6cb5 a1be 0b03 493e 1b10 2c3d a087 8e3e
00000060: fabb 173e db93 14be 084d a1be 9833 fbbc
00000070: 70cd 303e f578 36bd 5073 903e 4962 46be
00000080: 4ef7 503e 509b 2ebe 092e eabd 9271 9cbd
00000090: 47a4 593e 9cd4 a33e 3ca9 543e 5516 28bd
000000a0: 1cb5 b23d 358b 1c3d b6d4 3ebe 7b92 9b3e
000000b0: 25d3 a1bd a6ac 84be f617 b13e 59a1 97be
000000c0: 8b55 69bd fe53 5cbe 57ef a0be 9032 073e
000000d0: edc3 183e d67f 193e 4a00 4d3d d2d1 43be
000000e0: addc 973e adab a4be 6e7d d33d 6740 2dbe
000000f0: d1e7 863d c231 a3be f2ff 7e3e 385b 2abe
00000100: 3f0f e1bd 81ea c93d 5919 68be 45c1 5cbc
00000110: bf40 8bbe 14a3 9a3e bfe1 c03d 3be9 87be
00000120: 783f 243d 6c59 ee3d 17fe 95be 845c 3fbe
00000130: 6cdb 4d3d 8662 8e3e b37d 72be 4247 8d3d
00000140: 0c0f f3bd 8e4a f9bd f07b 1cbc 206d 56bd
00000150: 4bed f2bd 5434 7a3e 78bb 5ebe 5035 483e
00000160: 54bb 93bb 33e8 773e d9e9 bdbc 5b7b 8bbe
00000170: 5afb f7bd fd0b c7bd a0a9 723e 54a2 933e
00000180: 5645 92be dfed 1c3c ae1f 94be 4362 7b3e
00000190: 4850 2dbb abac 383e 4d2e 983d d342 b9bd
000001a0: d72a 3c3c 7818 343e 2610 92bd ba36 e13d
000001b0: ec0f 663d 357b a7be d734 a63e 6923 d93d
000001c0: b1d8 173e 1065 00be 8887 973e c0db 60bd
000001d0: 792e 23be 107c 993d 15ce 883e f1c1 883e
000001e0: 2b1e 5e3e 62cd 94be d80d 773e 6bb1 a1bc
000001f0: 9cd0 4d3d 65d9 3f3d ed3a 703e ac6f 963e
00000200: bfc7 07be c524 293e dcf3 6f3e 739c 23bd
00000210: ee4f c53c a1d1 8c3d b5a2 80be 102e 103e
00000220: 8fb0 7c3e 0e39 8ebe 0ca9 8bbe db41 3ebe
00000230: 7d5d 893e 59d7 95bd c3e8 f33c 0fc1 823b
-0.2561681 -0.08277794 -0.097545974 -0.0049085026 -0.24677713 0.3161107 0.02378733 -0.15978093
-0.079948835 -0.06518195 -0.13577875 -0.10524737 0.18922663 0.24252239 0.2079556 0.232283
0.31858304 0.0032433989 0.257864 -0.27171797 -0.31583726 0.19630067 0.042007547 0.2783785
0.14817801 -0.14509527 -0.31504083 -0.03066425 0.17265868 -0.044548947 0.28212976 -0.1937343
0.20406839 -0.17051435 -0.11434562 -0.07638849 0.21254073 0.31998146 0.20767683 -0.041036922
0.0872595 0.038218696 -0.1863583 0.30385193 -0.07901601 -0.2591297 0.34588593 -0.29615286
-0.056966346 -0.21516415 -0.31432602 0.13202882 0.1491849 0.14990172 0.050049104 -0.19123009
0.2966055 -0.32162228 0.10326658 -0.16919099 0.06587184 -0.318739 0.24902323 -0.1663636
-0.10989236 0.09859181 -0.2266592 -0.013473813 -0.27197835 0.30202544 0.09418058 -0.26545128
0.04009959 0.116381496 -0.29295418 -0.18687636 0.050258085 0.27809542 -0.23680763 0.06898357
-0.11868104 -0.12172423 -0.009551033 -0.052350163 -0.11861666 0.24434024 -0.21751201 0.19551587
-0.0045084152 0.2420967 -0.023182796 -0.2724255 -0.121084884 -0.097190835 0.2369752 0.28834784
-0.28568524 0.009578197 -0.2893042 0.24549203 -0.0026445556 0.18034618 0.07430706 -0.09045949
0.011484823 0.17587459 -0.07131986 0.109967664 0.056167528 -0.32711187 0.3246219 0.10602457
0.14828755 -0.12538552 0.2959559 -0.05489707 -0.15935697 0.07494366 0.26719728 0.26710466
0.21691196 -0.29062945 0.24126375 -0.01973792 0.050247774 0.046838183 0.23459978 0.29382074
-0.13259791 0.16517933 0.23432869 -0.039944123 0.024085965 0.06875921 -0.25124136 0.14080071
0.24676727 -0.27777904 -0.2727741 -0.1857981 0.26829138 -0.07316465 0.029774075 0.0039902995

encoder.0.bias f4 [16]
00000000: 0741 283e 5290 dfbd afbb 713e 4d00 723c
00000010: c522 ed3c c4e3 6b3d f1f7 9dbe 7704 f43d
00000020: 09d7 a1bd 8e00 123e 1b1f 9cbe bb71 63bd
00000030: a982 99be 775e 91be 6cf5 203e 84bd 84bd
0.16431056 -0.10916199 0.23606752 0.0147705795 0.028947243 0.05759026 -0.30853227 0.11914914
-0.07902343 0.14258024 -0.30492482 -0.055528384 -0.29982498 -0.28392383 0.15718621 -0.0648146

encoder.2.weight f4 [32, 16, 3, 1]
00000000: 2f03 0ebd a8e6 ffbd ee05 c43d 6e85 c1bd
00000010: acaa 1dbe 170f d63c cab6 ad3d 1269 17be
00000020: 7101 f6bd f3ec e03d 5d3d c4bd 0528 bfbd
00000030: ba29 a73d 1521 c93c 9064 dd3d c7f4 553d
00000040: b9b4 0cbe 0aca c1bd c46d babc 0556 873d
00000050: cfda 1cbe f754 c7bc e62c 913d bd1f c0bd
00000060: 82ef 61bd ba35 96bd 5fd6 d1bd 717e c6bd
00000070: 30f4 4bbc 05f5 383c defe 0bbe a46a e7bd
00000080: fb8c 95bc 9790 cdbd 85c7 dabd 968d ee3d
00000090: b546 fc3d 7f92 e4bd 1717 173b cf1e 8dbb
000000a0: bfde 2d3c c5e4 dfbd d4c2 b7bd dace cc3c
000000b0: ff4a 89bd 45ac 003e df29 823d 98bf f8bd
000000c0: 1642 0f3d 219c c63d 830e d93d a12e 8a3b
000000d0: 6153 13be b944 e43d 5271 1abd 69e7 323c
000000e0: 16c9 dfbd f381 dabc d548 b83c c22c a3bd
000000f0: c465 39bd fdbc 45bd 98d6 0d3e 942d c1bc
00000100: dbf6 0f3e 722f 9cbd d235 0dbe b7b4 313d
00000110: 8526 13be afd9 9dbd e6d5 303d f840 ea3c
00000120: 4e32 d53c a9b9 0fbe 51ec 87bc 2dae 57bd
00000130: 1e8f d4bc 70cd a9bc affb bcbd 76ef a1bc
00000140: 0f17 273c d73d e53d 5292 bfbd 818a 723d
00000150: 04f6 a6bc 6f68 893d 207c c4bc a2a2 3cbb
00000160: 03dc adbd ecdd 0a3d e878 4c3d 8902 c3bd
00000170: 34d1 073e 7dc6 91bd b19d b1bd c3b5 c03d
00000180: 0bd0 1bbe 0371 93bc b2f4 1b3c 66f4 d0bc
00000190: a74e fcbc 21c8 06bc 080b dabd 7a54 713c
000001a0: 4ab8 5bbd bf36 b63d 0561 d53d c6b2 e13b
000001b0: 89ca fd3d 8795 863d eefd 19be 2bf7 febd
000001c0: f5f3 5dbc 4702 febd 4fe9 a7bb d010 42ba
000001d0: 25b1 cabb f02f 6fbd b864 04be 21fd 05be
000001e0: 9d87 d93d 61f0 023e 023c 083e 724e 97bd
000001f0: 5ef3 f93d df8a f3bd 1e24 b4bc 3d0b 06be
00000200: 01fa cfbd e3ea f3bc 9388 69bd 87f2 1abd
00000210: 2530 b8bd 7270 b7bd 2f63 49bc e764 05be
00000220: aabb 013d 5535 913d bf4e af3c f87a b63c
00000230: a7fe 48bb 85bc 0dbe 6c60 66bd fc0e 42bd
00000240: 76d6 e63c 2ac6 08bc 38cc d13d 8e66 53bd
00000250: 5e9c 793d 8834 2e3d d3a7 9abc 354d f93d
00000260: e39d b0bd 9304 29bc 850c 8d3b a153 d6bc
00000270: e80a 83bc 28f9 e93d 4d60 c9bd 1f7a bc3d
00000280: 1ec3 5fbd c917 e3bc 0b0c 013e da14 17bd
00000290: ff9d 7c3d 4090 b33c e6ce 3abc 1ecd 003e
000002a0: f384 a83d a1ee a4bd 1c2a 873d 1b99 d6bb
000002b0: 07f6 30bb ee4d 9d3d 20d5 8bbd 5697 3a3d
000002c0: 0f6d eabd dbc6 c53d 923a 81bc dd07 fdbd
000002d0: 7c7f 313b 6404 e73d ae0f 07be 4c0b 66ba
000002e0: dc1e 14ba 85a4 8abd f401 103e adb7 4b3d
000002f0: b351 10bd cfdf f33d 899c e5bd 1010 acbc
00000300: 34d6 a23c 34c3 6c3c 9a9b 69bc 0503 043b
00000310: ad40 7bbc 923d c03b 19ee 003d 82d2 ac3d
00000320: bcab 30bd d499 aa3d 2b4b 943c f63f 40bd
00000330: 8943 96bd 919b bbbc d3cf 5e3d d50b 573c
00000340: 04b8 a83c caa0 59bd 3e58 0e3d 463b 6dbd
00000350: 8302 33bb 18b5 11bc 2cea 0a3c 1d8f bebd
00000360: 5a79 353d 5edf 24bd 377e f43d 7b60 54bc
00000370: 483f 313d 7de1 be3c df9c 0f3d bfdb 9dbd
00000380: 3dcc 9dbd 6aa1 0f3d b33d d0bd 888f 1cbc
00000390: 416d c63d 01bb a73c defb d73d 9f47 cebd
000003a0: c317 1abd 512b 1cbd 6cc3 f03c ee9b 00be
000003b0: dd05 0b3d 0251 743d 3b6c 3a3d 3bd8 963d
000003c0: 7580 02be 2637 94bb 87a6 2b3d 99b7 4cbd
000003d0: f086 92bd 9f1a 6fbd 9343 a7bd 60bb 133e
000003e0: 8ae5 883d 9003 da3b fc4c 463d 4e11 f13d
000003f0: ad9c d33d df9d 72bd b302 bdbd 222a abbd
-0.034671005 -0.12495166 0.095714435 -0.09449278 -0.15397137 0.026130242 0.0848213 -0.14786175
-0.12011994 0.109826945 -0.095820166 -0.09333805 0.081622556 0.024551908 0.108101964 0.05223539
-0.13740815 -0.09462364 -0.022757418 0.06608204 -0.15317844 -0.024332507 0.07088642 -0.093810536
-0.055160053 -0.07334466 -0.10245966 -0.096920855 -0.012448356 0.011288886 -0.13671443 -0.11299637
-0.018255701 -0.10037344 -0.106825866 0.11648099 0.12318174 -0.111607544 0.0023054534 -0.004306651
0.010612189 -0.10932306 -0.089727074 0.025000978 -0.067037575 0.12565716 0.063556425 -0.121459186
0.034975134 0.09697748 0.10598471 0.0042169844 -0.14387275 0.1114592 -0.037705727 0.01091943
-0.10927026 -0.026673293 0.022495667 -0.07967521 -0.045263067 -0.048275936 0.13851392 -0.023581304
0.14059012 -0.07626237 -0.13790062 0.043385234 -0.14370163 -0.077075355 0.04317274 0.028595433
0.026024964 -0.14035667 -0.016592177 -0.05265634 -0.02594715 -0.020727843 -0.09227692 -0.019767504
0.010198369 0.11193436 -0.0935408 0.05921412 -0.020380981 0.06709372 -0.023984969 -0.002878346
-0.084892295 0.033903047 0.049919993 -0.09521968 0.13263398 -0.07117937 -0.086726554 0.09409668
-0.15216081 -0.017998224 0.009518789 -0.025507163 -0.030799223 -0.008226425 -0.10646635 0.014729613
-0.05364255 0.08897161 0.10418896 0.0068877665 0.12392146 0.06571489 -0.15038273 -0.12449487
-0.013546933 -0.12402778 -0.005124248 -0.0007403018 -0.006185668 -0.058395326 -0.12929046 -0.13084842
0.10621569 0.1278701 0.13304141 -0.07388009 0.12204622 -0.11891722 -0.021989878 -0.13090225
-0.10155106 -0.029775089 -0.057015013 -0.03782895 -0.08993558 -0.08956994 -0.012291714 -0.13026772
0.03167311 0.070902504 0.021399854 0.022275433 -0.0030669363 -0.13841446 -0.0562443 -0.04737757
0.028178435 -0.008348027 0.1024403 -0.051611476 0.06094014 0.042530566 -0.018878853 0.12172929
-0.086238645 -0.010316032 0.004304471 -0.026162924 -0.015996411 0.11424476 -0.09832821 0.0920298
-0.054629438 -0.027721303 0.1260225 -0.03688512 0.061674114 0.02191937 -0.0114018675 0.12578246
0.08228483 -0.08053327 0.065998286 -0.0065490133 -0.0027002112 0.076808795 -0.0682776 0.04555448
-0.114465825 0.09657069 -0.015774999 -0.123550154 0.0027084043 0.11280134 -0.13189575 -0.0008775487
-0.00056503504 -0.06769661 0.14063245 0.049735714 -0.035234164 0.119079225 -0.11211497 -0.021003753
0.01987753 0.014450837 -0.01425829 0.0020143401 -0.015335244 0.0058667148 0.031477068 0.08438589
-0.04313253 0.08330122 0.01810225 -0.046935998 -0.073371 -0.022901328 0.054397415 0.01312538
0.020595558 -0.053131856 0.034752123 -0.057917856 -0.002731473 -0.008893274 0.0084786825 -0.093046404
0.044305183 -0.040252082 0.11938136 -0.012962456 0.04327324 0.02330088 0.035061713 -0.07707929
-0.07704971 0.035066046 -0.10168018 -0.009555705 0.09688807 0.020474913 0.10546087 -0.100722544
-0.037620317 -0.038127247 0.02939006 -0.12559482 0.03394114 0.059647568 0.045513373 0.073654614
-0.12744315 -0.004523176 0.04190686 -0.04997978 -0.071546435 -0.058374997 -0.08167186 0.14426947
0.06684406 0.0066532567 0.04841326 0.11770879 0.10332618 -0.05923259 -0.092290305 -0.083576456

encoder.2.bias f4 [32]
00000000: efe2 bd3d 058a d8bd 0ac7 733d 5bef 903b
00000010: 692a a53d 7f54 83bd 1313 1abe d7a6 b43c
00000020: 611a 39bd 447e dbbd ca46 d8bd fd0e 10bd
00000030: c219 28b9 cc5c 783d daa2 5cbd e474 143e
00000040: 4211 adbc b086 c93d 56ff 113d eeb8 be3d
00000050: 3363 953d 42ad e43d 00bd 00be efc1 b43d
00000060: 3c25 1a3c f474 843d cf2f bdbc 374f febd
00000070: 7d65 be3d afc2 943d b427 703c b675 a23d
0.092718 -0.105732 0.05951599 0.0044230646 0.0806473 -0.06412601 -0.15046339 0.022052212
-0.045191173 -0.10717443 -0.10560377 -0.035170544 -0.00016031324 0.060635373 -0.053866245 0.14497715
-0.021126393 0.09840143 0.035643898 0.09312616 0.072943114 0.11165859 -0.12572098 0.088260524
0.009408291 0.064676195 -0.023094086 -0.12417453 0.09296701 0.072636954 0.014657903 0.07932608

encoder.4.weight f4 [64, 32, 3, 1]
00000000: bf61 0036 bab3 ccb6 7a16 8736 6b7a 8533
00000010: aaee 98b3 6064 4cb4 b7b4 7035 a541 9db4
00000020: 4299 0a36 a1ae 21bc d53e 27bc 3902 33bc
00000030: 8409 29b1 1a26 3331 ce28 bc31 8cc6 1ebc
00000040: eece 1dbc 59ba 18bc cd56 1c36 6fca 4fb6
00000050: 46ce 8634 63b6 3dbc 67a4 4cbc 6e2f 80bc
00000060: 9b4d 17bc c9a9 19bc adf7 d8bb 5d04 94b5
00000070: 8942 b534 fb52 78b5 fdcb b6bb c844 c9bb
00000080: 0fe2 04bc f041 4eb5 ebba 70b5 53fc 54b5
00000090: 9b83 ae30 d356 66b0 3334 aeae 3e50 50bc
000000a0: ec93 1ebc 6a83 22bc bb52 14b9 5532 09b9
000000b0: f3db c9b8 c8db 38bc 1ed3 43bc 1a14 45bc
000000c0: 4021 adb3 7516 0833 463e 0431 dd5d 3cbc
000000d0: 9985 27bc 1c7e 0ebc f867 2abc d9ae 1bbc
000000e0: 9a1d 24bc a05a fd32 b636 f5b3 79f6 1733
000000f0: bd05 37bc 8040 37bc 3d45 45bc a599 39bc
00000100: d5a2 39bc 8a4f 3dbc 3b42 61b7 495b 9035
00000110: 3af9 e2b5 d311 23bc 52ed 59bc f7f6 37bc
00000120: 5425 e6bb a834 02bc 137f 14bc 60e8 5fb7
00000130: a006 2e37 2bfe ac37 2c0c 30bc 5ff1 34bc
00000140: 50c9 0abc 9571 02bc cc3a edbb f8d9 03bc
00000150: 7416 0cbc 5b4b f5bb dd55 cdbb 037a 85b9
00000160: db9e dfb9 19f6 02ba 8c2e 28bc d2a9 25bc
00000170: 90d0 24bc 6049 ba35 9021 5cb5 d06c f735
00000180: cdfd 003d 03a4 823d 1271 ccbd ce07 6abd
00000190: c9e6 193c 812f 303d c431 92bd 571c 973b
000001a0: b216 8abc 6440 c23d 6669 f2bb cd3b c93c
000001b0: f6d3 9bbc 3a7c 90bc 7257 e83c d776 84bc
000001c0: 947e c1bd 8485 86bd 4e45 6e3d 4163 cdbc
000001d0: 7c9e 1d3d aea8 05bb 3d94 a9ba 375a 30bb
000001e0: ab61 f2bc 0146 b03d b4c9 5bbd 75b5 dcbb
000001f0: 1273 ba3d 8995 c8bd d4bb b0bc b562 93bd
00000200: ad6f 71bd b20b 243d b4f3 f2bc c820 443d
00000210: 880b bd2e a6e2 0131 79e6 2cb5 4b16 bc3d
00000220: 69c6 ac3d 7e35 ed3c f93a ba3c b5d2 f8bc
00000230: 26de 60bc 7a5e 8cbd fee2 433c 7101 a0b6
00000240: c55d 92bd f5bb bebd b09d 32bd b19c a3bd
00000250: 1609 6b3d deca c83d 1e60 9bbd 2536 a2bd
00000260: 5922 27bd c1c8 7abb a127 27ba 2c87 b7bc
00000270: 4250 29bd db57 913d 5fae 873d 3b70 29bd
00000280: e490 443d 271b 8f3d 46ca 0e3d a2d3 63bc
00000290: 08a9 bf3c f34a 30bd 22d9 6fbc 279b ad3d
000002a0: d03b a2bd 5dc0 27bd 6e30 ab3d d69b 273d
000002b0: 5463 6d3d e8c0 6dbd 3793 a1bd 09e5 843d
000002c0: 75ad 993c 3e74 5a3d 99f7 2bbb 832b 053c
000002d0: c3f0 c23c 0c98 61bd af4a 76bd a4ca 74bd
000002e0: da9d c7bd c434 c8bd 623b 963d c562 afbd
000002f0: 7c87 17bd f414 723d 8a23 f43c 1df0 c7bd
00000300: 6c71 9f3c 040c adbd 5bc0 5c39 cbd9 783d
00000310: 4ddb 033d 70ff 48bd 7cbc c43b 0f0e 6abc
00000320: 136e 033d 4d0c bfbb 749e 963d f620 b8bd
00000330: 024f 36bc ed57 0fbb 31e4 aeb8 a739 85bd
00000340: b0c1 9bbd 3966 6bbc bdf3 473c 31a9 b13d
00000350: 0e9d 8ebd 73af b8bd b88b d3bd 3bd1 d0bd
00000360: 335e cfbd 2420 df3c 9471 973d b657 4d37
00000370: 3d3b e1af 361b d4b7 7dfb a9bd 5c9f 59bd
00000380: d4b1 523d 5183 9abd e5f7 d13c ec1a 08bc
00000390: 00f4 cd2f 9786 a7ae 7255 6fb3 37bb 323d
000003a0: 9bcc c4bd 1311 a7bc a8e8 31bc 6773 81bc
000003b0: b7c9 3a3d 9db5 913c cf17 02bd 5ed2 bd3c
000003c0: fba4 1a3c dd47 c4bd 8d1e e83c 467b 703d
000003d0: c9bc f73c 4880 7c3d 1361 0fbd b33a 533d
000003e0: 77f2 b4bd 78db c6bc 1111 dabc 77f7 06bd
000003f0: 66bb cc3b 8dbb 9e3c f3ed 29bd 173b 8cbd
1.9130382e-06 -6.1005967e-06 4.02593e-06 6.215563e-08 -7.121464e-08 -1.9035497e-07 8.966994e-07 -2.9291292e-07
2.065281e-06 -0.009868295 -0.010207851 -0.010925823 -2.4598146e-09 2.6069586e-09 5.476159e-09 -0.009690892
-0.009631855 -0.0093217725 2.3296336e-06 -3.0963236e-06 2.510953e-07 -0.011579129 -0.012490368 -0.015647616
-0.009234811 -0.009378859 -0.006621322 -1.1028129e-06 3.3762288e-07 -9.250795e-07 -0.0055785165 -0.0061422326
-0.008110537 -7.683693e-07 -8.967897e-07 -7.9343334e-07 1.2697571e-09 -8.3796897e-10 -7.9218763e-11 -0.012714444
-0.009678822 -0.009919027 -0.000141452 -0.00013084088 -9.6253956e-05 -0.011282869 -0.01195219 -0.012028718
-8.0619884e-08 3.1685392e-08 1.9243926e-09 -0.011496988 -0.010224723 -0.008697059 -0.010400765 -0.009502136
-0.010016823 2.9494288e-08 -1.14186534e-07 3.5381593e-08 -0.011170802 -0.011184812 -0.0120404335 -0.011328136
-0.011330326 -0.011554608 -1.3426466e-05 1.0755404e-06 -1.6910847e-06 -0.00995298 -0.0133012105 -0.011228315
-0.007023493 -0.007947125 -0.0090635 -1.334594e-05 1.0372751e-05 2.0622354e-05 -0.0107450895 -0.0110438755
-0.008470848 -0.00796165 -0.007239675 -0.008047573 -0.008550275 -0.0074857897 -0.006266339 -0.00025458643
-0.0004265223 -0.0004995778 -0.010265004 -0.010111289 -0.010059491 1.3879435e-06 -8.2005226e-07 1.8434603e-06
0.031492043 0.06378939 -0.09982504 -0.05713635 0.009393402 0.043014053 -0.07138398 0.0046115327
-0.016856525 0.09484938 -0.0073978184 0.024564648 -0.01902197 -0.01763736 0.02836201 -0.016169949
-0.09447971 -0.06568435 0.058171563 -0.025071742 0.03848122 -0.002039473 -0.0012937855 -0.002690924
-0.029587587 0.08607102 -0.053659156 -0.0067354986 0.09103979 -0.097941466 -0.021573938 -0.07196561
-0.058944393 0.040050216 -0.029657222 0.047882825 8.596773e-11 1.8900805e-09 -6.4410375e-07 0.091839395
0.08436281 0.028956171 0.022733198 -0.03037391 -0.013724839 -0.068539575 0.011955975 -4.7685394e-06
-0.07146791 -0.09313194 -0.043607414 -0.07988871 0.057381712 0.09804319 -0.07586692 -0.079204835
-0.04080424 -0.0038266631 -0.00063764496 -0.022403322 -0.041336305 0.07096835 0.066250555 -0.041366797
0.04798974 0.06987601 0.03486087 -0.013905438 0.02339603 -0.043040227 -0.014639171 0.084768586
-0.079215646 -0.040954936 0.083588466 0.0409201 0.057956055 -0.058045298 -0.07889407 0.064889975
0.018759469 0.053333513 -0.002624011 0.00812805 0.023796445 -0.055076644 -0.060129818 -0.059763566
-0.09746905 -0.09775689 0.07335545 -0.08563761 -0.036994442 0.059102014 0.029802103 -0.09762595
0.019463263 -0.084495574 0.00021052493 0.06075458 0.032191563 -0.04907173 0.0060039144 -0.014285578
0.032087397 -0.005830324 0.07354441 -0.08990662 -0.011127235 -0.0021872476 -8.3394705e-05 -0.06505137
-0.07605302 -0.0143676335 0.012204108 0.08674849 -0.069635496 -0.09017839 -0.103293836 -0.101961575
-0.10125389 0.027237006 0.0739471 1.2239374e-05 -4.0969353e-10 -2.528504e-05 -0.08299921 -0.053130493
0.05143912 -0.07544578 0.0256309 -0.0083072 3.7462655e-10 -7.618189e-11 -5.5724236e-08 0.043635573
-0.09609338 -0.020393884 -0.010858692 -0.015802098 0.045602527 0.017786795 -0.031760987 0.0231716
0.0094387485 -0.09584019 0.02833488 0.058711313 0.030241387 0.061645776 -0.035004687 0.05156965
-0.08835309 -0.024274573 -0.026619466 -0.032950845 0.0062479256 0.01937654 -0.04148669 -0.06847208

encoder.4.bias f4 [64]
00000000: bb5f 55bc eea9 113d 7ec3 4dbd a731 7cbd
00000010: 60f1 773d 416d 9e3d b6fa bcbc 42d1 b9bd
00000020: a831 7ebd bb66 ae3d fced 7d3d e375 803d
00000030: 2fb1 233c 2f27 183d 4efe 87bb fd35 87bd
00000040: 29ce 65bc 7ee4 643c 8355 7cbd 98bd 2b3d
00000050: e117 8fbc 8841 0a3c c63d 93bd f017 683d
00000060: 22f1 8bbd 92f0 353d 1cef 8fbd 2381 483d
00000070: 2007 a63d 6336 c5bd b5a4 8bbb c9cb 923d
00000080: 7e21 07bd 50cc 41bd bbdd b2bd ac76 88bd
00000090: 01cc 613c 2545 dabd ce3d 833c 0e31 41bd
000000a0: 1d5d 46bd 9a29 903d 2afe 3fbd db80 233d
000000b0: 118a c93c fc7f bd3d 9a68 313c 36aa 92bd
000000c0: dd62 b63d e229 313d 4449 d7bc 18ab 57bd
000000d0: 3b33 bc3d 3472 c6bd 8ad7 653a 9665 8bbc
000000e0: 7c85 663c f15c bb3d 7289 e53c c354 533d
000000f0: 6d96 a7bc f99c 34bd dfd7 833d 8afa 8f3d
-0.013023312 0.03556245 -0.050235264 -0.06157079 0.060532928 0.07735682 -0.023068767 -0.09073116
-0.062059075 0.08515688 0.061994538 0.06272485 0.009990974 0.037146743 -0.0041501885 -0.06602094
-0.014026203 0.013970492 -0.061604988 0.041928858 -0.017467441 0.008438475 -0.07189517 0.056663454
-0.06833102 0.04441888 -0.07028028 0.04895128 0.08106828 -0.09629514 -0.004261578 0.07167775
-0.032990925 -0.04731399 -0.08733698 -0.0666326 0.0137815485 -0.106577195 0.016020682 -0.047165923
-0.048428643 0.07039185 -0.04687325 0.039917808 0.024601968 0.09252927 0.010828162 -0.071613714
0.089055754 0.043252833 -0.026280053 -0.052653402 0.09189459 -0.09689751 0.00087677746 -0.017016213
0.014069911 0.091485865 0.02801964 0.051594507 -0.02045747 -0.044095013 0.064376585 0.070302084

encoder.6.weight f4 [128, 64, 3, 1]
00000000: b289 7aaf 80f5 2830 8cb1 0331 4c72 3b31
00000010: 2724 473d 551e 853b b1f5 d230 4cdc 7a2f
00000020: ffd5 05b1 d899 4cb0 a9af aeb2 70da 7d30
00000030: 20d4 8d32 1006 c9b1 7784 a9b2 08b8 ccb0
00000040: 853c 26b2 2a07 28b2 a380 6caf 02c9 24b2
00000050: bedc 0331 f368 5eb2 ae11 6eb0 46e8 26b2
00000060: 490d 0430 35a2 de38 a743 37b1 3854 bd2f
00000070: 5c88 a1bb 1e21 6ab0 0eef 28b2 9179 c3b0
00000080: d2b5 e33c 5c68 1eb2 ee9f dfba 21c1 6ebd
00000090: 4f66 1c2f 570a 8d30 9a08 6d31 95f3 8632
000000a0: e9ca 2f3d 646a 333d 9023 fc30 97b6 6bb1
000000b0: 5c96 24b2 b8bc 2f30 63bf 7030 44cd ddaf
000000c0: 58df d6af c8b2 23bb 1941 c93c a0f5 1e31
000000d0: b4b5 ccb2 b112 6db0 8269 bb30 6c77 29b1
000000e0: 879b ccb2 f55d 8330 7231 75bb 2c26 9f2d
000000f0: a221 132f 7ec9 d531 0472 b032 09fb 6c2e
00000100: 5eb7 df31 c801 0b32 eddc 98b1 3de1 ccb2
00000110: 3fb9 322f 2710 b831 7935 0b30 b833 5db1
00000120: 1d38 68b0 476f 65b1 eb6d 1530 faa9 7f30
00000130: 003b d03b ef8f 35af ac9c b3b1 404d 6c2e
00000140: 3003 06b1 9fa6 e22f 2ebb 4db4 86be 1b3d
00000150: 2196 33b1 8087 05b9 9f51 0c2f 1370 57ae
00000160: ac3a 9830 cda2 f739 8d8d b82f 106d afb2
00000170: b5b7 1531 25f8 44b1 97cf 9630 f182 cabc
00000180: 5b69 a82f 2815 8b3b 2f7e 35bc 7daf 5930
00000190: 951c 7d2e 8abd d72c 325f 9c2e c0c1 24b2
000001a0: 769f 80bc 22ce 82b1 d77a e2b7 3176 43bd
000001b0: 274a c7af f22f 023b 7216 27ba 5aee 302d
000001c0: 9393 f8b0 a34c 1137 b284 832f b463 0dbc
000001d0: 9a4d 49bb c1c0 4f30 4ad8 45b0 e087 2ab1
000001e0: 6cee b4af 1db3 c832 fe05 a832 ae22 0bb1
000001f0: c606 29bd c2b3 09bc 9c50 742e 3971 323d
00000200: b115 8f3c b532 e9ae e67f a53a 0523 2a32
00000210: a015 98b1 f330 3cbb a0c1 043d 369a 1c31
00000220: 21ae 89bc f437 423d 2910 4aae a987 762d
00000230: 436d 9630 80e1 99b0 6b38 85bc 6da2 64bb
00000240: 9b59 582f 0e74 3e3d b9e6 853c 08a6 9f30
00000250: 18f9 2dbd 8e9c c1b1 cf6a 5a2e 16fa 2ab1
00000260: 2b50 1a3c 7879 94ae 3006 c53b 7351 962e
00000270: 4f94 e22c c343 97ba bc60 75bc 23ee 7130
00000280: c3dc 8a3c 62cd dbbc 3e39 9a30 9ae7 6c2f
00000290: b159 f23b 03e1 bd32 ac7e 33bd dbc8 d3bc
000002a0: 46e1 092e 1f0b cc2f 299d 1eaf b73f daaf
000002b0: f8b9 2cbd a15c e43c fec2 3c30 7688 dbae
000002c0: 9762 0cb0 87da 5eb0 f726 64ba 5ce8 043a
000002d0: d975 6031 1374 d8bc 092d 7bbc dcfb c830
000002e0: a4a4 313c 74ba ed3b 2524 95ad 8360 5fbc
000002f0: c7fc babc 3041 a9af 0630 cd30 be7a 672c
00000300: a682 f1bb 4141 f5bb 8119 f3bb 2d2e 8cbd
00000310: 3836 383d 59e1 143d e811 1a3c 9446 083d
00000320: fa4e f33b 6cc6 67bb 7042 4d3b f86d 0c3d
00000330: 98e2 f2bc 3604 9fbd c96e a5bc 2364 f8bc
00000340: bfff 9fbd fcce 553d 09bd 2f3c a0fa 4bbc
00000350: a0ce 383d 7860 173c 73f6 d6bb 8738 803d
00000360: 2282 8ebd a81a 763d 99ed 91bd 4f4a 92bc
00000370: 3181 44bc 2ee6 1cba a6ff 413d 0a53 24bc
00000380: bd67 a13c 2fbf 36bd b213 263d 430c 033d
00000390: 2ae0 6f3d b2b0 60bc e77e cdbc c57f 90bd
000003a0: 74c0 143d 5cd2 323c 72b2 96bd 4e4e b5bc
000003b0: 3664 eebc a70d 2abc e1aa 6ebd 8cfb 61bd
000003c0: e7e7 473b 826f 4dbd a193 7fbc 33f3 333d
000003d0: ad87 163c 1bc0 9dbb eac5 1ebd a263 823b
000003e0: 252b 9cbd b737 14bd f258 65bd 2301 77bd
000003f0: 33cf b3bc 789e 19bc 298d df3d 7807 723d
-2.2786287e-10 6.146692e-10 1.9163933e-09 2.7277052e-09 0.048618462 0.0040624538 1.5349341e-09 2.2815633e-10
-1.947569e-09 -7.4433393e-10 -2.0336147e-08 9.235128e-10 1.6511024e-08 -5.850559e-09 -1.9734427e-08 -1.4895258e-09
-9.676232e-09 -9.780516e-09 -2.1509776e-10 -9.59176e-09 1.9188486e-09 -1.2945963e-08 -8.660902e-10 -9.715285e-09
4.80402e-10 0.00010615998 -2.666846e-09 3.443874e-10 -0.0049295854 -8.5175766e-10 -9.833242e-09 -1.4222669e-09
0.02779666 -9.220539e-09 -0.0017061213 -0.05828965 1.4224465e-10 1.0262039e-09 3.4492929e-09 1.5710421e-08
0.04291812 0.043802634 1.8345521e-09 -3.430079e-09 -9.580244e-09 6.3932815e-10 8.758347e-10 -4.0345516e-10
-3.9085069e-10 -0.0024978388 0.024567174 2.3131648e-09 -2.3831355e-08 -8.624666e-10 1.3636028e-09 -2.466062e-09
-2.3819451e-08 9.558209e-10 -0.0037413505 1.8093159e-11 1.3381521e-10 6.222023e-09 2.0540945e-08 5.388315e-11
6.5110006e-09 8.09127e-09 -4.4488986e-09 -2.3851152e-08 1.6254818e-10 5.356941e-09 5.0643895e-10 -3.2189131e-09
-8.448085e-10 -3.338714e-09 5.4362087e-10 9.301001e-10 0.0063546896 -1.651299e-10 -5.227397e-09 5.37288e-11
-1.9501378e-09 4.1227552e-10 -1.9160208e-07 0.038023494 -2.6133267e-09 -0.00012734346 1.2761923e-10 -4.8984882e-11
1.1076131e-09 0.00047232807 3.3569983e-10 -2.0422277e-08 2.178678e-09 -2.8662808e-09 1.0972937e-09 -0.02472064
3.0633882e-10 0.0042444654 -0.011077448 7.9193524e-10 5.7550926e-11 6.1317106e-12 7.110969e-11 -9.59011e-09
-0.015701037 -3.8069325e-09 -2.6998501e-05 -0.047720138 -3.6250578e-10 0.0019865003 -0.0006373889 1.0057366e-11
-1.8086318e-09 8.660517e-06 2.3923047e-10 -0.008629728 -0.003071642 7.558008e-10 -7.197555e-10 -2.4815492e-09
-3.2911218e-10 2.3364516e-08 1.9560499e-08 -2.0246875e-09 -0.041266225 -0.008404674 5.5550772e-11 0.04356501
0.017466398 -1.0604621e-10 0.0012626618 9.903265e-09 -4.4262407e-09 -0.00287157 0.032411218 2.2788647e-09
-0.016806664 0.047416642 -4.5943836e-11 1.4013604e-11 1.094499e-09 -1.1196306e-09 -0.016262254 -0.0034886852
1.967692e-10 0.046497397 0.016345369 1.1615962e-09 -0.042473882 -5.6348375e-09 4.9662326e-11 -2.4880413e-09
0.009418528 -6.751838e-11 0.0060127005 6.8356786e-11 6.439772e-12 -0.001154058 -0.014976677 8.80137e-10
0.01695097 -0.026831333 1.1221244e-09 2.1546356e-10 0.007395946 2.210482e-08 -0.043821976 -0.025852611
3.1350277e-11 3.7115286e-10 -1.4425851e-10 -3.969924e-10 -0.04216954 0.0278762 6.86711e-10 -9.983207e-11
-5.107181e-10 -8.1073676e-10 -0.0008703316 0.00050700246 3.2663279e-09 -0.026422536 -0.015330561 1.4623498e-09
0.010842476 0.007254893 -1.695539e-11 -0.01363385 -0.022825612 -3.078724e-10 1.4929362e-09 3.289521e-12
-0.007370311 -0.0074845855 -0.007418812 -0.06844745 0.044973582 0.03634772 0.009403683 0.033270434
0.007425186 -0.0035366071 0.0031320117 0.034284562 -0.029649064 -0.07764475 -0.020194428 -0.030321186
-0.078124516 0.05219935 0.010726222 -0.01244989 0.045118928 0.009239309 -0.0065601408 0.06260782
-0.069584146 0.060084015 -0.07125396 -0.017857699 -0.011993692 -0.0005985227 0.047362946 -0.010029564
0.019702787 -0.04461592 0.040546127 0.031994116 0.05856339 -0.013714002 -0.025084926 -0.0705562
0.03631635 0.010914411 -0.073582545 -0.022132065 -0.029100519 -0.010379232 -0.05826843 -0.055171534
0.0030503215 -0.05015517 -0.015599162 0.043933105 0.009187621 -0.0048141605 -0.038762964 0.0039791623
-0.07625417 -0.036185946 -0.055993028 -0.06030382 -0.021949386 -0.009376161 0.10915596 0.059089154

encoder.6.bias f4 [128]
00000000: 605f 5ebd ab3f 133d 3a53 5cbd 7507 023b
00000010: 8f31 12ba d5c6 163d 49dd 32bc fcfe 37bd
00000020: ad4f 6e3d 16d2 ccbb 999b e9bc 0af2 adbc
00000030: 913e 1f3c 6b69 353d 6ad9 89ba 9f3d 243d
00000040: 587a 873d df9a 6d3d 9e38 5fbd a57d 77bb
00000050: 896a 873d 0805 2b3d 6175 a53c e927 513d
00000060: 5b63 09bd 9fb2 24bc 7165 a43a c73c 51bb
00000070: 12ee 873d 1d80 abbc adce 42bc 7459 483d
00000080: 270f aa3c b68e 68bc be61 c1b6 643c 643d
00000090: 361c 46ba c37b 843b acfd d6bc 0032 2d3d
000000a0: 5b4b 90bc b9f5 943d 8dc3 3d3d a091 5abc
000000b0: 129b 9a3b cc17 66bd 7ba6 893d 12dc e93c
000000c0: a836 51bd d562 a83c 92bc 14bd 3c9a 15bd
000000d0: 9ba6 af3a ea62 5f3d 198c c039 de82 08bd
000000e0: 6f1f 413d dba1 d2bc 035d 83bc 35d2 d13c
000000f0: 31a7 1b3d 05a1 6f3d c2ce 06bd 37aa 463d
00000100: fcd1 3b3d 8f09 25bd 3ebe 2a3d 34bf 5f3d
00000110: b85f 6abd 09f1 0439 3330 823d 415a 103d
00000120: 193d 24bd ca86 b4bb 3284 42bd 461f 173d
00000130: eebb 493d 84d4 123d d6c1 91bd 5294 4cbd
00000140: 5bd4 00bd 6d7e 2c3c c8a6 473d 55bb b03b
00000150: fc16 6e3d 262a 2a3c f94c 64bc 2b49 323d
00000160: f865 17bb 5c8c ebbc 6939 6d3d c7d6 94ba
00000170: 4292 7a3d 9573 84bc 39e8 893d c0c8 cabb
00000180: f85e 9bbc e1f1 adbc a9d4 47bd 7ee5 843d
00000190: c049 94bd 6f7d 4ebd 79df bebb 86dc 793d
000001a0: 7dc9 273c a680 303d 3142 0b3d 9191 683d
000001b0: 47ac 723c 305b b43c bb38 5bbc c6fa 4fbd
000001c0: da99 323d 3f65 d4bc 43b4 0d3c 2f7e 3e3d
000001d0: 7f3d 22bc 5530 723c ad36 67bc 17b9 033d
000001e0: fc5e b7bb bfc8 05b7 f0df 843c da68 993c
000001f0: 25d2 2bbd 1a2a 59bc baba 69bc 7f3e bbbb
-0.054290175 0.03594939 -0.05379031 0.001984087 -0.0005576843 0.036810715 -0.010917016 -0.044920906
0.058181453 -0.00625063 -0.028516578 -0.021233577 0.009719507 0.044289988 -0.0010517065 0.04009783
0.06615132 0.058009025 -0.054497354 -0.00377641 0.06612117 0.041752845 0.020197572 0.051063452
-0.03354202 -0.010052352 0.0012542439 -0.0031927095 0.06637205 -0.020935113 -0.011890096 0.048913434
0.020759178 -0.014194181 -5.763227e-06 0.055721655 -0.00075573043 0.004043074 -0.026244007 0.04228401
-0.017614057 0.072734304 0.04632907 -0.013340384 0.004718193 -0.05617504 0.06721207 0.02854732
-0.051077515 0.02055494 -0.036312647 -0.036524042 0.0013401093 0.05453769 0.00036725475 -0.03332793
0.047149118 -0.025711944 -0.016035562 0.02561293 0.038001243 0.05850317 -0.032912023 0.048502173
0.045854554 -0.04029232 0.041685335 0.054625705 -0.05722019 0.00012678294 0.063568495 0.035242323
-0.04009733 -0.005509232 -0.047489353 0.03689506 0.04925149 0.035847202 -0.071170494 -0.049946137
-0.031452518 0.010528189 0.04874304 0.0053934255 0.05812739 0.0103860255 -0.013934367 0.04352681
-0.002310155 -0.028753452 0.05791608 -0.0011355513 0.06117464 -0.016168395 0.06733746 -0.006188482
-0.018966183 -0.0212335 -0.048786793 0.06489085 -0.07240629 -0.05041259 -0.00582498 0.061001323
0.01024091 0.04309144 0.033998672 0.056779448 0.014811582 0.022016138 -0.013380225 -0.050776266
0.043603756 -0.025927184 0.008648935 0.046507057 -0.009902357 0.014782031 -0.014112157 0.032158937
-0.00559604 -7.974158e-06 0.016220063 0.018726755 -0.041948456 -0.013254667 -0.0142657105 -0.005714237

encoder.8.weight f4 [256, 128, 3, 1]
00000000: 1adc c730 3a66 e62f 7ef5 072f 3a4d 41bc
00000010: f467 afbc 9f74 973c c477 44ba 0eb5 633c
00000020: 772f c13c 461f d2bc ae82 943c b8a9 c8bb
00000030: e154 a8bc 9ee1 9a3c 9165 22bd f238 4ebd
00000040: 5903 40bc ce2c c63c 000b 16bd 8526 0e3d
00000050: a56a 2ebc f408 8f3c e342 19bd 3220 d03b
00000060: ed45 07bd 2c0a 5ebd e76b 333d 55c0 0e3b
00000070: 448f b33b 268d dbbc a113 d2bc 894f 793c
00000080: b759 9f3c 69f9 0b3d 64c3 d13c 62e8 02bc
00000090: 299b 723c 2d3a d3bb c1e0 003d 16b8 cd3c
000000a0: acc5 e6bc 864f 193d 3cec 84bc aa0d 82bb
000000b0: 877d 15bd feb5 77bc d8f4 cb3c 585f c83c
000000c0: c7ff 5b3c 5d76 40bd 8308 003d 3927 9ab9
000000d0: bbef 75bd 2cba 183d f1d0 5abd 39e2 1dbd
000000e0: 147f 4f3c 56a2 64bc 538b e4bc e8e3 1f3d
000000f0: 02b4 d93c a92b b6bc aee9 e6bc 660f d3ba
00000100: 3f92 28bc e5d5 07bd 5c5f fdbc 4688 e73c
00000110: b33f 003d ed78 ecbc 8834 0f3d a881 d9bb
00000120: 4941 7e3c 0ec2 40bd d4fc d1bc 174c d3bc
00000130: 58a1 003c 20dd 733c 533a 62bd 8c81 823c
00000140: 2261 1abd c0b8 cc3b b495 763c 506f 7d3c
00000150: c108 b23c ba55 0f3d 5276 bb3c db09 55bd
00000160: b6b6 37bd 1ba3 0ebd 9a9f 5d3c 12b7 b8bc
00000170: 1f29 b63c abe8 c4bb 3b68 8abc 3b8f 243d
00000180: 76b8 04bd d765 a03c 2cb2 1fbd d438 50bd
00000190: f6f7 35bd a631 243d 50a0 33b5 f07b 9a34
000001a0: 97be 0733 ca10 11bd 116f 22bd d88d f63c
000001b0: 7b71 e8bc cf56 313c d1a8 56bd b672 87bc
000001c0: 40a1 84bb 5c98 023b f023 2ebd 82ee 8dbc
000001d0: b2e4 323c 636e f7bc 8f50 5cbd dbba 883b
000001e0: ff54 0cbd 56b3 de3c 7177 72bc 2225 54bd
000001f0: ac9a 6b3c 8ce8 663c 955e 7ebc cc53 60bd
00000200: d06b 3bbd f3d6 363c dd42 453c 7b3e 453c
00000210: 3d56 c93b fdcd 4ebc d975 a0bc acbf 133d
00000220: 4763 e1bc 8b91 1b3d 4bdd f5bc 566d df3b
00000230: 0f81 f5bb ebad 97ba e932 a9bc 11f5 cc3c
00000240: f5e2 e0b9 cfad 2637 226d 04ba 7461 23bd
00000250: ce14 cc3c 2f15 223d de5b a330 90b6 bbb9
00000260: 9385 e5bb c443 e83c debd 9fbc b2ee 393d
00000270: e495 e6ba 4064 18bd 17a6 dfbc d91c abbc
00000280: c40c 1f3c 27b4 9d3c 5792 703c 4ee4 1ebc
00000290: aa8d aebb fb17 83bc 002e 2bbd 3d21 703b
000002a0: c6dc 003d 8ffd 883c a736 a7bc 9789 1ebd
000002b0: 74b2 55bd cca7 723c 2aa7 673a 31e0 df3b
000002c0: d155 57bb cd7a 113c fd3b 243c 3061 10bd
000002d0: 6abe 40bd b387 2f3c c79e 61bc 620a fdbc
000002e0: 2625 09bd d7b4 c9bb 0e7e 6930 51d9 89ae
000002f0: 874e bd2e aa92 ebbb 10d7 6fbd b0ab 01bd
00000300: 8138 cf3c 2f63 2bbd e2d4 36bd 6487 0ebd
00000310: f10d aa3c 0d47 273b 1da8 1ebd 2f2f d2bc
00000320: 27a0 b0bc 27ec fcbc 7538 27bd 544f e83c
00000330: ef30 8dbb 81b7 a7bc eea6 5abd 28af e43c
00000340: d795 f7bc 6381 4fbd f89e 2cbb 22a4 84bc
00000350: 0ff2 31bd 6bda e43c 0ccb 63bd 8fb5 4dbd
00000360: 782c ed3c a963 91bc 8e13 9ebc ebc9 ddbc
00000370: 5abd aa3c 49c2 023d d2b2 043d bbad 253d
00000380: a1db d8bc 169b f63c 9874 33bd 973d 81bb
00000390: 774b 203d f3ca 6cbd 2277 39bd d61e 17bc
000003a0: 6a4a f63c dffc 2d3d 9a3e 8a3b bfe1 c53c
000003b0: a6e7 9dbc 8514 04bd faad f43b fc3b 9d3b
000003c0: f98c 0dbc f13e 413c 5c5c e73b f77a d23c
000003d0: 526c 88bc 92d5 893c 7e10 05bd ffa8 113d
000003e0: f70f c43b 9655 bcbc 8e98 f53c 9f8b 48bc
000003f0: 7008 74bc aa16 c93b db5e 1c3d 3e81 143d
1.4541712e-09 4.1909393e-10 1.2365395e-10 -0.011798197 -0.021411873 0.018488226 -0.0007494653 0.013898147
0.023582203 -0.025649678 0.01812872 -0.0061237477 -0.020548286 0.01890641 -0.039647643 -0.050347276
-0.011719548 0.024191286 -0.036631584 0.034704704 -0.010645543 0.017460324 -0.037417304 0.006351494
-0.03302567 -0.05420892 0.043804076 0.002178212 0.005479725 -0.026800703 -0.025644125 0.015216717
0.019451959 0.034173403 0.025605865 -0.007989975 0.014807501 -0.006446144 0.031464342 0.025112193
-0.02817043 0.037429355 -0.016225927 -0.003968914 -0.036496665 -0.015119074 0.024897024 0.024459526
0.013427681 -0.04698788 0.031258117 -0.00029402392 -0.060043078 0.037286922 -0.05342192 -0.03854582
0.012664575 -0.0139547195 -0.027898466 0.039035708 0.026575092 -0.022237616 -0.028187599 -0.0016102612
-0.010288774 -0.03316297 -0.03092926 0.028263222 0.03131075 -0.028866256 0.034962207 -0.0066377707
0.015518495 -0.047060065 -0.025633253 -0.025793118 0.007850967 0.014884263 -0.055231404 0.015930913
-0.03769029 0.00624761 0.01505034 0.0154684335 0.02173269 0.034993865 0.022883568 -0.052011352
-0.04485198 -0.03482352 0.0135268215 -0.022548232 0.022236405 -0.0060091815 -0.016895404 0.040175658
-0.03240248 0.019579811 -0.038988277 -0.050835446 -0.044425927 0.04008641 -6.691598e-07 2.8774912e-07
3.1605477e-08 -0.035416402 -0.039656702 0.030096933 -0.028374424 0.010823919 -0.05240709 -0.01653419
-0.004047543 0.001992724 -0.04251474 -0.017325643 0.010918783 -0.030204004 -0.053787764 0.0041726655
-0.034260746 0.027185123 -0.014798985 -0.051793225 0.014380138 0.014093529 -0.01552548 -0.054767415
-0.045757115 0.011159646 0.012039867 0.012038822 0.0061443136 -0.012622354 -0.019587444 0.036071464
-0.02751316 0.037980597 -0.030012747 0.006818454 -0.0074921916 -0.0011572217 -0.020654159 0.0250192
-0.00042893706 9.934839e-06 -0.00050516624 -0.03988786 0.024912264 0.039570983 1.1885921e-09 -0.0003580344
-0.0070044487 0.028352626 -0.019499715 0.045393653 -0.0017592278 -0.03720498 -0.027300877 -0.02088778
0.009707633 0.019250942 0.014683328 -0.009697987 -0.0053269463 -0.016002646 -0.041791916 0.0036640905
0.031460546 0.016722469 -0.020411802 -0.038705435 -0.05217214 0.014810514 0.000883686 0.0068321456
-0.0032857547 0.008879376 0.010024068 -0.035248935 -0.047056593 0.010713506 -0.013770766 -0.03088874
-0.033482693 -0.006155591 8.494404e-10 -6.268642e-11 8.608674e-11 -0.0071891146 -0.05855471 -0.031657875
0.025295498 -0.041842636 -0.044636615 -0.034797087 0.0207586 0.0025524527 -0.038734544 -0.025657265
-0.021560742 -0.030874325 -0.040825326 0.02835814 -0.004308812 -0.020473244 -0.053381853 0.027915552
-0.030222816 -0.050660502 -0.002633987 -0.016191546 -0.043443736 0.027936181 -0.055613562 -0.050221976
0.028951868 -0.017747717 -0.019296434 -0.027073821 0.020842243 0.031923566 0.0323971 0.040448885
-0.026471915 0.030103248 -0.043812364 -0.0039441097 0.03913447 -0.057810735 -0.04527963 -0.00922366
0.03006478 0.042477485 0.0042188885 0.024155496 -0.019275498 -0.03224613 0.0074670287 0.0047984105
-0.0086395675 0.011794792 0.0070605706 0.0256934 -0.016653214 0.016825471 -0.03248643 0.035561558
0.0059833485 -0.02299003 0.02997997 -0.0122403195 -0.01489459 0.006136735 0.0381764 0.036256067

encoder.8.bias f4 [256]
00000000: 8d55 033d 02c8 80bc 85a8 e4bc f4c9 123b
00000010: a29f 4bbb 7088 383d 8bfc e73c 979c 1d3a
00000020: 39ad 62bc 3a3c 65bd bdc3 75bb afec a3bc
00000030: 6dcf 15bd 7bfc 79bb 1ae0 143d 620a d7bb
00000040: abc6 a2bc 96d0 fd39 5351 1e3d 1a22 34bd
00000050: d7e5 f2bc 2dc6 b939 87d7 333d d2e4 a53c
00000060: 10cf 2fbc 1e6d 8cbc 1b7f d63c 0ca7 2abb
00000070: e0e4 213d 7392 d23c 89e7 cbbb c804 1abd
00000080: 052f 383c 11c3 f7bb 09a5 1dbc 2a4e 03bd
00000090: cdaf 98bb 2db9 493c b39d cdba 3a21 e7bb
000000a0: 9b60 233d 8192 94bc 70c0 98ba f166 2bbc
000000b0: 1a8f 0cbc 4452 19bd 7018 003c a536 cc3c
000000c0: ab69 e0ba 68c4 1e3d c6e9 2dbc 30ff 11bd
000000d0: 4a0f 5fba 4c28 2abd 72c6 09bc bb08 3a3c
000000e0: a29c 6a3c 39c5 dd3c 8e79 2dbc 90f7 bebc
000000f0: 70ea 77bc f0c3 253c 7dd7 143d be6a 64ba
00000100: 1a4c ae3b 89d9 2fbd 3b40 3abb 978d 11bd
00000110: c244 f9bc a44c 41bc 3b24 0a3b a2a5 fc3c
00000120: e249 b6bc 751b 11bd c622 c23c e1de 85bc
00000130: 3f1f edbc 16dc 2c3c c791 823c 0188 1fbd
00000140: eb14 85bc abd2 e739 b05a 1cbc da25 a2bb
00000150: d090 e8bb 478c 05bd 5695 893c 8a38 06bc
00000160: 3115 363d 0639 ef3c 97d8 253d 1d7d 893c
00000170: b9e8 a1bc 2d1d c23c a662 1e3d dbc2 c33b
00000180: 4fd6 ec3c 4d66 1db4 d91a a23c 7c79 183a
00000190: 0078 c6bb 9284 27bb 8913 df3c 55e8 fdbc
000001a0: afd6 6ebc 9507 46bd b10c fc3c 1340 df3c
000001b0: a16a 2bb5 238f 8dbc 77ac acbc 36fd 843c
000001c0: 51dd acbb 7c3c 07bd d424 ce3c ac0a 063d
000001d0: 638c 4ebd bf59 d63c b5ff 55bd 3b52 a83b
000001e0: b3a4 c1bc 1a82 363d 2c68 4cbd 4905 1fbb
000001f0: 16f7 283d 054c 05b9 bde6 bf3c 6911 123d
00000200: 1d5f d4bb 7bb8 2bbd a442 a8bc 90ac 903b
00000210: 7a77 b3bc 827c 30bb 3cd0 43bd fee8 303d
00000220: ffb8 18bd 0cc9 98bb 3998 833c 67c9 9b3c
00000230: 5207 cd3c f790 1bbb a4c7 5d3c 2086 1bbc
00000240: 78e4 c93b d991 23bb 95c1 2f3d d876 013d
00000250: 9515 1cbd 805b 1e3d 522c e33c 2fef 2d3d
00000260: b60a 7c3b ac5f 65bc 078f 35bc e8a9 20bd
00000270: 2be7 c73b 3491 01bd 553b 913a d418 debc
00000280: 64e8 98bb fc37 603c 02c0 9c3c 8bb9 e53c
00000290: f27e 0a3d b8a5 48ba 1bb3 1fb6 1abd 203d
000002a0: 5bf1 cd3c 5646 2cb9 3927 ec3c a9a2 12bc
000002b0: a258 b6bc 733f 6c3c 2f66 223d f0df cdbc
000002c0: eade 63bc 8e79 57bd dde8 223d 00f6 49bd
000002d0: 1f6a d7bc 488c 00bd ffdc 8ebc 7bad 83bb
000002e0: 29ab 493d 0cfa 833c 9d55 3dbc 71db a1bc
000002f0: e0b0 3fbc cb70 a0bc e191 d9bc b19a babc
00000300: e9bf 013d bbb0 05b9 8bde 96bc 08af 3abb
00000310: 8948 6a3c 4df8 b7bc 869f 2dbd 0e8d 5abc
00000320: f367 c83a 0a0e d1bc 99cd f33c fc80 65bd
00000330: f6a5 dfbb bfcb d93c 1317 d4bb 8b9c 133d
00000340: 3bc9 133d c6dd cc3c 40b7 99b5 5014 b73b
00000350: 642f 45bc 729a 933c b259 c03c 90fb 62bc
00000360: 9d0e c73c 5053 d0b9 70a8 0d3d 3d01 1bbd
00000370: fb70 473c 8380 3dbc 180d 703c 343b 8abc
00000380: 432e 213c 309a b7bb b51a 0d3d fbbe 643c
00000390: d98a 69bb ac70 eb3b 3e9e b53c eaaf e23c
000003a0: 4f3d 093d 4454 f93c 5548 65bd 07a0 e8bc
000003b0: 3548 bb3c e02f 87bc f12a 9cbb c1c3 303d
000003c0: a16d 38bd daf0 eb3c 3114 593c 87c3 193d
000003d0: 9741 2fbc 57f4 16bb ba1d babc aa77 dc3c
000003e0: 2835 ca3c d37d efbc 8aff cc3c 4560 fb3c
000003f0: 84c1 9bbc 4645 f6bc 7f02 f639 4c88 07bc
0.03206401 -0.015720371 -0.027912388 0.0022398205 -0.003107049 0.045051992 0.028318664 0.00060124084
-0.013835245 -0.05596564 -0.0037500702 -0.02001032 -0.03657477 -0.0038144875 0.036346532 -0.006562517
-0.019870123 0.0004841133 0.038651776 -0.043977834 -0.029650612 0.00035433602 0.043906715 0.020250712
-0.01073052 -0.017141875 0.026183655 -0.002603951 0.039524913 0.025704598 -0.0062226695 -0.037602216
0.011241679 -0.0075610955 -0.009621867 -0.032056965 -0.004659629 0.012312216 -0.0015687257 -0.0070535215
0.039887052 -0.018136265 -0.001165403 -0.010461555 -0.00857904 -0.03743197 0.007818326 0.0249284
-0.0017121335 0.038761526 -0.010614818 -0.035643756 -0.0008509053 -0.041542336 -0.008409129 0.011354621
0.014319571 0.027071582 -0.010588063 -0.023311406 -0.015131578 0.010117516 0.03633832 -0.00087134156
0.0053191306 -0.042932067 -0.0028419632 -0.03553542 -0.030428294 -0.011798058 0.0021078724 0.030840699
-0.022252027 -0.035426576 0.023698222 -0.016341629 -0.028945563 0.010550519 0.015938653 -0.038948063
-0.016245326 0.00044216713 -0.009543106 -0.00494836 -0.007097341 -0.032604482 0.016794842 -0.008192191
0.044453803 0.029201996 0.04048976 0.016783291 -0.019764291 0.023695553 0.038668297 0.0059741563
0.028910784 -1.4658981e-07 0.019788193 0.00058164424 -0.0060567856 -0.0025561196 0.027230995 -0.030994574
-0.014577552 -0.048347075 0.03076777 0.027252233 -6.385763e-07 -0.017280167 -0.021078331 0.016234022
-0.0052754064 -0.033016667 0.025164045 0.03272502 -0.050426852 0.026165841 -0.052245814 0.0051367558
-0.023638105 0.04455767 -0.049904034 -0.0024264625 0.041251265 -0.00012712188 0.023425454 0.035661135
-0.006481065 -0.04192398 -0.02053959 0.0044151023 -0.021907557 -0.0026929681 -0.04780601 0.04319095
-0.0372858 -0.0046626385 0.016063796 0.019016935 0.025027905 -0.0023737529 0.013536368 -0.009492427
0.006161269 -0.0024958758 0.042909224 0.03160748 -0.03810652 0.03866148 0.027731095 0.04246443
0.0038458533 -0.013999861 -0.011081464 -0.039224535 0.0061005554 -0.031632617 0.0011080304 -0.027111448
-0.004666375 0.013685223 0.019134525 0.028042575 0.03381247 -0.00076540885 -2.37971e-06 0.03924284
0.025139501 -0.000164294 0.028827297 -0.008949914 -0.02225906 0.014419424 0.03964823 -0.025131196
-0.013908127 -0.052606158 0.039772857 -0.04930687 -0.02629572 -0.031383783 -0.017439364 -0.004018483
0.049235497 0.016110443 -0.011556056 -0.019757958 -0.011699885 -0.019585034 -0.026558818 -0.02277884
0.03167716 -0.00012749706 -0.018416664 -0.0028485674 0.01429952 -0.022457266 -0.04238846 -0.013339294
0.0015289768 -0.02551939 0.029761123 -0.056031212 -0.006825204 0.026586412 -0.006472477 0.036037963
0.03608058 0.025008094 -1.1452721e-06 0.0055871382 -0.012035225 0.018017981 0.02348027 -0.0138539225
0.02429896 -0.00039734924 0.034584463 -0.037842978 0.012172933 -0.011566284 0.014651559 -0.016873933
0.00983769 -0.0056030974 0.034449298 0.013961549 -0.0035635738 0.0071850624 0.022170182 0.027671773
0.033505734 0.030435689 -0.055977184 -0.02839662 0.02286158 -0.01650232 -0.004765861 0.043155435
-0.045026425 0.02880137 0.013249443 0.037539985 -0.01069679 -0.0023033821 -0.022719253 0.026912529
0.02468355 -0.029234802 0.025024194 0.030685553 -0.019013174 -0.030062329 0.00046922636 -0.008272242

conv_mean.weight f4 [20, 256, 3, 1]
00000000: 11a3 10bd f7c1 cabc d160 13bb 913b d6bc
00000010: 3a4c 063b f89f 16bd 10ff 66bc 22c6 173b
00000020: bc77 ad3b 9c29 97bb 1541 04bb 017c 12bc
00000030: a46a 5ebc 79e2 75bc 4a58 4cbc 0b83 463b
00000040: de8d cebc 4e17 90bc d9fd 9cbc 9901 87bb
00000050: efd1 2f3c 1e67 9bbc 3a97 e3bc 56a9 90bc
00000060: ad3b e1bc 943c f9bc d2be cdbc 21dd 5aaf
00000070: 7455 77b0 046d 95b2 ea2c 793b 2a68 31ba
00000080: 7a99 49bc f90e 01bd 74c2 e8bc fc26 4e3c
00000090: 0af8 753a 39e0 17bc 0c45 ef3b 5b4d 58bc
000000a0: b843 17bd d4bb ae3c 0f74 92bc 808e edbc
000000b0: 1193 de3b 7a2c b23b 61bc 9f3b 2621 a93b
000000c0: 30a0 063d a098 553c c742 82ba 7875 b3ba
000000d0: 5dfe b9bc 7c68 7c3c d5f8 af3c 54ac bc39
000000e0: 730c de3c d487 f2bb 41fb 83bc 0e7b 56bc
000000f0: a7f3 7dbb 9aad 03bc a9e1 95bc f76c fabc
00000100: f94c 0ebd a8d9 803c 4bad 99bb c302 cbbc
00000110: 07c7 d53c cd1b efbc 4fee 0f3c 0a2d c63c
00000120: c4ec 763b fe0b 933c b154 d43c 2d3f f7ba
00000130: 6171 803c 9558 f73c a02c 42bc 1742 083b
00000140: 9d0b ba3c c682 1b3d 2643 183d 6121 9d3b
00000150: 8166 92bc f440 d13b 6992 d1bc 5381 f63c
00000160: d566 58bc 1183 10bd 4a56 c039 242c 02ba
00000170: 98e1 9c3a ab24 94bc 2bf1 6fbc d544 153d
00000180: a743 063c 7f52 5ebc ccf2 c1bc 2680 8c3b
00000190: c6ed 11b8 a4f7 99af de9f f03b 90e3 623c
000001a0: ec64 bbba d19a 903c cca3 2dbc d02a 983c
000001b0: 832e 21bc 7645 b33b 38f3 07bc 7cd1 e83b
000001c0: baa9 e43b b611 f9bc d372 2fb0 6cfe a631
000001d0: 2385 3e30 4fb7 1dbb 406e 86bb 7e4c c8ba
000001e0: 9f7a 75bc b1c5 983b ce1d cbbc 7d52 b03b
000001f0: 7c2f 993c b8e3 9d3c 3506 f72e f172 f1ad
00000200: 5233 59b0 ee4d d73b 91cc cabb 13bc c9bb
00000210: f592 9b3b 3f47 c63b 1e82 e53b 6f28 03bb
00000220: 5ec7 4dbc c111 413c e559 5b3b abaf b23b
00000230: f24b e03c a943 d23c f75b fc3c e2fb b03c
00000240: 12bb a52f c7d6 8db0 2271 82b0 da3b 10bd
00000250: 5d45 09bd 3c0f d9bc e490 bf3b e822 833c
00000260: fed2 e33c 1beb 293b 2f03 b3bc a821 e83c
00000270: e89f 14bd 9731 dbbc b0d0 c83c 09b5 083d
00000280: 8ef5 223d dcb1 46bc 8576 c9bc 923c bcbc
00000290: 4aca 453b ad2f e83c 6e85 14bc cda0 60bb
000002a0: d3ca 363c 3de7 4fbc 68ac 42bc dc64 ab3c
000002b0: e9d8 94bc a8b1 bc3c 53af 27bc 8045 26bc
000002c0: ae1f 26bc ea5a 0a3d c25c 91bc 47f9 17bc
000002d0: 44e7 5b38 2caa 0eb2 7be9 0a3b 3159 9cbc
000002e0: d198 c1bb 5665 64bc 67c9 b5bc 79b2 c53c
000002f0: 7d2b f7bc 0993 8db7 02e5 1036 f4e8 42b6
00000300: 4b68 3abc df9f b63b 8169 de3c 26f0 173d
00000310: db46 8cbb 5fc6 023d 8588 d23b 5757 dd3b
00000320: d695 d72f 1a51 373c c099 783b 8d13 ec3c
00000330: 2a1e 913a 8477 9c3b 3806 813a 213b 13bd
00000340: de8f ce3b 20b9 d03b 2164 1b3c 52a4 91bc
00000350: 3e3c 093d bb94 a63c 122f 74bc 67d5 d1bc
00000360: db10 a0bc bf13 e63b 12ea a73c 7f0c cbbc
00000370: 75d6 a9bc 5905 d7bc 8f52 c1bc 75ef 26bc
00000380: fab9 b1ba dad3 f1bb 7c6f 113d dc26 213c
00000390: 50e2 93bc 634e 363c 7372 903c 79d5 f13c
000003a0: e790 873b 9910 ba3c c5f2 2d3c a386 583c
000003b0: fe1f 41bc 86c2 dfbb d40d 1e3d 698e 243d
000003c0: 50a6 72bb 8e4d 863b a751 ee3c f87c 183c
000003d0: e9c4 853b a7f7 7f3c 5eb2 c13c 913f 9c3c
000003e0: e53f 713b 7840 e538 8f6a 503a 255d 9130
000003f0: 5564 fabb 98b8 07bc b692 f6bb 6821 95bc
-0.035311762 -0.024750693 -0.0022488127 -0.02615145 0.0020492212 -0.03677365 -0.014098898 0.0023158868
0.0052938145 -0.0046131145 -0.0020180393 -0.008940698 -0.01357523 -0.015007609 -0.012472222 0.003029051
-0.025214132 -0.017589238 -0.019164013 -0.0041200635 0.010731204 -0.018970069 -0.027782071 -0.01765887
-0.027494276 -0.030424394 -0.025115404 -1.9905545e-10 -8.997951e-10 -1.7395458e-08 0.0038021156 -0.0006767536
-0.012304658 -0.03150842 -0.028413035 0.012582537 0.0009382969 -0.009269767 0.007301932 -0.013202037
-0.036929816 0.021329798 -0.017877607 -0.028998613 0.006792434 0.005437431 0.0048747514 0.0051614223
0.03286761 0.013036877 -0.0009938114 -0.0013691625 -0.022704298 0.01540577 0.021480957 0.0003598655
0.027105546 -0.007401446 -0.016111018 -0.013090862 -0.0038749964 -0.008036995 -0.01829608 -0.030569537
-0.034741376 0.015728787 -0.0046898476 -0.02478159 0.02609588 -0.029188061 0.008784845 0.024191398
0.0037677744 0.017950054 0.02591929 -0.0018863432 0.015679063 0.030193606 -0.01185146 0.0020791346
0.022710616 0.037966512 0.037173413 0.004795239 -0.017871143 0.006385917 -0.02558251 0.030090963
-0.013208111 -0.035281245 0.00036685384 -0.0004965684 0.0011969088 -0.01808389 -0.014644901 0.036442596
0.0081948405 -0.013569473 -0.023675345 0.0042877374 -3.4792138e-05 -2.8006497e-10 0.0073432764 0.0138482
-0.0014297045 0.017651947 -0.010598134 0.018575102 -0.009837749 0.005470927 -0.008297734 0.0071050506
0.006978241 -0.030403953 -6.3827804e-10 4.8601603e-09 6.9310796e-10 -0.002406556 -0.0041024983 -0.0015281586
-0.014982848 0.0046622385 -0.024794485 0.005380927 0.0186994 0.019273624 1.1233362e-10 -2.7449572e-11
-7.901707e-10 0.0065705692 -0.006188937 -0.0061564534 0.0047477433 0.0060509737 0.0070040366 -0.0020013114
-0.01255974 0.011784018 0.003347033 0.00545307 0.027379964 0.025667029 0.030805571 0.021604482
3.0146247e-10 -1.0320144e-09 -9.490899e-10 -0.03521333 -0.033513416 -0.026496522 0.0058461297 0.016007856
0.02781057 0.0025927487 -0.021852104 0.028336361 -0.03628531 -0.026757045 0.024513572 0.033375774
0.03978496 -0.012127366 -0.024592647 -0.0229781 0.0030180388 0.028343046 -0.009065015 -0.0034275532
0.0111567555 -0.012689409 -0.011881925 0.020922117 -0.018169837 0.023033932 -0.010234672 -0.010148406
-0.010139389 0.03377811 -0.017744426 -0.009275741 5.242905e-05 -8.3041805e-09 0.0021196294 -0.019085499
-0.0059081097 -0.013940176 -0.022190763 0.024132954 -0.030172104 -1.6876978e-05 2.1590972e-06 -2.904385e-06
-0.011377404 0.0055732573 0.027149918 0.037094258 -0.0042809076 0.031927463 0.006424966 0.0067547965
3.9214737e-10 0.01118877 0.003793344 0.028817916 0.0011071612 0.0047749896 0.0009843772 -0.03594506
0.0063037714 0.006369725 0.009484322 -0.01777855 0.033504717 0.020334592 -0.014903801 -0.025614453
-0.019539287 0.007021397 0.020497356 -0.024786232 -0.020732144 -0.026247667 -0.023598937 -0.010188927
-0.0013559454 -0.007379991 0.03550671 0.009835925 -0.01805225 0.011127087 0.017632699 0.029520737
0.0041371468 0.022712993 0.010616963 0.013215694 -0.011787413 -0.006828609 0.038587406 0.040174875
-0.00370254 0.0040986007 0.02909167 0.009307139 0.0040823114 0.01562301 0.023644622 0.01907328
0.0036811766 0.00010931579 0.0007950449 1.0576612e-09 -0.007641355 -0.008283757 -0.0075248135 -0.018204406

conv_mean.bias f4 [20]
00000000: 7370 623c 13af 76bc e32d b3bc 28f4 a43c
00000010: f938 8f3c fbe7 963c df83 e53c 0fe8 65bb
00000020: 45c3 26bc f9cf d63c baba 85bc 09b7 e1bb
00000030: e7f9 41bc 9523 f73b c7f3 503c ddaf 53bc
00000040: 1d33 d63c 487d e5bc 16b6 843c 3b9b b2bc
0.013820755 -0.015056389 -0.021872466 0.020135954 0.017483221 0.018421164 0.028016983 -0.0035080945
-0.010178392 0.026222216 -0.01632439 -0.0068882746 -0.0118393665 0.0075420835 0.012753434 -0.012920347
0.02614742 -0.02801384 0.016200107 -0.021802535
