VAE-LSTM-anomaly–detection/experiments/Collected_data/nosein_noseout_9-grid_search-0414/Collected_data-nosein_noseout_9-win_len800-look_back1-codesize20-VAEunits256-LSTMunits128/checkpoint/vae_best_model.pth (torch, 704594 bytes, 24 tensors)

encoder.0.weight f4 [16, 3, 3, 1]
000000 48 61 32 bd e6 0b 3b be 5f 5d 2e be 07 65 8e 3e
       -0.043549806 -0.18266258 -0.17027806 0.27811453
000010 a9 64 ff 3d 25 c1 97 be 9d 1a 7f 3e a5 52 19 3e
       0.12470371 -0.29639545 0.24912496 0.14972933
000020 52 1c a6 be b8 98 98 bd 78 c7 42 3e 7f b1 9a 3e
       -0.32443482 -0.07451004 0.19021404 0.30213544
000030 de 5f 90 bc aa 6b 0f be 25 51 9c 3e 48 f0 a9 3e
       -0.017623838 -0.14005914 0.30530658 0.33191133
000040 45 ea ef bd 21 07 9d bd b2 38 68 3d 7d a9 82 3c
       -0.11714605 -0.07667375 0.056694694 0.015949959
000050 6f d8 11 3d 43 45 93 3e 8f 2e 6a be aa 10 71 3e
       0.035606798 0.2876378 -0.22869323 0.23541513
000060 bd e0 7b 3e be dd db 3d 3c 1e 0f be cc f9 3e 3e
       0.2459745 0.10735653 -0.13976377 0.18649977
000070 2e e4 83 3d 3b 38 d6 3d a9 3a 89 bc 32 2f e0 bd
       0.06440006 0.10459944 -0.016751604 -0.10946502
000080 2b ba db 3c 8d 8f 3d 3e fe c6 d5 bd 3a 1a 8c 3b
       0.02682217 0.18511792 -0.104383454 0.0042755874
000090 ce f4 ec 3d 88 7a 98 be 91 6a 23 3e 37 85 95 3e
       0.1157013 -0.29780984 0.1595862 0.29203197
0000a0 0f 2f 66 3d d3 2c d1 3d 71 71 85 3e b2 39 45 3e
       0.056197222 0.10213628 0.2606311 0.1926029
0000b0 7d 38 05 be 4e aa 0a be 26 fb a9 3e b6 2b 17 be
       -0.1300983 -0.13541529 0.33199424 -0.14762768
0000c0 e4 bb bd bc 14 b8 21 3e 87 7b 22 3e db de 2b bd
       -0.023160882 0.15792876 0.15867434 -0.04196058
0000d0 de 92 fc 3d 86 f7 5c be 99 de a7 3e 56 7f 17 be
       0.123327 -0.21578798 0.32787016 -0.14794669
0000e0 f5 01 43 3e bd ac 1b be d1 bb 26 3d 35 93 41 be
       0.19043715 -0.15202613 0.04070646 -0.18903811
0000f0 78 12 7d 3d 2b bc 79 be ed c1 aa 3d 5d 73 a1 3d
       0.06178519 -0.24388187 0.0833777 0.07883332
000100 ef 29 92 bd a2 93 4d 3e 7b fd 49 be a2 bf 16 bd
       -0.071369044 0.20075849 -0.19725601 -0.03680385
000110 a2 b1 23 be 4a 47 e2 3d 55 82 02 be 63 e9 9c 3d
       -0.1598573 0.110487536 -0.1274503 0.076617025
000120 96 0c 4b be 07 1b 90 3d 22 ca 31 3e 82 50 30 be
       -0.1982902 0.07036405 0.17362264 -0.17218211
000130 8e 0a b4 bd 18 94 62 be 78 06 04 be 78 ff 5e be
       -0.08791076 -0.22126806 -0.12893093 -0.21777141
000140 2b 3b 45 be 78 47 98 bd d9 c8 ab bd 29 9c 03 bd
       -0.19260852 -0.074355066 -0.08387918 -0.032131348
000150 88 4e 97 be 41 35 01 be 9a 88 82 3e 53 f5 44 3e
       -0.29552102 -0.12617971 0.25494844 0.19234209
000160 3d 34 34 bd 11 66 82 3d 7d c2 a9 bb 81 20 c2 3d
       -0.04399513 0.06367124 -0.0051806555 0.09478856
000170 77 83 07 3c 45 45 a1 3e 89 a0 3d 3e 72 cb 7e be
       0.00827109 0.3149816 0.1851827 -0.24882296
000180 cb 02 ce 3d 14 df a3 bc 66 48 65 be 21 0a a3 3c
       0.100591265 -0.020003833 -0.22390899 0.01990229
000190 14 c9 12 3e f6 27 62 3e f6 b5 91 3d 79 e6 5a 3e
       0.14334518 0.22085556 0.071147844 0.21376981
0001a0 0e d3 89 be fc c0 72 be da 8e 3d be 23 3f 84 3e
       -0.26918834 -0.2370643 -0.18511525 0.2582942
0001b0 1c 42 84 3d 6b 56 67 3e 63 27 87 3d 64 a9 32 3e
       0.06457922 0.2259156 0.06599309 0.1744743
0001c0 55 36 85 be 12 56 55 3e 35 f3 9e 3e c9 a1 a2 3e
       -0.26018015 0.20833614 0.31044927 0.31764057
0001d0 00 8b 91 3e fb a1 70 3e 3d ad 06 3e 2b d8 31 3e
       0.2842636 0.2349929 0.13152023 0.17367618
0001e0 81 5b 27 be 28 83 91 be d5 6a 9a be b2 c6 34 3e
       -0.163435 -0.28420377 -0.3015963 0.17653921
0001f0 69 62 64 3e 6e e2 36 bb dc f7 a4 3e 2d 6c 68 3b
       0.22303165 -0.0027905959 0.32220352 0.0035464868
000200 c9 8b 4b be 45 50 26 3e 53 72 96 3d 90 c0 0d 3e
       -0.19877543 0.16241558 0.07346024 0.13842988
000210 54 44 d8 3d 42 ce a0 be 6f f0 eb 3d 7a 55 6d bd
       0.105599076 -0.31407362 0.115204684 -0.057942845
000220 24 3d 85 bd cd 29 06 be 9f c6 38 bd 8f df 2a bd
       -0.06505802 -0.13101883 -0.045111295 -0.04171711
000230 a1 e4 8a 3d 3d 2f 7f be 4e ab 1c bd eb f7 82 3e
       0.06781889 -0.24920364 -0.038249306 0.2557977

encoder.0.bias f4 [16]
000000 60 95 82 3c 0c 62 86 3e c9 bc 87 bd 93 99 0f 3e
       0.015940368 0.2624668 -0.06627805 0.14023428
000010 4f a9 54 3d 1b e6 89 3e 74 8f 66 3e 21 e3 6b 39
       0.051919278 0.2693337 0.2251566 0.00022495959
000020 30 86 88 3e ac da a1 be d1 20 93 be 77 6a 00 3e
       0.26664877 -0.31612146 -0.28735974 0.12540613
000030 4d cf 1b 3d 53 c5 77 be 2c 5c 8b bd fe 8e 2f be
       0.038039494 -0.24196367 -0.0680469 -0.17144391

encoder.2.weight f4 [32, 16, 3, 1]
000000 fe 6d 8e 3d a7 33 37 bb e6 6b d9 bb ce f3 a9 3d
       0.06954573 -0.0027954371 -0.006635177 0.08298455
000010 73 21 29 bd 1d ab 06 3e 5b 50 55 3d a4 a8 92 bd
       -0.041291665 0.13151212 0.052078586 -0.07161072
000020 7a fe 01 bd a0 c4 5a bd 8c df b2 3a 14 ac 77 3d
       -0.03173683 -0.053410172 0.0013646944 0.06046684
000030 68 87 0d bc 40 bc 88 bd 83 79 b7 bc 05 53 cc bd
       -0.00863824 -0.06676531 -0.022396808 -0.09976772
000040 5c f8 da 3d 09 d8 7d bd 1e cd b8 bd ef 0a 71 bd
       0.10691902 -0.061973605 -0.09023498 -0.058848318
000050 2f b0 03 3e 78 59 3a bd bc 92 2e bd e7 ee 7d 3d
       0.12860177 -0.04549548 -0.042620406 0.061995413
000060 1a 20 a3 bd 1a 79 34 bd 9d 8e d8 bd ae 35 25 3d
       -0.07965107 -0.044060804 -0.10574076 0.040334396
000070 e7 48 e5 bd 38 be 14 be 85 42 dc bd c1 56 a5 3d
       -0.11195546 -0.14525688 -0.10754875 0.080731876
000080 df 0c 53 bd 11 80 f1 bd 91 65 90 3b 9f a5 d4 bd
       -0.051525947 -0.11792005 0.004406639 -0.10383152
000090 3c 7d 99 3d ef ea d9 bd 19 71 6b bd 07 0a 1b be
       0.0749459 -0.10640513 -0.057480905 -0.15140544
0000a0 7f 57 6a bd df 5f fa 3d 43 30 ee 3d 8b 62 08 3e
       -0.05721235 0.12225317 0.11630299 0.13318841
0000b0 ee 3a 18 be 2b de d7 3c 21 8c 5f bd 30 60 f8 3d
       -0.1486623 0.026351055 -0.054576997 0.12127721
0000c0 ae 8d 7d bc 58 0c a5 bd 35 08 cc bd e9 7c 5e bd
       -0.015475674 -0.08058995 -0.09962503 -0.054318342
0000d0 75 19 b8 bb 4b f1 d2 bc dc 26 5f 3d 1c 0d c8 bc
       -0.005618269 -0.025749823 0.05448042 -0.024420314
0000e0 d1 94 aa 3c d1 be 37 bd 44 2b d9 3d fb 3b 79 3d
       0.020822914 -0.04485971 0.106039554 0.060848217
0000f0 5d da 04 be aa 4d 8b bd 32 b2 01 bd 18 4c d4 bb
       -0.12973924 -0.068019226 -0.03166408 -0.0064787976
000100 68 27 82 bd d5 b4 85 3d 34 24 fa bd c3 51 e9 bd
       -0.063551724 0.065286316 -0.122139364 -0.11392548
000110 4f 6f 03 bd e2 7d 8c bb 08 79 f8 3d 36 2f fb 3d
       -0.032088574 -0.0042874673 0.1213246 0.12264864
000120 fd 52 a9 bd 50 d9 d4 3d be 6f 00 3e 22 6a b1 bd
       -0.08267782 0.103930116 0.12542626 -0.08662821
000130 6f 93 11 be b2 be bf bd 01 46 9f b9 38 7b a2 39
       -0.14216398 -0.09362544 -0.00030379 0.00030990853
000140 df b4 d3 27 cc 4e 14 be af bd fa bd 94 ab 07 bd
       5.8760365e-15 -0.14483184 -0.122432105 -0.033122614
000150 49 58 6c bd 90 02 35 3d 1d 07 24 bd 8b da f8 bd
       -0.057701383 0.044191897 -0.040045846 -0.12151059
000160 be b6 9b 3d aa a5 00 3c d7 d9 74 bd 49 a2 97 3d
       0.07603215 0.007851997 -0.05977806 0.07404
000170 cf ce 0a be 75 39 c0 3d 26 c7 25 bc 76 29 28 bd
       -0.13555454 0.09385959 -0.0101182815 -0.041055165
000180 79 26 6b bc f8 6b 1d bd a4 d6 90 3d da 20 85 bd
       -0.014352434 -0.038433045 0.070721895 -0.065004066
000190 b9 db a2 bd 4e ce 38 3c ca 8b 15 bd 7a 50 08 be
       -0.07952065 0.011279656 -0.036510266 -0.1331195
0001a0 55 47 34 bd e8 cb 67 3d 7d 23 08 3e 33 83 9b bd
       -0.04401334 0.056590945 0.13294788 -0.07593384
0001b0 4a 46 ea bd a3 7b 90 bc e0 e3 b2 bd ea 97 65 3d
       -0.11439188 -0.01763708 -0.0873487 0.05605308
0001c0 5e 30 dd bd e3 46 b9 bd 9b 4e 75 bd 38 e0 31 3d
       -0.10800241 -0.09046724 -0.059889417 0.043426722
0001d0 77 13 7b 3d 79 a0 0c be 39 f0 d6 bd fd 18 94 3d
       0.06129786 -0.1373309 -0.104950376 0.07231329
0001e0 13 6f ec 3a f5 7c 04 be 75 20 01 3e 05 68 90 bd
       0.0018038474 -0.12938292 0.12610038 -0.0705109
0001f0 f2 b2 09 bd 74 ca 7a 3d 1a 98 94 29 68 99 a1 3b
       -0.03361792 0.06122823 6.598906e-14 0.0049316175
000200 c2 5c ae 33 44 55 81 bd 6d ff d1 bd f3 78 fc bd
       8.119379e-08 -0.06315091 -0.10253797 -0.12327757
000210 b3 1e a6 bd 2f 8f 8f bc b2 3a c2 bd 5b d0 74 bd
       -0.08111324 -0.01752433 -0.094838515 -0.059769016
000220 73 04 fa bd 25 59 13 be 97 20 1b be f3 fa 2b 3d
       -0.1220788 -0.14389475 -0.15149151 0.04198737
000230 6d 8b 9d bd ff 70 01 be 49 a8 90 bd 7a 23 9b bd
       -0.07692609 -0.12640761 -0.07063348 -0.07575126
000240 b7 95 1a 3c f9 68 b9 3d 48 4b 0d bd 4e d4 08 3e
       0.009435109 0.09053225 -0.034495622 0.13362238
000250 29 0d 88 bc 93 78 20 3d cc 83 5c bd 88 a8 d1 bd
       -0.016607838 0.03917749 -0.05383663 -0.10237223
000260 d3 40 ed 38 4a 87 03 3e 99 95 c9 bd fe fe bb bc
       0.00011313115 0.12844577 -0.098429866 -0.022948738
000270 a0 7b a8 3d c9 3f 2f bd 51 a8 18 be 69 8d 7e bd
       0.082267046 -0.04278544 -0.14907958 -0.062146578
000280 2a a0 8b bd 05 ce bf 3c d4 b4 d0 bc 13 18 b5 3c
       -0.06817658 0.023413667 -0.02547685 0.022106206
000290 ff c2 6d bd fd ab 54 bd a7 19 bd bd 97 8e 4a bd
       -0.05804729 -0.051921833 -0.092334084 -0.04945239
0002a0 fd 53 ba bc ef eb af bd 1f ba 99 3d 7f 12 d0 3d
       -0.022745127 -0.08589923 0.07506203 0.10159778
0002b0 ab 02 aa bd b4 59 37 bd 6c 36 e9 3d e9 f2 79 bb
       -0.0830129 -0.044763282 0.11387333 -0.003813917
0002c0 42 ba f3 3c c4 de 2a bd 5b 59 f1 3d 49 07 ba bc
       0.0297519 -0.041716352 0.11784621 -0.022708552
0002d0 48 a9 61 3d 4f 46 16 bd b2 3c 62 3b 44 d0 d6 bd
       0.05509308 -0.036688145 0.003452104 -0.10488942
0002e0 af d3 03 be f0 67 e9 3d 49 91 f6 bd 74 2b c7 3c
       -0.1287372 0.11396778 -0.1203943 0.024312712
0002f0 1d cb 45 3d a4 44 45 bd 85 a2 0d 3e e9 f6 4c bd
       0.048289407 -0.048161164 0.13831528 -0.05004016
000300 44 92 41 3d 00 76 24 3d d9 28 fe 3d 1b d9 bd bd
       0.04725863 0.040151596 0.12410135 -0.09269925
000310 ca c8 55 bd d5 06 a0 bd 4f 32 9f bd e3 ee c0 3d
       -0.05219344 -0.07813803 -0.077732675 0.09420564
000320 35 3d 02 bc 5f a0 e7 3d 92 3a 0c bd 4b 19 19 bd
       -0.007949163 0.11309885 -0.034235545 -0.037377637
000330 f8 81 2c 3d 84 08 f3 bd 1c 3f 83 3d d4 30 67 bc
       0.042116135 -0.118668586 0.064085215 -0.014110763
000340 18 a1 7b 3d 76 37 06 3c 0d 3b af bd 3c 08 cd 3d
       0.061432928 0.008191934 -0.08556185 0.10011336
000350 10 8a 05 be 00 51 a9 3d 38 96 53 bd a2 33 5e bd
       -0.13040948 0.08267403 -0.05165693 -0.05424846
000360 e8 89 a2 3d b9 ab 01 bd b9 4a 03 3e c6 7d c4 bd
       0.0793646 -0.031657908 0.12821473 -0.09594302
000370 40 54 ba bd 46 b1 0f 3d d2 fe 6b bc 5d d6 7e 3c
       -0.09098101 0.03508117 -0.014404016 0.015554038
000380 57 2a e8 3d 6c 90 97 3d 3a ba f1 3b 3a 48 03 3e
       0.11336201 0.07400593 0.0073769363 0.12820521
000390 59 ea de bd 72 81 d3 bd 19 17 a1 3d 6e 59 05 be
       -0.10884542 -0.10327424 0.07865734 -0.13022396
0003a0 9a c2 52 bd 2f 2e e2 bd 0b dd 8b 3d 93 4e ae 3d
       -0.051455118 -0.11043965 0.0682927 0.085110806
0003b0 83 1a dd bd 1e 83 a2 3c b8 37 94 3d 90 e5 8c 3c
       -0.10796072 0.019837912 0.0723719 0.017199308
0003c0 31 7a cb bd 50 9a fd bc 39 87 b4 3d f8 3e 20 bd
       -0.099354155 -0.030957371 0.08814854 -0.03912255
0003d0 a3 24 26 3d b2 b8 88 3d d5 ec b7 3d 6e 97 1b bd
       0.040562283 0.06675853 0.08980719 -0.03798621
0003e0 b0 ec d0 bd 63 a6 d0 bd c0 e1 42 bd c1 ff dd 3d
       -0.102013946 -0.10187986 -0.047578573 0.10839797
0003f0 55 08 ae bd e0 78 32 bd 36 a8 79 3c 99 27 f3 bc
       -0.08497683 -0.043572307 0.0152378585 -0.029681968

encoder.2.bias f4 [32]
000000 4f c7 25 bd 94 94 5d bb c6 37 b9 3d 77 3d 8d bd
       -0.04047328 -0.0033810483 0.09043841 -0.06896489
000010 2d 09 ef bd 03 a2 b6 3c e0 74 99 3d 10 53 c9 bd
       -0.11671672 0.02229405 0.07492995 -0.09830296
000020 a5 9d 4e bd b8 95 78 bd 2e b8 4a bd 28 f8 02 be
       -0.05044331 -0.060689658 -0.049492054 -0.12789977
000030 01 af 81 bd 4c f3 c8 bb 77 3c ad 3d 7d 3b dd bc
       -0.063322075 -0.006132519 0.084587984 -0.027005905
000040 f2 e8 61 bd d1 31 8c 3d 43 2d e2 bd a1 54 ad bd
       -0.055153795 0.06845439 -0.11043789 -0.08463407
000050 31 74 d7 bc fa fe 86 3c 53 8f 05 be a1 49 fa 3d
       -0.026300522 0.016479004 -0.13042955 0.12221075
000060 a8 80 02 3e 5d 7f ab bd 8d 18 c6 bd 66 55 c5 3d
       0.12744391 -0.08373902 -0.096726514 0.09635429
000070 fc 9a 86 3c 73 8e a8 bc 6f 4b ee bd e5 be d3 bc
       0.016431324 -0.020575738 -0.116354816 -0.025847862

encoder.4.weight f4 [64, 32, 3, 1]
000000 3d 73 25 bd a3 d5 69 3d dd 94 73 bd a0 dd 83 bd
       -0.040393103 0.057088505 -0.05946814 -0.06438756
000010 2c 1a 7a 3d 65 a8 b5 bd ff 01 9c bc ac b0 3c 3c
       0.061060116 -0.08870009 -0.01904392 0.011516731
000020 67 02 8a bd f4 ea 23 bc 7d 7c db bc 25 b7 ad 3d
       -0.067387395 -0.010004748 -0.02679276 0.08482198
000030 19 b0 d9 bd 03 13 12 bd bf 3b ad bb 83 a4 72 bd
       -0.10629291 -0.035662662 -0.0052866633 -0.05923892
000040 79 4b bb 3d e3 9e 0c 3d c4 f6 13 bc fb b0 88 3c
       0.09145255 0.034331214 -0.0090310015 0.016685953
000050 72 6e c2 bd b7 79 ae 3d 31 bf fe 3c fd e5 c7 bd
       -0.09493722 0.08519309 0.031097027 -0.09760664
000060 38 19 65 3d 6b f5 71 3d 6e 56 10 bd fa 8b b8 bd
       0.055932254 0.05907194 -0.035238676 -0.090110734
000070 37 84 a6 3d 51 4a 6d bd 76 05 ad bd 49 2f 9c bd
       0.08130687 -0.0579322 -0.08448307 -0.076262064
000080 8c b0 7b 3c 87 a4 bd 3d 77 67 24 3d 6b 66 1f bd
       0.015361916 0.09259897 0.040137734 -0.038916033
000090 40 1c 91 bd 7d 1a 47 bd 83 98 d4 bd e7 64 63 3c
       -0.070854664 -0.048609246 -0.10380652 0.013879037
0000a0 02 a8 2f 3d 7d f2 d3 3c a3 17 b9 3d 3d 4d 69 bd
       0.042884834 0.025872463 0.090377115 -0.056958426
0000b0 82 78 52 3d 56 15 a1 3d 25 a1 34 bd fc 19 ac bb
       0.051384456 0.07865398 -0.044098992 -0.005252121
0000c0 b6 5d 21 bd ab ea 64 bd d3 c8 66 bc de 64 3f bd
       -0.03939601 -0.05588786 -0.014085966 -0.046727054
0000d0 fe 7b d1 bd b7 be 4a 3d eb cf c8 bd 36 a2 5c 3d
       -0.10228728 0.049498286 -0.09805282 0.053865634
0000e0 41 45 83 3d cd 6d ee 3c 3f 46 b0 bd a1 e4 42 bd
       0.064096935 0.029105091 -0.086071484 -0.04758132
0000f0 fd 05 8f 39 34 c2 9c bc 75 15 9a bd 5b e9 4e 3b
       0.00027279547 -0.019135572 -0.07523624 0.0031572196
000100 3f 81 b3 bd 4b 1a 16 3d f8 f1 34 bd f7 f5 cf bc
       -0.08764886 0.03664617 -0.044176072 -0.02538584
000110 95 4a d4 bd 8d 59 1c 3b 99 ad 94 3d ef 02 94 bd
       -0.10365788 0.0023857087 0.072596736 -0.07227122
000120 0b 82 94 3c 16 99 51 bd 3f dd ae 3d 4f fb 14 bd
       0.018128416 -0.051171385 0.08538293 -0.03637248
000130 82 f5 9f bb eb 05 89 3d 05 6f ad bd 7a 2f be 3d
       -0.0048815617 0.06690582 -0.08468441 0.09286399
000140 7b 1e 8b 3c 27 4b 40 bd 3b d4 ab 3c 89 46 c2 3d
       0.016982308 -0.04694667 0.020975223 0.0948611
000150 95 97 92 3c f8 92 a0 3d 83 3b d0 bc 43 da 48 bd
       0.017894546 0.07840532 -0.025419002 -0.049036276
000160 2b 1b 38 bd 49 7c ba 3d 3a 8c 1c bd 80 fd b6 3d
       -0.044947784 0.09105737 -0.038219668 0.0893507
000170 ae 1c 9a 3c 71 1a 24 bc 72 26 fe 3c 57 14 0c bd
       0.018812504 -0.01001607 0.031024192 -0.034199085
000180 7f fe 56 3d ca 88 81 3d 2c fb a6 3d 65 90 df bc
       0.0524888 0.063249186 0.08153376 -0.027290532
000190 60 e6 45 3d 0d 9f ff ba 29 8d 24 bd 25 fb 1e 3d
       0.048315406 -0.0019502357 -0.040173683 0.03881373
0001a0 7a 23 3d 3d 9f 33 74 bd 9b b7 c5 bd 82 ec 8f bd
       0.04617641 -0.059619542 -0.096541606 -0.07027532
0001b0 f2 32 65 bd 4d e8 84 bd 3f 3a 89 3d 69 61 c5 bc
       -0.05595679 -0.0648962 0.06700563 -0.0240943
0001c0 dc 28 a0 3d b7 dc c8 3c c0 a8 cd 3b 2f 49 1f 3d
       0.07820293 0.024519308 0.00627622 0.038888153
0001d0 eb 87 e1 bd fd ae bc 3d cf 9a 76 bd 1c 24 b5 3d
       -0.110122524 0.09213064 -0.06020623 0.08844778
0001e0 e2 ad 32 bd 6e cf e4 bc b3 b6 24 bc 76 c6 5a 3d
       -0.04362286 -0.027930941 -0.0100533245 0.053411923
0001f0 93 4e 9d bc 27 99 96 bd ff 04 30 bd 27 f5 39 37
       -0.019202506 -0.0735343 -0.042973515 1.1083938e-05
000200 79 9d cb bd 9d 32 f9 3c b9 26 cd bd d4 26 8d 3d
       -0.09942145 0.030419642 -0.100171514 0.068921715
000210 f0 fd 3a bd b9 e0 ac 3d db 15 42 bd d4 c3 da bd
       -0.04565233 0.084413 -0.047384124 -0.106818825
000220 13 7b cb 3c 22 be 35 3d 88 da 80 3d eb 10 a6 bd
       0.02483896 0.044370778 0.062916815 -0.081086956
000230 8f 5e f8 bc 21 af a5 bc 29 dd 1a be 8e 35 41 be
       -0.030318527 -0.02022511 -0.15123428 -0.18868086
000240 a0 12 79 bd af 16 b0 bc 6e 14 d9 3b 5f 2c bf 3d
       -0.060808778 -0.021495191 0.00662475 0.09334635
000250 6e d5 bf bd cf 4b 55 3d 50 b9 7b 3d 3a b3 0d bd
       -0.0936688 0.05207425 0.061456025 -0.034594752
000260 c1 c8 29 bd d2 b5 72 bd c3 71 9c 3d b1 9a 3f bd
       -0.04145122 -0.05925543 0.07638886 -0.046778385
000270 de b7 8f bd a3 65 f0 3c 10 49 1f bd 69 4a 85 bc
       -0.07017492 0.02934534 -0.038888037 -0.016270833
000280 91 8d b6 bd bf 3b 21 bd ce 11 a5 3d 2d 67 90 bd
       -0.089137204 -0.03936362 0.080600366 -0.07050929
000290 d7 d1 7f 3d 47 07 23 3d 91 a3 0f 3d 8a 26 8e bd
       0.06245598 0.039801862 0.0350681 -0.069409445
0002a0 94 4f 9b bd 6f 96 90 3d b4 21 08 3d c8 47 fd 3c
       -0.07583538 0.07059943 0.033235267 0.030918017
0002b0 87 4f bd 3d 7f 37 8a bc 90 79 84 3d ca a0 b5 bd
       0.09243684 -0.016872166 0.06468499 -0.08868559
0002c0 9d a1 36 3d 46 c3 33 bc 1c 6c 0c 3c e4 9b a8 bd
       0.04458772 -0.01097185 0.008570697 -0.08232859
0002d0 63 5e 7c ba 29 c5 69 3d 15 ed 9a bd a8 32 51 bd
       -0.0009627102 0.057072792 -0.07564751 -0.0510737
0002e0 68 6a eb 3c 92 d0 05 3d c3 27 21 bd 48 38 a8 3d
       0.028737262 0.03266961 -0.03934456 0.0821386
0002f0 68 2b 02 3c c8 1f 1e bd e7 30 d6 3b 2b 88 91 3d
       0.007944919 -0.038604528 0.0065365913 0.0710605
000300 17 66 97 bc f0 61 00 a9 6e d2 66 3c 79 c5 37 bc
       -0.018481297 -2.8506657e-14 0.014088256 -0.011216515
000310 c6 b3 78 3c 24 4b 1f bd 61 b8 37 bd 22 44 ac 3c
       0.01517958 -0.03889002 -0.04485357 0.021028582
000320 d9 5c 63 3d 41 6d f4 3a 7c 2a b6 bb 53 2e 07 ab
       0.05550847 0.0018648283 -0.0055592638 -4.802592e-13
000330 18 7d 2c 3d e4 91 9d 3c 58 d4 b6 bd 32 d4 a7 bd
       0.042111486 0.019234605 -0.0892722 -0.0819477
000340 ff 2c 6b bc 84 8a 11 3d f9 ca 91 bb 2f b5 62 bd
       -0.01435399 0.03553249 -0.004449245 -0.05534857
000350 8a 27 a5 b9 94 da 2f 3d 31 18 bc bc ed ca 91 bd
       -0.0003150071 0.04293306 -0.022960754 -0.07118783
000360 bd 37 4a bc 9c 3a 91 bc 89 77 ab 39 35 c9 25 bd
       -0.012342391 -0.017728142 0.00032704722 -0.04047509
000370 3c 29 a4 3a e0 e8 1e a6 a1 76 14 bb f0 6b 28 39
       0.0012524496 -5.5132866e-16 -0.0022653716 0.00016061938
000380 36 35 45 bb 40 12 81 3d a4 ea 9b 3d 2e 6c 8c bd
       -0.003009153 0.06302309 0.076131135 -0.06856571
000390 38 90 22 3d 2f 40 39 3c 57 26 6c bd c3 27 86 bc
       0.03968832 0.0113068065 -0.05765375 -0.016376382
0003a0 f9 59 df bc 54 23 67 3c 38 6f 55 3d 86 ef bb bd
       -0.027264582 0.014107544 0.05210802 -0.09176545
0003b0 ce ff 1f 3c d8 82 a4 bb 6d df 88 bc 8a 02 9f bb
       0.009765578 -0.0050204806 -0.0167081 -0.0048525976
0003c0 17 1e 71 bd 2a 82 d9 bc 54 0e fc 3b 1e a0 5b 3d
       -0.058866587 -0.026551325 0.0076921377 0.053619497
0003d0 85 8c c8 bc 35 a8 d2 bc f6 1c 25 3b 82 c8 9e ba
       -0.024481067 -0.025714973 0.0025194264 -0.0012114199
0003e0 79 24 03 3b d3 30 18 2d ad 17 04 29 07 ae 62 3a
       0.0020010753 8.651041e-12 2.9330423e-14 0.0008647148
0003f0 4e d4 85 bd fc 02 41 bd fb 13 a6 bc 1b 4a ae bb
       -0.065346345 -0.047121987 -0.0202732 -0.0053188927

encoder.4.bias f4 [64]
000000 49 55 31 3c 19 4f 69 3c 33 e7 dc 3c ae 59 92 3c
       0.010823556 0.01424005 0.026965713 0.017865028
000010 e4 50 c0 bd 8f 48 57 bd 9f 10 06 3d ea 83 c0 bc
       -0.09390429 -0.05255943 0.032730695 -0.023500402
000020 f2 e2 8b bd 02 07 3f bc 98 59 25 3c 89 78 c1 3d
       -0.06830396 -0.011659386 0.010092162 0.094468184
000030 09 95 ec bc 09 7e a2 bd dd 57 82 bc 2a 92 c5 3c
       -0.02887966 -0.079341955 -0.015911037 0.024117548
000040 d0 70 b1 bd 7c ea 8e 3d f3 67 e4 bc 6e 21 be bd
       -0.086640954 0.06978318 -0.027881598 -0.0928372
000050 3f 01 6b 3d 3e f4 86 bd 72 69 92 bd 47 ad 01 bc
       0.057374235 -0.06589554 -0.07149018 -0.007914848
000060 08 3d 89 3d 9c cf 4c bd d9 77 4b 3d 80 ac 98 3c
       0.06701094 -0.05000268 0.049674843 0.018636942
000070 a2 4d 51 3c 0b 34 8c bd d1 ba b9 38 63 0b ef 3c
       0.012774857 -0.06845864 8.856285e-05 0.029180234
000080 25 47 b8 3d 7b 21 d2 3a 18 0a 3c 3d d9 d3 38 bc
       0.08997945 0.0016031706 0.045908064 -0.011280977
000090 1c b6 7b bb 7e 3a 5d bd 12 a6 e7 3c dc 63 a3 3d
       -0.0038408106 -0.05401086 0.02827743 0.07978031
0000a0 2c 7e b7 3d 60 0c 51 3d c0 83 87 3d 88 48 b8 3d
       0.08959612 0.051037192 0.06616926 0.08998209
0000b0 a0 43 e5 bc 42 47 8c 3d 96 9d e2 3c f4 83 cf bd
       -0.027986348 0.06849529 0.027663033 -0.1013259
0000c0 a6 e3 17 bd a5 29 6c 3d 4c 1f 00 bd 5a a6 bc bd
       -0.037082337 0.057656903 -0.031279847 -0.092114165
0000d0 b3 75 1c bd 8c bd b8 3d a6 78 89 bd ae 53 b5 3d
       -0.038198184 0.09020528 -0.06712465 0.08853851
0000e0 9f 47 86 bc df 13 0f 3c 59 28 7f 3d 24 c1 ee bc
       -0.016391573 0.008732765 0.062294338 -0.029144831
0000f0 3f df df ba 81 93 8d 3d 2e 6d 8d 3d c0 f6 4a 3d
       -0.0017080082 0.069129 0.0690559 0.049551725

encoder.6.weight f4 [128, 64, 3, 1]
000000 1a d3 8c 3b 7c e1 32 bd 0a b6 61 3d 74 78 83 bb
       0.004297626 -0.04367207 0.055105247 -0.004012162
000010 7e e4 22 bc 9c d6 79 3b 42 69 d0 bb c1 5d c2 b9
       -0.009942172 0.0038122302 -0.006360204 -0.00037072416
000020 88 a0 2c bc 3b 8d 17 3d e1 37 85 bc 85 37 45 3d
       -0.0105363205 0.036999922 -0.016261997 0.04814865
000030 d9 f6 03 3d b6 35 46 bc 24 76 87 bd 76 9a 5d 3c
       0.032217834 -0.012097767 -0.066143304 0.013525596
000040 76 0a 54 bd 45 4c d2 3c 9f 66 98 bd 2c 46 5f 3d
       -0.05176779 0.025671134 -0.074414484 0.05451028
000050 a0 8e 44 ba 4b 8f 01 3c 2a 18 5b 3d 80 f7 78 3d
       -0.00074980594 0.007907699 0.05348984 0.06078291
000060 51 8b 62 3c 49 ce 46 bc 42 e6 ed 3a be ef 35 bd
       0.013827161 -0.012134143 0.0018150287 -0.04441809
000070 a1 8e e3 bc 77 c0 55 bd 9e bf 15 3d 37 f7 e0 bc
       -0.027777972 -0.052185502 0.036559694 -0.027461631
000080 66 bc 23 3d b9 b5 10 3d 05 18 8e bd 4e ef 1a 3d
       0.039974593 0.035329554 -0.06938175 0.037825875
000090 56 97 59 bc ff 56 80 3b db f8 91 bc 3f f3 5c 3d
       -0.01328071 0.0039166207 -0.017818859 0.053942915
0000a0 af a4 e0 3c 77 72 61 3d 1b 68 a0 3c 6d ad 57 bd
       0.027422277 0.055040803 0.019580891 -0.052655626
0000b0 59 af 5e 3d e6 50 02 bd 29 f0 4b 3d 41 c8 9d bd
       0.054366443 -0.031815432 0.04978958 -0.07704211
0000c0 4a c9 0f b9 fa fb 4c 3d 49 48 46 3b 83 f9 fd 3c
       -0.00013712529 0.05004499 0.0030255488 0.031002766
0000d0 a6 fb bf 3b 59 5c 00 bd 40 a5 08 bd 4e f5 5c bd
       0.0058588563 -0.03133807 -0.03336072 -0.05394488
0000e0 b1 91 94 3d 05 75 d0 bc b2 48 3b bd 33 4b 60 bd
       0.07254351 -0.025446424 -0.045723625 -0.054759216
0000f0 90 36 81 3b 0d f8 02 3d 55 d1 52 3c e3 f1 32 3c
       0.003943272 0.03197484 0.012867291 0.010921928
000100 16 7d df 3c 60 5d 82 3d ab d8 94 b7 c0 d7 22 b9
       0.027281325 0.06365466 -1.7743869e-05 -0.00015529897
000110 18 4a 62 3b ec 37 02 bc 5a 3a 25 3c a6 bd 74 bc
       0.0034529027 -0.007947903 0.010084713 -0.014937794
000120 c4 89 fc bb 34 f4 4f 3d f3 c5 d7 3a bc 11 85 3c
       -0.0077068526 0.05077 0.0016462192 0.016243808
000130 b8 74 39 bd cf 20 69 3d 80 f3 db bc 94 67 26 3d
       -0.045277327 0.056916054 -0.026849508 0.040626124
000140 b0 a6 58 3c 28 80 2b 3d 3d 5c 1c 3d b4 79 6e bd
       0.013223335 0.041870266 0.038173903 -0.058221534
000150 4d f6 bb 3c 74 32 e9 bc 82 6a 04 bd 66 9c 37 bd
       0.022944594 -0.02846644 -0.032328136 -0.044826888
000160 c4 9e 7b 3b 75 9a 34 bc 8c 9c 7e 38 89 13 07 3d
       0.0038394192 -0.011023154 6.0704115e-05 0.032977615
000170 79 62 37 bc 86 e0 6c 3c a1 e1 46 3d 09 de 63 bd
       -0.011192911 0.014457827 0.04855502 -0.05563167
000180 75 8b 34 3d ea ec 03 3c f1 7d 3c 3d e1 c8 00 39
       0.04407831 0.00805209 0.046018545 0.00012281864
000190 d5 38 d2 3d 34 ff 59 3d 6d 15 39 bd 48 00 59 3c
       0.10264746 0.053221896 -0.04518645 0.013244696
0001a0 17 ff 74 bc 0e f2 8c bd 42 2f c4 bc 65 9a 8e 3c
       -0.014953396 -0.06882106 -0.023948316 0.017407605
0001b0 0b bd 98 bc 33 18 c1 ba b5 5e 1c 3d 10 e7 8b bc
       -0.01864483 -0.0014731943 0.038176257 -0.017077953
0001c0 57 53 1c 3c f4 54 5b 3b 2d 2a a0 bd 04 61 27 bd
       0.009541354 0.0033467384 -0.078205444 -0.040864006
0001d0 c7 a5 7d bd f4 ec 19 bd 0f bb 11 3d 5e 3f 77 3d
       -0.061925676 -0.03757949 0.035578784 0.060363166
0001e0 8c 27 4d bc bb 29 f4 bb cd 78 1d 3d e7 55 45 bd
       -0.012521636 -0.0074512637 0.038445283 -0.048177626
0001f0 55 db 0b 3b a4 d6 37 3d 2b 8a a0 bd 46 ca 75 3d
       0.002134045 0.04488243 -0.078388534 0.060007356
000200 34 22 34 bc 3b 36 85 bd 1c f0 5f bd 2d ae 6f 3d
       -0.010994483 -0.06504484 -0.054672346 0.058515716
000210 c0 06 2e bd 25 89 34 bd 7f 2c 16 bd dc b8 31 3d
       -0.042486906 -0.044076104 -0.03666353 0.043389186
000220 ad 76 7a bd 78 19 2f 3d ec d7 80 3d 30 f1 66 3c
       -0.061148334 0.0427489 0.06291184 0.0140955895
000230 b8 1b 67 3c e5 76 6f bd d7 32 94 bc 08 03 86 ba
       0.01410573 -0.058462996 -0.018090649 -0.0010224292
000240 8b 70 1c bd 35 aa f8 3b 7e 10 20 3c d5 5a 38 bd
       -0.038193267 0.0075886496 0.009769557 -0.0450085
000250 d3 1e 54 3c 01 0d 84 bc d2 e3 4a 3c 0b 34 18 bc
       0.012946802 -0.016119482 0.012383418 -0.009289752
000260 f2 5e f6 bc 05 1b 1b 3d 3c 71 4c bd b0 3b 5e bd
       -0.03007457 0.037867565 -0.049912676 -0.05425614
000270 fd 26 2a 3a 2e 65 32 3c b2 82 6c 3d 63 5c bd bc
       0.0006490795 0.010888381 0.05774183 -0.023115342
000280 fa 10 54 3d 21 8a 67 bc 9a 9b 72 bd 6d 6c b8 bb
       0.051774003 -0.014132054 -0.059230424 -0.0056281597
000290 85 37 57 3d d6 ee a2 bd b8 88 69 3d a1 4e 35 bd
       0.052543182 -0.079557106 0.05701515 -0.04426444
0002a0 94 3a b2 bb bb e1 68 bb d7 47 3e 3d dd e9 f0 ba
       -0.005439112 -0.0035534936 0.04645523 -0.0018380244
0002b0 75 5d 1e 3d 62 40 fe 3c 3c de 14 ba 6b 0c 9c bd
       0.038663346 0.03103656 -0.00056788675 -0.07619556
0002c0 b6 d2 09 3d 58 7b 50 ba 09 b7 ff bc 46 c9 81 bd
       0.033648215 -0.000795295 -0.031215208 -0.06337218
0002d0 1c a2 41 aa fe 17 a4 32 55 2d 31 33 bc c9 77 bd
       -1.7198086e-13 1.9103023e-08 4.1252253e-08 -0.060495123
0002e0 a5 b5 8b bd d9 e4 1f bd b5 fa 28 bd a5 5f 0e bd
       -0.06821755 -0.039036606 -0.041254718 -0.034759182
0002f0 79 73 a2 bd 38 0b c8 bc bd fa 44 3d b5 f6 76 3d
       -0.07932181 -0.024419412 0.048090685 0.060293872
000300 fd 1b ef 3c 6a 96 bd bc d6 5b c2 bc df 61 b1 bc
       0.02918815 -0.023143012 -0.023725431 -0.021653114
000310 6e 88 98 3c ed b1 eb 3c 49 a3 eb bc ff 3a 16 bd
       0.018619742 0.028771365 -0.028764384 -0.036677357
000320 7d 63 61 3d 27 21 ea 3c a8 3a 3f 3d 49 ab d6 3c
       0.05502652 0.028580261 0.0466868 0.026204722
000330 62 6e 49 bd d9 10 50 bd a4 88 34 3d e4 ce 17 3d
       -0.049177535 -0.050797317 0.044075623 0.03706254
000340 95 12 28 bd f7 9b 05 bd e2 88 53 bd 92 38 64 bd
       -0.041033346 -0.032619443 -0.051644213 -0.055718012
000350 ab 4e 92 bd 3d b3 1e 3d 35 b2 74 bd 26 6d f4 3a
       -0.07143911 0.038745154 -0.059740264 0.0018648251
000360 74 8f 24 3d 2e ac e2 3c 61 36 6b 3a f3 a8 cf bb
       0.04017587 0.027669992 0.00089726417 -0.006337279
000370 8a 84 9d bd 45 65 86 bd c8 6b 02 3c c9 86 28 3d
       -0.076912954 -0.065622844 0.007960267 0.041144166
000380 49 8a 35 3d 47 96 18 3d c4 ea 48 bd ef 00 69 bd
       0.044321332 0.03725269 -0.049052015 -0.056885656
000390 86 15 97 bd 71 67 98 bd 9e cb 61 bd 70 12 60 3c
       -0.07377152 -0.07441605 -0.055125825 0.013676271
0003a0 c3 12 a1 bc 1a 2c 36 3d 85 3d c2 3c fd 3b 25 bd
       -0.019662267 0.044475652 0.023710975 -0.040340412
0003b0 b9 75 fd 3c 84 01 95 3c b0 f4 d7 bc 6e 36 99 bd
       0.030939924 0.0181892 -0.026361793 -0.07481085
0003c0 f0 5f 91 3c e2 70 62 bc 54 a3 91 bd 04 3a af 3c
       0.017745942 -0.013820859 -0.071112305 0.021389969
0003d0 97 17 a1 bd 93 b9 b6 3c ca 03 bf 3c c0 2e 21 bd
       -0.078658275 0.022305286 0.023317236 -0.039351225
0003e0 f5 7e 2c ba 13 b7 a6 bd 58 0d 99 bd 1c 41 22 bd
       -0.00065801974 -0.081403874 -0.07473248 -0.039612874
0003f0 f9 f4 36 3d 35 25 01 3c b5 f3 0c bd d4 ba f9 3b
       0.044667218 0.007882406 -0.034412105 0.0076211486

encoder.6.bias f4 [128]
000000 41 90 3c bd a2 66 c7 bb 9e b1 11 3d a9 de 9e bc
       -0.04603601 -0.006085233 0.03556978 -0.019393282
000010 5b 46 0c bd aa 2d 8f 3d 92 64 1f 3d 93 c9 1e 3c
       -0.034246784 0.069911316 0.03891427 0.009691614
000020 61 5b eb 3c 25 b2 57 bd 08 9f 7a 3d db 0e cd 3c
       0.028730096 -0.052660126 0.06118682 0.025031498
000030 d3 fe 80 bc 0f 94 1a 3d cc 2a 87 b8 c7 09 2b 3d
       -0.01574651 0.037738856 -6.445273e-05 0.04175737
000040 57 cd 60 bc ba 59 5a 3c 36 ca 95 3b 1a c3 25 3d
       -0.013720832 0.013327057 0.0045712246 0.040469266
000050 4e ac f2 bc b6 7a 25 bd 1f ea 12 bd b0 15 3a bc
       -0.029623177 -0.04040023 -0.035867807 -0.01135771
000060 65 4c 83 3d 36 ad 08 3c cc 46 30 3d ba 9e bf 3c
       0.064110555 0.008342078 0.043036267 0.023391116
000070 0a c7 ba 3c be cd 90 bd f2 9c 62 bc d0 97 d1 3c
       0.022799987 -0.07070492 -0.013831364 0.025585085
000080 d4 8c 09 bd d4 ab d8 3b c6 7c 99 bd ff 92 50 3d
       -0.03358157 0.0066122804 -0.07494502 0.050921436
000090 49 5d 83 bd c5 1a f4 bc 3b 80 d8 3a ca 4c 7f bc
       -0.06414277 -0.029797921 0.0016517708 -0.015582273
0000a0 6d 21 25 ba bd 7d 1d bc d4 e2 64 3d 2e 02 57 bc
       -0.00062992313 -0.009612498 0.055880383 -0.013123078
0000b0 a9 d5 2b 3c f2 e2 cd 3c 26 6c 0c bd 8b 2d 35 bd
       0.010487952 0.02513263 -0.034282826 -0.044232886
0000c0 46 a8 45 bc 47 d7 69 bb d2 d0 0b b4 0b 4e 20 bc
       -0.012064045 -0.0035681294 -1.3021352e-07 -0.009784232
0000d0 3f 38 6d 3d f4 30 f5 3c 88 ac ef 3c 5d 89 eb bb
       0.05791497 0.02993057 0.029257074 -0.007188006
0000e0 3d a6 8b bc 11 de 8f 3c 41 ce ee b3 77 f8 74 3d
       -0.017047042 0.017561944 -1.1120256e-07 0.059807267
0000f0 56 8a 56 bb f8 10 c5 bb f6 a6 5f bd da fc a0 bc
       -0.0032736263 -0.0060139857 -0.054602586 -0.019651819
000100 82 d5 47 3d e7 8c a0 3c 84 bc 37 3d de 60 ba bc
       0.0487876 0.019598437 0.044857517 -0.022751268
000110 a1 07 6f 3d 75 ce f0 3a c7 9d 64 bd 25 cb 89 bd
       0.058356885 0.0018372076 -0.05581453 -0.067282
000120 12 0e 05 3d 92 d7 83 3b 06 c0 75 3d b5 20 c2 bc
       0.03248412 0.0040235007 0.05999758 -0.023697237
000130 7f 4a 75 3d 44 bf 27 3d 8b bc 8a bc f0 a1 19 bc
       0.059885498 0.04095389 -0.016935607 -0.009376988
000140 b9 54 4c bd 83 83 8a bd 28 2b c6 3c a2 31 48 bd
       -0.049885485 -0.06763365 0.0241905 -0.04887546
000150 9c 4d 93 3b b2 fd 2f 3d 6b b6 65 bd d0 18 03 bd
       0.0044953357 0.042966552 -0.05608217 -0.032006085
000160 5b e7 39 bb e6 d3 20 bd aa 48 2a 3c a6 24 81 bd
       -0.0028366658 -0.039264582 0.010393301 -0.06305818
000170 3a 1a c4 3c e6 47 59 3b 34 fe 23 bd 8e 0c 1d 3c
       0.023938287 0.0033154427 -0.04003735 0.009585513
000180 12 21 21 bd 27 17 dc bc 72 c3 35 bc 8f 4e 3c 3d
       -0.03933818 -0.026866509 -0.011093961 0.045973357
000190 bb eb 0d bc 32 15 55 bd f5 e8 b7 bc 0c 41 70 bd
       -0.00866216 -0.052022167 -0.02244995 -0.058655784
0001a0 83 84 4c bd 8e 5b 03 bd 3f 3e 73 3d 37 f1 17 bd
       -0.04993106 -0.032069735 0.059385534 -0.037095275
0001b0 a7 9c 0f bd e8 ab 3f bb 16 2e 33 bd 6c 1a 64 3b
       -0.035061505 -0.0029246751 -0.043745123 0.0034805788
0001c0 cd 2f a7 bc 38 2c 53 3d 59 7f b1 3c 59 d9 de 3c
       -0.020408535 0.051555842 0.02166717 0.027203249
0001d0 7f c7 7e 3d e3 09 48 3d 35 0d 44 bd 64 31 48 3d
       0.062201973 0.048837554 -0.047864158 0.048875228
0001e0 f4 cf bf 3c 0c 3e 28 3b 32 a7 1b bc 44 8d 88 bb
       0.02341459 0.0025671748 -0.009500312 -0.004167231
0001f0 06 51 aa bb e2 1b b8 3c 64 f5 f5 bc 4e 2e c7 bc
       -0.005197647 0.022474233 -0.030024238 -0.024314072

encoder.8.weight f4 [256, 128, 3, 1]
000000 22 03 bc 3c 56 49 4d 3d e6 96 e7 bc 11 e1 c6 bc
       0.022950713 0.050118767 -0.028270196 -0.024277242
000010 91 8a d7 bc b0 1c 13 bc 6b ba 38 3d eb 8a 1e 3d
       -0.02631119 -0.008979008 0.045099657 0.0387067
000020 c3 46 31 3d 3e 8f 48 bc fb ac aa 3c 06 5a e1 bb
       0.043280374 -0.012241183 0.020834437 -0.0068771867
000030 44 ca 13 bc 72 33 33 3d ab 1a 1c 3d a0 f6 03 bd
       -0.009020392 0.043750234 0.03811137 -0.03221762
000040 a9 bb 35 bd 33 f6 30 3d 0a c9 1a 3c 24 e4 34 bd
       -0.04436842 0.043203544 0.0094473455 -0.044162884
000050 3f c5 48 bd 16 97 5a bd 42 c1 03 bd a3 47 9b 3c
       -0.049016234 -0.053366743 -0.032166727 0.018955057
000060 d8 d5 24 bd 8c cb 96 bc a5 59 44 bd 68 5b ca 3b
       -0.040243 -0.018407606 -0.047937054 0.0061754473
000070 27 9a fd bb 60 38 ee ba 08 76 8c bc 23 46 2e 3d
       -0.0077393237 -0.001817476 -0.017146125 0.042547356
000080 fb 84 00 3d 67 5b 18 3c 67 6a 5c 3b 62 be a3 3b
       0.03137682 0.009299136 0.0033632757 0.0049970606
000090 99 11 d5 3c 41 a0 66 3c 1f ef 56 bd 53 71 3c bb
       0.026009368 0.014076293 -0.052474137 -0.002875407
0000a0 70 30 41 3c 55 f9 30 bd 14 7e 10 ae 3a f6 2c ae
       0.011791334 -0.04320653 -3.285379e-11 -3.9326965e-11
0000b0 02 ac 3c ae 60 04 03 bd 96 34 aa ba 91 33 3d 3d
       -4.2899025e-11 -0.031986594 -0.0012985643 0.046191756
0000c0 ba eb e1 3c c8 8f 60 bc a0 a7 55 3d c7 d3 ce 3c
       0.027578223 -0.013706155 0.052161813 0.025247468
0000d0 5f a6 04 3c d5 75 1a bd cc e1 78 bb 20 f5 18 bd
       0.008096307 -0.03771003 -0.0037976382 -0.037343144
0000e0 5c d5 8f 3c 9b f4 4f bd 3e 1a fd 3c e8 3f e6 bc
       0.017557792 -0.050770383 0.030896302 -0.028106645
0000f0 82 e3 58 3c 00 54 34 3d 8a 56 ca bc 06 f3 c0 ad
       0.013237836 0.04402542 -0.024699468 -2.1935797e-11
000100 2d 08 ca 29 85 12 82 2c 35 96 1d bd d0 83 a9 3c
       8.97202e-14 3.6968783e-12 -0.038473327 0.020692736
000110 c5 8b b8 3c 2f b3 2c 3c f5 ac 30 3c 72 13 30 3c
       0.022527585 0.010540768 0.010783424 0.010746824
000120 94 b7 8d 3c ea fc 2e bd 2d 46 4b bd 96 8c 10 3d
       0.017299451 -0.042721666 -0.04962747 0.035290323
000130 33 42 1e 3c 5a ae a0 bc 89 02 38 bd b4 55 81 3c
       0.009659338 -0.019614387 -0.044924293 0.015787937
000140 25 93 20 bd ea eb 04 3d a3 fd 1d 3d 8f d1 dd bc
       -0.039202828 0.032451548 0.038571965 -0.027077464
000150 f2 c1 d2 bb 59 75 15 3d f5 55 8a 3c 88 87 3d bd
       -0.0064318115 0.036488865 0.01688669 -0.04627183
000160 47 e7 29 3c 97 0b ef bc 54 bf c5 bc 9a 9b 06 bc
       0.010370082 -0.029180331 -0.024139084 -0.008215809
000170 f4 1a 36 3c 7d 2e af bc d1 a5 a4 3c 5d 04 14 bd
       0.011114825 -0.021384472 0.020098599 -0.036136974
000180 0a 61 17 ad 16 24 10 2e 4f df b7 2b 17 0e 8f bb
       -8.604903e-12 3.277386e-11 1.3064913e-12 -0.0043656933
000190 41 8d e9 3b f6 de ca 3b 36 5f 22 3d 00 7d 38 bd
       0.0071274345 0.00619113 0.03964158 -0.045041084
0001a0 c7 bf 15 bd 71 38 b5 3c f3 dd 17 bd 1e cb 87 3c
       -0.036559846 0.02212164 -0.0370769 0.016576346
0001b0 21 0c 9c 3c 54 4a 4d 3c f5 b3 2b bd f1 39 0e 3d
       0.019048752 0.012529928 -0.041919667 0.034723226
0001c0 bf 83 db 3c ee 1b 5e ba bb aa ff 3c 33 3d b6 3c
       0.02679622 -0.000847279 0.03120934 0.022245979
0001d0 a2 43 51 3c 9a df 25 3c cb cd df 3c 2b 09 d1 3b
       0.012772473 0.010124112 0.02731981 0.0063792667
0001e0 dd a5 df bb 8a bc 86 bc 32 86 00 3b fb e0 07 3d
       -0.0068251924 -0.016447324 0.0019611237 0.033173542
0001f0 a6 35 af bc cb 51 0b bd 90 ea b6 bc a9 6a 3b 3c
       -0.021387886 -0.03401355 -0.022328645 0.011439004
000200 0d 95 b6 3b 93 fa c7 a9 cf 3e 93 a8 d9 cd 1a a8
       0.0055719675 -8.880843e-14 -1.6347517e-14 -8.593353e-15
000210 7b 9b c4 bc b7 b1 e8 3a d9 e1 cf 3c 7b 2e 3c 3d
       -0.02399992 0.0017753158 0.025376247 0.045942765
000220 a8 2e 03 bd b2 3e 1c 3b 95 53 67 bd 2f 26 54 bc
       -0.032026917 0.002384108 -0.056476194 -0.012948557
000230 7e 6d 69 bd 6b 97 b2 bc 1a ef 9f 3b df 0e 98 3b
       -0.056989186 -0.021800717 0.004880798 0.0046404446
000240 a8 57 3a bc d8 d3 39 bc 78 b7 39 bc 87 6c ef b5
       -0.011373438 -0.011342011 -0.011335246 -1.7838473e-06
000250 6a a4 b3 39 9a 9b 96 bc fa 0b af ac 0f 82 9b 2c
       0.0003426404 -0.018384743 -4.975129e-12 4.4198044e-12
000260 46 19 21 ac 50 d8 56 3c f5 47 57 3c 3d 6c 5c 3c
       -2.2893506e-12 0.013113096 0.0131397145 0.01345354
000270 6d 28 94 bb 26 3a 6e 3d 8d 04 9b ba 8e d2 c4 bc
       -0.0045214207 0.058160923 -0.0011826918 -0.024026182
000280 d8 07 93 3b e4 4f 71 bc 1c e0 f1 3b 84 e2 55 3d
       0.004487019 -0.01472852 0.0073814522 0.052217975
000290 1c 13 61 3d 31 1c 90 bc 1b 5a 8c bc 1a bd d8 b8
       0.054949865 -0.017591568 -0.01713281 -0.000103349055
0002a0 53 92 11 3d 02 6a fb 3c 81 23 a9 bb 9f 99 fa 3b
       0.035539936 0.030690197 -0.005161703 0.0076477076
0002b0 03 4f e4 bc a5 8a 47 bd 2c 23 9d a7 ed 4c 74 29
       -0.027869707 -0.048716206 -4.3614387e-15 5.4245606e-14
0002c0 e1 89 a9 27 a9 3f 6a 3c 0a 44 d0 bc 68 c4 08 3c
       4.705641e-15 0.014297404 -0.025423069 0.008347608
0002d0 49 7c f4 3b 71 1e 1a 3c 0e f2 1b 3c d2 4a 6e 3c
       0.007461105 0.009406672 0.00951816 0.014544206
0002e0 7d a0 40 3d 42 41 cf 3c e6 cc 4e 3c ab 8e 8e 3c
       0.047028054 0.025299672 0.012622094 0.017402014
0002f0 94 d5 58 bc 36 57 df 3c 48 2d 19 3d 23 5c 8b bc
       -0.013234515 0.027263265 0.0373967 -0.017011708
000300 0c d7 35 bd fa b4 2b 3d 8b 70 0b 3d e5 2a 54 bc
       -0.044394538 0.04192064 0.034042876 -0.01294968
000310 6d bb cf 3b 86 06 3d 3d e6 7d 2a bd 41 b4 80 3c
       0.0063394816 0.0461488 -0.041623972 0.015710952
000320 4c af d0 bb ed 6e 4b bd d0 15 13 bc 52 08 38 3c
       -0.0063685533 -0.049666334 -0.0089773685 0.0112324525
000330 a1 c7 93 3c 06 77 0e bd 3b 96 17 bc e5 5c e3 bb
       0.018039526 -0.03478148 -0.009252126 -0.006938564
000340 f6 75 4d 3c db 5d 6d bc 16 da 39 3d c2 39 f7 3c
       0.012540331 -0.014487709 0.045374 0.030178908
000350 18 02 24 3d 91 41 04 3d 9e b2 29 bd 9b 49 47 bb
       0.04004106 0.03228909 -0.04143011 -0.0030408863
000360 5e 47 09 3a 8f 82 3b 3c 11 f4 06 3d e8 6d c3 3c
       0.000523677 0.011444702 0.032947604 0.023856118
000370 d7 b8 f3 bc 03 e0 4a bd d3 55 26 bd fc ed bd 3c
       -0.029751224 -0.04953004 -0.040609192 0.023184769
000380 a9 b0 8f 3c ef 37 6d 37 30 60 3f af b1 24 50 37
       0.017540293 1.4139324e-05 -1.7405521e-10 1.2406309e-05
000390 0c 8c 61 bc 9a 46 54 3a f0 0d 59 3c fe 0f 95 bd
       -0.0137663 0.00080976787 0.013247952 -0.07278441
0003a0 c0 7f cf 3d 01 28 36 bd b6 eb a4 3c 98 5c 12 bd
       0.10131788 -0.044471744 0.020131927 -0.035732836
0003b0 31 86 52 bc 3e 1e f0 bb 9a ba ee bb 97 f3 ee bb
       -0.012849377 -0.007327824 -0.0072854282 -0.0072922218
0003c0 68 86 64 3d d8 ed f0 3c 6c 0f 11 3d 8d 63 3d 3d
       0.055792242 0.029410288 0.035415098 0.046237517
0003d0 17 b5 b6 bc 48 53 b4 3c 13 d9 8b bc fc 68 35 3d
       -0.022303147 0.022012368 -0.017071282 0.044289574
0003e0 49 c2 3b bd 23 a3 1e 3d 0d 90 46 bd 39 f0 80 ba
       -0.04583958 0.038729798 -0.04847722 -0.0009837217
0003f0 6c 71 98 3b 1e 6a 0f 3d 24 f2 af 3b 44 87 f8 3c
       0.004652193 0.03501331 0.0053694416 0.030337937

encoder.8.bias f4 [256]
000000 1f 0b bf 3c ba bd 9a bc 03 b4 c5 bc 2e d6 09 3d
       0.023320733 -0.018889297 -0.024133688 0.033651523
000010 73 b8 cb 3c bf a8 05 bc 33 a5 6d bb 1e 98 2b bd
       0.024868226 -0.008157908 -0.0036261796 -0.041893117
000020 0f 41 49 3c 71 ec 84 bc d0 30 01 3d 27 f0 89 bc
       0.012283578 -0.016226025 0.03154069 -0.016838146
000030 cb 19 3d 3c 6c fd ec ba 4d 03 1a 3b f5 ce 0e 3d
       0.011541794 -0.0018080897 0.0023500503 0.03486534
000040 ec bd 11 3d e0 86 8e ba e3 54 8a ba a2 ba d7 bc
       0.035581514 -0.0010873936 -0.0010553863 -0.02633411
000050 2b ec 0b 3d 98 12 31 b8 e6 6a f1 ba cc 69 86 3b
       0.034160774 -4.2217405e-05 -0.0018418699 0.0041019674
000060 a8 83 ce bb 32 24 ea 3b 08 c2 11 3d 64 ee 17 3d
       -0.0063023157 0.007145428 0.035585433 0.03709258
000070 de 8c 11 bd 96 d7 23 3d 57 52 c8 3c e8 ca 48 3c
       -0.035534732 0.04000052 0.024453325 0.012255408
000080 19 23 64 3c 61 25 a2 bb 45 de 10 bd a5 53 8a bc
       0.013924384 -0.0049483036 -0.035368223 -0.016885588
000090 2e b5 dc 3c 04 bc 6e bb 96 3e 23 bd 9a b6 69 3c
       0.026941862 -0.0036427984 -0.03985461 0.014264727
0000a0 29 3e 7e bc 2c ed 29 3d e9 e7 21 bd a1 0f ae bb
       -0.01551775 0.04148595 -0.039527807 -0.0053119217
0000b0 50 58 00 3d 40 dc 4f bc df 63 03 3d d9 92 ae bb
       0.03133422 -0.012686789 0.032077666 -0.005327564
0000c0 d8 52 a9 ba e7 01 8c bb fa 1c 6d bc 72 d4 5e ba
       -0.0012918366 -0.0042726877 -0.014472241 -0.0008500285
0000d0 a2 9f 1b bd 52 b3 14 bd bd f5 81 bb e7 5c c2 bb
       -0.037994035 -0.036303826 -0.003966062 -0.005931485
0000e0 b8 f6 94 bb 57 52 0a 3c 20 72 2f bd 8a b6 21 bd
       -0.0045460127 0.008442483 -0.042833447 -0.039480723
0000f0 0f d1 38 3d 4c 8e 03 bc 37 c6 4e 3a 3c 82 67 bc
       0.04512125 -0.008029532 0.00078878127 -0.014130171
000100 50 a6 51 bc f0 12 bf b8 a7 2a 99 bc 48 f5 f9 bb
       -0.012796 -9.111117e-05 -0.018697096 -0.0076281168
000110 09 b4 3b 3d 97 59 20 bb 0d 3c b2 bc 15 e1 0e 3d
       0.04582599 -0.0024467462 -0.02175715 0.034882624
000120 77 fe 18 bb cb fd 3f 3c 16 81 d2 3c b4 65 19 bd
       -0.0023345032 0.011718224 0.025696319 -0.037450507
000130 d4 9d 92 bc 6d d5 1a 3d 98 91 d3 ba 6c 0f fb ba
       -0.017897524 0.037801195 -0.0016141413 -0.0019154376
000140 c2 04 25 3d 27 ab e6 bb cd 65 de bc 6c bb ce bb
       0.04028774 -0.007039446 -0.027148152 -0.0063089635
000150 83 5c bb bc 85 35 52 bc c4 5b 02 3d 3f 43 80 bc
       -0.022871261 -0.012830143 0.031825796 -0.015657065
000160 c8 03 45 bc 9f 75 51 3b 88 3c 0b 3d 6b ef 64 bb
       -0.012024827 0.0031960977 0.033993274 -0.0034932743
000170 87 93 1d 3d e5 8b 63 b9 65 82 2f bd 0d ac d8 3c
       0.03847077 -0.00021700522 -0.042848963 0.026449228
000180 12 20 d7 b5 d5 e9 17 3d cc 8e 5d 3b b8 5d 1f 3d
       -1.6028082e-06 0.037088234 0.0033807037 0.038907737
000190 b5 8a 87 39 bf 06 3f bd 96 24 a6 3c ab 64 b7 3b
       0.0002585255 -0.046637293 0.020281117 0.0055967174
0001a0 98 dc b3 3c 03 1a 83 3c ef 4c ef 3c 2a 4f 0a bc
       0.021955773 0.016003614 0.02921149 -0.008441726
0001b0 c2 d0 e2 bc d9 bc 5f bc 9b fe 3f bc 6d 51 b7 3b
       -0.027687434 -0.013655865 -0.0117184175 0.0055944235
0001c0 b7 41 4c 3c 6a e9 2c bc 21 74 cf 3c c6 7e c0 3c
       0.0124668395 -0.010553697 0.02532393 0.02349795
0001d0 c2 b6 f7 bc 19 be 73 bb a6 22 8b 3c 0e d1 93 3c
       -0.030238513 -0.0037192164 0.016984295 0.018044021
0001e0 5b 64 05 3d 63 4b 51 bc 34 84 8c bc c1 af 57 bc
       0.03256641 -0.012774321 -0.017152883 -0.013164462
0001f0 61 66 06 3d ec 39 1d bb dd 22 a7 3b fd ef 05 3d
       0.03281248 -0.0023990823 0.0051005916 0.032699574
000200 3e 6b 18 3d a5 97 09 3d d2 96 32 3d e7 23 20 bd
       0.03721165 0.033591885 0.043600865 -0.03909674
000210 8e b5 c3 bc 0c 1e 37 bc 28 85 03 3b 5d 85 2f bd
       -0.023890283 -0.011176597 0.002006838 -0.042851795
000220 ad 93 16 bd f1 fa aa 3c 8e da b7 bc 02 d8 14 bd
       -0.03676193 0.020871611 -0.022443082 -0.036338814
000230 dc ad bd 3c bd d3 3c bc f0 d8 c2 bc db bd df bb
       0.023154192 -0.011525092 -0.023785084 -0.0068280525
000240 da ef ae 3c d8 5d c1 bb d3 80 be ba d2 8a 9b 3c
       0.021354605 -0.0059010796 -0.0014534242 0.018987093
000250 c8 95 1f 3d a3 1e 93 bc 9c 3d 97 3c 90 9b a5 3c
       0.038961202 -0.017958945 0.018461995 0.02021578
000260 89 a5 06 3d c5 58 e3 bb 30 b5 c9 3c 93 70 01 bd
       0.03287271 -0.0069380724 0.02462253 -0.0316015
000270 25 91 45 bd 80 ac 0c 3d 46 02 12 3d 42 24 83 bc
       -0.048234124 0.034344196 0.0356467 -0.0160085
000280 d0 80 ed bb 64 06 b5 bc 19 a4 17 3b 61 02 85 bc
       -0.0072480217 -0.022097774 0.0023138581 -0.016236486
000290 68 3d 9f bb 5c c1 88 3b 25 c0 ac 3c 9b 40 41 3d
       -0.004859615 0.004173441 0.021087715 0.047180753
0002a0 88 bb 09 3c e4 27 84 bc 86 11 11 3d 9c 94 cd 3c
       0.008406527 -0.016132303 0.035417102 0.025095277
0002b0 ad c7 91 3b ca 6d 29 3d 03 e8 1c bd f2 ff 48 ba
       0.004448852 0.04136447 -0.0383072 -0.00076675334
0002c0 ae 9e 80 3c 90 b3 c7 b7 c3 e3 fe bc b2 05 07 3d
       0.015700664 -2.3806264e-05 -0.031114465 0.032964416
0002d0 98 b3 ae bc 39 1f 0f 3c 9c ff aa 3c 15 ff ca bb
       -0.021325871 0.008735471 0.020873837 -0.006194959
0002e0 cc ff 21 bd be b1 b5 3c 69 38 e2 3c 12 89 15 bd
       -0.039550588 0.02217948 0.02761479 -0.036507674
0002f0 ee 8d c7 bb d4 1c 19 b8 c5 e0 18 3d f9 2b 34 bb
       -0.0060899174 -3.650489e-05 0.037323732 -0.002749203
000300 e5 37 71 bc 55 c5 9f 3b 6b 50 eb 3b 19 ec cc 3c
       -0.014722799 0.0048758187 0.0071812174 0.025014924
000310 8e c8 22 bd b1 ff b7 3c 03 f7 60 bc 2b 2d 09 bc
       -0.039742045 0.02246079 -0.013730767 -0.008372585
000320 38 78 ea 3c ff c0 d4 b9 b7 76 93 bb 3a ed c9 3c
       0.028621778 -0.00040579584 -0.004500236 0.024649251
000330 87 87 17 bc 20 ab 08 bd 0d 22 e4 bc 43 55 cc bc
       -0.009248621 -0.033366323 -0.027848268 -0.024943
000340 ca 67 16 3c 6a 0a 2a bc 2b 0b 8c 3c 67 22 1f bb
       0.009180019 -0.0103784595 0.017095169 -0.002428198
000350 36 20 8b bc bf 92 83 3c 71 89 eb bc 8c cf 27 3d
       -0.016983133 0.016061185 -0.02875206 0.040969416
000360 e1 9f 89 3c 78 ab 29 bd f4 d7 09 3b 7f f3 d7 bc
       0.016799869 -0.04142329 0.002103326 -0.026361225
000370 f9 27 67 3c f6 4e 84 bc 41 b2 b2 bc 0e 18 09 bb
       0.014108651 -0.016150933 -0.021813514 -0.0020918879
000380 85 58 9a bc 49 70 b6 bc 1f 91 08 bd 89 c6 b3 3c
       -0.018841038 -0.022270339 -0.033341523 0.021945255
000390 c0 95 7c 3c e7 e1 11 bd 5f 0c b9 3c 85 82 60 bc
       0.015416563 -0.035615828 0.022588907 -0.013702993
0003a0 1f 10 db bb 78 82 49 bc a2 b4 c4 bc 83 a8 01 3d
       -0.0066852714 -0.012299173 -0.024011914 0.031654846
0003b0 2d ea 80 3b f4 0b ef 3c 55 b0 08 bd bf b4 a4 bc
       0.003934166 0.029180504 -0.03337129 -0.020105718
0003c0 f0 90 1c 3c fb 9b 8a 3c 61 65 66 bd 31 17 26 3d
       0.00955604 0.01692008 -0.056249026 0.04054946
0003d0 f7 55 2c 3d 76 5c 92 3c 3a 5f c2 3b cf 6e 65 3b
       0.04207417 0.017866354 0.005931762 0.0035008674
0003e0 0e ab e1 3c 82 77 2c 3c 23 5e 41 3c ab b7 7c bc
       0.027547386 0.01052654 0.011802229 -0.015424649
0003f0 69 4b da 38 a4 02 52 3d 91 8a 95 3c 27 ba 88 bc
       0.00010409096 0.05127205 0.01825455 -0.016690327
